…
I0610 19:06:24.017737 2094273280 solver.cpp:70] Creating training net from net file: src/siamese_network_bw/model/siamese_train_validate.prototxt
I0610 19:06:24.018187 2094273280 net.cpp:287] The NetState phase (0) differed from the phase (1) specified by a rule in layer pair_data
I0610 19:06:24.018218 2094273280 net.cpp:42] Initializing net from parameters: 
name: "siamese_train_validate"
state {
  phase: TRAIN
}
layer {
  name: "pair_data"
  type: "Data"
  top: "pair_data"
  top: "sim"
  include {
    phase: TRAIN
  }
  transform_param {
    scale: 0.00392156
  }
  data_param {
    source: "src/siamese_network_bw/data/siamese_network_train_leveldb"
    batch_size: 64
  }
}
layer {
  name: "slice_pair"
  type: "Slice"
  bottom: "pair_data"
  top: "data"
  top: "data_p"
  slice_param {
    slice_dim: 1
    slice_point: 1
  }
}
layer {
  name: "conv1"
  type: "Convolution"
  bottom: "data"
  top: "conv1"
  param {
    name: "conv1_w"
    lr_mult: 1
  }
  param {
    name: "conv1_b"
    lr_mult: 2
  }
  convolution_param {
    num_output: 20
    kernel_size: 5
    stride: 1
    weight_filler {
      type: "xavier"
    }
    bias_filler {
      type: "constant"
    }
  }
}
layer {
  name: "pool1"
  type: "Pooling"
  bottom: "conv1"
  top: "pool1"
  pooling_param {
    pool: MAX
    kernel_size: 2
    stride: 2
  }
}
layer {
  name: "conv2"
  type: "Convolution"
  bottom: "pool1"
  top: "conv2"
  param {
    name: "conv2_w"
    lr_mult: 1
  }
  param {
    name: "conv2_b"
    lr_mult: 2
  }
  convolution_param {
    num_output: 50
    kernel_size: 5
    stride: 1
    weight_filler {
      type: "xavier"
    }
    bias_filler {
      type: "constant"
    }
  }
}
layer {
  name: "pool2"
  type: "Pooling"
  bottom: "conv2"
  top: "pool2"
  pooling_param {
    pool: MAX
    kernel_size: 2
    stride: 2
  }
}
layer {
  name: "ip1"
  type: "InnerProduct"
  bottom: "pool2"
  top: "ip1"
  param {
    name: "ip1_w"
    lr_mult: 1
  }
  param {
    name: "ip1_b"
    lr_mult: 2
  }
  inner_product_param {
    num_output: 500
    weight_filler {
      type: "xavier"
    }
    bias_filler {
      type: "constant"
    }
  }
}
layer {
  name: "relu1"
  type: "ReLU"
  bottom: "ip1"
  top: "ip1"
}
layer {
  name: "ip2"
  type: "InnerProduct"
  bottom: "ip1"
  top: "ip2"
  param {
    name: "ip2_w"
    lr_mult: 1
  }
  param {
    name: "ip2_b"
    lr_mult: 2
  }
  inner_product_param {
    num_output: 10
    weight_filler {
      type: "xavier"
    }
    bias_filler {
      type: "constant"
    }
  }
}
layer {
  name: "feat"
  type: "InnerProduct"
  bottom: "ip2"
  top: "feat"
  param {
    name: "feat_w"
    lr_mult: 1
  }
  param {
    name: "feat_b"
    lr_mult: 2
  }
  inner_product_param {
    num_output: 2
    weight_filler {
      type: "xavier"
    }
    bias_filler {
      type: "constant"
    }
  }
}
layer {
  name: "conv1_p"
  type: "Convolution"
  bottom: "data_p"
  top: "conv1_p"
  param {
    name: "conv1_w"
    lr_mult: 1
  }
  param {
    name: "conv1_b"
    lr_mult: 2
  }
  convolution_param {
    num_output: 20
    kernel_size: 5
    stride: 1
    weight_filler {
      type: "xavier"
    }
    bias_filler {
      type: "constant"
    }
  }
}
layer {
  name: "pool1_p"
  type: "Pooling"
  bottom: "conv1_p"
  top: "pool1_p"
  pooling_param {
    pool: MAX
    kernel_size: 2
    stride: 2
  }
}
layer {
  name: "conv2_p"
  type: "Convolution"
  bottom: "pool1_p"
  top: "conv2_p"
  param {
    name: "conv2_w"
    lr_mult: 1
  }
  param {
    name: "conv2_b"
    lr_mult: 2
  }
  convolution_param {
    num_output: 50
    kernel_size: 5
    stride: 1
    weight_filler {
      type: "xavier"
    }
    bias_filler {
      type: "constant"
    }
  }
}
layer {
  name: "pool2_p"
  type: "Pooling"
  bottom: "conv2_p"
  top: "pool2_p"
  pooling_param {
    pool: MAX
    kernel_size: 2
    stride: 2
  }
}
layer {
  name: "ip1_p"
  type: "InnerProduct"
  bottom: "pool2_p"
  top: "ip1_p"
  param {
    name: "ip1_w"
    lr_mult: 1
  }
  param {
    name: "ip1_b"
    lr_mult: 2
  }
  inner_product_param {
    num_output: 500
    weight_filler {
      type: "xavier"
    }
    bias_filler {
      type: "constant"
    }
  }
}
layer {
  name: "relu1_p"
  type: "ReLU"
  bottom: "ip1_p"
  top: "ip1_p"
}
layer {
  name: "ip2_p"
  type: "InnerProduct"
  bottom: "ip1_p"
  top: "ip2_p"
  param {
    name: "ip2_w"
    lr_mult: 1
  }
  param {
    name: "ip2_b"
    lr_mult: 2
  }
  inner_product_param {
    num_output: 10
    weight_filler {
      type: "xavier"
    }
    bias_filler {
      type: "constant"
    }
  }
}
layer {
  name: "feat_p"
  type: "InnerProduct"
  bottom: "ip2_p"
  top: "feat_p"
  param {
    name: "feat_w"
    lr_mult: 1
  }
  param {
    name: "feat_b"
    lr_mult: 2
  }
  inner_product_param {
    num_output: 2
    weight_filler {
      type: "xavier"
    }
    bias_filler {
      type: "constant"
    }
  }
}
layer {
  name: "loss"
  type: "ContrastiveLoss"
  bottom: "feat"
  bottom: "feat_p"
  bottom: "sim"
  top: "loss"
  contrastive_loss_param {
    margin: 1
  }
}
I0610 19:06:24.018491 2094273280 layer_factory.hpp:74] Creating layer pair_data
I0610 19:06:24.018507 2094273280 net.cpp:90] Creating Layer pair_data
I0610 19:06:24.018517 2094273280 net.cpp:368] pair_data -> pair_data
I0610 19:06:24.018534 2094273280 net.cpp:368] pair_data -> sim
I0610 19:06:24.018542 2094273280 net.cpp:120] Setting up pair_data
I0610 19:06:24.021147 2094273280 db.cpp:20] Opened leveldb src/siamese_network_bw/data/siamese_network_train_leveldb
I0610 19:06:24.021487 2094273280 data_layer.cpp:52] output data size: 64,2,62,47
I0610 19:06:24.022172 2094273280 net.cpp:127] Top shape: 64 2 62 47 (372992)
I0610 19:06:24.022195 2094273280 net.cpp:127] Top shape: 64 (64)
I0610 19:06:24.022202 2094273280 layer_factory.hpp:74] Creating layer slice_pair
I0610 19:06:24.022210 2094273280 net.cpp:90] Creating Layer slice_pair
I0610 19:06:24.022214 2094273280 net.cpp:410] slice_pair <- pair_data
I0610 19:06:24.022220 2094273280 net.cpp:368] slice_pair -> data
I0610 19:06:24.022228 2094273280 net.cpp:368] slice_pair -> data_p
I0610 19:06:24.022234 2094273280 net.cpp:120] Setting up slice_pair
I0610 19:06:24.022241 2094273280 net.cpp:127] Top shape: 64 1 62 47 (186496)
I0610 19:06:24.022248 2094273280 net.cpp:127] Top shape: 64 1 62 47 (186496)
I0610 19:06:24.022251 2094273280 layer_factory.hpp:74] Creating layer conv1
I0610 19:06:24.022258 2094273280 net.cpp:90] Creating Layer conv1
I0610 19:06:24.022263 2094273280 net.cpp:410] conv1 <- data
I0610 19:06:24.022274 2094273280 net.cpp:368] conv1 -> conv1
I0610 19:06:24.022290 2094273280 net.cpp:120] Setting up conv1
I0610 19:06:24.090031 2094273280 net.cpp:127] Top shape: 64 20 58 43 (3192320)
I0610 19:06:24.090061 2094273280 layer_factory.hpp:74] Creating layer pool1
I0610 19:06:24.090073 2094273280 net.cpp:90] Creating Layer pool1
I0610 19:06:24.090078 2094273280 net.cpp:410] pool1 <- conv1
I0610 19:06:24.090085 2094273280 net.cpp:368] pool1 -> pool1
I0610 19:06:24.090091 2094273280 net.cpp:120] Setting up pool1
I0610 19:06:24.090279 2094273280 net.cpp:127] Top shape: 64 20 29 22 (816640)
I0610 19:06:24.090296 2094273280 layer_factory.hpp:74] Creating layer conv2
I0610 19:06:24.090306 2094273280 net.cpp:90] Creating Layer conv2
I0610 19:06:24.090311 2094273280 net.cpp:410] conv2 <- pool1
I0610 19:06:24.090318 2094273280 net.cpp:368] conv2 -> conv2
I0610 19:06:24.090327 2094273280 net.cpp:120] Setting up conv2
I0610 19:06:24.090754 2094273280 net.cpp:127] Top shape: 64 50 25 18 (1440000)
I0610 19:06:24.090766 2094273280 layer_factory.hpp:74] Creating layer pool2
I0610 19:06:24.090773 2094273280 net.cpp:90] Creating Layer pool2
I0610 19:06:24.090777 2094273280 net.cpp:410] pool2 <- conv2
I0610 19:06:24.090805 2094273280 net.cpp:368] pool2 -> pool2
I0610 19:06:24.090811 2094273280 net.cpp:120] Setting up pool2
I0610 19:06:24.090857 2094273280 net.cpp:127] Top shape: 64 50 13 9 (374400)
I0610 19:06:24.090862 2094273280 layer_factory.hpp:74] Creating layer ip1
I0610 19:06:24.090869 2094273280 net.cpp:90] Creating Layer ip1
I0610 19:06:24.090873 2094273280 net.cpp:410] ip1 <- pool2
I0610 19:06:24.090878 2094273280 net.cpp:368] ip1 -> ip1
I0610 19:06:24.090885 2094273280 net.cpp:120] Setting up ip1
I0610 19:06:24.114799 2094273280 net.cpp:127] Top shape: 64 500 (32000)
I0610 19:06:24.114840 2094273280 layer_factory.hpp:74] Creating layer relu1
I0610 19:06:24.114852 2094273280 net.cpp:90] Creating Layer relu1
I0610 19:06:24.114857 2094273280 net.cpp:410] relu1 <- ip1
I0610 19:06:24.114863 2094273280 net.cpp:357] relu1 -> ip1 (in-place)
I0610 19:06:24.114869 2094273280 net.cpp:120] Setting up relu1
I0610 19:06:24.114949 2094273280 net.cpp:127] Top shape: 64 500 (32000)
I0610 19:06:24.114956 2094273280 layer_factory.hpp:74] Creating layer ip2
I0610 19:06:24.114966 2094273280 net.cpp:90] Creating Layer ip2
I0610 19:06:24.114970 2094273280 net.cpp:410] ip2 <- ip1
I0610 19:06:24.114975 2094273280 net.cpp:368] ip2 -> ip2
I0610 19:06:24.114982 2094273280 net.cpp:120] Setting up ip2
I0610 19:06:24.115046 2094273280 net.cpp:127] Top shape: 64 10 (640)
I0610 19:06:24.115053 2094273280 layer_factory.hpp:74] Creating layer feat
I0610 19:06:24.115110 2094273280 net.cpp:90] Creating Layer feat
I0610 19:06:24.115121 2094273280 net.cpp:410] feat <- ip2
I0610 19:06:24.115144 2094273280 net.cpp:368] feat -> feat
I0610 19:06:24.115162 2094273280 net.cpp:120] Setting up feat
I0610 19:06:24.115175 2094273280 net.cpp:127] Top shape: 64 2 (128)
I0610 19:06:24.115185 2094273280 layer_factory.hpp:74] Creating layer conv1_p
I0610 19:06:24.115193 2094273280 net.cpp:90] Creating Layer conv1_p
I0610 19:06:24.115197 2094273280 net.cpp:410] conv1_p <- data_p
I0610 19:06:24.115203 2094273280 net.cpp:368] conv1_p -> conv1_p
I0610 19:06:24.115211 2094273280 net.cpp:120] Setting up conv1_p
I0610 19:06:24.115488 2094273280 net.cpp:127] Top shape: 64 20 58 43 (3192320)
I0610 19:06:24.115497 2094273280 net.cpp:459] Sharing parameters 'conv1_w' owned by layer 'conv1', param index 0
I0610 19:06:24.115511 2094273280 net.cpp:459] Sharing parameters 'conv1_b' owned by layer 'conv1', param index 1
I0610 19:06:24.115516 2094273280 layer_factory.hpp:74] Creating layer pool1_p
I0610 19:06:24.115525 2094273280 net.cpp:90] Creating Layer pool1_p
I0610 19:06:24.115528 2094273280 net.cpp:410] pool1_p <- conv1_p
I0610 19:06:24.115535 2094273280 net.cpp:368] pool1_p -> pool1_p
I0610 19:06:24.115540 2094273280 net.cpp:120] Setting up pool1_p
I0610 19:06:24.115638 2094273280 net.cpp:127] Top shape: 64 20 29 22 (816640)
I0610 19:06:24.115646 2094273280 layer_factory.hpp:74] Creating layer conv2_p
I0610 19:06:24.115654 2094273280 net.cpp:90] Creating Layer conv2_p
I0610 19:06:24.115659 2094273280 net.cpp:410] conv2_p <- pool1_p
I0610 19:06:24.115665 2094273280 net.cpp:368] conv2_p -> conv2_p
I0610 19:06:24.115672 2094273280 net.cpp:120] Setting up conv2_p
I0610 19:06:24.116065 2094273280 net.cpp:127] Top shape: 64 50 25 18 (1440000)
I0610 19:06:24.116075 2094273280 net.cpp:459] Sharing parameters 'conv2_w' owned by layer 'conv2', param index 0
I0610 19:06:24.116080 2094273280 net.cpp:459] Sharing parameters 'conv2_b' owned by layer 'conv2', param index 1
I0610 19:06:24.116086 2094273280 layer_factory.hpp:74] Creating layer pool2_p
I0610 19:06:24.116092 2094273280 net.cpp:90] Creating Layer pool2_p
I0610 19:06:24.116096 2094273280 net.cpp:410] pool2_p <- conv2_p
I0610 19:06:24.116103 2094273280 net.cpp:368] pool2_p -> pool2_p
I0610 19:06:24.116109 2094273280 net.cpp:120] Setting up pool2_p
I0610 19:06:24.116148 2094273280 net.cpp:127] Top shape: 64 50 13 9 (374400)
I0610 19:06:24.116154 2094273280 layer_factory.hpp:74] Creating layer ip1_p
I0610 19:06:24.116160 2094273280 net.cpp:90] Creating Layer ip1_p
I0610 19:06:24.116164 2094273280 net.cpp:410] ip1_p <- pool2_p
I0610 19:06:24.116190 2094273280 net.cpp:368] ip1_p -> ip1_p
I0610 19:06:24.116199 2094273280 net.cpp:120] Setting up ip1_p
I0610 19:06:24.140575 2094273280 net.cpp:127] Top shape: 64 500 (32000)
I0610 19:06:24.140601 2094273280 net.cpp:459] Sharing parameters 'ip1_w' owned by layer 'ip1', param index 0
I0610 19:06:24.141592 2094273280 net.cpp:459] Sharing parameters 'ip1_b' owned by layer 'ip1', param index 1
I0610 19:06:24.141605 2094273280 layer_factory.hpp:74] Creating layer relu1_p
I0610 19:06:24.141616 2094273280 net.cpp:90] Creating Layer relu1_p
I0610 19:06:24.141620 2094273280 net.cpp:410] relu1_p <- ip1_p
I0610 19:06:24.141633 2094273280 net.cpp:357] relu1_p -> ip1_p (in-place)
I0610 19:06:24.141640 2094273280 net.cpp:120] Setting up relu1_p
I0610 19:06:24.141713 2094273280 net.cpp:127] Top shape: 64 500 (32000)
I0610 19:06:24.141722 2094273280 layer_factory.hpp:74] Creating layer ip2_p
I0610 19:06:24.141738 2094273280 net.cpp:90] Creating Layer ip2_p
I0610 19:06:24.141743 2094273280 net.cpp:410] ip2_p <- ip1_p
I0610 19:06:24.141751 2094273280 net.cpp:368] ip2_p -> ip2_p
I0610 19:06:24.141760 2094273280 net.cpp:120] Setting up ip2_p
I0610 19:06:24.141829 2094273280 net.cpp:127] Top shape: 64 10 (640)
I0610 19:06:24.141851 2094273280 net.cpp:459] Sharing parameters 'ip2_w' owned by layer 'ip2', param index 0
I0610 19:06:24.141858 2094273280 net.cpp:459] Sharing parameters 'ip2_b' owned by layer 'ip2', param index 1
I0610 19:06:24.141866 2094273280 layer_factory.hpp:74] Creating layer feat_p
I0610 19:06:24.141878 2094273280 net.cpp:90] Creating Layer feat_p
I0610 19:06:24.141886 2094273280 net.cpp:410] feat_p <- ip2_p
I0610 19:06:24.141896 2094273280 net.cpp:368] feat_p -> feat_p
I0610 19:06:24.141908 2094273280 net.cpp:120] Setting up feat_p
I0610 19:06:24.141926 2094273280 net.cpp:127] Top shape: 64 2 (128)
I0610 19:06:24.141934 2094273280 net.cpp:459] Sharing parameters 'feat_w' owned by layer 'feat', param index 0
I0610 19:06:24.141942 2094273280 net.cpp:459] Sharing parameters 'feat_b' owned by layer 'feat', param index 1
I0610 19:06:24.141945 2094273280 layer_factory.hpp:74] Creating layer loss
I0610 19:06:24.141960 2094273280 net.cpp:90] Creating Layer loss
I0610 19:06:24.141969 2094273280 net.cpp:410] loss <- feat
…
I0610 19:06:24.142684 2094273280 solver.cpp:154] Creating test net (#0) specified by net file: src/siamese_network_bw/model/siamese_train_validate.prototxt
I0610 19:06:24.142721 2094273280 net.cpp:287] The NetState phase (1) differed from the phase (0) specified by a rule in layer pair_data
I0610 19:06:24.142737 2094273280 net.cpp:42] Initializing net from parameters: 
name: "siamese_train_validate"
state {
  phase: TEST
}
layer {
  name: "pair_data"
  type: "Data"
  top: "pair_data"
  top: "sim"
  include {
    phase: TEST
  }
  transform_param {
    scale: 0.00392156
  }
  data_param {
    source: "src/siamese_network_bw/data/siamese_network_validation_leveldb"
    batch_size: 100
  }
}
layer {
  name: "slice_pair"
  type: "Slice"
  bottom: "pair_data"
  top: "data"
  top: "data_p"
  slice_param {
    slice_dim: 1
    slice_point: 1
  }
}
layer {
  name: "conv1"
  type: "Convolution"
  bottom: "data"
  top: "conv1"
  param {
    name: "conv1_w"
    lr_mult: 1
  }
  param {
    name: "conv1_b"
    lr_mult: 2
  }
  convolution_param {
    num_output: 20
    kernel_size: 5
    stride: 1
    weight_filler {
      type: "xavier"
    }
    bias_filler {
      type: "constant"
    }
  }
}
layer {
  name: "pool1"
  type: "Pooling"
  bottom: "conv1"
  top: "pool1"
  pooling_param {
    pool: MAX
    kernel_size: 2
    stride: 2
  }
}
layer {
  name: "conv2"
  type: "Convolution"
  bottom: "pool1"
  top: "conv2"
  param {
    name: "conv2_w"
    lr_mult: 1
  }
  param {
    name: "conv2_b"
    lr_mult: 2
  }
  convolution_param {
    num_output: 50
    kernel_size: 5
    stride: 1
    weight_filler {
      type: "xavier"
    }
    bias_filler {
      type: "constant"
    }
  }
}
layer {
  name: "pool2"
  type: "Pooling"
  bottom: "conv2"
  top: "pool2"
  pooling_param {
    pool: MAX
    kernel_size: 2
    stride: 2
  }
}
layer {
  name: "ip1"
  type: "InnerProduct"
  bottom: "pool2"
  top: "ip1"
  param {
    name: "ip1_w"
    lr_mult: 1
  }
  param {
    name: "ip1_b"
    lr_mult: 2
  }
  inner_product_param {
    num_output: 500
    weight_filler {
      type: "xavier"
    }
    bias_filler {
      type: "constant"
    }
  }
}
layer {
  name: "relu1"
  type: "ReLU"
  bottom: "ip1"
  top: "ip1"
}
layer {
  name: "ip2"
  type: "InnerProduct"
  bottom: "ip1"
  top: "ip2"
  param {
    name: "ip2_w"
    lr_mult: 1
  }
  param {
    name: "ip2_b"
    lr_mult: 2
  }
  inner_product_param {
    num_output: 10
    weight_filler {
      type: "xavier"
    }
    bias_filler {
      type: "constant"
    }
  }
}
layer {
  name: "feat"
  type: "InnerProduct"
  bottom: "ip2"
  top: "feat"
  param {
    name: "feat_w"
    lr_mult: 1
  }
  param {
    name: "feat_b"
    lr_mult: 2
  }
  inner_product_param {
    num_output: 2
    weight_filler {
      type: "xavier"
    }
    bias_filler {
      type: "constant"
    }
  }
}
layer {
  name: "conv1_p"
  type: "Convolution"
  bottom: "data_p"
  top: "conv1_p"
  param {
    name: "conv1_w"
    lr_mult: 1
  }
  param {
    name: "conv1_b"
    lr_mult: 2
  }
  convolution_param {
    num_output: 20
    kernel_size: 5
    stride: 1
    weight_filler {
      type: "xavier"
    }
    bias_filler {
      type: "constant"
    }
  }
}
layer {
  name: "pool1_p"
  type: "Pooling"
  bottom: "conv1_p"
  top: "pool1_p"
  pooling_param {
    pool: MAX
    kernel_size: 2
    stride: 2
  }
}
layer {
  name: "conv2_p"
  type: "Convolution"
  bottom: "pool1_p"
  top: "conv2_p"
  param {
    name: "conv2_w"
    lr_mult: 1
  }
  param {
    name: "conv2_b"
    lr_mult: 2
  }
  convolution_param {
    num_output: 50
    kernel_size: 5
    stride: 1
    weight_filler {
      type: "xavier"
    }
    bias_filler {
      type: "constant"
    }
  }
}
layer {
  name: "pool2_p"
  type: "Pooling"
  bottom: "conv2_p"
  top: "pool2_p"
  pooling_param {
    pool: MAX
    kernel_size: 2
    stride: 2
  }
}
layer {
  name: "ip1_p"
  type: "InnerProduct"
  bottom: "pool2_p"
  top: "ip1_p"
  param {
    name: "ip1_w"
    lr_mult: 1
  }
  param {
    name: "ip1_b"
    lr_mult: 2
  }
  inner_product_param {
    num_output: 500
    weight_filler {
      type: "xavier"
    }
    bias_filler {
      type: "constant"
    }
  }
}
layer {
  name: "relu1_p"
  type: "ReLU"
  bottom: "ip1_p"
  top: "ip1_p"
}
layer {
  name: "ip2_p"
  type: "InnerProduct"
  bottom: "ip1_p"
  top: "ip2_p"
  param {
    name: "ip2_w"
    lr_mult: 1
  }
  param {
    name: "ip2_b"
    lr_mult: 2
  }
  inner_product_param {
    num_output: 10
    weight_filler {
      type: "xavier"
    }
    bias_filler {
      type: "constant"
    }
  }
}
layer {
  name: "feat_p"
  type: "InnerProduct"
  bottom: "ip2_p"
  top: "feat_p"
  param {
    name: "feat_w"
    lr_mult: 1
  }
  param {
    name: "feat_b"
    lr_mult: 2
  }
  inner_product_param {
    num_output: 2
    weight_filler {
      type: "xavier"
    }
    bias_filler {
      type: "constant"
    }
  }
}
layer {
  name: "loss"
  type: "ContrastiveLoss"
  bottom: "feat"
  bottom: "feat_p"
  bottom: "sim"
  top: "loss"
  contrastive_loss_param {
    margin: 1
  }
}
I0610 19:06:24.143079 2094273280 layer_factory.hpp:74] Creating layer pair_data
I0610 19:06:24.143097 2094273280 net.cpp:90] Creating Layer pair_data
I0610 19:06:24.143108 2094273280 net.cpp:368] pair_data -> pair_data
I0610 19:06:24.143123 2094273280 net.cpp:368] pair_data -> sim
I0610 19:06:24.143136 2094273280 net.cpp:120] Setting up pair_data
I0610 19:06:24.145766 2094273280 db.cpp:20] Opened leveldb src/siamese_network_bw/data/siamese_network_validation_leveldb
I0610 19:06:24.145974 2094273280 data_layer.cpp:52] output data size: 100,2,62,47
I0610 19:06:24.146934 2094273280 net.cpp:127] Top shape: 100 2 62 47 (582800)
I0610 19:06:24.146946 2094273280 net.cpp:127] Top shape: 100 (100)
I0610 19:06:24.146953 2094273280 layer_factory.hpp:74] Creating layer slice_pair
I0610 19:06:24.146965 2094273280 net.cpp:90] Creating Layer slice_pair
I0610 19:06:24.146968 2094273280 net.cpp:410] slice_pair <- pair_data
I0610 19:06:24.146975 2094273280 net.cpp:368] slice_pair -> data
I0610 19:06:24.146983 2094273280 net.cpp:368] slice_pair -> data_p
I0610 19:06:24.146989 2094273280 net.cpp:120] Setting up slice_pair
I0610 19:06:24.146999 2094273280 net.cpp:127] Top shape: 100 1 62 47 (291400)
I0610 19:06:24.147007 2094273280 net.cpp:127] Top shape: 100 1 62 47 (291400)
I0610 19:06:24.147014 2094273280 layer_factory.hpp:74] Creating layer conv1
I0610 19:06:24.147027 2094273280 net.cpp:90] Creating Layer conv1
I0610 19:06:24.147032 2094273280 net.cpp:410] conv1 <- data
I0610 19:06:24.147042 2094273280 net.cpp:368] conv1 -> conv1
I0610 19:06:24.147053 2094273280 net.cpp:120] Setting up conv1
I0610 19:06:24.147461 2094273280 net.cpp:127] Top shape: 100 20 58 43 (4988000)
I0610 19:06:24.147485 2094273280 layer_factory.hpp:74] Creating layer pool1
I0610 19:06:24.147497 2094273280 net.cpp:90] Creating Layer pool1
I0610 19:06:24.147505 2094273280 net.cpp:410] pool1 <- conv1
I0610 19:06:24.147512 2094273280 net.cpp:368] pool1 -> pool1
I0610 19:06:24.147521 2094273280 net.cpp:120] Setting up pool1
I0610 19:06:24.147588 2094273280 net.cpp:127] Top shape: 100 20 29 22 (1276000)
I0610 19:06:24.147599 2094273280 layer_factory.hpp:74] Creating layer conv2
I0610 19:06:24.147614 2094273280 net.cpp:90] Creating Layer conv2
I0610 19:06:24.147636 2094273280 net.cpp:410] conv2 <- pool1
I0610 19:06:24.147656 2094273280 net.cpp:368] conv2 -> conv2
I0610 19:06:24.147670 2094273280 net.cpp:120] Setting up conv2
I0610 19:06:24.148438 2094273280 net.cpp:127] Top shape: 100 50 25 18 (2250000)
I0610 19:06:24.148458 2094273280 layer_factory.hpp:74] Creating layer pool2
I0610 19:06:24.148469 2094273280 net.cpp:90] Creating Layer pool2
I0610 19:06:24.148476 2094273280 net.cpp:410] pool2 <- conv2
I0610 19:06:24.148511 2094273280 net.cpp:368] pool2 -> pool2
I0610 19:06:24.148524 2094273280 net.cpp:120] Setting up pool2
I0610 19:06:24.148710 2094273280 net.cpp:127] Top shape: 100 50 13 9 (585000)
I0610 19:06:24.148725 2094273280 layer_factory.hpp:74] Creating layer ip1
I0610 19:06:24.148748 2094273280 net.cpp:90] Creating Layer ip1
I0610 19:06:24.148762 2094273280 net.cpp:410] ip1 <- pool2
I0610 19:06:24.148777 2094273280 net.cpp:368] ip1 -> ip1
I0610 19:06:24.148790 2094273280 net.cpp:120] Setting up ip1
I0610 19:06:24.173163 2094273280 net.cpp:127] Top shape: 100 500 (50000)
I0610 19:06:24.173197 2094273280 layer_factory.hpp:74] Creating layer relu1
I0610 19:06:24.173207 2094273280 net.cpp:90] Creating Layer relu1
I0610 19:06:24.173212 2094273280 net.cpp:410] relu1 <- ip1
I0610 19:06:24.173218 2094273280 net.cpp:357] relu1 -> ip1 (in-place)
I0610 19:06:24.173229 2094273280 net.cpp:120] Setting up relu1
I0610 19:06:24.173323 2094273280 net.cpp:127] Top shape: 100 500 (50000)
I0610 19:06:24.173336 2094273280 layer_factory.hpp:74] Creating layer ip2
I0610 19:06:24.173352 2094273280 net.cpp:90] Creating Layer ip2
I0610 19:06:24.173360 2094273280 net.cpp:410] ip2 <- ip1
I0610 19:06:24.173370 2094273280 net.cpp:368] ip2 -> ip2
I0610 19:06:24.173379 2094273280 net.cpp:120] Setting up ip2
I0610 19:06:24.173430 2094273280 net.cpp:127] Top shape: 100 10 (1000)
I0610 19:06:24.173440 2094273280 layer_factory.hpp:74] Creating layer feat
I0610 19:06:24.173451 2094273280 net.cpp:90] Creating Layer feat
I0610 19:06:24.173455 2094273280 net.cpp:410] feat <- ip2
I0610 19:06:24.173461 2094273280 net.cpp:368] feat -> feat
I0610 19:06:24.173467 2094273280 net.cpp:120] Setting up feat
I0610 19:06:24.173485 2094273280 net.cpp:127] Top shape: 100 2 (200)
I0610 19:06:24.173491 2094273280 layer_factory.hpp:74] Creating layer conv1_p
I0610 19:06:24.173497 2094273280 net.cpp:90] Creating Layer conv1_p
I0610 19:06:24.173501 2094273280 net.cpp:410] conv1_p <- data_p
I0610 19:06:24.173508 2094273280 net.cpp:368] conv1_p -> conv1_p
I0610 19:06:24.173538 2094273280 net.cpp:120] Setting up conv1_p
I0610 19:06:24.173858 2094273280 net.cpp:127] Top shape: 100 20 58 43 (4988000)
I0610 19:06:24.173882 2094273280 net.cpp:459] Sharing parameters 'conv1_w' owned by layer 'conv1', param index 0
I0610 19:06:24.173893 2094273280 net.cpp:459] Sharing parameters 'conv1_b' owned by layer 'conv1', param index 1
I0610 19:06:24.173902 2094273280 layer_factory.hpp:74] Creating layer pool1_p
I0610 19:06:24.173910 2094273280 net.cpp:90] Creating Layer pool1_p
I0610 19:06:24.173916 2094273280 net.cpp:410] pool1_p <- conv1_p
I0610 19:06:24.173928 2094273280 net.cpp:368] pool1_p -> pool1_p
I0610 19:06:24.173938 2094273280 net.cpp:120] Setting up pool1_p
I0610 19:06:24.174034 2094273280 net.cpp:127] Top shape: 100 20 29 22 (1276000)
I0610 19:06:24.174059 2094273280 layer_factory.hpp:74] Creating layer conv2_p
I0610 19:06:24.174072 2094273280 net.cpp:90] Creating Layer conv2_p
I0610 19:06:24.174078 2094273280 net.cpp:410] conv2_p <- pool1_p
I0610 19:06:24.174101 2094273280 net.cpp:368] conv2_p -> conv2_p
I0610 19:06:24.174114 2094273280 net.cpp:120] Setting up conv2_p
I0610 19:06:24.174592 2094273280 net.cpp:127] Top shape: 100 50 25 18 (2250000)
I0610 19:06:24.174604 2094273280 net.cpp:459] Sharing parameters 'conv2_w' owned by layer 'conv2', param index 0
I0610 19:06:24.174610 2094273280 net.cpp:459] Sharing parameters 'conv2_b' owned by layer 'conv2', param index 1
I0610 19:06:24.174615 2094273280 layer_factory.hpp:74] Creating layer pool2_p
I0610 19:06:24.174621 2094273280 net.cpp:90] Creating Layer pool2_p
I0610 19:06:24.174659 2094273280 net.cpp:410] pool2_p <- conv2_p
I0610 19:06:24.174695 2094273280 net.cpp:368] pool2_p -> pool2_p
I0610 19:06:24.174717 2094273280 net.cpp:120] Setting up pool2_p
I0610 19:06:24.174775 2094273280 net.cpp:127] Top shape: 100 50 13 9 (585000)
I0610 19:06:24.174801 2094273280 layer_factory.hpp:74] Creating layer ip1_p
I0610 19:06:24.174819 2094273280 net.cpp:90] Creating Layer ip1_p
I0610 19:06:24.174828 2094273280 net.cpp:410] ip1_p <- pool2_p
I0610 19:06:24.174873 2094273280 net.cpp:368] ip1_p -> ip1_p
I0610 19:06:24.174886 2094273280 net.cpp:120] Setting up ip1_p
I0610 19:06:24.200352 2094273280 net.cpp:127] Top shape: 100 500 (50000)
I0610 19:06:24.200395 2094273280 net.cpp:459] Sharing parameters 'ip1_w' owned by layer 'ip1', param index 0
I0610 19:06:24.201407 2094273280 net.cpp:459] Sharing parameters 'ip1_b' owned by layer 'ip1', param index 1
I0610 19:06:24.201426 2094273280 layer_factory.hpp:74] Creating layer relu1_p
I0610 19:06:24.201437 2094273280 net.cpp:90] Creating Layer relu1_p
I0610 19:06:24.201442 2094273280 net.cpp:410] relu1_p <- ip1_p
I0610 19:06:24.201450 2094273280 net.cpp:357] relu1_p -> ip1_p (in-place)
I0610 19:06:24.201458 2094273280 net.cpp:120] Setting up relu1_p
I0610 19:06:24.201647 2094273280 net.cpp:127] Top shape: 100 500 (50000)
I0610 19:06:24.201694 2094273280 layer_factory.hpp:74] Creating layer ip2_p
I0610 19:06:24.201714 2094273280 net.cpp:90] Creating Layer ip2_p
I0610 19:06:24.201720 2094273280 net.cpp:410] ip2_p <- ip1_p
I0610 19:06:24.201730 2094273280 net.cpp:368] ip2_p -> ip2_p
I0610 19:06:24.201753 2094273280 net.cpp:120] Setting up ip2_p
I0610 19:06:24.201828 2094273280 net.cpp:127] Top shape: 100 10 (1000)
I0610 19:06:24.201848 2094273280 net.cpp:459] Sharing parameters 'ip2_w' owned by layer 'ip2', param index 0
I0610 19:06:24.201858 2094273280 net.cpp:459] Sharing parameters 'ip2_b' owned by layer 'ip2', param index 1
I0610 19:06:24.201864 2094273280 layer_factory.hpp:74] Creating layer feat_p
I0610 19:06:24.201876 2094273280 net.cpp:90] Creating Layer feat_p
I0610 19:06:24.201884 2094273280 net.cpp:410] feat_p <- ip2_p
I0610 19:06:24.201916 2094273280 net.cpp:368] feat_p -> feat_p
I0610 19:06:24.201939 2094273280 net.cpp:120] Setting up feat_p
I0610 19:06:24.201961 2094273280 net.cpp:127] Top shape: 100 2 (200)
I0610 19:06:24.201967 2094273280 net.cpp:459] Sharing parameters 'feat_w' owned by layer 'feat', param index 0
I0610 19:06:24.201972 2094273280 net.cpp:459] Sharing parameters 'feat_b' owned by layer 'feat', param index 1
I0610 19:06:24.201977 2094273280 layer_factory.hpp:74] Creating layer loss
I0610 19:06:24.201984 2094273280 net.cpp:90] Creating Layer loss
I0610 19:06:24.201988 2094273280 net.cpp:410] loss <- feat
…
