…
I0624 10:41:12.079970 1970144000 solver.cpp:70] Creating training net from net file: src/siamese_network_bw/model/siamese_train_validate.prototxt
I0624 10:41:12.080332 1970144000 net.cpp:287] The NetState phase (0) differed from the phase (1) specified by a rule in layer pair_data
I0624 10:41:12.080374 1970144000 net.cpp:42] Initializing net from parameters: 
name: "siamese_train_validate"
state {
  phase: TRAIN
}
layer {
  name: "pair_data"
  type: "Data"
  top: "pair_data"
  top: "sim"
  include {
    phase: TRAIN
  }
  transform_param {
    scale: 0.00390625
  }
  data_param {
    source: "src/siamese_network_bw/data/siamese_network_train_leveldb"
    batch_size: 64
  }
}
layer {
  name: "slice_pair"
  type: "Slice"
  bottom: "pair_data"
  top: "data"
  top: "data_p"
  slice_param {
    slice_dim: 1
    slice_point: 1
  }
}
layer {
  name: "conv1"
  type: "Convolution"
  bottom: "data"
  top: "conv1"
  param {
    name: "conv1_w"
    lr_mult: 1
  }
  param {
    name: "conv1_b"
    lr_mult: 2
  }
  convolution_param {
    num_output: 20
    kernel_size: 5
    stride: 1
    weight_filler {
      type: "xavier"
    }
    bias_filler {
      type: "constant"
    }
  }
}
layer {
  name: "pool1"
  type: "Pooling"
  bottom: "conv1"
  top: "pool1"
  pooling_param {
    pool: MAX
    kernel_size: 2
    stride: 2
  }
}
layer {
  name: "conv2"
  type: "Convolution"
  bottom: "pool1"
  top: "conv2"
  param {
    name: "conv2_w"
    lr_mult: 1
  }
  param {
    name: "conv2_b"
    lr_mult: 2
  }
  convolution_param {
    num_output: 50
    kernel_size: 5
    stride: 1
    weight_filler {
      type: "xavier"
    }
    bias_filler {
      type: "constant"
    }
  }
}
layer {
  name: "pool2"
  type: "Pooling"
  bottom: "conv2"
  top: "pool2"
  pooling_param {
    pool: MAX
    kernel_size: 2
    stride: 2
  }
}
layer {
  name: "ip1"
  type: "InnerProduct"
  bottom: "pool2"
  top: "ip1"
  param {
    name: "ip1_w"
    lr_mult: 1
  }
  param {
    name: "ip1_b"
    lr_mult: 2
  }
  inner_product_param {
    num_output: 500
    weight_filler {
      type: "xavier"
    }
    bias_filler {
      type: "constant"
    }
  }
}
layer {
  name: "relu1"
  type: "ReLU"
  bottom: "ip1"
  top: "ip1"
}
layer {
  name: "ip2"
  type: "InnerProduct"
  bottom: "ip1"
  top: "ip2"
  param {
    name: "ip2_w"
    lr_mult: 1
  }
  param {
    name: "ip2_b"
    lr_mult: 2
  }
  inner_product_param {
    num_output: 10
    weight_filler {
      type: "xavier"
    }
    bias_filler {
      type: "constant"
    }
  }
}
layer {
  name: "feat"
  type: "InnerProduct"
  bottom: "ip2"
  top: "feat"
  param {
    name: "feat_w"
    lr_mult: 1
  }
  param {
    name: "feat_b"
    lr_mult: 2
  }
  inner_product_param {
    num_output: 2
    weight_filler {
      type: "xavier"
    }
    bias_filler {
      type: "constant"
    }
  }
}
layer {
  name: "conv1_p"
  type: "Convolution"
  bottom: "data_p"
  top: "conv1_p"
  param {
    name: "conv1_w"
    lr_mult: 1
  }
  param {
    name: "conv1_b"
    lr_mult: 2
  }
  convolution_param {
    num_output: 20
    kernel_size: 5
    stride: 1
    weight_filler {
      type: "xavier"
    }
    bias_filler {
      type: "constant"
    }
  }
}
layer {
  name: "pool1_p"
  type: "Pooling"
  bottom: "conv1_p"
  top: "pool1_p"
  pooling_param {
    pool: MAX
    kernel_size: 2
    stride: 2
  }
}
layer {
  name: "conv2_p"
  type: "Convolution"
  bottom: "pool1_p"
  top: "conv2_p"
  param {
    name: "conv2_w"
    lr_mult: 1
  }
  param {
    name: "conv2_b"
    lr_mult: 2
  }
  convolution_param {
    num_output: 50
    kernel_size: 5
    stride: 1
    weight_filler {
      type: "xavier"
    }
    bias_filler {
      type: "constant"
    }
  }
}
layer {
  name: "pool2_p"
  type: "Pooling"
  bottom: "conv2_p"
  top: "pool2_p"
  pooling_param {
    pool: MAX
    kernel_size: 2
    stride: 2
  }
}
layer {
  name: "ip1_p"
  type: "InnerProduct"
  bottom: "pool2_p"
  top: "ip1_p"
  param {
    name: "ip1_w"
    lr_mult: 1
  }
  param {
    name: "ip1_b"
    lr_mult: 2
  }
  inner_product_param {
    num_output: 500
    weight_filler {
      type: "xavier"
    }
    bias_filler {
      type: "constant"
    }
  }
}
layer {
  name: "relu1_p"
  type: "ReLU"
  bottom: "ip1_p"
  top: "ip1_p"
}
layer {
  name: "ip2_p"
  type: "InnerProduct"
  bottom: "ip1_p"
  top: "ip2_p"
  param {
    name: "ip2_w"
    lr_mult: 1
  }
  param {
    name: "ip2_b"
    lr_mult: 2
  }
  inner_product_param {
    num_output: 10
    weight_filler {
      type: "xavier"
    }
    bias_filler {
      type: "constant"
    }
  }
}
layer {
  name: "feat_p"
  type: "InnerProduct"
  bottom: "ip2_p"
  top: "feat_p"
  param {
    name: "feat_w"
    lr_mult: 1
  }
  param {
    name: "feat_b"
    lr_mult: 2
  }
  inner_product_param {
    num_output: 2
    weight_filler {
      type: "xavier"
    }
    bias_filler {
      type: "constant"
    }
  }
}
layer {
  name: "loss"
  type: "ContrastiveLoss"
  bottom: "feat"
  bottom: "feat_p"
  bottom: "sim"
  top: "loss"
  contrastive_loss_param {
    margin: 1
  }
}
I0624 10:41:12.080662 1970144000 layer_factory.hpp:74] Creating layer pair_data
I0624 10:41:12.080680 1970144000 net.cpp:90] Creating Layer pair_data
I0624 10:41:12.080725 1970144000 net.cpp:368] pair_data -> pair_data
I0624 10:41:12.080749 1970144000 net.cpp:368] pair_data -> sim
I0624 10:41:12.080756 1970144000 net.cpp:120] Setting up pair_data
I0624 10:41:12.099392 1970144000 db.cpp:20] Opened leveldb src/siamese_network_bw/data/siamese_network_train_leveldb
I0624 10:41:12.099580 1970144000 data_layer.cpp:52] output data size: 64,2,28,28
I0624 10:41:12.099661 1970144000 net.cpp:127] Top shape: 64 2 28 28 (100352)
I0624 10:41:12.099684 1970144000 net.cpp:127] Top shape: 64 (64)
I0624 10:41:12.099691 1970144000 layer_factory.hpp:74] Creating layer slice_pair
I0624 10:41:12.099704 1970144000 net.cpp:90] Creating Layer slice_pair
I0624 10:41:12.099709 1970144000 net.cpp:410] slice_pair <- pair_data
I0624 10:41:12.099725 1970144000 net.cpp:368] slice_pair -> data
I0624 10:41:12.099736 1970144000 net.cpp:368] slice_pair -> data_p
I0624 10:41:12.099745 1970144000 net.cpp:120] Setting up slice_pair
I0624 10:41:12.099753 1970144000 net.cpp:127] Top shape: 64 1 28 28 (50176)
I0624 10:41:12.099761 1970144000 net.cpp:127] Top shape: 64 1 28 28 (50176)
I0624 10:41:12.099766 1970144000 layer_factory.hpp:74] Creating layer conv1
I0624 10:41:12.099776 1970144000 net.cpp:90] Creating Layer conv1
I0624 10:41:12.099781 1970144000 net.cpp:410] conv1 <- data
I0624 10:41:12.099787 1970144000 net.cpp:368] conv1 -> conv1
I0624 10:41:12.099797 1970144000 net.cpp:120] Setting up conv1
I0624 10:41:12.158320 1970144000 net.cpp:127] Top shape: 64 20 24 24 (737280)
I0624 10:41:12.158360 1970144000 layer_factory.hpp:74] Creating layer pool1
I0624 10:41:12.158399 1970144000 net.cpp:90] Creating Layer pool1
I0624 10:41:12.158416 1970144000 net.cpp:410] pool1 <- conv1
I0624 10:41:12.158427 1970144000 net.cpp:368] pool1 -> pool1
I0624 10:41:12.158450 1970144000 net.cpp:120] Setting up pool1
I0624 10:41:12.158671 1970144000 net.cpp:127] Top shape: 64 20 12 12 (184320)
I0624 10:41:12.158689 1970144000 layer_factory.hpp:74] Creating layer conv2
I0624 10:41:12.158705 1970144000 net.cpp:90] Creating Layer conv2
I0624 10:41:12.158715 1970144000 net.cpp:410] conv2 <- pool1
I0624 10:41:12.158728 1970144000 net.cpp:368] conv2 -> conv2
I0624 10:41:12.158740 1970144000 net.cpp:120] Setting up conv2
I0624 10:41:12.159483 1970144000 net.cpp:127] Top shape: 64 50 8 8 (204800)
I0624 10:41:12.159502 1970144000 layer_factory.hpp:74] Creating layer pool2
I0624 10:41:12.159518 1970144000 net.cpp:90] Creating Layer pool2
I0624 10:41:12.159526 1970144000 net.cpp:410] pool2 <- conv2
I0624 10:41:12.159569 1970144000 net.cpp:368] pool2 -> pool2
I0624 10:41:12.159590 1970144000 net.cpp:120] Setting up pool2
I0624 10:41:12.159668 1970144000 net.cpp:127] Top shape: 64 50 4 4 (51200)
I0624 10:41:12.159683 1970144000 layer_factory.hpp:74] Creating layer ip1
I0624 10:41:12.159698 1970144000 net.cpp:90] Creating Layer ip1
I0624 10:41:12.159706 1970144000 net.cpp:410] ip1 <- pool2
I0624 10:41:12.159716 1970144000 net.cpp:368] ip1 -> ip1
I0624 10:41:12.159732 1970144000 net.cpp:120] Setting up ip1
I0624 10:41:12.164329 1970144000 net.cpp:127] Top shape: 64 500 (32000)
I0624 10:41:12.164360 1970144000 layer_factory.hpp:74] Creating layer relu1
I0624 10:41:12.164379 1970144000 net.cpp:90] Creating Layer relu1
I0624 10:41:12.164387 1970144000 net.cpp:410] relu1 <- ip1
I0624 10:41:12.164397 1970144000 net.cpp:357] relu1 -> ip1 (in-place)
I0624 10:41:12.164407 1970144000 net.cpp:120] Setting up relu1
I0624 10:41:12.164499 1970144000 net.cpp:127] Top shape: 64 500 (32000)
I0624 10:41:12.164516 1970144000 layer_factory.hpp:74] Creating layer ip2
I0624 10:41:12.164538 1970144000 net.cpp:90] Creating Layer ip2
I0624 10:41:12.164557 1970144000 net.cpp:410] ip2 <- ip1
I0624 10:41:12.164593 1970144000 net.cpp:368] ip2 -> ip2
I0624 10:41:12.164608 1970144000 net.cpp:120] Setting up ip2
I0624 10:41:12.164710 1970144000 net.cpp:127] Top shape: 64 10 (640)
I0624 10:41:12.164724 1970144000 layer_factory.hpp:74] Creating layer feat
I0624 10:41:12.164736 1970144000 net.cpp:90] Creating Layer feat
I0624 10:41:12.164743 1970144000 net.cpp:410] feat <- ip2
I0624 10:41:12.164762 1970144000 net.cpp:368] feat -> feat
I0624 10:41:12.164778 1970144000 net.cpp:120] Setting up feat
I0624 10:41:12.164794 1970144000 net.cpp:127] Top shape: 64 2 (128)
I0624 10:41:12.164808 1970144000 layer_factory.hpp:74] Creating layer conv1_p
I0624 10:41:12.164819 1970144000 net.cpp:90] Creating Layer conv1_p
I0624 10:41:12.164825 1970144000 net.cpp:410] conv1_p <- data_p
I0624 10:41:12.164837 1970144000 net.cpp:368] conv1_p -> conv1_p
I0624 10:41:12.164849 1970144000 net.cpp:120] Setting up conv1_p
I0624 10:41:12.165189 1970144000 net.cpp:127] Top shape: 64 20 24 24 (737280)
I0624 10:41:12.165205 1970144000 net.cpp:459] Sharing parameters 'conv1_w' owned by layer 'conv1', param index 0
I0624 10:41:12.165221 1970144000 net.cpp:459] Sharing parameters 'conv1_b' owned by layer 'conv1', param index 1
I0624 10:41:12.165238 1970144000 layer_factory.hpp:74] Creating layer pool1_p
I0624 10:41:12.165249 1970144000 net.cpp:90] Creating Layer pool1_p
I0624 10:41:12.165253 1970144000 net.cpp:410] pool1_p <- conv1_p
I0624 10:41:12.165261 1970144000 net.cpp:368] pool1_p -> pool1_p
I0624 10:41:12.165271 1970144000 net.cpp:120] Setting up pool1_p
I0624 10:41:12.165405 1970144000 net.cpp:127] Top shape: 64 20 12 12 (184320)
I0624 10:41:12.165419 1970144000 layer_factory.hpp:74] Creating layer conv2_p
I0624 10:41:12.165433 1970144000 net.cpp:90] Creating Layer conv2_p
I0624 10:41:12.165448 1970144000 net.cpp:410] conv2_p <- pool1_p
I0624 10:41:12.165463 1970144000 net.cpp:368] conv2_p -> conv2_p
I0624 10:41:12.165473 1970144000 net.cpp:120] Setting up conv2_p
I0624 10:41:12.166246 1970144000 net.cpp:127] Top shape: 64 50 8 8 (204800)
I0624 10:41:12.166263 1970144000 net.cpp:459] Sharing parameters 'conv2_w' owned by layer 'conv2', param index 0
I0624 10:41:12.166296 1970144000 net.cpp:459] Sharing parameters 'conv2_b' owned by layer 'conv2', param index 1
I0624 10:41:12.166309 1970144000 layer_factory.hpp:74] Creating layer pool2_p
I0624 10:41:12.166321 1970144000 net.cpp:90] Creating Layer pool2_p
I0624 10:41:12.166326 1970144000 net.cpp:410] pool2_p <- conv2_p
I0624 10:41:12.166337 1970144000 net.cpp:368] pool2_p -> pool2_p
I0624 10:41:12.166345 1970144000 net.cpp:120] Setting up pool2_p
I0624 10:41:12.166412 1970144000 net.cpp:127] Top shape: 64 50 4 4 (51200)
I0624 10:41:12.166425 1970144000 layer_factory.hpp:74] Creating layer ip1_p
I0624 10:41:12.166437 1970144000 net.cpp:90] Creating Layer ip1_p
I0624 10:41:12.166445 1970144000 net.cpp:410] ip1_p <- pool2_p
I0624 10:41:12.166455 1970144000 net.cpp:368] ip1_p -> ip1_p
I0624 10:41:12.166497 1970144000 net.cpp:120] Setting up ip1_p
I0624 10:41:12.170150 1970144000 net.cpp:127] Top shape: 64 500 (32000)
I0624 10:41:12.170168 1970144000 net.cpp:459] Sharing parameters 'ip1_w' owned by layer 'ip1', param index 0
I0624 10:41:12.170177 1970144000 net.cpp:459] Sharing parameters 'ip1_b' owned by layer 'ip1', param index 1
I0624 10:41:12.170183 1970144000 layer_factory.hpp:74] Creating layer relu1_p
I0624 10:41:12.170191 1970144000 net.cpp:90] Creating Layer relu1_p
I0624 10:41:12.170194 1970144000 net.cpp:410] relu1_p <- ip1_p
I0624 10:41:12.170199 1970144000 net.cpp:357] relu1_p -> ip1_p (in-place)
I0624 10:41:12.170207 1970144000 net.cpp:120] Setting up relu1_p
I0624 10:41:12.170274 1970144000 net.cpp:127] Top shape: 64 500 (32000)
I0624 10:41:12.170281 1970144000 layer_factory.hpp:74] Creating layer ip2_p
I0624 10:41:12.170291 1970144000 net.cpp:90] Creating Layer ip2_p
I0624 10:41:12.170295 1970144000 net.cpp:410] ip2_p <- ip1_p
I0624 10:41:12.170302 1970144000 net.cpp:368] ip2_p -> ip2_p
I0624 10:41:12.170316 1970144000 net.cpp:120] Setting up ip2_p
I0624 10:41:12.170369 1970144000 net.cpp:127] Top shape: 64 10 (640)
I0624 10:41:12.170378 1970144000 net.cpp:459] Sharing parameters 'ip2_w' owned by layer 'ip2', param index 0
I0624 10:41:12.170387 1970144000 net.cpp:459] Sharing parameters 'ip2_b' owned by layer 'ip2', param index 1
I0624 10:41:12.170394 1970144000 layer_factory.hpp:74] Creating layer feat_p
I0624 10:41:12.170405 1970144000 net.cpp:90] Creating Layer feat_p
I0624 10:41:12.170413 1970144000 net.cpp:410] feat_p <- ip2_p
I0624 10:41:12.170425 1970144000 net.cpp:368] feat_p -> feat_p
I0624 10:41:12.170436 1970144000 net.cpp:120] Setting up feat_p
I0624 10:41:12.170452 1970144000 net.cpp:127] Top shape: 64 2 (128)
I0624 10:41:12.170464 1970144000 net.cpp:459] Sharing parameters 'feat_w' owned by layer 'feat', param index 0
I0624 10:41:12.170471 1970144000 net.cpp:459] Sharing parameters 'feat_b' owned by layer 'feat', param index 1
I0624 10:41:12.170476 1970144000 layer_factory.hpp:74] Creating layer loss
I0624 10:41:12.170490 1970144000 net.cpp:90] Creating Layer loss
I0624 10:41:12.170512 1970144000 net.cpp:410] loss <- feat
…
I0624 10:41:12.171452 1970144000 solver.cpp:154] Creating test net (#0) specified by net file: src/siamese_network_bw/model/siamese_train_validate.prototxt
I0624 10:41:12.171510 1970144000 net.cpp:287] The NetState phase (1) differed from the phase (0) specified by a rule in layer pair_data
I0624 10:41:12.171528 1970144000 net.cpp:42] Initializing net from parameters: 
name: "siamese_train_validate"
state {
  phase: TEST
}
layer {
  name: "pair_data"
  type: "Data"
  top: "pair_data"
  top: "sim"
  include {
    phase: TEST
  }
  transform_param {
    scale: 0.00390625
  }
  data_param {
    source: "src/siamese_network_bw/data/siamese_network_validation_leveldb"
    batch_size: 100
  }
}
layer {
  name: "slice_pair"
  type: "Slice"
  bottom: "pair_data"
  top: "data"
  top: "data_p"
  slice_param {
    slice_dim: 1
    slice_point: 1
  }
}
layer {
  name: "conv1"
  type: "Convolution"
  bottom: "data"
  top: "conv1"
  param {
    name: "conv1_w"
    lr_mult: 1
  }
  param {
    name: "conv1_b"
    lr_mult: 2
  }
  convolution_param {
    num_output: 20
    kernel_size: 5
    stride: 1
    weight_filler {
      type: "xavier"
    }
    bias_filler {
      type: "constant"
    }
  }
}
layer {
  name: "pool1"
  type: "Pooling"
  bottom: "conv1"
  top: "pool1"
  pooling_param {
    pool: MAX
    kernel_size: 2
    stride: 2
  }
}
layer {
  name: "conv2"
  type: "Convolution"
  bottom: "pool1"
  top: "conv2"
  param {
    name: "conv2_w"
    lr_mult: 1
  }
  param {
    name: "conv2_b"
    lr_mult: 2
  }
  convolution_param {
    num_output: 50
    kernel_size: 5
    stride: 1
    weight_filler {
      type: "xavier"
    }
    bias_filler {
      type: "constant"
    }
  }
}
layer {
  name: "pool2"
  type: "Pooling"
  bottom: "conv2"
  top: "pool2"
  pooling_param {
    pool: MAX
    kernel_size: 2
    stride: 2
  }
}
layer {
  name: "ip1"
  type: "InnerProduct"
  bottom: "pool2"
  top: "ip1"
  param {
    name: "ip1_w"
    lr_mult: 1
  }
  param {
    name: "ip1_b"
    lr_mult: 2
  }
  inner_product_param {
    num_output: 500
    weight_filler {
      type: "xavier"
    }
    bias_filler {
      type: "constant"
    }
  }
}
layer {
  name: "relu1"
  type: "ReLU"
  bottom: "ip1"
  top: "ip1"
}
layer {
  name: "ip2"
  type: "InnerProduct"
  bottom: "ip1"
  top: "ip2"
  param {
    name: "ip2_w"
    lr_mult: 1
  }
  param {
    name: "ip2_b"
    lr_mult: 2
  }
  inner_product_param {
    num_output: 10
    weight_filler {
      type: "xavier"
    }
    bias_filler {
      type: "constant"
    }
  }
}
layer {
  name: "feat"
  type: "InnerProduct"
  bottom: "ip2"
  top: "feat"
  param {
    name: "feat_w"
    lr_mult: 1
  }
  param {
    name: "feat_b"
    lr_mult: 2
  }
  inner_product_param {
    num_output: 2
    weight_filler {
      type: "xavier"
    }
    bias_filler {
      type: "constant"
    }
  }
}
layer {
  name: "conv1_p"
  type: "Convolution"
  bottom: "data_p"
  top: "conv1_p"
  param {
    name: "conv1_w"
    lr_mult: 1
  }
  param {
    name: "conv1_b"
    lr_mult: 2
  }
  convolution_param {
    num_output: 20
    kernel_size: 5
    stride: 1
    weight_filler {
      type: "xavier"
    }
    bias_filler {
      type: "constant"
    }
  }
}
layer {
  name: "pool1_p"
  type: "Pooling"
  bottom: "conv1_p"
  top: "pool1_p"
  pooling_param {
    pool: MAX
    kernel_size: 2
    stride: 2
  }
}
layer {
  name: "conv2_p"
  type: "Convolution"
  bottom: "pool1_p"
  top: "conv2_p"
  param {
    name: "conv2_w"
    lr_mult: 1
  }
  param {
    name: "conv2_b"
    lr_mult: 2
  }
  convolution_param {
    num_output: 50
    kernel_size: 5
    stride: 1
    weight_filler {
      type: "xavier"
    }
    bias_filler {
      type: "constant"
    }
  }
}
layer {
  name: "pool2_p"
  type: "Pooling"
  bottom: "conv2_p"
  top: "pool2_p"
  pooling_param {
    pool: MAX
    kernel_size: 2
    stride: 2
  }
}
layer {
  name: "ip1_p"
  type: "InnerProduct"
  bottom: "pool2_p"
  top: "ip1_p"
  param {
    name: "ip1_w"
    lr_mult: 1
  }
  param {
    name: "ip1_b"
    lr_mult: 2
  }
  inner_product_param {
    num_output: 500
    weight_filler {
      type: "xavier"
    }
    bias_filler {
      type: "constant"
    }
  }
}
layer {
  name: "relu1_p"
  type: "ReLU"
  bottom: "ip1_p"
  top: "ip1_p"
}
layer {
  name: "ip2_p"
  type: "InnerProduct"
  bottom: "ip1_p"
  top: "ip2_p"
  param {
    name: "ip2_w"
    lr_mult: 1
  }
  param {
    name: "ip2_b"
    lr_mult: 2
  }
  inner_product_param {
    num_output: 10
    weight_filler {
      type: "xavier"
    }
    bias_filler {
      type: "constant"
    }
  }
}
layer {
  name: "feat_p"
  type: "InnerProduct"
  bottom: "ip2_p"
  top: "feat_p"
  param {
    name: "feat_w"
    lr_mult: 1
  }
  param {
    name: "feat_b"
    lr_mult: 2
  }
  inner_product_param {
    num_output: 2
    weight_filler {
      type: "xavier"
    }
    bias_filler {
      type: "constant"
    }
  }
}
layer {
  name: "loss"
  type: "ContrastiveLoss"
  bottom: "feat"
  bottom: "feat_p"
  bottom: "sim"
  top: "loss"
  contrastive_loss_param {
    margin: 1
  }
}
I0624 10:41:12.171795 1970144000 layer_factory.hpp:74] Creating layer pair_data
I0624 10:41:12.171807 1970144000 net.cpp:90] Creating Layer pair_data
I0624 10:41:12.171816 1970144000 net.cpp:368] pair_data -> pair_data
I0624 10:41:12.171825 1970144000 net.cpp:368] pair_data -> sim
I0624 10:41:12.171835 1970144000 net.cpp:120] Setting up pair_data
I0624 10:41:12.186691 1970144000 db.cpp:20] Opened leveldb src/siamese_network_bw/data/siamese_network_validation_leveldb
I0624 10:41:12.186864 1970144000 data_layer.cpp:52] output data size: 100,2,28,28
I0624 10:41:12.186964 1970144000 net.cpp:127] Top shape: 100 2 28 28 (156800)
I0624 10:41:12.186980 1970144000 net.cpp:127] Top shape: 100 (100)
I0624 10:41:12.186990 1970144000 layer_factory.hpp:74] Creating layer slice_pair
I0624 10:41:12.187005 1970144000 net.cpp:90] Creating Layer slice_pair
I0624 10:41:12.187031 1970144000 net.cpp:410] slice_pair <- pair_data
I0624 10:41:12.187041 1970144000 net.cpp:368] slice_pair -> data
I0624 10:41:12.187062 1970144000 net.cpp:368] slice_pair -> data_p
I0624 10:41:12.187069 1970144000 net.cpp:120] Setting up slice_pair
I0624 10:41:12.187077 1970144000 net.cpp:127] Top shape: 100 1 28 28 (78400)
I0624 10:41:12.187083 1970144000 net.cpp:127] Top shape: 100 1 28 28 (78400)
I0624 10:41:12.187090 1970144000 layer_factory.hpp:74] Creating layer conv1
I0624 10:41:12.187109 1970144000 net.cpp:90] Creating Layer conv1
I0624 10:41:12.187114 1970144000 net.cpp:410] conv1 <- data
I0624 10:41:12.187132 1970144000 net.cpp:368] conv1 -> conv1
I0624 10:41:12.187166 1970144000 net.cpp:120] Setting up conv1
I0624 10:41:12.187661 1970144000 net.cpp:127] Top shape: 100 20 24 24 (1152000)
I0624 10:41:12.187687 1970144000 layer_factory.hpp:74] Creating layer pool1
I0624 10:41:12.187717 1970144000 net.cpp:90] Creating Layer pool1
I0624 10:41:12.187726 1970144000 net.cpp:410] pool1 <- conv1
I0624 10:41:12.187737 1970144000 net.cpp:368] pool1 -> pool1
I0624 10:41:12.187791 1970144000 net.cpp:120] Setting up pool1
I0624 10:41:12.187891 1970144000 net.cpp:127] Top shape: 100 20 12 12 (288000)
I0624 10:41:12.187908 1970144000 layer_factory.hpp:74] Creating layer conv2
I0624 10:41:12.187924 1970144000 net.cpp:90] Creating Layer conv2
I0624 10:41:12.187952 1970144000 net.cpp:410] conv2 <- pool1
I0624 10:41:12.187970 1970144000 net.cpp:368] conv2 -> conv2
I0624 10:41:12.187983 1970144000 net.cpp:120] Setting up conv2
I0624 10:41:12.188556 1970144000 net.cpp:127] Top shape: 100 50 8 8 (320000)
I0624 10:41:12.188588 1970144000 layer_factory.hpp:74] Creating layer pool2
I0624 10:41:12.188606 1970144000 net.cpp:90] Creating Layer pool2
I0624 10:41:12.188611 1970144000 net.cpp:410] pool2 <- conv2
I0624 10:41:12.188617 1970144000 net.cpp:368] pool2 -> pool2
I0624 10:41:12.188663 1970144000 net.cpp:120] Setting up pool2
I0624 10:41:12.188835 1970144000 net.cpp:127] Top shape: 100 50 4 4 (80000)
I0624 10:41:12.188851 1970144000 layer_factory.hpp:74] Creating layer ip1
I0624 10:41:12.188868 1970144000 net.cpp:90] Creating Layer ip1
I0624 10:41:12.188875 1970144000 net.cpp:410] ip1 <- pool2
I0624 10:41:12.188885 1970144000 net.cpp:368] ip1 -> ip1
I0624 10:41:12.188899 1970144000 net.cpp:120] Setting up ip1
I0624 10:41:12.191845 1970144000 net.cpp:127] Top shape: 100 500 (50000)
I0624 10:41:12.191869 1970144000 layer_factory.hpp:74] Creating layer relu1
I0624 10:41:12.191877 1970144000 net.cpp:90] Creating Layer relu1
I0624 10:41:12.191882 1970144000 net.cpp:410] relu1 <- ip1
I0624 10:41:12.191889 1970144000 net.cpp:357] relu1 -> ip1 (in-place)
I0624 10:41:12.191895 1970144000 net.cpp:120] Setting up relu1
I0624 10:41:12.191968 1970144000 net.cpp:127] Top shape: 100 500 (50000)
I0624 10:41:12.191977 1970144000 layer_factory.hpp:74] Creating layer ip2
I0624 10:41:12.191984 1970144000 net.cpp:90] Creating Layer ip2
I0624 10:41:12.191988 1970144000 net.cpp:410] ip2 <- ip1
I0624 10:41:12.191994 1970144000 net.cpp:368] ip2 -> ip2
I0624 10:41:12.192001 1970144000 net.cpp:120] Setting up ip2
I0624 10:41:12.192056 1970144000 net.cpp:127] Top shape: 100 10 (1000)
I0624 10:41:12.192064 1970144000 layer_factory.hpp:74] Creating layer feat
I0624 10:41:12.192070 1970144000 net.cpp:90] Creating Layer feat
I0624 10:41:12.192075 1970144000 net.cpp:410] feat <- ip2
I0624 10:41:12.192080 1970144000 net.cpp:368] feat -> feat
I0624 10:41:12.192085 1970144000 net.cpp:120] Setting up feat
I0624 10:41:12.192093 1970144000 net.cpp:127] Top shape: 100 2 (200)
I0624 10:41:12.192101 1970144000 layer_factory.hpp:74] Creating layer conv1_p
I0624 10:41:12.192108 1970144000 net.cpp:90] Creating Layer conv1_p
I0624 10:41:12.192121 1970144000 net.cpp:410] conv1_p <- data_p
I0624 10:41:12.192129 1970144000 net.cpp:368] conv1_p -> conv1_p
I0624 10:41:12.192137 1970144000 net.cpp:120] Setting up conv1_p
I0624 10:41:12.192435 1970144000 net.cpp:127] Top shape: 100 20 24 24 (1152000)
I0624 10:41:12.192450 1970144000 net.cpp:459] Sharing parameters 'conv1_w' owned by layer 'conv1', param index 0
I0624 10:41:12.192456 1970144000 net.cpp:459] Sharing parameters 'conv1_b' owned by layer 'conv1', param index 1
I0624 10:41:12.192462 1970144000 layer_factory.hpp:74] Creating layer pool1_p
I0624 10:41:12.192469 1970144000 net.cpp:90] Creating Layer pool1_p
I0624 10:41:12.192473 1970144000 net.cpp:410] pool1_p <- conv1_p
I0624 10:41:12.192481 1970144000 net.cpp:368] pool1_p -> pool1_p
I0624 10:41:12.192498 1970144000 net.cpp:120] Setting up pool1_p
I0624 10:41:12.192574 1970144000 net.cpp:127] Top shape: 100 20 12 12 (288000)
I0624 10:41:12.192590 1970144000 layer_factory.hpp:74] Creating layer conv2_p
I0624 10:41:12.192605 1970144000 net.cpp:90] Creating Layer conv2_p
I0624 10:41:12.192612 1970144000 net.cpp:410] conv2_p <- pool1_p
I0624 10:41:12.192622 1970144000 net.cpp:368] conv2_p -> conv2_p
I0624 10:41:12.192633 1970144000 net.cpp:120] Setting up conv2_p
I0624 10:41:12.193194 1970144000 net.cpp:127] Top shape: 100 50 8 8 (320000)
I0624 10:41:12.193213 1970144000 net.cpp:459] Sharing parameters 'conv2_w' owned by layer 'conv2', param index 0
I0624 10:41:12.193223 1970144000 net.cpp:459] Sharing parameters 'conv2_b' owned by layer 'conv2', param index 1
I0624 10:41:12.193230 1970144000 layer_factory.hpp:74] Creating layer pool2_p
I0624 10:41:12.193240 1970144000 net.cpp:90] Creating Layer pool2_p
I0624 10:41:12.193244 1970144000 net.cpp:410] pool2_p <- conv2_p
I0624 10:41:12.193250 1970144000 net.cpp:368] pool2_p -> pool2_p
I0624 10:41:12.193258 1970144000 net.cpp:120] Setting up pool2_p
I0624 10:41:12.193308 1970144000 net.cpp:127] Top shape: 100 50 4 4 (80000)
I0624 10:41:12.193316 1970144000 layer_factory.hpp:74] Creating layer ip1_p
I0624 10:41:12.193326 1970144000 net.cpp:90] Creating Layer ip1_p
I0624 10:41:12.193331 1970144000 net.cpp:410] ip1_p <- pool2_p
I0624 10:41:12.193336 1970144000 net.cpp:368] ip1_p -> ip1_p
I0624 10:41:12.193377 1970144000 net.cpp:120] Setting up ip1_p
I0624 10:41:12.197585 1970144000 net.cpp:127] Top shape: 100 500 (50000)
I0624 10:41:12.197604 1970144000 net.cpp:459] Sharing parameters 'ip1_w' owned by layer 'ip1', param index 0
I0624 10:41:12.197618 1970144000 net.cpp:459] Sharing parameters 'ip1_b' owned by layer 'ip1', param index 1
I0624 10:41:12.197645 1970144000 layer_factory.hpp:74] Creating layer relu1_p
I0624 10:41:12.197660 1970144000 net.cpp:90] Creating Layer relu1_p
I0624 10:41:12.197667 1970144000 net.cpp:410] relu1_p <- ip1_p
I0624 10:41:12.197677 1970144000 net.cpp:357] relu1_p -> ip1_p (in-place)
I0624 10:41:12.197688 1970144000 net.cpp:120] Setting up relu1_p
I0624 10:41:12.197885 1970144000 net.cpp:127] Top shape: 100 500 (50000)
I0624 10:41:12.197898 1970144000 layer_factory.hpp:74] Creating layer ip2_p
I0624 10:41:12.197914 1970144000 net.cpp:90] Creating Layer ip2_p
I0624 10:41:12.197922 1970144000 net.cpp:410] ip2_p <- ip1_p
I0624 10:41:12.197932 1970144000 net.cpp:368] ip2_p -> ip2_p
I0624 10:41:12.197969 1970144000 net.cpp:120] Setting up ip2_p
I0624 10:41:12.198071 1970144000 net.cpp:127] Top shape: 100 10 (1000)
I0624 10:41:12.198104 1970144000 net.cpp:459] Sharing parameters 'ip2_w' owned by layer 'ip2', param index 0
I0624 10:41:12.198117 1970144000 net.cpp:459] Sharing parameters 'ip2_b' owned by layer 'ip2', param index 1
I0624 10:41:12.198132 1970144000 layer_factory.hpp:74] Creating layer feat_p
I0624 10:41:12.198146 1970144000 net.cpp:90] Creating Layer feat_p
I0624 10:41:12.198168 1970144000 net.cpp:410] feat_p <- ip2_p
I0624 10:41:12.198189 1970144000 net.cpp:368] feat_p -> feat_p
I0624 10:41:12.198201 1970144000 net.cpp:120] Setting up feat_p
I0624 10:41:12.198220 1970144000 net.cpp:127] Top shape: 100 2 (200)
I0624 10:41:12.198230 1970144000 net.cpp:459] Sharing parameters 'feat_w' owned by layer 'feat', param index 0
I0624 10:41:12.198262 1970144000 net.cpp:459] Sharing parameters 'feat_b' owned by layer 'feat', param index 1
I0624 10:41:12.198304 1970144000 layer_factory.hpp:74] Creating layer loss
I0624 10:41:12.198321 1970144000 net.cpp:90] Creating Layer loss
I0624 10:41:12.198328 1970144000 net.cpp:410] loss <- feat
…
