…
I0626 01:13:50.818858 1970144000 solver.cpp:70] Creating training net from net file: src/siamese_network_bw/model/siamese_train_validate.prototxt
I0626 01:13:50.819185 1970144000 net.cpp:287] The NetState phase (0) differed from the phase (1) specified by a rule in layer pair_data
I0626 01:13:50.819218 1970144000 net.cpp:42] Initializing net from parameters: 
name: "siamese_train_validate"
state {
  phase: TRAIN
}
layer {
  name: "pair_data"
  type: "Data"
  top: "pair_data"
  top: "sim"
  include {
    phase: TRAIN
  }
  transform_param {
    scale: 0.00390625
  }
  data_param {
    source: "src/siamese_network_bw/data/siamese_network_train_leveldb"
    batch_size: 64
  }
}
layer {
  name: "slice_pair"
  type: "Slice"
  bottom: "pair_data"
  top: "data"
  top: "data_p"
  slice_param {
    slice_dim: 1
    slice_point: 1
  }
}
layer {
  name: "conv1"
  type: "Convolution"
  bottom: "data"
  top: "conv1"
  param {
    name: "conv1_w"
    lr_mult: 1
  }
  param {
    name: "conv1_b"
    lr_mult: 2
  }
  convolution_param {
    num_output: 20
    kernel_size: 5
    stride: 1
    weight_filler {
      type: "xavier"
    }
    bias_filler {
      type: "constant"
    }
  }
}
layer {
  name: "pool1"
  type: "Pooling"
  bottom: "conv1"
  top: "pool1"
  pooling_param {
    pool: MAX
    kernel_size: 2
    stride: 2
  }
}
layer {
  name: "conv2"
  type: "Convolution"
  bottom: "pool1"
  top: "conv2"
  param {
    name: "conv2_w"
    lr_mult: 1
  }
  param {
    name: "conv2_b"
    lr_mult: 2
  }
  convolution_param {
    num_output: 50
    kernel_size: 5
    stride: 1
    weight_filler {
      type: "xavier"
    }
    bias_filler {
      type: "constant"
    }
  }
}
layer {
  name: "pool2"
  type: "Pooling"
  bottom: "conv2"
  top: "pool2"
  pooling_param {
    pool: MAX
    kernel_size: 2
    stride: 2
  }
}
layer {
  name: "ip1"
  type: "InnerProduct"
  bottom: "pool2"
  top: "ip1"
  param {
    name: "ip1_w"
    lr_mult: 1
  }
  param {
    name: "ip1_b"
    lr_mult: 2
  }
  inner_product_param {
    num_output: 500
    weight_filler {
      type: "xavier"
    }
    bias_filler {
      type: "constant"
    }
  }
}
layer {
  name: "relu1"
  type: "ReLU"
  bottom: "ip1"
  top: "ip1"
}
layer {
  name: "ip2"
  type: "InnerProduct"
  bottom: "ip1"
  top: "ip2"
  param {
    name: "ip2_w"
    lr_mult: 1
  }
  param {
    name: "ip2_b"
    lr_mult: 2
  }
  inner_product_param {
    num_output: 10
    weight_filler {
      type: "xavier"
    }
    bias_filler {
      type: "constant"
    }
  }
}
layer {
  name: "feat"
  type: "InnerProduct"
  bottom: "ip2"
  top: "feat"
  param {
    name: "feat_w"
    lr_mult: 1
  }
  param {
    name: "feat_b"
    lr_mult: 2
  }
  inner_product_param {
    num_output: 2
    weight_filler {
      type: "xavier"
    }
    bias_filler {
      type: "constant"
    }
  }
}
layer {
  name: "conv1_p"
  type: "Convolution"
  bottom: "data_p"
  top: "conv1_p"
  param {
    name: "conv1_w"
    lr_mult: 1
  }
  param {
    name: "conv1_b"
    lr_mult: 2
  }
  convolution_param {
    num_output: 20
    kernel_size: 5
    stride: 1
    weight_filler {
      type: "xavier"
    }
    bias_filler {
      type: "constant"
    }
  }
}
layer {
  name: "pool1_p"
  type: "Pooling"
  bottom: "conv1_p"
  top: "pool1_p"
  pooling_param {
    pool: MAX
    kernel_size: 2
    stride: 2
  }
}
layer {
  name: "conv2_p"
  type: "Convolution"
  bottom: "pool1_p"
  top: "conv2_p"
  param {
    name: "conv2_w"
    lr_mult: 1
  }
  param {
    name: "conv2_b"
    lr_mult: 2
  }
  convolution_param {
    num_output: 50
    kernel_size: 5
    stride: 1
    weight_filler {
      type: "xavier"
    }
    bias_filler {
      type: "constant"
    }
  }
}
layer {
  name: "pool2_p"
  type: "Pooling"
  bottom: "conv2_p"
  top: "pool2_p"
  pooling_param {
    pool: MAX
    kernel_size: 2
    stride: 2
  }
}
layer {
  name: "ip1_p"
  type: "InnerProduct"
  bottom: "pool2_p"
  top: "ip1_p"
  param {
    name: "ip1_w"
    lr_mult: 1
  }
  param {
    name: "ip1_b"
    lr_mult: 2
  }
  inner_product_param {
    num_output: 500
    weight_filler {
      type: "xavier"
    }
    bias_filler {
      type: "constant"
    }
  }
}
layer {
  name: "relu1_p"
  type: "ReLU"
  bottom: "ip1_p"
  top: "ip1_p"
}
layer {
  name: "ip2_p"
  type: "InnerProduct"
  bottom: "ip1_p"
  top: "ip2_p"
  param {
    name: "ip2_w"
    lr_mult: 1
  }
  param {
    name: "ip2_b"
    lr_mult: 2
  }
  inner_product_param {
    num_output: 10
    weight_filler {
      type: "xavier"
    }
    bias_filler {
      type: "constant"
    }
  }
}
layer {
  name: "feat_p"
  type: "InnerProduct"
  bottom: "ip2_p"
  top: "feat_p"
  param {
    name: "feat_w"
    lr_mult: 1
  }
  param {
    name: "feat_b"
    lr_mult: 2
  }
  inner_product_param {
    num_output: 2
    weight_filler {
      type: "xavier"
    }
    bias_filler {
      type: "constant"
    }
  }
}
layer {
  name: "loss"
  type: "ContrastiveLoss"
  bottom: "feat"
  bottom: "feat_p"
  bottom: "sim"
  top: "loss"
  contrastive_loss_param {
    margin: 1
  }
}
I0626 01:13:50.819479 1970144000 layer_factory.hpp:74] Creating layer pair_data
I0626 01:13:50.819499 1970144000 net.cpp:90] Creating Layer pair_data
I0626 01:13:50.819505 1970144000 net.cpp:368] pair_data -> pair_data
I0626 01:13:50.819525 1970144000 net.cpp:368] pair_data -> sim
I0626 01:13:50.819537 1970144000 net.cpp:120] Setting up pair_data
I0626 01:13:50.850656 1970144000 db.cpp:20] Opened leveldb src/siamese_network_bw/data/siamese_network_train_leveldb
I0626 01:13:50.850961 1970144000 data_layer.cpp:52] output data size: 64,2,28,28
I0626 01:13:50.851037 1970144000 net.cpp:127] Top shape: 64 2 28 28 (100352)
I0626 01:13:50.851058 1970144000 net.cpp:127] Top shape: 64 (64)
I0626 01:13:50.851063 1970144000 layer_factory.hpp:74] Creating layer slice_pair
I0626 01:13:50.851075 1970144000 net.cpp:90] Creating Layer slice_pair
I0626 01:13:50.851079 1970144000 net.cpp:410] slice_pair <- pair_data
I0626 01:13:50.851122 1970144000 net.cpp:368] slice_pair -> data
I0626 01:13:50.851155 1970144000 net.cpp:368] slice_pair -> data_p
I0626 01:13:50.851184 1970144000 net.cpp:120] Setting up slice_pair
I0626 01:13:50.851202 1970144000 net.cpp:127] Top shape: 64 1 28 28 (50176)
I0626 01:13:50.851210 1970144000 net.cpp:127] Top shape: 64 1 28 28 (50176)
I0626 01:13:50.851224 1970144000 layer_factory.hpp:74] Creating layer conv1
I0626 01:13:50.851239 1970144000 net.cpp:90] Creating Layer conv1
I0626 01:13:50.851246 1970144000 net.cpp:410] conv1 <- data
I0626 01:13:50.851256 1970144000 net.cpp:368] conv1 -> conv1
I0626 01:13:50.851279 1970144000 net.cpp:120] Setting up conv1
I0626 01:13:50.917417 1970144000 net.cpp:127] Top shape: 64 20 24 24 (737280)
I0626 01:13:50.917479 1970144000 layer_factory.hpp:74] Creating layer pool1
I0626 01:13:50.917507 1970144000 net.cpp:90] Creating Layer pool1
I0626 01:13:50.917517 1970144000 net.cpp:410] pool1 <- conv1
I0626 01:13:50.917527 1970144000 net.cpp:368] pool1 -> pool1
I0626 01:13:50.917552 1970144000 net.cpp:120] Setting up pool1
I0626 01:13:50.917764 1970144000 net.cpp:127] Top shape: 64 20 12 12 (184320)
I0626 01:13:50.917778 1970144000 layer_factory.hpp:74] Creating layer conv2
I0626 01:13:50.917795 1970144000 net.cpp:90] Creating Layer conv2
I0626 01:13:50.917804 1970144000 net.cpp:410] conv2 <- pool1
I0626 01:13:50.917819 1970144000 net.cpp:368] conv2 -> conv2
I0626 01:13:50.917830 1970144000 net.cpp:120] Setting up conv2
I0626 01:13:50.918623 1970144000 net.cpp:127] Top shape: 64 50 8 8 (204800)
I0626 01:13:50.918642 1970144000 layer_factory.hpp:74] Creating layer pool2
I0626 01:13:50.918653 1970144000 net.cpp:90] Creating Layer pool2
I0626 01:13:50.918661 1970144000 net.cpp:410] pool2 <- conv2
I0626 01:13:50.918700 1970144000 net.cpp:368] pool2 -> pool2
I0626 01:13:50.918717 1970144000 net.cpp:120] Setting up pool2
I0626 01:13:50.918824 1970144000 net.cpp:127] Top shape: 64 50 4 4 (51200)
I0626 01:13:50.918841 1970144000 layer_factory.hpp:74] Creating layer ip1
I0626 01:13:50.918853 1970144000 net.cpp:90] Creating Layer ip1
I0626 01:13:50.918869 1970144000 net.cpp:410] ip1 <- pool2
I0626 01:13:50.918886 1970144000 net.cpp:368] ip1 -> ip1
I0626 01:13:50.918902 1970144000 net.cpp:120] Setting up ip1
I0626 01:13:50.921866 1970144000 net.cpp:127] Top shape: 64 500 (32000)
I0626 01:13:50.921885 1970144000 layer_factory.hpp:74] Creating layer relu1
I0626 01:13:50.921903 1970144000 net.cpp:90] Creating Layer relu1
I0626 01:13:50.921908 1970144000 net.cpp:410] relu1 <- ip1
I0626 01:13:50.921914 1970144000 net.cpp:357] relu1 -> ip1 (in-place)
I0626 01:13:50.921921 1970144000 net.cpp:120] Setting up relu1
I0626 01:13:50.921994 1970144000 net.cpp:127] Top shape: 64 500 (32000)
I0626 01:13:50.922009 1970144000 layer_factory.hpp:74] Creating layer ip2
I0626 01:13:50.922021 1970144000 net.cpp:90] Creating Layer ip2
I0626 01:13:50.922026 1970144000 net.cpp:410] ip2 <- ip1
I0626 01:13:50.922039 1970144000 net.cpp:368] ip2 -> ip2
I0626 01:13:50.922051 1970144000 net.cpp:120] Setting up ip2
I0626 01:13:50.922121 1970144000 net.cpp:127] Top shape: 64 10 (640)
I0626 01:13:50.922129 1970144000 layer_factory.hpp:74] Creating layer feat
I0626 01:13:50.922152 1970144000 net.cpp:90] Creating Layer feat
I0626 01:13:50.922163 1970144000 net.cpp:410] feat <- ip2
I0626 01:13:50.922176 1970144000 net.cpp:368] feat -> feat
I0626 01:13:50.922185 1970144000 net.cpp:120] Setting up feat
I0626 01:13:50.922196 1970144000 net.cpp:127] Top shape: 64 2 (128)
I0626 01:13:50.922207 1970144000 layer_factory.hpp:74] Creating layer conv1_p
I0626 01:13:50.922220 1970144000 net.cpp:90] Creating Layer conv1_p
I0626 01:13:50.922227 1970144000 net.cpp:410] conv1_p <- data_p
I0626 01:13:50.922241 1970144000 net.cpp:368] conv1_p -> conv1_p
I0626 01:13:50.922250 1970144000 net.cpp:120] Setting up conv1_p
I0626 01:13:50.922616 1970144000 net.cpp:127] Top shape: 64 20 24 24 (737280)
I0626 01:13:50.922642 1970144000 net.cpp:459] Sharing parameters 'conv1_w' owned by layer 'conv1', param index 0
I0626 01:13:50.922687 1970144000 net.cpp:459] Sharing parameters 'conv1_b' owned by layer 'conv1', param index 1
I0626 01:13:50.922696 1970144000 layer_factory.hpp:74] Creating layer pool1_p
I0626 01:13:50.922706 1970144000 net.cpp:90] Creating Layer pool1_p
I0626 01:13:50.922713 1970144000 net.cpp:410] pool1_p <- conv1_p
I0626 01:13:50.922724 1970144000 net.cpp:368] pool1_p -> pool1_p
I0626 01:13:50.922732 1970144000 net.cpp:120] Setting up pool1_p
I0626 01:13:50.922971 1970144000 net.cpp:127] Top shape: 64 20 12 12 (184320)
I0626 01:13:50.922983 1970144000 layer_factory.hpp:74] Creating layer conv2_p
I0626 01:13:50.922991 1970144000 net.cpp:90] Creating Layer conv2_p
I0626 01:13:50.922996 1970144000 net.cpp:410] conv2_p <- pool1_p
I0626 01:13:50.923002 1970144000 net.cpp:368] conv2_p -> conv2_p
I0626 01:13:50.923010 1970144000 net.cpp:120] Setting up conv2_p
I0626 01:13:50.923674 1970144000 net.cpp:127] Top shape: 64 50 8 8 (204800)
I0626 01:13:50.923691 1970144000 net.cpp:459] Sharing parameters 'conv2_w' owned by layer 'conv2', param index 0
I0626 01:13:50.923709 1970144000 net.cpp:459] Sharing parameters 'conv2_b' owned by layer 'conv2', param index 1
I0626 01:13:50.923720 1970144000 layer_factory.hpp:74] Creating layer pool2_p
I0626 01:13:50.923728 1970144000 net.cpp:90] Creating Layer pool2_p
I0626 01:13:50.923753 1970144000 net.cpp:410] pool2_p <- conv2_p
I0626 01:13:50.923766 1970144000 net.cpp:368] pool2_p -> pool2_p
I0626 01:13:50.923776 1970144000 net.cpp:120] Setting up pool2_p
I0626 01:13:50.923861 1970144000 net.cpp:127] Top shape: 64 50 4 4 (51200)
I0626 01:13:50.923877 1970144000 layer_factory.hpp:74] Creating layer ip1_p
I0626 01:13:50.923893 1970144000 net.cpp:90] Creating Layer ip1_p
I0626 01:13:50.923912 1970144000 net.cpp:410] ip1_p <- pool2_p
I0626 01:13:50.923921 1970144000 net.cpp:368] ip1_p -> ip1_p
I0626 01:13:50.923954 1970144000 net.cpp:120] Setting up ip1_p
I0626 01:13:50.927186 1970144000 net.cpp:127] Top shape: 64 500 (32000)
I0626 01:13:50.927204 1970144000 net.cpp:459] Sharing parameters 'ip1_w' owned by layer 'ip1', param index 0
I0626 01:13:50.927214 1970144000 net.cpp:459] Sharing parameters 'ip1_b' owned by layer 'ip1', param index 1
I0626 01:13:50.927220 1970144000 layer_factory.hpp:74] Creating layer relu1_p
I0626 01:13:50.927227 1970144000 net.cpp:90] Creating Layer relu1_p
I0626 01:13:50.927232 1970144000 net.cpp:410] relu1_p <- ip1_p
I0626 01:13:50.927238 1970144000 net.cpp:357] relu1_p -> ip1_p (in-place)
I0626 01:13:50.927244 1970144000 net.cpp:120] Setting up relu1_p
I0626 01:13:50.927314 1970144000 net.cpp:127] Top shape: 64 500 (32000)
I0626 01:13:50.927321 1970144000 layer_factory.hpp:74] Creating layer ip2_p
I0626 01:13:50.927345 1970144000 net.cpp:90] Creating Layer ip2_p
I0626 01:13:50.927353 1970144000 net.cpp:410] ip2_p <- ip1_p
I0626 01:13:50.927363 1970144000 net.cpp:368] ip2_p -> ip2_p
I0626 01:13:50.927377 1970144000 net.cpp:120] Setting up ip2_p
I0626 01:13:50.927466 1970144000 net.cpp:127] Top shape: 64 10 (640)
I0626 01:13:50.927479 1970144000 net.cpp:459] Sharing parameters 'ip2_w' owned by layer 'ip2', param index 0
I0626 01:13:50.927485 1970144000 net.cpp:459] Sharing parameters 'ip2_b' owned by layer 'ip2', param index 1
I0626 01:13:50.927495 1970144000 layer_factory.hpp:74] Creating layer feat_p
I0626 01:13:50.927507 1970144000 net.cpp:90] Creating Layer feat_p
I0626 01:13:50.927515 1970144000 net.cpp:410] feat_p <- ip2_p
I0626 01:13:50.927520 1970144000 net.cpp:368] feat_p -> feat_p
I0626 01:13:50.927527 1970144000 net.cpp:120] Setting up feat_p
I0626 01:13:50.927538 1970144000 net.cpp:127] Top shape: 64 2 (128)
I0626 01:13:50.927548 1970144000 net.cpp:459] Sharing parameters 'feat_w' owned by layer 'feat', param index 0
I0626 01:13:50.927556 1970144000 net.cpp:459] Sharing parameters 'feat_b' owned by layer 'feat', param index 1
I0626 01:13:50.927563 1970144000 layer_factory.hpp:74] Creating layer loss
I0626 01:13:50.927578 1970144000 net.cpp:90] Creating Layer loss
I0626 01:13:50.927587 1970144000 net.cpp:410] loss <- feat
…
I0626 01:13:50.928401 1970144000 solver.cpp:154] Creating test net (#0) specified by net file: src/siamese_network_bw/model/siamese_train_validate.prototxt
I0626 01:13:50.928447 1970144000 net.cpp:287] The NetState phase (1) differed from the phase (0) specified by a rule in layer pair_data
I0626 01:13:50.928464 1970144000 net.cpp:42] Initializing net from parameters: 
name: "siamese_train_validate"
state {
  phase: TEST
}
layer {
  name: "pair_data"
  type: "Data"
  top: "pair_data"
  top: "sim"
  include {
    phase: TEST
  }
  transform_param {
    scale: 0.00390625
  }
  data_param {
    source: "src/siamese_network_bw/data/siamese_network_validation_leveldb"
    batch_size: 100
  }
}
layer {
  name: "slice_pair"
  type: "Slice"
  bottom: "pair_data"
  top: "data"
  top: "data_p"
  slice_param {
    slice_dim: 1
    slice_point: 1
  }
}
layer {
  name: "conv1"
  type: "Convolution"
  bottom: "data"
  top: "conv1"
  param {
    name: "conv1_w"
    lr_mult: 1
  }
  param {
    name: "conv1_b"
    lr_mult: 2
  }
  convolution_param {
    num_output: 20
    kernel_size: 5
    stride: 1
    weight_filler {
      type: "xavier"
    }
    bias_filler {
      type: "constant"
    }
  }
}
layer {
  name: "pool1"
  type: "Pooling"
  bottom: "conv1"
  top: "pool1"
  pooling_param {
    pool: MAX
    kernel_size: 2
    stride: 2
  }
}
layer {
  name: "conv2"
  type: "Convolution"
  bottom: "pool1"
  top: "conv2"
  param {
    name: "conv2_w"
    lr_mult: 1
  }
  param {
    name: "conv2_b"
    lr_mult: 2
  }
  convolution_param {
    num_output: 50
    kernel_size: 5
    stride: 1
    weight_filler {
      type: "xavier"
    }
    bias_filler {
      type: "constant"
    }
  }
}
layer {
  name: "pool2"
  type: "Pooling"
  bottom: "conv2"
  top: "pool2"
  pooling_param {
    pool: MAX
    kernel_size: 2
    stride: 2
  }
}
layer {
  name: "ip1"
  type: "InnerProduct"
  bottom: "pool2"
  top: "ip1"
  param {
    name: "ip1_w"
    lr_mult: 1
  }
  param {
    name: "ip1_b"
    lr_mult: 2
  }
  inner_product_param {
    num_output: 500
    weight_filler {
      type: "xavier"
    }
    bias_filler {
      type: "constant"
    }
  }
}
layer {
  name: "relu1"
  type: "ReLU"
  bottom: "ip1"
  top: "ip1"
}
layer {
  name: "ip2"
  type: "InnerProduct"
  bottom: "ip1"
  top: "ip2"
  param {
    name: "ip2_w"
    lr_mult: 1
  }
  param {
    name: "ip2_b"
    lr_mult: 2
  }
  inner_product_param {
    num_output: 10
    weight_filler {
      type: "xavier"
    }
    bias_filler {
      type: "constant"
    }
  }
}
layer {
  name: "feat"
  type: "InnerProduct"
  bottom: "ip2"
  top: "feat"
  param {
    name: "feat_w"
    lr_mult: 1
  }
  param {
    name: "feat_b"
    lr_mult: 2
  }
  inner_product_param {
    num_output: 2
    weight_filler {
      type: "xavier"
    }
    bias_filler {
      type: "constant"
    }
  }
}
layer {
  name: "conv1_p"
  type: "Convolution"
  bottom: "data_p"
  top: "conv1_p"
  param {
    name: "conv1_w"
    lr_mult: 1
  }
  param {
    name: "conv1_b"
    lr_mult: 2
  }
  convolution_param {
    num_output: 20
    kernel_size: 5
    stride: 1
    weight_filler {
      type: "xavier"
    }
    bias_filler {
      type: "constant"
    }
  }
}
layer {
  name: "pool1_p"
  type: "Pooling"
  bottom: "conv1_p"
  top: "pool1_p"
  pooling_param {
    pool: MAX
    kernel_size: 2
    stride: 2
  }
}
layer {
  name: "conv2_p"
  type: "Convolution"
  bottom: "pool1_p"
  top: "conv2_p"
  param {
    name: "conv2_w"
    lr_mult: 1
  }
  param {
    name: "conv2_b"
    lr_mult: 2
  }
  convolution_param {
    num_output: 50
    kernel_size: 5
    stride: 1
    weight_filler {
      type: "xavier"
    }
    bias_filler {
      type: "constant"
    }
  }
}
layer {
  name: "pool2_p"
  type: "Pooling"
  bottom: "conv2_p"
  top: "pool2_p"
  pooling_param {
    pool: MAX
    kernel_size: 2
    stride: 2
  }
}
layer {
  name: "ip1_p"
  type: "InnerProduct"
  bottom: "pool2_p"
  top: "ip1_p"
  param {
    name: "ip1_w"
    lr_mult: 1
  }
  param {
    name: "ip1_b"
    lr_mult: 2
  }
  inner_product_param {
    num_output: 500
    weight_filler {
      type: "xavier"
    }
    bias_filler {
      type: "constant"
    }
  }
}
layer {
  name: "relu1_p"
  type: "ReLU"
  bottom: "ip1_p"
  top: "ip1_p"
}
layer {
  name: "ip2_p"
  type: "InnerProduct"
  bottom: "ip1_p"
  top: "ip2_p"
  param {
    name: "ip2_w"
    lr_mult: 1
  }
  param {
    name: "ip2_b"
    lr_mult: 2
  }
  inner_product_param {
    num_output: 10
    weight_filler {
      type: "xavier"
    }
    bias_filler {
      type: "constant"
    }
  }
}
layer {
  name: "feat_p"
  type: "InnerProduct"
  bottom: "ip2_p"
  top: "feat_p"
  param {
    name: "feat_w"
    lr_mult: 1
  }
  param {
    name: "feat_b"
    lr_mult: 2
  }
  inner_product_param {
    num_output: 2
    weight_filler {
      type: "xavier"
    }
    bias_filler {
      type: "constant"
    }
  }
}
layer {
  name: "loss"
  type: "ContrastiveLoss"
  bottom: "feat"
  bottom: "feat_p"
  bottom: "sim"
  top: "loss"
  contrastive_loss_param {
    margin: 1
  }
}
I0626 01:13:50.928762 1970144000 layer_factory.hpp:74] Creating layer pair_data
I0626 01:13:50.928776 1970144000 net.cpp:90] Creating Layer pair_data
I0626 01:13:50.928782 1970144000 net.cpp:368] pair_data -> pair_data
I0626 01:13:50.928791 1970144000 net.cpp:368] pair_data -> sim
I0626 01:13:50.928798 1970144000 net.cpp:120] Setting up pair_data
I0626 01:13:50.953552 1970144000 db.cpp:20] Opened leveldb src/siamese_network_bw/data/siamese_network_validation_leveldb
I0626 01:13:50.953783 1970144000 data_layer.cpp:52] output data size: 100,2,28,28
I0626 01:13:50.953876 1970144000 net.cpp:127] Top shape: 100 2 28 28 (156800)
I0626 01:13:50.953894 1970144000 net.cpp:127] Top shape: 100 (100)
I0626 01:13:50.953907 1970144000 layer_factory.hpp:74] Creating layer slice_pair
I0626 01:13:50.953924 1970144000 net.cpp:90] Creating Layer slice_pair
I0626 01:13:50.953933 1970144000 net.cpp:410] slice_pair <- pair_data
I0626 01:13:50.953944 1970144000 net.cpp:368] slice_pair -> data
I0626 01:13:50.953960 1970144000 net.cpp:368] slice_pair -> data_p
I0626 01:13:50.953970 1970144000 net.cpp:120] Setting up slice_pair
I0626 01:13:50.953981 1970144000 net.cpp:127] Top shape: 100 1 28 28 (78400)
I0626 01:13:50.953992 1970144000 net.cpp:127] Top shape: 100 1 28 28 (78400)
I0626 01:13:50.954000 1970144000 layer_factory.hpp:74] Creating layer conv1
I0626 01:13:50.954020 1970144000 net.cpp:90] Creating Layer conv1
I0626 01:13:50.954028 1970144000 net.cpp:410] conv1 <- data
I0626 01:13:50.954041 1970144000 net.cpp:368] conv1 -> conv1
I0626 01:13:50.954071 1970144000 net.cpp:120] Setting up conv1
I0626 01:13:50.954581 1970144000 net.cpp:127] Top shape: 100 20 24 24 (1152000)
I0626 01:13:50.954602 1970144000 layer_factory.hpp:74] Creating layer pool1
I0626 01:13:50.954615 1970144000 net.cpp:90] Creating Layer pool1
I0626 01:13:50.954623 1970144000 net.cpp:410] pool1 <- conv1
I0626 01:13:50.954634 1970144000 net.cpp:368] pool1 -> pool1
I0626 01:13:50.954645 1970144000 net.cpp:120] Setting up pool1
I0626 01:13:50.954756 1970144000 net.cpp:127] Top shape: 100 20 12 12 (288000)
I0626 01:13:50.954773 1970144000 layer_factory.hpp:74] Creating layer conv2
I0626 01:13:50.954792 1970144000 net.cpp:90] Creating Layer conv2
I0626 01:13:50.954814 1970144000 net.cpp:410] conv2 <- pool1
I0626 01:13:50.954839 1970144000 net.cpp:368] conv2 -> conv2
I0626 01:13:50.954855 1970144000 net.cpp:120] Setting up conv2
I0626 01:13:50.955651 1970144000 net.cpp:127] Top shape: 100 50 8 8 (320000)
I0626 01:13:50.955673 1970144000 layer_factory.hpp:74] Creating layer pool2
I0626 01:13:50.955684 1970144000 net.cpp:90] Creating Layer pool2
I0626 01:13:50.955688 1970144000 net.cpp:410] pool2 <- conv2
I0626 01:13:50.955696 1970144000 net.cpp:368] pool2 -> pool2
I0626 01:13:50.955726 1970144000 net.cpp:120] Setting up pool2
I0626 01:13:50.955865 1970144000 net.cpp:127] Top shape: 100 50 4 4 (80000)
I0626 01:13:50.955878 1970144000 layer_factory.hpp:74] Creating layer ip1
I0626 01:13:50.955888 1970144000 net.cpp:90] Creating Layer ip1
I0626 01:13:50.955896 1970144000 net.cpp:410] ip1 <- pool2
I0626 01:13:50.955909 1970144000 net.cpp:368] ip1 -> ip1
I0626 01:13:50.955934 1970144000 net.cpp:120] Setting up ip1
I0626 01:13:50.959589 1970144000 net.cpp:127] Top shape: 100 500 (50000)
I0626 01:13:50.959609 1970144000 layer_factory.hpp:74] Creating layer relu1
I0626 01:13:50.959619 1970144000 net.cpp:90] Creating Layer relu1
I0626 01:13:50.959624 1970144000 net.cpp:410] relu1 <- ip1
I0626 01:13:50.959635 1970144000 net.cpp:357] relu1 -> ip1 (in-place)
I0626 01:13:50.959642 1970144000 net.cpp:120] Setting up relu1
I0626 01:13:50.959765 1970144000 net.cpp:127] Top shape: 100 500 (50000)
I0626 01:13:50.959775 1970144000 layer_factory.hpp:74] Creating layer ip2
I0626 01:13:50.959785 1970144000 net.cpp:90] Creating Layer ip2
I0626 01:13:50.959789 1970144000 net.cpp:410] ip2 <- ip1
I0626 01:13:50.959797 1970144000 net.cpp:368] ip2 -> ip2
I0626 01:13:50.959807 1970144000 net.cpp:120] Setting up ip2
I0626 01:13:50.959857 1970144000 net.cpp:127] Top shape: 100 10 (1000)
I0626 01:13:50.959866 1970144000 layer_factory.hpp:74] Creating layer feat
I0626 01:13:50.959872 1970144000 net.cpp:90] Creating Layer feat
I0626 01:13:50.959877 1970144000 net.cpp:410] feat <- ip2
I0626 01:13:50.959882 1970144000 net.cpp:368] feat -> feat
I0626 01:13:50.959889 1970144000 net.cpp:120] Setting up feat
I0626 01:13:50.959898 1970144000 net.cpp:127] Top shape: 100 2 (200)
I0626 01:13:50.959906 1970144000 layer_factory.hpp:74] Creating layer conv1_p
I0626 01:13:50.959915 1970144000 net.cpp:90] Creating Layer conv1_p
I0626 01:13:50.959925 1970144000 net.cpp:410] conv1_p <- data_p
I0626 01:13:50.959933 1970144000 net.cpp:368] conv1_p -> conv1_p
I0626 01:13:50.959940 1970144000 net.cpp:120] Setting up conv1_p
I0626 01:13:50.960225 1970144000 net.cpp:127] Top shape: 100 20 24 24 (1152000)
I0626 01:13:50.960237 1970144000 net.cpp:459] Sharing parameters 'conv1_w' owned by layer 'conv1', param index 0
I0626 01:13:50.960243 1970144000 net.cpp:459] Sharing parameters 'conv1_b' owned by layer 'conv1', param index 1
I0626 01:13:50.960248 1970144000 layer_factory.hpp:74] Creating layer pool1_p
I0626 01:13:50.960258 1970144000 net.cpp:90] Creating Layer pool1_p
I0626 01:13:50.960263 1970144000 net.cpp:410] pool1_p <- conv1_p
I0626 01:13:50.960269 1970144000 net.cpp:368] pool1_p -> pool1_p
I0626 01:13:50.960276 1970144000 net.cpp:120] Setting up pool1_p
I0626 01:13:50.960322 1970144000 net.cpp:127] Top shape: 100 20 12 12 (288000)
I0626 01:13:50.960330 1970144000 layer_factory.hpp:74] Creating layer conv2_p
I0626 01:13:50.960336 1970144000 net.cpp:90] Creating Layer conv2_p
I0626 01:13:50.960340 1970144000 net.cpp:410] conv2_p <- pool1_p
I0626 01:13:50.960348 1970144000 net.cpp:368] conv2_p -> conv2_p
I0626 01:13:50.960356 1970144000 net.cpp:120] Setting up conv2_p
I0626 01:13:50.960850 1970144000 net.cpp:127] Top shape: 100 50 8 8 (320000)
I0626 01:13:50.960862 1970144000 net.cpp:459] Sharing parameters 'conv2_w' owned by layer 'conv2', param index 0
I0626 01:13:50.960868 1970144000 net.cpp:459] Sharing parameters 'conv2_b' owned by layer 'conv2', param index 1
I0626 01:13:50.960875 1970144000 layer_factory.hpp:74] Creating layer pool2_p
I0626 01:13:50.960881 1970144000 net.cpp:90] Creating Layer pool2_p
I0626 01:13:50.960886 1970144000 net.cpp:410] pool2_p <- conv2_p
I0626 01:13:50.960911 1970144000 net.cpp:368] pool2_p -> pool2_p
I0626 01:13:50.960952 1970144000 net.cpp:120] Setting up pool2_p
I0626 01:13:50.961002 1970144000 net.cpp:127] Top shape: 100 50 4 4 (80000)
I0626 01:13:50.961009 1970144000 layer_factory.hpp:74] Creating layer ip1_p
I0626 01:13:50.961024 1970144000 net.cpp:90] Creating Layer ip1_p
I0626 01:13:50.961030 1970144000 net.cpp:410] ip1_p <- pool2_p
I0626 01:13:50.961035 1970144000 net.cpp:368] ip1_p -> ip1_p
I0626 01:13:50.961066 1970144000 net.cpp:120] Setting up ip1_p
I0626 01:13:50.964140 1970144000 net.cpp:127] Top shape: 100 500 (50000)
I0626 01:13:50.964154 1970144000 net.cpp:459] Sharing parameters 'ip1_w' owned by layer 'ip1', param index 0
I0626 01:13:50.964162 1970144000 net.cpp:459] Sharing parameters 'ip1_b' owned by layer 'ip1', param index 1
I0626 01:13:50.964167 1970144000 layer_factory.hpp:74] Creating layer relu1_p
I0626 01:13:50.964174 1970144000 net.cpp:90] Creating Layer relu1_p
I0626 01:13:50.964179 1970144000 net.cpp:410] relu1_p <- ip1_p
I0626 01:13:50.964185 1970144000 net.cpp:357] relu1_p -> ip1_p (in-place)
I0626 01:13:50.964191 1970144000 net.cpp:120] Setting up relu1_p
I0626 01:13:50.964329 1970144000 net.cpp:127] Top shape: 100 500 (50000)
I0626 01:13:50.964339 1970144000 layer_factory.hpp:74] Creating layer ip2_p
I0626 01:13:50.964349 1970144000 net.cpp:90] Creating Layer ip2_p
I0626 01:13:50.964352 1970144000 net.cpp:410] ip2_p <- ip1_p
I0626 01:13:50.964362 1970144000 net.cpp:368] ip2_p -> ip2_p
I0626 01:13:50.964371 1970144000 net.cpp:120] Setting up ip2_p
I0626 01:13:50.964419 1970144000 net.cpp:127] Top shape: 100 10 (1000)
I0626 01:13:50.964427 1970144000 net.cpp:459] Sharing parameters 'ip2_w' owned by layer 'ip2', param index 0
I0626 01:13:50.964449 1970144000 net.cpp:459] Sharing parameters 'ip2_b' owned by layer 'ip2', param index 1
I0626 01:13:50.964457 1970144000 layer_factory.hpp:74] Creating layer feat_p
I0626 01:13:50.964470 1970144000 net.cpp:90] Creating Layer feat_p
I0626 01:13:50.964474 1970144000 net.cpp:410] feat_p <- ip2_p
I0626 01:13:50.964481 1970144000 net.cpp:368] feat_p -> feat_p
I0626 01:13:50.964489 1970144000 net.cpp:120] Setting up feat_p
I0626 01:13:50.964498 1970144000 net.cpp:127] Top shape: 100 2 (200)
I0626 01:13:50.964505 1970144000 net.cpp:459] Sharing parameters 'feat_w' owned by layer 'feat', param index 0
I0626 01:13:50.964510 1970144000 net.cpp:459] Sharing parameters 'feat_b' owned by layer 'feat', param index 1
I0626 01:13:50.964515 1970144000 layer_factory.hpp:74] Creating layer loss
I0626 01:13:50.964521 1970144000 net.cpp:90] Creating Layer loss
I0626 01:13:50.964525 1970144000 net.cpp:410] loss <- feat
…
