…
I0610 12:20:17.895402 2094273280 solver.cpp:70] Creating training net from net file: src/siamese_network_bw/model/siamese_train_validate.prototxt
I0610 12:20:17.895766 2094273280 net.cpp:287] The NetState phase (0) differed from the phase (1) specified by a rule in layer pair_data
I0610 12:20:17.895809 2094273280 net.cpp:42] Initializing net from parameters: 
name: "siamese_train_validate"
state {
  phase: TRAIN
}
layer {
  name: "pair_data"
  type: "Data"
  top: "pair_data"
  top: "sim"
  include {
    phase: TRAIN
  }
  transform_param {
    scale: 1
  }
  data_param {
    source: "src/siamese_network_bw/data/siamese_network_train_leveldb"
    batch_size: 64
  }
}
layer {
  name: "slice_pair"
  type: "Slice"
  bottom: "pair_data"
  top: "data"
  top: "data_p"
  slice_param {
    slice_dim: 1
    slice_point: 1
  }
}
layer {
  name: "conv1"
  type: "Convolution"
  bottom: "data"
  top: "conv1"
  param {
    name: "conv1_w"
    lr_mult: 1
  }
  param {
    name: "conv1_b"
    lr_mult: 2
  }
  convolution_param {
    num_output: 20
    kernel_size: 5
    stride: 1
    weight_filler {
      type: "xavier"
    }
    bias_filler {
      type: "constant"
    }
  }
}
layer {
  name: "pool1"
  type: "Pooling"
  bottom: "conv1"
  top: "pool1"
  pooling_param {
    pool: MAX
    kernel_size: 2
    stride: 2
  }
}
layer {
  name: "conv2"
  type: "Convolution"
  bottom: "pool1"
  top: "conv2"
  param {
    name: "conv2_w"
    lr_mult: 1
  }
  param {
    name: "conv2_b"
    lr_mult: 2
  }
  convolution_param {
    num_output: 50
    kernel_size: 5
    stride: 1
    weight_filler {
      type: "xavier"
    }
    bias_filler {
      type: "constant"
    }
  }
}
layer {
  name: "pool2"
  type: "Pooling"
  bottom: "conv2"
  top: "pool2"
  pooling_param {
    pool: MAX
    kernel_size: 2
    stride: 2
  }
}
layer {
  name: "ip1"
  type: "InnerProduct"
  bottom: "pool2"
  top: "ip1"
  param {
    name: "ip1_w"
    lr_mult: 1
  }
  param {
    name: "ip1_b"
    lr_mult: 2
  }
  inner_product_param {
    num_output: 500
    weight_filler {
      type: "xavier"
    }
    bias_filler {
      type: "constant"
    }
  }
}
layer {
  name: "relu1"
  type: "ReLU"
  bottom: "ip1"
  top: "ip1"
}
layer {
  name: "ip2"
  type: "InnerProduct"
  bottom: "ip1"
  top: "ip2"
  param {
    name: "ip2_w"
    lr_mult: 1
  }
  param {
    name: "ip2_b"
    lr_mult: 2
  }
  inner_product_param {
    num_output: 10
    weight_filler {
      type: "xavier"
    }
    bias_filler {
      type: "constant"
    }
  }
}
layer {
  name: "feat"
  type: "InnerProduct"
  bottom: "ip2"
  top: "feat"
  param {
    name: "feat_w"
    lr_mult: 1
  }
  param {
    name: "feat_b"
    lr_mult: 2
  }
  inner_product_param {
    num_output: 2
    weight_filler {
      type: "xavier"
    }
    bias_filler {
      type: "constant"
    }
  }
}
layer {
  name: "conv1_p"
  type: "Convolution"
  bottom: "data_p"
  top: "conv1_p"
  param {
    name: "conv1_w"
    lr_mult: 1
  }
  param {
    name: "conv1_b"
    lr_mult: 2
  }
  convolution_param {
    num_output: 20
    kernel_size: 5
    stride: 1
    weight_filler {
      type: "xavier"
    }
    bias_filler {
      type: "constant"
    }
  }
}
layer {
  name: "pool1_p"
  type: "Pooling"
  bottom: "conv1_p"
  top: "pool1_p"
  pooling_param {
    pool: MAX
    kernel_size: 2
    stride: 2
  }
}
layer {
  name: "conv2_p"
  type: "Convolution"
  bottom: "pool1_p"
  top: "conv2_p"
  param {
    name: "conv2_w"
    lr_mult: 1
  }
  param {
    name: "conv2_b"
    lr_mult: 2
  }
  convolution_param {
    num_output: 50
    kernel_size: 5
    stride: 1
    weight_filler {
      type: "xavier"
    }
    bias_filler {
      type: "constant"
    }
  }
}
layer {
  name: "pool2_p"
  type: "Pooling"
  bottom: "conv2_p"
  top: "pool2_p"
  pooling_param {
    pool: MAX
    kernel_size: 2
    stride: 2
  }
}
layer {
  name: "ip1_p"
  type: "InnerProduct"
  bottom: "pool2_p"
  top: "ip1_p"
  param {
    name: "ip1_w"
    lr_mult: 1
  }
  param {
    name: "ip1_b"
    lr_mult: 2
  }
  inner_product_param {
    num_output: 500
    weight_filler {
      type: "xavier"
    }
    bias_filler {
      type: "constant"
    }
  }
}
layer {
  name: "relu1_p"
  type: "ReLU"
  bottom: "ip1_p"
  top: "ip1_p"
}
layer {
  name: "ip2_p"
  type: "InnerProduct"
  bottom: "ip1_p"
  top: "ip2_p"
  param {
    name: "ip2_w"
    lr_mult: 1
  }
  param {
    name: "ip2_b"
    lr_mult: 2
  }
  inner_product_param {
    num_output: 10
    weight_filler {
      type: "xavier"
    }
    bias_filler {
      type: "constant"
    }
  }
}
layer {
  name: "feat_p"
  type: "InnerProduct"
  bottom: "ip2_p"
  top: "feat_p"
  param {
    name: "feat_w"
    lr_mult: 1
  }
  param {
    name: "feat_b"
    lr_mult: 2
  }
  inner_product_param {
    num_output: 2
    weight_filler {
      type: "xavier"
    }
    bias_filler {
      type: "constant"
    }
  }
}
layer {
  name: "loss"
  type: "ContrastiveLoss"
  bottom: "feat"
  bottom: "feat_p"
  bottom: "sim"
  top: "loss"
  contrastive_loss_param {
    margin: 1
  }
}
I0610 12:20:17.896080 2094273280 layer_factory.hpp:74] Creating layer pair_data
I0610 12:20:17.896100 2094273280 net.cpp:90] Creating Layer pair_data
I0610 12:20:17.896109 2094273280 net.cpp:368] pair_data -> pair_data
I0610 12:20:17.896127 2094273280 net.cpp:368] pair_data -> sim
I0610 12:20:17.896142 2094273280 net.cpp:120] Setting up pair_data
I0610 12:20:17.898100 2094273280 db.cpp:20] Opened leveldb src/siamese_network_bw/data/siamese_network_train_leveldb
I0610 12:20:17.898411 2094273280 data_layer.cpp:52] output data size: 64,2,62,47
I0610 12:20:17.898967 2094273280 net.cpp:127] Top shape: 64 2 62 47 (372992)
I0610 12:20:17.899022 2094273280 net.cpp:127] Top shape: 64 (64)
I0610 12:20:17.899031 2094273280 layer_factory.hpp:74] Creating layer slice_pair
I0610 12:20:17.899041 2094273280 net.cpp:90] Creating Layer slice_pair
I0610 12:20:17.899046 2094273280 net.cpp:410] slice_pair <- pair_data
I0610 12:20:17.899052 2094273280 net.cpp:368] slice_pair -> data
I0610 12:20:17.899060 2094273280 net.cpp:368] slice_pair -> data_p
I0610 12:20:17.899066 2094273280 net.cpp:120] Setting up slice_pair
I0610 12:20:17.899075 2094273280 net.cpp:127] Top shape: 64 1 62 47 (186496)
I0610 12:20:17.899080 2094273280 net.cpp:127] Top shape: 64 1 62 47 (186496)
I0610 12:20:17.899085 2094273280 layer_factory.hpp:74] Creating layer conv1
I0610 12:20:17.899093 2094273280 net.cpp:90] Creating Layer conv1
I0610 12:20:17.899096 2094273280 net.cpp:410] conv1 <- data
I0610 12:20:17.899102 2094273280 net.cpp:368] conv1 -> conv1
I0610 12:20:17.899109 2094273280 net.cpp:120] Setting up conv1
I0610 12:20:17.957595 2094273280 net.cpp:127] Top shape: 64 20 58 43 (3192320)
I0610 12:20:17.957635 2094273280 layer_factory.hpp:74] Creating layer pool1
I0610 12:20:17.957648 2094273280 net.cpp:90] Creating Layer pool1
I0610 12:20:17.957651 2094273280 net.cpp:410] pool1 <- conv1
I0610 12:20:17.957659 2094273280 net.cpp:368] pool1 -> pool1
I0610 12:20:17.957666 2094273280 net.cpp:120] Setting up pool1
I0610 12:20:17.957818 2094273280 net.cpp:127] Top shape: 64 20 29 22 (816640)
I0610 12:20:17.957828 2094273280 layer_factory.hpp:74] Creating layer conv2
I0610 12:20:17.957836 2094273280 net.cpp:90] Creating Layer conv2
I0610 12:20:17.957840 2094273280 net.cpp:410] conv2 <- pool1
I0610 12:20:17.957849 2094273280 net.cpp:368] conv2 -> conv2
I0610 12:20:17.957855 2094273280 net.cpp:120] Setting up conv2
I0610 12:20:17.958436 2094273280 net.cpp:127] Top shape: 64 50 25 18 (1440000)
I0610 12:20:17.958452 2094273280 layer_factory.hpp:74] Creating layer pool2
I0610 12:20:17.958459 2094273280 net.cpp:90] Creating Layer pool2
I0610 12:20:17.958463 2094273280 net.cpp:410] pool2 <- conv2
I0610 12:20:17.958487 2094273280 net.cpp:368] pool2 -> pool2
I0610 12:20:17.958495 2094273280 net.cpp:120] Setting up pool2
I0610 12:20:17.958541 2094273280 net.cpp:127] Top shape: 64 50 13 9 (374400)
I0610 12:20:17.958547 2094273280 layer_factory.hpp:74] Creating layer ip1
I0610 12:20:17.958586 2094273280 net.cpp:90] Creating Layer ip1
I0610 12:20:17.958600 2094273280 net.cpp:410] ip1 <- pool2
I0610 12:20:17.958609 2094273280 net.cpp:368] ip1 -> ip1
I0610 12:20:17.958619 2094273280 net.cpp:120] Setting up ip1
I0610 12:20:17.981667 2094273280 net.cpp:127] Top shape: 64 500 (32000)
I0610 12:20:17.981709 2094273280 layer_factory.hpp:74] Creating layer relu1
I0610 12:20:17.981726 2094273280 net.cpp:90] Creating Layer relu1
I0610 12:20:17.981732 2094273280 net.cpp:410] relu1 <- ip1
I0610 12:20:17.981739 2094273280 net.cpp:357] relu1 -> ip1 (in-place)
I0610 12:20:17.981751 2094273280 net.cpp:120] Setting up relu1
I0610 12:20:17.981837 2094273280 net.cpp:127] Top shape: 64 500 (32000)
I0610 12:20:17.981845 2094273280 layer_factory.hpp:74] Creating layer ip2
I0610 12:20:17.981880 2094273280 net.cpp:90] Creating Layer ip2
I0610 12:20:17.981891 2094273280 net.cpp:410] ip2 <- ip1
I0610 12:20:17.981899 2094273280 net.cpp:368] ip2 -> ip2
I0610 12:20:17.981907 2094273280 net.cpp:120] Setting up ip2
I0610 12:20:17.981968 2094273280 net.cpp:127] Top shape: 64 10 (640)
I0610 12:20:17.981981 2094273280 layer_factory.hpp:74] Creating layer feat
I0610 12:20:17.981991 2094273280 net.cpp:90] Creating Layer feat
I0610 12:20:17.981997 2094273280 net.cpp:410] feat <- ip2
I0610 12:20:17.982007 2094273280 net.cpp:368] feat -> feat
I0610 12:20:17.982015 2094273280 net.cpp:120] Setting up feat
I0610 12:20:17.982025 2094273280 net.cpp:127] Top shape: 64 2 (128)
I0610 12:20:17.982036 2094273280 layer_factory.hpp:74] Creating layer conv1_p
I0610 12:20:17.982044 2094273280 net.cpp:90] Creating Layer conv1_p
I0610 12:20:17.982050 2094273280 net.cpp:410] conv1_p <- data_p
I0610 12:20:17.982061 2094273280 net.cpp:368] conv1_p -> conv1_p
I0610 12:20:17.982069 2094273280 net.cpp:120] Setting up conv1_p
I0610 12:20:17.982370 2094273280 net.cpp:127] Top shape: 64 20 58 43 (3192320)
I0610 12:20:17.982380 2094273280 net.cpp:459] Sharing parameters 'conv1_w' owned by layer 'conv1', param index 0
I0610 12:20:17.982395 2094273280 net.cpp:459] Sharing parameters 'conv1_b' owned by layer 'conv1', param index 1
I0610 12:20:17.982400 2094273280 layer_factory.hpp:74] Creating layer pool1_p
I0610 12:20:17.982408 2094273280 net.cpp:90] Creating Layer pool1_p
I0610 12:20:17.982411 2094273280 net.cpp:410] pool1_p <- conv1_p
I0610 12:20:17.982416 2094273280 net.cpp:368] pool1_p -> pool1_p
I0610 12:20:17.982422 2094273280 net.cpp:120] Setting up pool1_p
I0610 12:20:17.982532 2094273280 net.cpp:127] Top shape: 64 20 29 22 (816640)
I0610 12:20:17.982540 2094273280 layer_factory.hpp:74] Creating layer conv2_p
I0610 12:20:17.982547 2094273280 net.cpp:90] Creating Layer conv2_p
I0610 12:20:17.982552 2094273280 net.cpp:410] conv2_p <- pool1_p
I0610 12:20:17.982558 2094273280 net.cpp:368] conv2_p -> conv2_p
I0610 12:20:17.982564 2094273280 net.cpp:120] Setting up conv2_p
I0610 12:20:17.982980 2094273280 net.cpp:127] Top shape: 64 50 25 18 (1440000)
I0610 12:20:17.982990 2094273280 net.cpp:459] Sharing parameters 'conv2_w' owned by layer 'conv2', param index 0
I0610 12:20:17.982995 2094273280 net.cpp:459] Sharing parameters 'conv2_b' owned by layer 'conv2', param index 1
I0610 12:20:17.983000 2094273280 layer_factory.hpp:74] Creating layer pool2_p
I0610 12:20:17.983006 2094273280 net.cpp:90] Creating Layer pool2_p
I0610 12:20:17.983010 2094273280 net.cpp:410] pool2_p <- conv2_p
I0610 12:20:17.983014 2094273280 net.cpp:368] pool2_p -> pool2_p
I0610 12:20:17.983021 2094273280 net.cpp:120] Setting up pool2_p
I0610 12:20:17.983062 2094273280 net.cpp:127] Top shape: 64 50 13 9 (374400)
I0610 12:20:17.983067 2094273280 layer_factory.hpp:74] Creating layer ip1_p
I0610 12:20:17.983073 2094273280 net.cpp:90] Creating Layer ip1_p
I0610 12:20:17.983078 2094273280 net.cpp:410] ip1_p <- pool2_p
I0610 12:20:17.983103 2094273280 net.cpp:368] ip1_p -> ip1_p
I0610 12:20:17.983110 2094273280 net.cpp:120] Setting up ip1_p
I0610 12:20:18.006271 2094273280 net.cpp:127] Top shape: 64 500 (32000)
I0610 12:20:18.006296 2094273280 net.cpp:459] Sharing parameters 'ip1_w' owned by layer 'ip1', param index 0
I0610 12:20:18.007097 2094273280 net.cpp:459] Sharing parameters 'ip1_b' owned by layer 'ip1', param index 1
I0610 12:20:18.007107 2094273280 layer_factory.hpp:74] Creating layer relu1_p
I0610 12:20:18.007120 2094273280 net.cpp:90] Creating Layer relu1_p
I0610 12:20:18.007230 2094273280 net.cpp:410] relu1_p <- ip1_p
I0610 12:20:18.007246 2094273280 net.cpp:357] relu1_p -> ip1_p (in-place)
I0610 12:20:18.007254 2094273280 net.cpp:120] Setting up relu1_p
I0610 12:20:18.007355 2094273280 net.cpp:127] Top shape: 64 500 (32000)
I0610 12:20:18.007364 2094273280 layer_factory.hpp:74] Creating layer ip2_p
I0610 12:20:18.007375 2094273280 net.cpp:90] Creating Layer ip2_p
I0610 12:20:18.007380 2094273280 net.cpp:410] ip2_p <- ip1_p
I0610 12:20:18.007386 2094273280 net.cpp:368] ip2_p -> ip2_p
I0610 12:20:18.007396 2094273280 net.cpp:120] Setting up ip2_p
I0610 12:20:18.007448 2094273280 net.cpp:127] Top shape: 64 10 (640)
I0610 12:20:18.007473 2094273280 net.cpp:459] Sharing parameters 'ip2_w' owned by layer 'ip2', param index 0
I0610 12:20:18.007483 2094273280 net.cpp:459] Sharing parameters 'ip2_b' owned by layer 'ip2', param index 1
I0610 12:20:18.007488 2094273280 layer_factory.hpp:74] Creating layer feat_p
I0610 12:20:18.007495 2094273280 net.cpp:90] Creating Layer feat_p
I0610 12:20:18.007500 2094273280 net.cpp:410] feat_p <- ip2_p
I0610 12:20:18.007511 2094273280 net.cpp:368] feat_p -> feat_p
I0610 12:20:18.007519 2094273280 net.cpp:120] Setting up feat_p
I0610 12:20:18.007531 2094273280 net.cpp:127] Top shape: 64 2 (128)
I0610 12:20:18.007542 2094273280 net.cpp:459] Sharing parameters 'feat_w' owned by layer 'feat', param index 0
I0610 12:20:18.007549 2094273280 net.cpp:459] Sharing parameters 'feat_b' owned by layer 'feat', param index 1
I0610 12:20:18.007554 2094273280 layer_factory.hpp:74] Creating layer loss
I0610 12:20:18.007567 2094273280 net.cpp:90] Creating Layer loss
I0610 12:20:18.007575 2094273280 net.cpp:410] loss <- feat
…
I0610 12:20:18.008072 2094273280 solver.cpp:154] Creating test net (#0) specified by net file: src/siamese_network_bw/model/siamese_train_validate.prototxt
I0610 12:20:18.008112 2094273280 net.cpp:287] The NetState phase (1) differed from the phase (0) specified by a rule in layer pair_data
I0610 12:20:18.008131 2094273280 net.cpp:42] Initializing net from parameters: 
name: "siamese_train_validate"
state {
  phase: TEST
}
layer {
  name: "pair_data"
  type: "Data"
  top: "pair_data"
  top: "sim"
  include {
    phase: TEST
  }
  transform_param {
    scale: 1
  }
  data_param {
    source: "src/siamese_network_bw/data/siamese_network_validation_leveldb"
    batch_size: 100
  }
}
layer {
  name: "slice_pair"
  type: "Slice"
  bottom: "pair_data"
  top: "data"
  top: "data_p"
  slice_param {
    slice_dim: 1
    slice_point: 1
  }
}
layer {
  name: "conv1"
  type: "Convolution"
  bottom: "data"
  top: "conv1"
  param {
    name: "conv1_w"
    lr_mult: 1
  }
  param {
    name: "conv1_b"
    lr_mult: 2
  }
  convolution_param {
    num_output: 20
    kernel_size: 5
    stride: 1
    weight_filler {
      type: "xavier"
    }
    bias_filler {
      type: "constant"
    }
  }
}
layer {
  name: "pool1"
  type: "Pooling"
  bottom: "conv1"
  top: "pool1"
  pooling_param {
    pool: MAX
    kernel_size: 2
    stride: 2
  }
}
layer {
  name: "conv2"
  type: "Convolution"
  bottom: "pool1"
  top: "conv2"
  param {
    name: "conv2_w"
    lr_mult: 1
  }
  param {
    name: "conv2_b"
    lr_mult: 2
  }
  convolution_param {
    num_output: 50
    kernel_size: 5
    stride: 1
    weight_filler {
      type: "xavier"
    }
    bias_filler {
      type: "constant"
    }
  }
}
layer {
  name: "pool2"
  type: "Pooling"
  bottom: "conv2"
  top: "pool2"
  pooling_param {
    pool: MAX
    kernel_size: 2
    stride: 2
  }
}
layer {
  name: "ip1"
  type: "InnerProduct"
  bottom: "pool2"
  top: "ip1"
  param {
    name: "ip1_w"
    lr_mult: 1
  }
  param {
    name: "ip1_b"
    lr_mult: 2
  }
  inner_product_param {
    num_output: 500
    weight_filler {
      type: "xavier"
    }
    bias_filler {
      type: "constant"
    }
  }
}
layer {
  name: "relu1"
  type: "ReLU"
  bottom: "ip1"
  top: "ip1"
}
layer {
  name: "ip2"
  type: "InnerProduct"
  bottom: "ip1"
  top: "ip2"
  param {
    name: "ip2_w"
    lr_mult: 1
  }
  param {
    name: "ip2_b"
    lr_mult: 2
  }
  inner_product_param {
    num_output: 10
    weight_filler {
      type: "xavier"
    }
    bias_filler {
      type: "constant"
    }
  }
}
layer {
  name: "feat"
  type: "InnerProduct"
  bottom: "ip2"
  top: "feat"
  param {
    name: "feat_w"
    lr_mult: 1
  }
  param {
    name: "feat_b"
    lr_mult: 2
  }
  inner_product_param {
    num_output: 2
    weight_filler {
      type: "xavier"
    }
    bias_filler {
      type: "constant"
    }
  }
}
layer {
  name: "conv1_p"
  type: "Convolution"
  bottom: "data_p"
  top: "conv1_p"
  param {
    name: "conv1_w"
    lr_mult: 1
  }
  param {
    name: "conv1_b"
    lr_mult: 2
  }
  convolution_param {
    num_output: 20
    kernel_size: 5
    stride: 1
    weight_filler {
      type: "xavier"
    }
    bias_filler {
      type: "constant"
    }
  }
}
layer {
  name: "pool1_p"
  type: "Pooling"
  bottom: "conv1_p"
  top: "pool1_p"
  pooling_param {
    pool: MAX
    kernel_size: 2
    stride: 2
  }
}
layer {
  name: "conv2_p"
  type: "Convolution"
  bottom: "pool1_p"
  top: "conv2_p"
  param {
    name: "conv2_w"
    lr_mult: 1
  }
  param {
    name: "conv2_b"
    lr_mult: 2
  }
  convolution_param {
    num_output: 50
    kernel_size: 5
    stride: 1
    weight_filler {
      type: "xavier"
    }
    bias_filler {
      type: "constant"
    }
  }
}
layer {
  name: "pool2_p"
  type: "Pooling"
  bottom: "conv2_p"
  top: "pool2_p"
  pooling_param {
    pool: MAX
    kernel_size: 2
    stride: 2
  }
}
layer {
  name: "ip1_p"
  type: "InnerProduct"
  bottom: "pool2_p"
  top: "ip1_p"
  param {
    name: "ip1_w"
    lr_mult: 1
  }
  param {
    name: "ip1_b"
    lr_mult: 2
  }
  inner_product_param {
    num_output: 500
    weight_filler {
      type: "xavier"
    }
    bias_filler {
      type: "constant"
    }
  }
}
layer {
  name: "relu1_p"
  type: "ReLU"
  bottom: "ip1_p"
  top: "ip1_p"
}
layer {
  name: "ip2_p"
  type: "InnerProduct"
  bottom: "ip1_p"
  top: "ip2_p"
  param {
    name: "ip2_w"
    lr_mult: 1
  }
  param {
    name: "ip2_b"
    lr_mult: 2
  }
  inner_product_param {
    num_output: 10
    weight_filler {
      type: "xavier"
    }
    bias_filler {
      type: "constant"
    }
  }
}
layer {
  name: "feat_p"
  type: "InnerProduct"
  bottom: "ip2_p"
  top: "feat_p"
  param {
    name: "feat_w"
    lr_mult: 1
  }
  param {
    name: "feat_b"
    lr_mult: 2
  }
  inner_product_param {
    num_output: 2
    weight_filler {
      type: "xavier"
    }
    bias_filler {
      type: "constant"
    }
  }
}
layer {
  name: "loss"
  type: "ContrastiveLoss"
  bottom: "feat"
  bottom: "feat_p"
  bottom: "sim"
  top: "loss"
  contrastive_loss_param {
    margin: 1
  }
}
I0610 12:20:18.008427 2094273280 layer_factory.hpp:74] Creating layer pair_data
I0610 12:20:18.008472 2094273280 net.cpp:90] Creating Layer pair_data
I0610 12:20:18.008487 2094273280 net.cpp:368] pair_data -> pair_data
I0610 12:20:18.008563 2094273280 net.cpp:368] pair_data -> sim
I0610 12:20:18.008594 2094273280 net.cpp:120] Setting up pair_data
I0610 12:20:18.010293 2094273280 db.cpp:20] Opened leveldb src/siamese_network_bw/data/siamese_network_validation_leveldb
I0610 12:20:18.010663 2094273280 data_layer.cpp:52] output data size: 100,2,62,47
I0610 12:20:18.011793 2094273280 net.cpp:127] Top shape: 100 2 62 47 (582800)
I0610 12:20:18.011813 2094273280 net.cpp:127] Top shape: 100 (100)
I0610 12:20:18.011826 2094273280 layer_factory.hpp:74] Creating layer slice_pair
I0610 12:20:18.011857 2094273280 net.cpp:90] Creating Layer slice_pair
I0610 12:20:18.011872 2094273280 net.cpp:410] slice_pair <- pair_data
I0610 12:20:18.011880 2094273280 net.cpp:368] slice_pair -> data
I0610 12:20:18.011891 2094273280 net.cpp:368] slice_pair -> data_p
I0610 12:20:18.011898 2094273280 net.cpp:120] Setting up slice_pair
I0610 12:20:18.011905 2094273280 net.cpp:127] Top shape: 100 1 62 47 (291400)
I0610 12:20:18.011911 2094273280 net.cpp:127] Top shape: 100 1 62 47 (291400)
I0610 12:20:18.011919 2094273280 layer_factory.hpp:74] Creating layer conv1
I0610 12:20:18.011941 2094273280 net.cpp:90] Creating Layer conv1
I0610 12:20:18.011947 2094273280 net.cpp:410] conv1 <- data
I0610 12:20:18.011956 2094273280 net.cpp:368] conv1 -> conv1
I0610 12:20:18.011972 2094273280 net.cpp:120] Setting up conv1
I0610 12:20:18.012414 2094273280 net.cpp:127] Top shape: 100 20 58 43 (4988000)
I0610 12:20:18.012434 2094273280 layer_factory.hpp:74] Creating layer pool1
I0610 12:20:18.012444 2094273280 net.cpp:90] Creating Layer pool1
I0610 12:20:18.012451 2094273280 net.cpp:410] pool1 <- conv1
I0610 12:20:18.012460 2094273280 net.cpp:368] pool1 -> pool1
I0610 12:20:18.012467 2094273280 net.cpp:120] Setting up pool1
I0610 12:20:18.012552 2094273280 net.cpp:127] Top shape: 100 20 29 22 (1276000)
I0610 12:20:18.012567 2094273280 layer_factory.hpp:74] Creating layer conv2
I0610 12:20:18.012579 2094273280 net.cpp:90] Creating Layer conv2
I0610 12:20:18.012586 2094273280 net.cpp:410] conv2 <- pool1
I0610 12:20:18.012598 2094273280 net.cpp:368] conv2 -> conv2
I0610 12:20:18.012610 2094273280 net.cpp:120] Setting up conv2
I0610 12:20:18.013348 2094273280 net.cpp:127] Top shape: 100 50 25 18 (2250000)
I0610 12:20:18.013386 2094273280 layer_factory.hpp:74] Creating layer pool2
I0610 12:20:18.013397 2094273280 net.cpp:90] Creating Layer pool2
I0610 12:20:18.013406 2094273280 net.cpp:410] pool2 <- conv2
I0610 12:20:18.013414 2094273280 net.cpp:368] pool2 -> pool2
I0610 12:20:18.013442 2094273280 net.cpp:120] Setting up pool2
I0610 12:20:18.013648 2094273280 net.cpp:127] Top shape: 100 50 13 9 (585000)
I0610 12:20:18.013664 2094273280 layer_factory.hpp:74] Creating layer ip1
I0610 12:20:18.013676 2094273280 net.cpp:90] Creating Layer ip1
I0610 12:20:18.013684 2094273280 net.cpp:410] ip1 <- pool2
I0610 12:20:18.013695 2094273280 net.cpp:368] ip1 -> ip1
I0610 12:20:18.013707 2094273280 net.cpp:120] Setting up ip1
I0610 12:20:18.035769 2094273280 net.cpp:127] Top shape: 100 500 (50000)
I0610 12:20:18.035802 2094273280 layer_factory.hpp:74] Creating layer relu1
I0610 12:20:18.035815 2094273280 net.cpp:90] Creating Layer relu1
I0610 12:20:18.035820 2094273280 net.cpp:410] relu1 <- ip1
I0610 12:20:18.035828 2094273280 net.cpp:357] relu1 -> ip1 (in-place)
I0610 12:20:18.035840 2094273280 net.cpp:120] Setting up relu1
I0610 12:20:18.035941 2094273280 net.cpp:127] Top shape: 100 500 (50000)
I0610 12:20:18.035954 2094273280 layer_factory.hpp:74] Creating layer ip2
I0610 12:20:18.035974 2094273280 net.cpp:90] Creating Layer ip2
I0610 12:20:18.035979 2094273280 net.cpp:410] ip2 <- ip1
I0610 12:20:18.035985 2094273280 net.cpp:368] ip2 -> ip2
I0610 12:20:18.036013 2094273280 net.cpp:120] Setting up ip2
I0610 12:20:18.036108 2094273280 net.cpp:127] Top shape: 100 10 (1000)
I0610 12:20:18.036129 2094273280 layer_factory.hpp:74] Creating layer feat
I0610 12:20:18.036149 2094273280 net.cpp:90] Creating Layer feat
I0610 12:20:18.036161 2094273280 net.cpp:410] feat <- ip2
I0610 12:20:18.036173 2094273280 net.cpp:368] feat -> feat
I0610 12:20:18.036203 2094273280 net.cpp:120] Setting up feat
I0610 12:20:18.036234 2094273280 net.cpp:127] Top shape: 100 2 (200)
I0610 12:20:18.036252 2094273280 layer_factory.hpp:74] Creating layer conv1_p
I0610 12:20:18.036273 2094273280 net.cpp:90] Creating Layer conv1_p
I0610 12:20:18.036285 2094273280 net.cpp:410] conv1_p <- data_p
I0610 12:20:18.036296 2094273280 net.cpp:368] conv1_p -> conv1_p
I0610 12:20:18.036309 2094273280 net.cpp:120] Setting up conv1_p
I0610 12:20:18.036774 2094273280 net.cpp:127] Top shape: 100 20 58 43 (4988000)
I0610 12:20:18.036787 2094273280 net.cpp:459] Sharing parameters 'conv1_w' owned by layer 'conv1', param index 0
I0610 12:20:18.036795 2094273280 net.cpp:459] Sharing parameters 'conv1_b' owned by layer 'conv1', param index 1
I0610 12:20:18.036803 2094273280 layer_factory.hpp:74] Creating layer pool1_p
I0610 12:20:18.036813 2094273280 net.cpp:90] Creating Layer pool1_p
I0610 12:20:18.036818 2094273280 net.cpp:410] pool1_p <- conv1_p
I0610 12:20:18.036825 2094273280 net.cpp:368] pool1_p -> pool1_p
I0610 12:20:18.036833 2094273280 net.cpp:120] Setting up pool1_p
I0610 12:20:18.036952 2094273280 net.cpp:127] Top shape: 100 20 29 22 (1276000)
I0610 12:20:18.036964 2094273280 layer_factory.hpp:74] Creating layer conv2_p
I0610 12:20:18.036974 2094273280 net.cpp:90] Creating Layer conv2_p
I0610 12:20:18.036981 2094273280 net.cpp:410] conv2_p <- pool1_p
I0610 12:20:18.036990 2094273280 net.cpp:368] conv2_p -> conv2_p
I0610 12:20:18.037009 2094273280 net.cpp:120] Setting up conv2_p
I0610 12:20:18.037675 2094273280 net.cpp:127] Top shape: 100 50 25 18 (2250000)
I0610 12:20:18.037689 2094273280 net.cpp:459] Sharing parameters 'conv2_w' owned by layer 'conv2', param index 0
I0610 12:20:18.037699 2094273280 net.cpp:459] Sharing parameters 'conv2_b' owned by layer 'conv2', param index 1
I0610 12:20:18.037708 2094273280 layer_factory.hpp:74] Creating layer pool2_p
I0610 12:20:18.037716 2094273280 net.cpp:90] Creating Layer pool2_p
I0610 12:20:18.037724 2094273280 net.cpp:410] pool2_p <- conv2_p
I0610 12:20:18.037731 2094273280 net.cpp:368] pool2_p -> pool2_p
I0610 12:20:18.037739 2094273280 net.cpp:120] Setting up pool2_p
I0610 12:20:18.037803 2094273280 net.cpp:127] Top shape: 100 50 13 9 (585000)
I0610 12:20:18.037811 2094273280 layer_factory.hpp:74] Creating layer ip1_p
I0610 12:20:18.037818 2094273280 net.cpp:90] Creating Layer ip1_p
I0610 12:20:18.037822 2094273280 net.cpp:410] ip1_p <- pool2_p
I0610 12:20:18.037827 2094273280 net.cpp:368] ip1_p -> ip1_p
I0610 12:20:18.037884 2094273280 net.cpp:120] Setting up ip1_p
I0610 12:20:18.062602 2094273280 net.cpp:127] Top shape: 100 500 (50000)
I0610 12:20:18.062633 2094273280 net.cpp:459] Sharing parameters 'ip1_w' owned by layer 'ip1', param index 0
I0610 12:20:18.063453 2094273280 net.cpp:459] Sharing parameters 'ip1_b' owned by layer 'ip1', param index 1
I0610 12:20:18.063462 2094273280 layer_factory.hpp:74] Creating layer relu1_p
I0610 12:20:18.063470 2094273280 net.cpp:90] Creating Layer relu1_p
I0610 12:20:18.063475 2094273280 net.cpp:410] relu1_p <- ip1_p
I0610 12:20:18.063482 2094273280 net.cpp:357] relu1_p -> ip1_p (in-place)
I0610 12:20:18.063488 2094273280 net.cpp:120] Setting up relu1_p
I0610 12:20:18.063664 2094273280 net.cpp:127] Top shape: 100 500 (50000)
I0610 12:20:18.063673 2094273280 layer_factory.hpp:74] Creating layer ip2_p
I0610 12:20:18.063683 2094273280 net.cpp:90] Creating Layer ip2_p
I0610 12:20:18.063688 2094273280 net.cpp:410] ip2_p <- ip1_p
I0610 12:20:18.063694 2094273280 net.cpp:368] ip2_p -> ip2_p
I0610 12:20:18.063702 2094273280 net.cpp:120] Setting up ip2_p
I0610 12:20:18.063750 2094273280 net.cpp:127] Top shape: 100 10 (1000)
I0610 12:20:18.063765 2094273280 net.cpp:459] Sharing parameters 'ip2_w' owned by layer 'ip2', param index 0
I0610 12:20:18.063769 2094273280 net.cpp:459] Sharing parameters 'ip2_b' owned by layer 'ip2', param index 1
I0610 12:20:18.063774 2094273280 layer_factory.hpp:74] Creating layer feat_p
I0610 12:20:18.063781 2094273280 net.cpp:90] Creating Layer feat_p
I0610 12:20:18.063786 2094273280 net.cpp:410] feat_p <- ip2_p
I0610 12:20:18.063791 2094273280 net.cpp:368] feat_p -> feat_p
I0610 12:20:18.063796 2094273280 net.cpp:120] Setting up feat_p
I0610 12:20:18.063830 2094273280 net.cpp:127] Top shape: 100 2 (200)
I0610 12:20:18.063848 2094273280 net.cpp:459] Sharing parameters 'feat_w' owned by layer 'feat', param index 0
I0610 12:20:18.063855 2094273280 net.cpp:459] Sharing parameters 'feat_b' owned by layer 'feat', param index 1
I0610 12:20:18.063860 2094273280 layer_factory.hpp:74] Creating layer loss
I0610 12:20:18.063877 2094273280 net.cpp:90] Creating Layer loss
I0610 12:20:18.063891 2094273280 net.cpp:410] loss <- feat
…
