…
I0625 12:20:49.206965 1970144000 solver.cpp:70] Creating training net from net file: src/siamese_network_bw/model/siamese_train_validate.prototxt
I0625 12:20:49.207396 1970144000 net.cpp:287] The NetState phase (0) differed from the phase (1) specified by a rule in layer pair_data
I0625 12:20:49.207437 1970144000 net.cpp:42] Initializing net from parameters: 
name: "siamese_train_validate"
state {
  phase: TRAIN
}
layer {
  name: "pair_data"
  type: "Data"
  top: "pair_data"
  top: "sim"
  include {
    phase: TRAIN
  }
  transform_param {
    scale: 0.00392156
  }
  data_param {
    source: "src/siamese_network_bw/data/siamese_network_train_leveldb"
    batch_size: 64
  }
}
layer {
  name: "slice_pair"
  type: "Slice"
  bottom: "pair_data"
  top: "data"
  top: "data_p"
  slice_param {
    slice_dim: 1
    slice_point: 1
  }
}
layer {
  name: "conv1"
  type: "Convolution"
  bottom: "data"
  top: "conv1"
  param {
    name: "conv1_w"
    lr_mult: 1
  }
  param {
    name: "conv1_b"
    lr_mult: 2
  }
  convolution_param {
    num_output: 20
    kernel_size: 5
    stride: 1
    weight_filler {
      type: "xavier"
    }
    bias_filler {
      type: "constant"
    }
  }
}
layer {
  name: "pool1"
  type: "Pooling"
  bottom: "conv1"
  top: "pool1"
  pooling_param {
    pool: MAX
    kernel_size: 2
    stride: 2
  }
}
layer {
  name: "conv2"
  type: "Convolution"
  bottom: "pool1"
  top: "conv2"
  param {
    name: "conv2_w"
    lr_mult: 1
  }
  param {
    name: "conv2_b"
    lr_mult: 2
  }
  convolution_param {
    num_output: 50
    kernel_size: 5
    stride: 1
    weight_filler {
      type: "xavier"
    }
    bias_filler {
      type: "constant"
    }
  }
}
layer {
  name: "pool2"
  type: "Pooling"
  bottom: "conv2"
  top: "pool2"
  pooling_param {
    pool: MAX
    kernel_size: 2
    stride: 2
  }
}
layer {
  name: "ip1"
  type: "InnerProduct"
  bottom: "pool2"
  top: "ip1"
  param {
    name: "ip1_w"
    lr_mult: 1
  }
  param {
    name: "ip1_b"
    lr_mult: 2
  }
  inner_product_param {
    num_output: 500
    weight_filler {
      type: "xavier"
    }
    bias_filler {
      type: "constant"
    }
  }
}
layer {
  name: "relu1"
  type: "ReLU"
  bottom: "ip1"
  top: "ip1"
}
layer {
  name: "ip2"
  type: "InnerProduct"
  bottom: "ip1"
  top: "ip2"
  param {
    name: "ip2_w"
    lr_mult: 1
  }
  param {
    name: "ip2_b"
    lr_mult: 2
  }
  inner_product_param {
    num_output: 10
    weight_filler {
      type: "xavier"
    }
    bias_filler {
      type: "constant"
    }
  }
}
layer {
  name: "feat"
  type: "InnerProduct"
  bottom: "ip2"
  top: "feat"
  param {
    name: "feat_w"
    lr_mult: 1
  }
  param {
    name: "feat_b"
    lr_mult: 2
  }
  inner_product_param {
    num_output: 2
    weight_filler {
      type: "xavier"
    }
    bias_filler {
      type: "constant"
    }
  }
}
layer {
  name: "conv1_p"
  type: "Convolution"
  bottom: "data_p"
  top: "conv1_p"
  param {
    name: "conv1_w"
    lr_mult: 1
  }
  param {
    name: "conv1_b"
    lr_mult: 2
  }
  convolution_param {
    num_output: 20
    kernel_size: 5
    stride: 1
    weight_filler {
      type: "xavier"
    }
    bias_filler {
      type: "constant"
    }
  }
}
layer {
  name: "pool1_p"
  type: "Pooling"
  bottom: "conv1_p"
  top: "pool1_p"
  pooling_param {
    pool: MAX
    kernel_size: 2
    stride: 2
  }
}
layer {
  name: "conv2_p"
  type: "Convolution"
  bottom: "pool1_p"
  top: "conv2_p"
  param {
    name: "conv2_w"
    lr_mult: 1
  }
  param {
    name: "conv2_b"
    lr_mult: 2
  }
  convolution_param {
    num_output: 50
    kernel_size: 5
    stride: 1
    weight_filler {
      type: "xavier"
    }
    bias_filler {
      type: "constant"
    }
  }
}
layer {
  name: "pool2_p"
  type: "Pooling"
  bottom: "conv2_p"
  top: "pool2_p"
  pooling_param {
    pool: MAX
    kernel_size: 2
    stride: 2
  }
}
layer {
  name: "ip1_p"
  type: "InnerProduct"
  bottom: "pool2_p"
  top: "ip1_p"
  param {
    name: "ip1_w"
    lr_mult: 1
  }
  param {
    name: "ip1_b"
    lr_mult: 2
  }
  inner_product_param {
    num_output: 500
    weight_filler {
      type: "xavier"
    }
    bias_filler {
      type: "constant"
    }
  }
}
layer {
  name: "relu1_p"
  type: "ReLU"
  bottom: "ip1_p"
  top: "ip1_p"
}
layer {
  name: "ip2_p"
  type: "InnerProduct"
  bottom: "ip1_p"
  top: "ip2_p"
  param {
    name: "ip2_w"
    lr_mult: 1
  }
  param {
    name: "ip2_b"
    lr_mult: 2
  }
  inner_product_param {
    num_output: 10
    weight_filler {
      type: "xavier"
    }
    bias_filler {
      type: "constant"
    }
  }
}
layer {
  name: "feat_p"
  type: "InnerProduct"
  bottom: "ip2_p"
  top: "feat_p"
  param {
    name: "feat_w"
    lr_mult: 1
  }
  param {
    name: "feat_b"
    lr_mult: 2
  }
  inner_product_param {
    num_output: 2
    weight_filler {
      type: "xavier"
    }
    bias_filler {
      type: "constant"
    }
  }
}
layer {
  name: "loss"
  type: "ContrastiveLoss"
  bottom: "feat"
  bottom: "feat_p"
  bottom: "sim"
  top: "loss"
  contrastive_loss_param {
    margin: 1
  }
}
I0625 12:20:49.207737 1970144000 layer_factory.hpp:74] Creating layer pair_data
I0625 12:20:49.207759 1970144000 net.cpp:90] Creating Layer pair_data
I0625 12:20:49.207768 1970144000 net.cpp:368] pair_data -> pair_data
I0625 12:20:49.207813 1970144000 net.cpp:368] pair_data -> sim
I0625 12:20:49.207824 1970144000 net.cpp:120] Setting up pair_data
I0625 12:20:49.209877 1970144000 db.cpp:20] Opened leveldb src/siamese_network_bw/data/siamese_network_train_leveldb
I0625 12:20:49.210572 1970144000 data_layer.cpp:52] output data size: 64,2,62,47
I0625 12:20:49.211331 1970144000 net.cpp:127] Top shape: 64 2 62 47 (372992)
I0625 12:20:49.211354 1970144000 net.cpp:127] Top shape: 64 (64)
I0625 12:20:49.211393 1970144000 layer_factory.hpp:74] Creating layer slice_pair
I0625 12:20:49.211431 1970144000 net.cpp:90] Creating Layer slice_pair
I0625 12:20:49.211441 1970144000 net.cpp:410] slice_pair <- pair_data
I0625 12:20:49.211488 1970144000 net.cpp:368] slice_pair -> data
I0625 12:20:49.211503 1970144000 net.cpp:368] slice_pair -> data_p
I0625 12:20:49.211508 1970144000 net.cpp:120] Setting up slice_pair
I0625 12:20:49.211525 1970144000 net.cpp:127] Top shape: 64 1 62 47 (186496)
I0625 12:20:49.211536 1970144000 net.cpp:127] Top shape: 64 1 62 47 (186496)
I0625 12:20:49.211549 1970144000 layer_factory.hpp:74] Creating layer conv1
I0625 12:20:49.211577 1970144000 net.cpp:90] Creating Layer conv1
I0625 12:20:49.211601 1970144000 net.cpp:410] conv1 <- data
I0625 12:20:49.211616 1970144000 net.cpp:368] conv1 -> conv1
I0625 12:20:49.211648 1970144000 net.cpp:120] Setting up conv1
I0625 12:20:49.319458 1970144000 net.cpp:127] Top shape: 64 20 58 43 (3192320)
I0625 12:20:49.319500 1970144000 layer_factory.hpp:74] Creating layer pool1
I0625 12:20:49.319514 1970144000 net.cpp:90] Creating Layer pool1
I0625 12:20:49.319519 1970144000 net.cpp:410] pool1 <- conv1
I0625 12:20:49.319525 1970144000 net.cpp:368] pool1 -> pool1
I0625 12:20:49.319699 1970144000 net.cpp:120] Setting up pool1
I0625 12:20:49.319911 1970144000 net.cpp:127] Top shape: 64 20 29 22 (816640)
I0625 12:20:49.319926 1970144000 layer_factory.hpp:74] Creating layer conv2
I0625 12:20:49.319937 1970144000 net.cpp:90] Creating Layer conv2
I0625 12:20:49.319941 1970144000 net.cpp:410] conv2 <- pool1
I0625 12:20:49.319948 1970144000 net.cpp:368] conv2 -> conv2
I0625 12:20:49.319957 1970144000 net.cpp:120] Setting up conv2
I0625 12:20:49.320504 1970144000 net.cpp:127] Top shape: 64 50 25 18 (1440000)
I0625 12:20:49.320530 1970144000 layer_factory.hpp:74] Creating layer pool2
I0625 12:20:49.320538 1970144000 net.cpp:90] Creating Layer pool2
I0625 12:20:49.320543 1970144000 net.cpp:410] pool2 <- conv2
I0625 12:20:49.320570 1970144000 net.cpp:368] pool2 -> pool2
I0625 12:20:49.320580 1970144000 net.cpp:120] Setting up pool2
I0625 12:20:49.320624 1970144000 net.cpp:127] Top shape: 64 50 13 9 (374400)
I0625 12:20:49.320660 1970144000 layer_factory.hpp:74] Creating layer ip1
I0625 12:20:49.320674 1970144000 net.cpp:90] Creating Layer ip1
I0625 12:20:49.320708 1970144000 net.cpp:410] ip1 <- pool2
I0625 12:20:49.320718 1970144000 net.cpp:368] ip1 -> ip1
I0625 12:20:49.320766 1970144000 net.cpp:120] Setting up ip1
I0625 12:20:49.346071 1970144000 net.cpp:127] Top shape: 64 500 (32000)
I0625 12:20:49.346101 1970144000 layer_factory.hpp:74] Creating layer relu1
I0625 12:20:49.346117 1970144000 net.cpp:90] Creating Layer relu1
I0625 12:20:49.346124 1970144000 net.cpp:410] relu1 <- ip1
I0625 12:20:49.346132 1970144000 net.cpp:357] relu1 -> ip1 (in-place)
I0625 12:20:49.346138 1970144000 net.cpp:120] Setting up relu1
I0625 12:20:49.346276 1970144000 net.cpp:127] Top shape: 64 500 (32000)
I0625 12:20:49.346318 1970144000 layer_factory.hpp:74] Creating layer ip2
I0625 12:20:49.346384 1970144000 net.cpp:90] Creating Layer ip2
I0625 12:20:49.346401 1970144000 net.cpp:410] ip2 <- ip1
I0625 12:20:49.346417 1970144000 net.cpp:368] ip2 -> ip2
I0625 12:20:49.346427 1970144000 net.cpp:120] Setting up ip2
I0625 12:20:49.346485 1970144000 net.cpp:127] Top shape: 64 10 (640)
I0625 12:20:49.346493 1970144000 layer_factory.hpp:74] Creating layer feat
I0625 12:20:49.346524 1970144000 net.cpp:90] Creating Layer feat
I0625 12:20:49.346534 1970144000 net.cpp:410] feat <- ip2
I0625 12:20:49.346554 1970144000 net.cpp:368] feat -> feat
I0625 12:20:49.346618 1970144000 net.cpp:120] Setting up feat
I0625 12:20:49.346633 1970144000 net.cpp:127] Top shape: 64 2 (128)
I0625 12:20:49.346657 1970144000 layer_factory.hpp:74] Creating layer conv1_p
I0625 12:20:49.346673 1970144000 net.cpp:90] Creating Layer conv1_p
I0625 12:20:49.346679 1970144000 net.cpp:410] conv1_p <- data_p
I0625 12:20:49.346690 1970144000 net.cpp:368] conv1_p -> conv1_p
I0625 12:20:49.346715 1970144000 net.cpp:120] Setting up conv1_p
I0625 12:20:49.347355 1970144000 net.cpp:127] Top shape: 64 20 58 43 (3192320)
I0625 12:20:49.347383 1970144000 net.cpp:459] Sharing parameters 'conv1_w' owned by layer 'conv1', param index 0
I0625 12:20:49.347409 1970144000 net.cpp:459] Sharing parameters 'conv1_b' owned by layer 'conv1', param index 1
I0625 12:20:49.347416 1970144000 layer_factory.hpp:74] Creating layer pool1_p
I0625 12:20:49.347429 1970144000 net.cpp:90] Creating Layer pool1_p
I0625 12:20:49.347435 1970144000 net.cpp:410] pool1_p <- conv1_p
I0625 12:20:49.347463 1970144000 net.cpp:368] pool1_p -> pool1_p
I0625 12:20:49.347482 1970144000 net.cpp:120] Setting up pool1_p
I0625 12:20:49.347779 1970144000 net.cpp:127] Top shape: 64 20 29 22 (816640)
I0625 12:20:49.347820 1970144000 layer_factory.hpp:74] Creating layer conv2_p
I0625 12:20:49.347892 1970144000 net.cpp:90] Creating Layer conv2_p
I0625 12:20:49.347951 1970144000 net.cpp:410] conv2_p <- pool1_p
I0625 12:20:49.348006 1970144000 net.cpp:368] conv2_p -> conv2_p
I0625 12:20:49.348059 1970144000 net.cpp:120] Setting up conv2_p
I0625 12:20:49.348722 1970144000 net.cpp:127] Top shape: 64 50 25 18 (1440000)
I0625 12:20:49.348745 1970144000 net.cpp:459] Sharing parameters 'conv2_w' owned by layer 'conv2', param index 0
I0625 12:20:49.348783 1970144000 net.cpp:459] Sharing parameters 'conv2_b' owned by layer 'conv2', param index 1
I0625 12:20:49.348793 1970144000 layer_factory.hpp:74] Creating layer pool2_p
I0625 12:20:49.348800 1970144000 net.cpp:90] Creating Layer pool2_p
I0625 12:20:49.348819 1970144000 net.cpp:410] pool2_p <- conv2_p
I0625 12:20:49.348860 1970144000 net.cpp:368] pool2_p -> pool2_p
I0625 12:20:49.348870 1970144000 net.cpp:120] Setting up pool2_p
I0625 12:20:49.349021 1970144000 net.cpp:127] Top shape: 64 50 13 9 (374400)
I0625 12:20:49.349081 1970144000 layer_factory.hpp:74] Creating layer ip1_p
I0625 12:20:49.349098 1970144000 net.cpp:90] Creating Layer ip1_p
I0625 12:20:49.349107 1970144000 net.cpp:410] ip1_p <- pool2_p
I0625 12:20:49.349200 1970144000 net.cpp:368] ip1_p -> ip1_p
I0625 12:20:49.349257 1970144000 net.cpp:120] Setting up ip1_p
I0625 12:20:49.376878 1970144000 net.cpp:127] Top shape: 64 500 (32000)
I0625 12:20:49.376909 1970144000 net.cpp:459] Sharing parameters 'ip1_w' owned by layer 'ip1', param index 0
I0625 12:20:49.378062 1970144000 net.cpp:459] Sharing parameters 'ip1_b' owned by layer 'ip1', param index 1
I0625 12:20:49.378073 1970144000 layer_factory.hpp:74] Creating layer relu1_p
I0625 12:20:49.378083 1970144000 net.cpp:90] Creating Layer relu1_p
I0625 12:20:49.378088 1970144000 net.cpp:410] relu1_p <- ip1_p
I0625 12:20:49.378103 1970144000 net.cpp:357] relu1_p -> ip1_p (in-place)
I0625 12:20:49.378110 1970144000 net.cpp:120] Setting up relu1_p
I0625 12:20:49.378202 1970144000 net.cpp:127] Top shape: 64 500 (32000)
I0625 12:20:49.378211 1970144000 layer_factory.hpp:74] Creating layer ip2_p
I0625 12:20:49.378239 1970144000 net.cpp:90] Creating Layer ip2_p
I0625 12:20:49.378248 1970144000 net.cpp:410] ip2_p <- ip1_p
I0625 12:20:49.378260 1970144000 net.cpp:368] ip2_p -> ip2_p
I0625 12:20:49.378270 1970144000 net.cpp:120] Setting up ip2_p
I0625 12:20:49.378329 1970144000 net.cpp:127] Top shape: 64 10 (640)
I0625 12:20:49.378350 1970144000 net.cpp:459] Sharing parameters 'ip2_w' owned by layer 'ip2', param index 0
I0625 12:20:49.378362 1970144000 net.cpp:459] Sharing parameters 'ip2_b' owned by layer 'ip2', param index 1
I0625 12:20:49.378386 1970144000 layer_factory.hpp:74] Creating layer feat_p
I0625 12:20:49.378397 1970144000 net.cpp:90] Creating Layer feat_p
I0625 12:20:49.378402 1970144000 net.cpp:410] feat_p <- ip2_p
I0625 12:20:49.378432 1970144000 net.cpp:368] feat_p -> feat_p
I0625 12:20:49.378443 1970144000 net.cpp:120] Setting up feat_p
I0625 12:20:49.378454 1970144000 net.cpp:127] Top shape: 64 2 (128)
I0625 12:20:49.378460 1970144000 net.cpp:459] Sharing parameters 'feat_w' owned by layer 'feat', param index 0
I0625 12:20:49.378465 1970144000 net.cpp:459] Sharing parameters 'feat_b' owned by layer 'feat', param index 1
I0625 12:20:49.378469 1970144000 layer_factory.hpp:74] Creating layer loss
I0625 12:20:49.378479 1970144000 net.cpp:90] Creating Layer loss
I0625 12:20:49.378484 1970144000 net.cpp:410] loss <- feat
…
I0625 12:20:49.379192 1970144000 solver.cpp:154] Creating test net (#0) specified by net file: src/siamese_network_bw/model/siamese_train_validate.prototxt
I0625 12:20:49.379235 1970144000 net.cpp:287] The NetState phase (1) differed from the phase (0) specified by a rule in layer pair_data
I0625 12:20:49.379252 1970144000 net.cpp:42] Initializing net from parameters: 
name: "siamese_train_validate"
state {
  phase: TEST
}
layer {
  name: "pair_data"
  type: "Data"
  top: "pair_data"
  top: "sim"
  include {
    phase: TEST
  }
  transform_param {
    scale: 0.00392156
  }
  data_param {
    source: "src/siamese_network_bw/data/siamese_network_validation_leveldb"
    batch_size: 100
  }
}
layer {
  name: "slice_pair"
  type: "Slice"
  bottom: "pair_data"
  top: "data"
  top: "data_p"
  slice_param {
    slice_dim: 1
    slice_point: 1
  }
}
layer {
  name: "conv1"
  type: "Convolution"
  bottom: "data"
  top: "conv1"
  param {
    name: "conv1_w"
    lr_mult: 1
  }
  param {
    name: "conv1_b"
    lr_mult: 2
  }
  convolution_param {
    num_output: 20
    kernel_size: 5
    stride: 1
    weight_filler {
      type: "xavier"
    }
    bias_filler {
      type: "constant"
    }
  }
}
layer {
  name: "pool1"
  type: "Pooling"
  bottom: "conv1"
  top: "pool1"
  pooling_param {
    pool: MAX
    kernel_size: 2
    stride: 2
  }
}
layer {
  name: "conv2"
  type: "Convolution"
  bottom: "pool1"
  top: "conv2"
  param {
    name: "conv2_w"
    lr_mult: 1
  }
  param {
    name: "conv2_b"
    lr_mult: 2
  }
  convolution_param {
    num_output: 50
    kernel_size: 5
    stride: 1
    weight_filler {
      type: "xavier"
    }
    bias_filler {
      type: "constant"
    }
  }
}
layer {
  name: "pool2"
  type: "Pooling"
  bottom: "conv2"
  top: "pool2"
  pooling_param {
    pool: MAX
    kernel_size: 2
    stride: 2
  }
}
layer {
  name: "ip1"
  type: "InnerProduct"
  bottom: "pool2"
  top: "ip1"
  param {
    name: "ip1_w"
    lr_mult: 1
  }
  param {
    name: "ip1_b"
    lr_mult: 2
  }
  inner_product_param {
    num_output: 500
    weight_filler {
      type: "xavier"
    }
    bias_filler {
      type: "constant"
    }
  }
}
layer {
  name: "relu1"
  type: "ReLU"
  bottom: "ip1"
  top: "ip1"
}
layer {
  name: "ip2"
  type: "InnerProduct"
  bottom: "ip1"
  top: "ip2"
  param {
    name: "ip2_w"
    lr_mult: 1
  }
  param {
    name: "ip2_b"
    lr_mult: 2
  }
  inner_product_param {
    num_output: 10
    weight_filler {
      type: "xavier"
    }
    bias_filler {
      type: "constant"
    }
  }
}
layer {
  name: "feat"
  type: "InnerProduct"
  bottom: "ip2"
  top: "feat"
  param {
    name: "feat_w"
    lr_mult: 1
  }
  param {
    name: "feat_b"
    lr_mult: 2
  }
  inner_product_param {
    num_output: 2
    weight_filler {
      type: "xavier"
    }
    bias_filler {
      type: "constant"
    }
  }
}
layer {
  name: "conv1_p"
  type: "Convolution"
  bottom: "data_p"
  top: "conv1_p"
  param {
    name: "conv1_w"
    lr_mult: 1
  }
  param {
    name: "conv1_b"
    lr_mult: 2
  }
  convolution_param {
    num_output: 20
    kernel_size: 5
    stride: 1
    weight_filler {
      type: "xavier"
    }
    bias_filler {
      type: "constant"
    }
  }
}
layer {
  name: "pool1_p"
  type: "Pooling"
  bottom: "conv1_p"
  top: "pool1_p"
  pooling_param {
    pool: MAX
    kernel_size: 2
    stride: 2
  }
}
layer {
  name: "conv2_p"
  type: "Convolution"
  bottom: "pool1_p"
  top: "conv2_p"
  param {
    name: "conv2_w"
    lr_mult: 1
  }
  param {
    name: "conv2_b"
    lr_mult: 2
  }
  convolution_param {
    num_output: 50
    kernel_size: 5
    stride: 1
    weight_filler {
      type: "xavier"
    }
    bias_filler {
      type: "constant"
    }
  }
}
layer {
  name: "pool2_p"
  type: "Pooling"
  bottom: "conv2_p"
  top: "pool2_p"
  pooling_param {
    pool: MAX
    kernel_size: 2
    stride: 2
  }
}
layer {
  name: "ip1_p"
  type: "InnerProduct"
  bottom: "pool2_p"
  top: "ip1_p"
  param {
    name: "ip1_w"
    lr_mult: 1
  }
  param {
    name: "ip1_b"
    lr_mult: 2
  }
  inner_product_param {
    num_output: 500
    weight_filler {
      type: "xavier"
    }
    bias_filler {
      type: "constant"
    }
  }
}
layer {
  name: "relu1_p"
  type: "ReLU"
  bottom: "ip1_p"
  top: "ip1_p"
}
layer {
  name: "ip2_p"
  type: "InnerProduct"
  bottom: "ip1_p"
  top: "ip2_p"
  param {
    name: "ip2_w"
    lr_mult: 1
  }
  param {
    name: "ip2_b"
    lr_mult: 2
  }
  inner_product_param {
    num_output: 10
    weight_filler {
      type: "xavier"
    }
    bias_filler {
      type: "constant"
    }
  }
}
layer {
  name: "feat_p"
  type: "InnerProduct"
  bottom: "ip2_p"
  top: "feat_p"
  param {
    name: "feat_w"
    lr_mult: 1
  }
  param {
    name: "feat_b"
    lr_mult: 2
  }
  inner_product_param {
    num_output: 2
    weight_filler {
      type: "xavier"
    }
    bias_filler {
      type: "constant"
    }
  }
}
layer {
  name: "loss"
  type: "ContrastiveLoss"
  bottom: "feat"
  bottom: "feat_p"
  bottom: "sim"
  top: "loss"
  contrastive_loss_param {
    margin: 1
  }
}
I0625 12:20:49.379492 1970144000 layer_factory.hpp:74] Creating layer pair_data
I0625 12:20:49.379503 1970144000 net.cpp:90] Creating Layer pair_data
I0625 12:20:49.379508 1970144000 net.cpp:368] pair_data -> pair_data
I0625 12:20:49.379516 1970144000 net.cpp:368] pair_data -> sim
I0625 12:20:49.379523 1970144000 net.cpp:120] Setting up pair_data
I0625 12:20:49.380921 1970144000 db.cpp:20] Opened leveldb src/siamese_network_bw/data/siamese_network_validation_leveldb
I0625 12:20:49.381503 1970144000 data_layer.cpp:52] output data size: 100,2,62,47
I0625 12:20:49.382493 1970144000 net.cpp:127] Top shape: 100 2 62 47 (582800)
I0625 12:20:49.382522 1970144000 net.cpp:127] Top shape: 100 (100)
I0625 12:20:49.382541 1970144000 layer_factory.hpp:74] Creating layer slice_pair
I0625 12:20:49.382557 1970144000 net.cpp:90] Creating Layer slice_pair
I0625 12:20:49.382575 1970144000 net.cpp:410] slice_pair <- pair_data
I0625 12:20:49.382602 1970144000 net.cpp:368] slice_pair -> data
I0625 12:20:49.382613 1970144000 net.cpp:368] slice_pair -> data_p
I0625 12:20:49.382637 1970144000 net.cpp:120] Setting up slice_pair
I0625 12:20:49.382663 1970144000 net.cpp:127] Top shape: 100 1 62 47 (291400)
I0625 12:20:49.382668 1970144000 net.cpp:127] Top shape: 100 1 62 47 (291400)
I0625 12:20:49.382690 1970144000 layer_factory.hpp:74] Creating layer conv1
I0625 12:20:49.382731 1970144000 net.cpp:90] Creating Layer conv1
I0625 12:20:49.382748 1970144000 net.cpp:410] conv1 <- data
I0625 12:20:49.382776 1970144000 net.cpp:368] conv1 -> conv1
I0625 12:20:49.382787 1970144000 net.cpp:120] Setting up conv1
I0625 12:20:49.383437 1970144000 net.cpp:127] Top shape: 100 20 58 43 (4988000)
I0625 12:20:49.383478 1970144000 layer_factory.hpp:74] Creating layer pool1
I0625 12:20:49.383492 1970144000 net.cpp:90] Creating Layer pool1
I0625 12:20:49.383512 1970144000 net.cpp:410] pool1 <- conv1
I0625 12:20:49.383538 1970144000 net.cpp:368] pool1 -> pool1
I0625 12:20:49.383548 1970144000 net.cpp:120] Setting up pool1
I0625 12:20:49.383697 1970144000 net.cpp:127] Top shape: 100 20 29 22 (1276000)
I0625 12:20:49.383708 1970144000 layer_factory.hpp:74] Creating layer conv2
I0625 12:20:49.383736 1970144000 net.cpp:90] Creating Layer conv2
I0625 12:20:49.383750 1970144000 net.cpp:410] conv2 <- pool1
I0625 12:20:49.383759 1970144000 net.cpp:368] conv2 -> conv2
I0625 12:20:49.383788 1970144000 net.cpp:120] Setting up conv2
I0625 12:20:49.384878 1970144000 net.cpp:127] Top shape: 100 50 25 18 (2250000)
I0625 12:20:49.384907 1970144000 layer_factory.hpp:74] Creating layer pool2
I0625 12:20:49.384932 1970144000 net.cpp:90] Creating Layer pool2
I0625 12:20:49.384941 1970144000 net.cpp:410] pool2 <- conv2
I0625 12:20:49.384985 1970144000 net.cpp:368] pool2 -> pool2
I0625 12:20:49.385020 1970144000 net.cpp:120] Setting up pool2
I0625 12:20:49.385272 1970144000 net.cpp:127] Top shape: 100 50 13 9 (585000)
I0625 12:20:49.385300 1970144000 layer_factory.hpp:74] Creating layer ip1
I0625 12:20:49.385327 1970144000 net.cpp:90] Creating Layer ip1
I0625 12:20:49.385340 1970144000 net.cpp:410] ip1 <- pool2
I0625 12:20:49.385368 1970144000 net.cpp:368] ip1 -> ip1
I0625 12:20:49.385397 1970144000 net.cpp:120] Setting up ip1
I0625 12:20:49.408671 1970144000 net.cpp:127] Top shape: 100 500 (50000)
I0625 12:20:49.408704 1970144000 layer_factory.hpp:74] Creating layer relu1
I0625 12:20:49.408716 1970144000 net.cpp:90] Creating Layer relu1
I0625 12:20:49.408722 1970144000 net.cpp:410] relu1 <- ip1
I0625 12:20:49.408732 1970144000 net.cpp:357] relu1 -> ip1 (in-place)
I0625 12:20:49.408741 1970144000 net.cpp:120] Setting up relu1
I0625 12:20:49.408866 1970144000 net.cpp:127] Top shape: 100 500 (50000)
I0625 12:20:49.408903 1970144000 layer_factory.hpp:74] Creating layer ip2
I0625 12:20:49.408984 1970144000 net.cpp:90] Creating Layer ip2
I0625 12:20:49.408993 1970144000 net.cpp:410] ip2 <- ip1
I0625 12:20:49.409001 1970144000 net.cpp:368] ip2 -> ip2
I0625 12:20:49.409009 1970144000 net.cpp:120] Setting up ip2
I0625 12:20:49.409131 1970144000 net.cpp:127] Top shape: 100 10 (1000)
I0625 12:20:49.409158 1970144000 layer_factory.hpp:74] Creating layer feat
I0625 12:20:49.409217 1970144000 net.cpp:90] Creating Layer feat
I0625 12:20:49.409236 1970144000 net.cpp:410] feat <- ip2
I0625 12:20:49.409263 1970144000 net.cpp:368] feat -> feat
I0625 12:20:49.409276 1970144000 net.cpp:120] Setting up feat
I0625 12:20:49.409322 1970144000 net.cpp:127] Top shape: 100 2 (200)
I0625 12:20:49.409360 1970144000 layer_factory.hpp:74] Creating layer conv1_p
I0625 12:20:49.409385 1970144000 net.cpp:90] Creating Layer conv1_p
I0625 12:20:49.409405 1970144000 net.cpp:410] conv1_p <- data_p
I0625 12:20:49.409432 1970144000 net.cpp:368] conv1_p -> conv1_p
I0625 12:20:49.409458 1970144000 net.cpp:120] Setting up conv1_p
I0625 12:20:49.409900 1970144000 net.cpp:127] Top shape: 100 20 58 43 (4988000)
I0625 12:20:49.409929 1970144000 net.cpp:459] Sharing parameters 'conv1_w' owned by layer 'conv1', param index 0
I0625 12:20:49.409960 1970144000 net.cpp:459] Sharing parameters 'conv1_b' owned by layer 'conv1', param index 1
I0625 12:20:49.409968 1970144000 layer_factory.hpp:74] Creating layer pool1_p
I0625 12:20:49.409976 1970144000 net.cpp:90] Creating Layer pool1_p
I0625 12:20:49.409979 1970144000 net.cpp:410] pool1_p <- conv1_p
I0625 12:20:49.409986 1970144000 net.cpp:368] pool1_p -> pool1_p
I0625 12:20:49.409992 1970144000 net.cpp:120] Setting up pool1_p
I0625 12:20:49.410049 1970144000 net.cpp:127] Top shape: 100 20 29 22 (1276000)
I0625 12:20:49.410056 1970144000 layer_factory.hpp:74] Creating layer conv2_p
I0625 12:20:49.410063 1970144000 net.cpp:90] Creating Layer conv2_p
I0625 12:20:49.410068 1970144000 net.cpp:410] conv2_p <- pool1_p
I0625 12:20:49.410073 1970144000 net.cpp:368] conv2_p -> conv2_p
I0625 12:20:49.410080 1970144000 net.cpp:120] Setting up conv2_p
I0625 12:20:49.410670 1970144000 net.cpp:127] Top shape: 100 50 25 18 (2250000)
I0625 12:20:49.410694 1970144000 net.cpp:459] Sharing parameters 'conv2_w' owned by layer 'conv2', param index 0
I0625 12:20:49.410706 1970144000 net.cpp:459] Sharing parameters 'conv2_b' owned by layer 'conv2', param index 1
I0625 12:20:49.410713 1970144000 layer_factory.hpp:74] Creating layer pool2_p
I0625 12:20:49.410725 1970144000 net.cpp:90] Creating Layer pool2_p
I0625 12:20:49.410759 1970144000 net.cpp:410] pool2_p <- conv2_p
I0625 12:20:49.410789 1970144000 net.cpp:368] pool2_p -> pool2_p
I0625 12:20:49.410801 1970144000 net.cpp:120] Setting up pool2_p
I0625 12:20:49.410924 1970144000 net.cpp:127] Top shape: 100 50 13 9 (585000)
I0625 12:20:49.410951 1970144000 layer_factory.hpp:74] Creating layer ip1_p
I0625 12:20:49.410985 1970144000 net.cpp:90] Creating Layer ip1_p
I0625 12:20:49.410997 1970144000 net.cpp:410] ip1_p <- pool2_p
I0625 12:20:49.411041 1970144000 net.cpp:368] ip1_p -> ip1_p
I0625 12:20:49.411056 1970144000 net.cpp:120] Setting up ip1_p
I0625 12:20:49.438025 1970144000 net.cpp:127] Top shape: 100 500 (50000)
I0625 12:20:49.438062 1970144000 net.cpp:459] Sharing parameters 'ip1_w' owned by layer 'ip1', param index 0
I0625 12:20:49.439131 1970144000 net.cpp:459] Sharing parameters 'ip1_b' owned by layer 'ip1', param index 1
I0625 12:20:49.439141 1970144000 layer_factory.hpp:74] Creating layer relu1_p
I0625 12:20:49.439162 1970144000 net.cpp:90] Creating Layer relu1_p
I0625 12:20:49.439167 1970144000 net.cpp:410] relu1_p <- ip1_p
I0625 12:20:49.439177 1970144000 net.cpp:357] relu1_p -> ip1_p (in-place)
I0625 12:20:49.439184 1970144000 net.cpp:120] Setting up relu1_p
I0625 12:20:49.439476 1970144000 net.cpp:127] Top shape: 100 500 (50000)
I0625 12:20:49.439491 1970144000 layer_factory.hpp:74] Creating layer ip2_p
I0625 12:20:49.439517 1970144000 net.cpp:90] Creating Layer ip2_p
I0625 12:20:49.439530 1970144000 net.cpp:410] ip2_p <- ip1_p
I0625 12:20:49.439538 1970144000 net.cpp:368] ip2_p -> ip2_p
I0625 12:20:49.439548 1970144000 net.cpp:120] Setting up ip2_p
I0625 12:20:49.439600 1970144000 net.cpp:127] Top shape: 100 10 (1000)
I0625 12:20:49.439635 1970144000 net.cpp:459] Sharing parameters 'ip2_w' owned by layer 'ip2', param index 0
I0625 12:20:49.439643 1970144000 net.cpp:459] Sharing parameters 'ip2_b' owned by layer 'ip2', param index 1
I0625 12:20:49.439649 1970144000 layer_factory.hpp:74] Creating layer feat_p
I0625 12:20:49.439699 1970144000 net.cpp:90] Creating Layer feat_p
I0625 12:20:49.439714 1970144000 net.cpp:410] feat_p <- ip2_p
I0625 12:20:49.439728 1970144000 net.cpp:368] feat_p -> feat_p
I0625 12:20:49.439751 1970144000 net.cpp:120] Setting up feat_p
I0625 12:20:49.439826 1970144000 net.cpp:127] Top shape: 100 2 (200)
I0625 12:20:49.439846 1970144000 net.cpp:459] Sharing parameters 'feat_w' owned by layer 'feat', param index 0
I0625 12:20:49.439877 1970144000 net.cpp:459] Sharing parameters 'feat_b' owned by layer 'feat', param index 1
I0625 12:20:49.439884 1970144000 layer_factory.hpp:74] Creating layer loss
I0625 12:20:49.439892 1970144000 net.cpp:90] Creating Layer loss
I0625 12:20:49.439895 1970144000 net.cpp:410] loss <- feat
…
