…
I0607 15:30:10.567299 1956823808 solver.cpp:70] Creating training net from net file: src/siamese_network_bw/model/siamese_train_validate.prototxt
I0607 15:30:10.568310 1956823808 net.cpp:260] The NetState phase (0) differed from the phase (1) specified by a rule in layer pair_data
I0607 15:30:10.568341 1956823808 net.cpp:39] Initializing net from parameters: 
name: "siamese_train_validate"
state {
  phase: TRAIN
}
layer {
  name: "pair_data"
  type: "Data"
  top: "pair_data"
  top: "sim"
  include {
    phase: TRAIN
  }
  transform_param {
    scale: 1
  }
  data_param {
    source: "src/siamese_network_bw/data/siamese_network_train_leveldb"
    batch_size: 64
  }
}
layer {
  name: "slice_pair"
  type: "Slice"
  bottom: "pair_data"
  top: "data"
  top: "data_p"
  slice_param {
    slice_dim: 1
    slice_point: 1
  }
}
layer {
  name: "conv1"
  type: "Convolution"
  bottom: "data"
  top: "conv1"
  param {
    name: "conv1_w"
    lr_mult: 1
  }
  param {
    name: "conv1_b"
    lr_mult: 2
  }
  convolution_param {
    num_output: 20
    kernel_size: 5
    stride: 1
    weight_filler {
      type: "xavier"
    }
    bias_filler {
      type: "constant"
    }
  }
}
layer {
  name: "pool1"
  type: "Pooling"
  bottom: "conv1"
  top: "pool1"
  pooling_param {
    pool: MAX
    kernel_size: 2
    stride: 2
  }
}
layer {
  name: "conv2"
  type: "Convolution"
  bottom: "pool1"
  top: "conv2"
  param {
    name: "conv2_w"
    lr_mult: 1
  }
  param {
    name: "conv2_b"
    lr_mult: 2
  }
  convolution_param {
    num_output: 50
    kernel_size: 5
    stride: 1
    weight_filler {
      type: "xavier"
    }
    bias_filler {
      type: "constant"
    }
  }
}
layer {
  name: "pool2"
  type: "Pooling"
  bottom: "conv2"
  top: "pool2"
  pooling_param {
    pool: MAX
    kernel_size: 2
    stride: 2
  }
}
layer {
  name: "ip1"
  type: "InnerProduct"
  bottom: "pool2"
  top: "ip1"
  param {
    name: "ip1_w"
    lr_mult: 1
  }
  param {
    name: "ip1_b"
    lr_mult: 2
  }
  inner_product_param {
    num_output: 500
    weight_filler {
      type: "xavier"
    }
    bias_filler {
      type: "constant"
    }
  }
}
layer {
  name: "relu1"
  type: "ReLU"
  bottom: "ip1"
  top: "ip1"
}
layer {
  name: "ip2"
  type: "InnerProduct"
  bottom: "ip1"
  top: "ip2"
  param {
    name: "ip2_w"
    lr_mult: 1
  }
  param {
    name: "ip2_b"
    lr_mult: 2
  }
  inner_product_param {
    num_output: 10
    weight_filler {
      type: "xavier"
    }
    bias_filler {
      type: "constant"
    }
  }
}
layer {
  name: "feat"
  type: "InnerProduct"
  bottom: "ip2"
  top: "feat"
  param {
    name: "feat_w"
    lr_mult: 1
  }
  param {
    name: "feat_b"
    lr_mult: 2
  }
  inner_product_param {
    num_output: 2
    weight_filler {
      type: "xavier"
    }
    bias_filler {
      type: "constant"
    }
  }
}
layer {
  name: "conv1_p"
  type: "Convolution"
  bottom: "data_p"
  top: "conv1_p"
  param {
    name: "conv1_w"
    lr_mult: 1
  }
  param {
    name: "conv1_b"
    lr_mult: 2
  }
  convolution_param {
    num_output: 20
    kernel_size: 5
    stride: 1
    weight_filler {
      type: "xavier"
    }
    bias_filler {
      type: "constant"
    }
  }
}
layer {
  name: "pool1_p"
  type: "Pooling"
  bottom: "conv1_p"
  top: "pool1_p"
  pooling_param {
    pool: MAX
    kernel_size: 2
    stride: 2
  }
}
layer {
  name: "conv2_p"
  type: "Convolution"
  bottom: "pool1_p"
  top: "conv2_p"
  param {
    name: "conv2_w"
    lr_mult: 1
  }
  param {
    name: "conv2_b"
    lr_mult: 2
  }
  convolution_param {
    num_output: 50
    kernel_size: 5
    stride: 1
    weight_filler {
      type: "xavier"
    }
    bias_filler {
      type: "constant"
    }
  }
}
layer {
  name: "pool2_p"
  type: "Pooling"
  bottom: "conv2_p"
  top: "pool2_p"
  pooling_param {
    pool: MAX
    kernel_size: 2
    stride: 2
  }
}
layer {
  name: "ip1_p"
  type: "InnerProduct"
  bottom: "pool2_p"
  top: "ip1_p"
  param {
    name: "ip1_w"
    lr_mult: 1
  }
  param {
    name: "ip1_b"
    lr_mult: 2
  }
  inner_product_param {
    num_output: 500
    weight_filler {
      type: "xavier"
    }
    bias_filler {
      type: "constant"
    }
  }
}
layer {
  name: "relu1_p"
  type: "ReLU"
  bottom: "ip1_p"
  top: "ip1_p"
}
layer {
  name: "ip2_p"
  type: "InnerProduct"
  bottom: "ip1_p"
  top: "ip2_p"
  param {
    name: "ip2_w"
    lr_mult: 1
  }
  param {
    name: "ip2_b"
    lr_mult: 2
  }
  inner_product_param {
    num_output: 10
    weight_filler {
      type: "xavier"
    }
    bias_filler {
      type: "constant"
    }
  }
}
layer {
  name: "feat_p"
  type: "InnerProduct"
  bottom: "ip2_p"
  top: "feat_p"
  param {
    name: "feat_w"
    lr_mult: 1
  }
  param {
    name: "feat_b"
    lr_mult: 2
  }
  inner_product_param {
    num_output: 2
    weight_filler {
      type: "xavier"
    }
    bias_filler {
      type: "constant"
    }
  }
}
layer {
  name: "loss"
  type: "ContrastiveLoss"
  bottom: "feat"
  bottom: "feat_p"
  bottom: "sim"
  top: "loss"
  contrastive_loss_param {
    margin: 1
  }
}
I0607 15:30:10.568918 1956823808 layer_factory.hpp:74] Creating layer pair_data
I0607 15:30:10.568933 1956823808 net.cpp:69] Creating Layer pair_data
I0607 15:30:10.568939 1956823808 net.cpp:341] pair_data -> pair_data
I0607 15:30:10.568953 1956823808 net.cpp:341] pair_data -> sim
I0607 15:30:10.568961 1956823808 net.cpp:98] Setting up pair_data
I0607 15:30:10.570327 1956823808 db.cpp:20] Opened leveldb src/siamese_network_bw/data/siamese_network_train_leveldb
I0607 15:30:10.571671 1956823808 data_layer.cpp:65] output data size: 64,2,62,47
I0607 15:30:10.572386 1956823808 net.cpp:105] Top shape: 64 2 62 47 (372992)
I0607 15:30:10.572394 1956823808 net.cpp:105] Top shape: 64 1 1 1 (64)
I0607 15:30:10.572399 1956823808 layer_factory.hpp:74] Creating layer slice_pair
I0607 15:30:10.572410 1956823808 net.cpp:69] Creating Layer slice_pair
I0607 15:30:10.572414 1956823808 net.cpp:379] slice_pair <- pair_data
I0607 15:30:10.572422 1956823808 net.cpp:341] slice_pair -> data
I0607 15:30:10.572430 1956823808 net.cpp:341] slice_pair -> data_p
I0607 15:30:10.572437 1956823808 net.cpp:98] Setting up slice_pair
I0607 15:30:10.572443 1956823808 net.cpp:105] Top shape: 64 1 62 47 (186496)
I0607 15:30:10.572446 1956823808 net.cpp:105] Top shape: 64 1 62 47 (186496)
I0607 15:30:10.572449 1956823808 layer_factory.hpp:74] Creating layer conv1
I0607 15:30:10.572456 1956823808 net.cpp:69] Creating Layer conv1
I0607 15:30:10.572481 1956823808 net.cpp:379] conv1 <- data
I0607 15:30:10.572501 1956823808 net.cpp:341] conv1 -> conv1
I0607 15:30:10.572511 1956823808 net.cpp:98] Setting up conv1
I0607 15:30:10.624567 1956823808 net.cpp:105] Top shape: 64 20 58 43 (3192320)
I0607 15:30:10.624591 1956823808 layer_factory.hpp:74] Creating layer pool1
I0607 15:30:10.624629 1956823808 net.cpp:69] Creating Layer pool1
I0607 15:30:10.624634 1956823808 net.cpp:379] pool1 <- conv1
I0607 15:30:10.624640 1956823808 net.cpp:341] pool1 -> pool1
I0607 15:30:10.624646 1956823808 net.cpp:98] Setting up pool1
I0607 15:30:10.624842 1956823808 net.cpp:105] Top shape: 64 20 29 22 (816640)
I0607 15:30:10.624857 1956823808 layer_factory.hpp:74] Creating layer conv2
I0607 15:30:10.624872 1956823808 net.cpp:69] Creating Layer conv2
I0607 15:30:10.624878 1956823808 net.cpp:379] conv2 <- pool1
I0607 15:30:10.624884 1956823808 net.cpp:341] conv2 -> conv2
I0607 15:30:10.624892 1956823808 net.cpp:98] Setting up conv2
I0607 15:30:10.625380 1956823808 net.cpp:105] Top shape: 64 50 25 18 (1440000)
I0607 15:30:10.625394 1956823808 layer_factory.hpp:74] Creating layer pool2
I0607 15:30:10.625403 1956823808 net.cpp:69] Creating Layer pool2
I0607 15:30:10.625406 1956823808 net.cpp:379] pool2 <- conv2
I0607 15:30:10.625432 1956823808 net.cpp:341] pool2 -> pool2
I0607 15:30:10.625439 1956823808 net.cpp:98] Setting up pool2
I0607 15:30:10.625481 1956823808 net.cpp:105] Top shape: 64 50 13 9 (374400)
I0607 15:30:10.625486 1956823808 layer_factory.hpp:74] Creating layer ip1
I0607 15:30:10.625495 1956823808 net.cpp:69] Creating Layer ip1
I0607 15:30:10.625499 1956823808 net.cpp:379] ip1 <- pool2
I0607 15:30:10.625504 1956823808 net.cpp:341] ip1 -> ip1
I0607 15:30:10.625519 1956823808 net.cpp:98] Setting up ip1
I0607 15:30:10.646299 1956823808 net.cpp:105] Top shape: 64 500 1 1 (32000)
I0607 15:30:10.646328 1956823808 layer_factory.hpp:74] Creating layer relu1
I0607 15:30:10.646343 1956823808 net.cpp:69] Creating Layer relu1
I0607 15:30:10.646350 1956823808 net.cpp:379] relu1 <- ip1
I0607 15:30:10.646365 1956823808 net.cpp:330] relu1 -> ip1 (in-place)
I0607 15:30:10.646373 1956823808 net.cpp:98] Setting up relu1
I0607 15:30:10.646467 1956823808 net.cpp:105] Top shape: 64 500 1 1 (32000)
I0607 15:30:10.646508 1956823808 layer_factory.hpp:74] Creating layer ip2
I0607 15:30:10.646533 1956823808 net.cpp:69] Creating Layer ip2
I0607 15:30:10.646541 1956823808 net.cpp:379] ip2 <- ip1
I0607 15:30:10.646553 1956823808 net.cpp:341] ip2 -> ip2
I0607 15:30:10.646571 1956823808 net.cpp:98] Setting up ip2
I0607 15:30:10.646651 1956823808 net.cpp:105] Top shape: 64 10 1 1 (640)
I0607 15:30:10.646663 1956823808 layer_factory.hpp:74] Creating layer feat
I0607 15:30:10.646675 1956823808 net.cpp:69] Creating Layer feat
I0607 15:30:10.646679 1956823808 net.cpp:379] feat <- ip2
I0607 15:30:10.646685 1956823808 net.cpp:341] feat -> feat
I0607 15:30:10.646693 1956823808 net.cpp:98] Setting up feat
I0607 15:30:10.646700 1956823808 net.cpp:105] Top shape: 64 2 1 1 (128)
I0607 15:30:10.646708 1956823808 layer_factory.hpp:74] Creating layer conv1_p
I0607 15:30:10.646716 1956823808 net.cpp:69] Creating Layer conv1_p
I0607 15:30:10.646723 1956823808 net.cpp:379] conv1_p <- data_p
I0607 15:30:10.646734 1956823808 net.cpp:341] conv1_p -> conv1_p
I0607 15:30:10.646741 1956823808 net.cpp:98] Setting up conv1_p
I0607 15:30:10.647119 1956823808 net.cpp:105] Top shape: 64 20 58 43 (3192320)
I0607 15:30:10.647133 1956823808 net.cpp:423] Sharing parameters 'conv1_w' owned by layer 'conv1', param index 0
I0607 15:30:10.647161 1956823808 net.cpp:423] Sharing parameters 'conv1_b' owned by layer 'conv1', param index 1
I0607 15:30:10.647169 1956823808 layer_factory.hpp:74] Creating layer pool1_p
I0607 15:30:10.647181 1956823808 net.cpp:69] Creating Layer pool1_p
I0607 15:30:10.647187 1956823808 net.cpp:379] pool1_p <- conv1_p
I0607 15:30:10.647193 1956823808 net.cpp:341] pool1_p -> pool1_p
I0607 15:30:10.647202 1956823808 net.cpp:98] Setting up pool1_p
I0607 15:30:10.647368 1956823808 net.cpp:105] Top shape: 64 20 29 22 (816640)
I0607 15:30:10.647382 1956823808 layer_factory.hpp:74] Creating layer conv2_p
I0607 15:30:10.647414 1956823808 net.cpp:69] Creating Layer conv2_p
I0607 15:30:10.647433 1956823808 net.cpp:379] conv2_p <- pool1_p
I0607 15:30:10.647447 1956823808 net.cpp:341] conv2_p -> conv2_p
I0607 15:30:10.647459 1956823808 net.cpp:98] Setting up conv2_p
I0607 15:30:10.648134 1956823808 net.cpp:105] Top shape: 64 50 25 18 (1440000)
I0607 15:30:10.648145 1956823808 net.cpp:423] Sharing parameters 'conv2_w' owned by layer 'conv2', param index 0
I0607 15:30:10.648150 1956823808 net.cpp:423] Sharing parameters 'conv2_b' owned by layer 'conv2', param index 1
I0607 15:30:10.648155 1956823808 layer_factory.hpp:74] Creating layer pool2_p
I0607 15:30:10.648165 1956823808 net.cpp:69] Creating Layer pool2_p
I0607 15:30:10.648171 1956823808 net.cpp:379] pool2_p <- conv2_p
I0607 15:30:10.648181 1956823808 net.cpp:341] pool2_p -> pool2_p
I0607 15:30:10.648213 1956823808 net.cpp:98] Setting up pool2_p
I0607 15:30:10.648291 1956823808 net.cpp:105] Top shape: 64 50 13 9 (374400)
I0607 15:30:10.648300 1956823808 layer_factory.hpp:74] Creating layer ip1_p
I0607 15:30:10.648324 1956823808 net.cpp:69] Creating Layer ip1_p
I0607 15:30:10.648334 1956823808 net.cpp:379] ip1_p <- pool2_p
I0607 15:30:10.648391 1956823808 net.cpp:341] ip1_p -> ip1_p
I0607 15:30:10.648403 1956823808 net.cpp:98] Setting up ip1_p
I0607 15:30:10.669157 1956823808 net.cpp:105] Top shape: 64 500 1 1 (32000)
I0607 15:30:10.669181 1956823808 net.cpp:423] Sharing parameters 'ip1_w' owned by layer 'ip1', param index 0
I0607 15:30:10.670392 1956823808 net.cpp:423] Sharing parameters 'ip1_b' owned by layer 'ip1', param index 1
I0607 15:30:10.670410 1956823808 layer_factory.hpp:74] Creating layer relu1_p
I0607 15:30:10.670421 1956823808 net.cpp:69] Creating Layer relu1_p
I0607 15:30:10.670426 1956823808 net.cpp:379] relu1_p <- ip1_p
I0607 15:30:10.670433 1956823808 net.cpp:330] relu1_p -> ip1_p (in-place)
I0607 15:30:10.670439 1956823808 net.cpp:98] Setting up relu1_p
I0607 15:30:10.670521 1956823808 net.cpp:105] Top shape: 64 500 1 1 (32000)
I0607 15:30:10.670526 1956823808 layer_factory.hpp:74] Creating layer ip2_p
I0607 15:30:10.670536 1956823808 net.cpp:69] Creating Layer ip2_p
I0607 15:30:10.670541 1956823808 net.cpp:379] ip2_p <- ip1_p
I0607 15:30:10.670548 1956823808 net.cpp:341] ip2_p -> ip2_p
I0607 15:30:10.670558 1956823808 net.cpp:98] Setting up ip2_p
I0607 15:30:10.670598 1956823808 net.cpp:105] Top shape: 64 10 1 1 (640)
I0607 15:30:10.670605 1956823808 net.cpp:423] Sharing parameters 'ip2_w' owned by layer 'ip2', param index 0
I0607 15:30:10.670610 1956823808 net.cpp:423] Sharing parameters 'ip2_b' owned by layer 'ip2', param index 1
I0607 15:30:10.670615 1956823808 layer_factory.hpp:74] Creating layer feat_p
I0607 15:30:10.670621 1956823808 net.cpp:69] Creating Layer feat_p
I0607 15:30:10.670625 1956823808 net.cpp:379] feat_p <- ip2_p
I0607 15:30:10.670634 1956823808 net.cpp:341] feat_p -> feat_p
I0607 15:30:10.670639 1956823808 net.cpp:98] Setting up feat_p
I0607 15:30:10.670646 1956823808 net.cpp:105] Top shape: 64 2 1 1 (128)
I0607 15:30:10.670651 1956823808 net.cpp:423] Sharing parameters 'feat_w' owned by layer 'feat', param index 0
I0607 15:30:10.670655 1956823808 net.cpp:423] Sharing parameters 'feat_b' owned by layer 'feat', param index 1
I0607 15:30:10.670658 1956823808 layer_factory.hpp:74] Creating layer loss
I0607 15:30:10.670668 1956823808 net.cpp:69] Creating Layer loss
I0607 15:30:10.670672 1956823808 net.cpp:379] loss <- feat
I0607 15:30:10.670676 1956823808 net.cpp:379] loss <- feat_p
I0607 15:30:10.670680 1956823808 net.cpp:379] loss <- sim
I0607 15:30:10.670685 1956823808 net.cpp:341] loss -> loss
I0607 15:30:10.670691 1956823808 net.cpp:98] Setting up loss
I0607 15:30:10.670696 1956823808 net.cpp:105] Top shape: 1 1 1 1 (1)
I0607 15:30:10.670699 1956823808 net.cpp:111]     with loss weight 1
I0607 15:30:10.670712 1956823808 net.cpp:156] loss needs backward computation.
I0607 15:30:10.670717 1956823808 net.cpp:156] feat_p needs backward computation.
I0607 15:30:10.671083 1956823808 net.cpp:156] ip2_p needs backward computation.
I0607 15:30:10.671094 1956823808 net.cpp:156] relu1_p needs backward computation.
…
I0607 15:30:10.672168 1956823808 solver.cpp:154] Creating test net (#0) specified by net file: src/siamese_network_bw/model/siamese_train_validate.prototxt
I0607 15:30:10.672214 1956823808 net.cpp:260] The NetState phase (1) differed from the phase (0) specified by a rule in layer pair_data
I0607 15:30:10.672233 1956823808 net.cpp:39] Initializing net from parameters: 
name: "siamese_train_validate"
state {
  phase: TEST
}
layer {
  name: "pair_data"
  type: "Data"
  top: "pair_data"
  top: "sim"
  include {
    phase: TEST
  }
  transform_param {
    scale: 1
  }
  data_param {
    source: "src/siamese_network_bw/data/siamese_network_validation_leveldb"
    batch_size: 100
  }
}
layer {
  name: "slice_pair"
  type: "Slice"
  bottom: "pair_data"
  top: "data"
  top: "data_p"
  slice_param {
    slice_dim: 1
    slice_point: 1
  }
}
layer {
  name: "conv1"
  type: "Convolution"
  bottom: "data"
  top: "conv1"
  param {
    name: "conv1_w"
    lr_mult: 1
  }
  param {
    name: "conv1_b"
    lr_mult: 2
  }
  convolution_param {
    num_output: 20
    kernel_size: 5
    stride: 1
    weight_filler {
      type: "xavier"
    }
    bias_filler {
      type: "constant"
    }
  }
}
layer {
  name: "pool1"
  type: "Pooling"
  bottom: "conv1"
  top: "pool1"
  pooling_param {
    pool: MAX
    kernel_size: 2
    stride: 2
  }
}
layer {
  name: "conv2"
  type: "Convolution"
  bottom: "pool1"
  top: "conv2"
  param {
    name: "conv2_w"
    lr_mult: 1
  }
  param {
    name: "conv2_b"
    lr_mult: 2
  }
  convolution_param {
    num_output: 50
    kernel_size: 5
    stride: 1
    weight_filler {
      type: "xavier"
    }
    bias_filler {
      type: "constant"
    }
  }
}
layer {
  name: "pool2"
  type: "Pooling"
  bottom: "conv2"
  top: "pool2"
  pooling_param {
    pool: MAX
    kernel_size: 2
    stride: 2
  }
}
layer {
  name: "ip1"
  type: "InnerProduct"
  bottom: "pool2"
  top: "ip1"
  param {
    name: "ip1_w"
    lr_mult: 1
  }
  param {
    name: "ip1_b"
    lr_mult: 2
  }
  inner_product_param {
    num_output: 500
    weight_filler {
      type: "xavier"
    }
    bias_filler {
      type: "constant"
    }
  }
}
layer {
  name: "relu1"
  type: "ReLU"
  bottom: "ip1"
  top: "ip1"
}
layer {
  name: "ip2"
  type: "InnerProduct"
  bottom: "ip1"
  top: "ip2"
  param {
    name: "ip2_w"
    lr_mult: 1
  }
  param {
    name: "ip2_b"
    lr_mult: 2
  }
  inner_product_param {
    num_output: 10
    weight_filler {
      type: "xavier"
    }
    bias_filler {
      type: "constant"
    }
  }
}
layer {
  name: "feat"
  type: "InnerProduct"
  bottom: "ip2"
  top: "feat"
  param {
    name: "feat_w"
    lr_mult: 1
  }
  param {
    name: "feat_b"
    lr_mult: 2
  }
  inner_product_param {
    num_output: 2
    weight_filler {
      type: "xavier"
    }
    bias_filler {
      type: "constant"
    }
  }
}
layer {
  name: "conv1_p"
  type: "Convolution"
  bottom: "data_p"
  top: "conv1_p"
  param {
    name: "conv1_w"
    lr_mult: 1
  }
  param {
    name: "conv1_b"
    lr_mult: 2
  }
  convolution_param {
    num_output: 20
    kernel_size: 5
    stride: 1
    weight_filler {
      type: "xavier"
    }
    bias_filler {
      type: "constant"
    }
  }
}
layer {
  name: "pool1_p"
  type: "Pooling"
  bottom: "conv1_p"
  top: "pool1_p"
  pooling_param {
    pool: MAX
    kernel_size: 2
    stride: 2
  }
}
layer {
  name: "conv2_p"
  type: "Convolution"
  bottom: "pool1_p"
  top: "conv2_p"
  param {
    name: "conv2_w"
    lr_mult: 1
  }
  param {
    name: "conv2_b"
    lr_mult: 2
  }
  convolution_param {
    num_output: 50
    kernel_size: 5
    stride: 1
    weight_filler {
      type: "xavier"
    }
    bias_filler {
      type: "constant"
    }
  }
}
layer {
  name: "pool2_p"
  type: "Pooling"
  bottom: "conv2_p"
  top: "pool2_p"
  pooling_param {
    pool: MAX
    kernel_size: 2
    stride: 2
  }
}
layer {
  name: "ip1_p"
  type: "InnerProduct"
  bottom: "pool2_p"
  top: "ip1_p"
  param {
    name: "ip1_w"
    lr_mult: 1
  }
  param {
    name: "ip1_b"
    lr_mult: 2
  }
  inner_product_param {
    num_output: 500
    weight_filler {
      type: "xavier"
    }
    bias_filler {
      type: "constant"
    }
  }
}
layer {
  name: "relu1_p"
  type: "ReLU"
  bottom: "ip1_p"
  top: "ip1_p"
}
layer {
  name: "ip2_p"
  type: "InnerProduct"
  bottom: "ip1_p"
  top: "ip2_p"
  param {
    name: "ip2_w"
    lr_mult: 1
  }
  param {
    name: "ip2_b"
    lr_mult: 2
  }
  inner_product_param {
    num_output: 10
    weight_filler {
      type: "xavier"
    }
    bias_filler {
      type: "constant"
    }
  }
}
layer {
  name: "feat_p"
  type: "InnerProduct"
  bottom: "ip2_p"
  top: "feat_p"
  param {
    name: "feat_w"
    lr_mult: 1
  }
  param {
    name: "feat_b"
    lr_mult: 2
  }
  inner_product_param {
    num_output: 2
    weight_filler {
      type: "xavier"
    }
    bias_filler {
      type: "constant"
    }
  }
}
layer {
  name: "loss"
  type: "ContrastiveLoss"
  bottom: "feat"
  bottom: "feat_p"
  bottom: "sim"
  top: "loss"
  contrastive_loss_param {
    margin: 1
  }
}
I0607 15:30:10.672838 1956823808 layer_factory.hpp:74] Creating layer pair_data
I0607 15:30:10.672853 1956823808 net.cpp:69] Creating Layer pair_data
I0607 15:30:10.672862 1956823808 net.cpp:341] pair_data -> pair_data
I0607 15:30:10.672873 1956823808 net.cpp:341] pair_data -> sim
I0607 15:30:10.672883 1956823808 net.cpp:98] Setting up pair_data
I0607 15:30:10.674123 1956823808 db.cpp:20] Opened leveldb src/siamese_network_bw/data/siamese_network_validation_leveldb
I0607 15:30:10.674610 1956823808 data_layer.cpp:65] output data size: 100,2,62,47
I0607 15:30:10.675837 1956823808 net.cpp:105] Top shape: 100 2 62 47 (582800)
I0607 15:30:10.675845 1956823808 net.cpp:105] Top shape: 100 1 1 1 (100)
I0607 15:30:10.675849 1956823808 layer_factory.hpp:74] Creating layer slice_pair
I0607 15:30:10.675858 1956823808 net.cpp:69] Creating Layer slice_pair
I0607 15:30:10.675863 1956823808 net.cpp:379] slice_pair <- pair_data
I0607 15:30:10.675868 1956823808 net.cpp:341] slice_pair -> data
I0607 15:30:10.675876 1956823808 net.cpp:341] slice_pair -> data_p
I0607 15:30:10.675881 1956823808 net.cpp:98] Setting up slice_pair
I0607 15:30:10.675886 1956823808 net.cpp:105] Top shape: 100 1 62 47 (291400)
I0607 15:30:10.675896 1956823808 net.cpp:105] Top shape: 100 1 62 47 (291400)
I0607 15:30:10.675902 1956823808 layer_factory.hpp:74] Creating layer conv1
I0607 15:30:10.675909 1956823808 net.cpp:69] Creating Layer conv1
I0607 15:30:10.675915 1956823808 net.cpp:379] conv1 <- data
I0607 15:30:10.675921 1956823808 net.cpp:341] conv1 -> conv1
I0607 15:30:10.675928 1956823808 net.cpp:98] Setting up conv1
I0607 15:30:10.676327 1956823808 net.cpp:105] Top shape: 100 20 58 43 (4988000)
I0607 15:30:10.676350 1956823808 layer_factory.hpp:74] Creating layer pool1
I0607 15:30:10.676365 1956823808 net.cpp:69] Creating Layer pool1
I0607 15:30:10.676373 1956823808 net.cpp:379] pool1 <- conv1
I0607 15:30:10.676383 1956823808 net.cpp:341] pool1 -> pool1
I0607 15:30:10.676393 1956823808 net.cpp:98] Setting up pool1
I0607 15:30:10.676460 1956823808 net.cpp:105] Top shape: 100 20 29 22 (1276000)
I0607 15:30:10.676470 1956823808 layer_factory.hpp:74] Creating layer conv2
I0607 15:30:10.676506 1956823808 net.cpp:69] Creating Layer conv2
I0607 15:30:10.676528 1956823808 net.cpp:379] conv2 <- pool1
I0607 15:30:10.676543 1956823808 net.cpp:341] conv2 -> conv2
I0607 15:30:10.676554 1956823808 net.cpp:98] Setting up conv2
I0607 15:30:10.677111 1956823808 net.cpp:105] Top shape: 100 50 25 18 (2250000)
I0607 15:30:10.677131 1956823808 layer_factory.hpp:74] Creating layer pool2
I0607 15:30:10.677148 1956823808 net.cpp:69] Creating Layer pool2
I0607 15:30:10.677156 1956823808 net.cpp:379] pool2 <- conv2
I0607 15:30:10.677202 1956823808 net.cpp:341] pool2 -> pool2
I0607 15:30:10.677217 1956823808 net.cpp:98] Setting up pool2
I0607 15:30:10.677340 1956823808 net.cpp:105] Top shape: 100 50 13 9 (585000)
I0607 15:30:10.677350 1956823808 layer_factory.hpp:74] Creating layer ip1
I0607 15:30:10.677358 1956823808 net.cpp:69] Creating Layer ip1
I0607 15:30:10.677362 1956823808 net.cpp:379] ip1 <- pool2
I0607 15:30:10.677368 1956823808 net.cpp:341] ip1 -> ip1
I0607 15:30:10.677376 1956823808 net.cpp:98] Setting up ip1
I0607 15:30:10.696550 1956823808 net.cpp:105] Top shape: 100 500 1 1 (50000)
I0607 15:30:10.696583 1956823808 layer_factory.hpp:74] Creating layer relu1
I0607 15:30:10.696595 1956823808 net.cpp:69] Creating Layer relu1
I0607 15:30:10.696600 1956823808 net.cpp:379] relu1 <- ip1
I0607 15:30:10.696607 1956823808 net.cpp:330] relu1 -> ip1 (in-place)
I0607 15:30:10.696614 1956823808 net.cpp:98] Setting up relu1
I0607 15:30:10.696727 1956823808 net.cpp:105] Top shape: 100 500 1 1 (50000)
I0607 15:30:10.696738 1956823808 layer_factory.hpp:74] Creating layer ip2
I0607 15:30:10.696749 1956823808 net.cpp:69] Creating Layer ip2
I0607 15:30:10.696753 1956823808 net.cpp:379] ip2 <- ip1
I0607 15:30:10.696763 1956823808 net.cpp:341] ip2 -> ip2
I0607 15:30:10.696770 1956823808 net.cpp:98] Setting up ip2
I0607 15:30:10.696818 1956823808 net.cpp:105] Top shape: 100 10 1 1 (1000)
I0607 15:30:10.696830 1956823808 layer_factory.hpp:74] Creating layer feat
I0607 15:30:10.696843 1956823808 net.cpp:69] Creating Layer feat
I0607 15:30:10.696849 1956823808 net.cpp:379] feat <- ip2
I0607 15:30:10.696856 1956823808 net.cpp:341] feat -> feat
I0607 15:30:10.696892 1956823808 net.cpp:98] Setting up feat
I0607 15:30:10.696915 1956823808 net.cpp:105] Top shape: 100 2 1 1 (200)
I0607 15:30:10.696938 1956823808 layer_factory.hpp:74] Creating layer conv1_p
I0607 15:30:10.696966 1956823808 net.cpp:69] Creating Layer conv1_p
I0607 15:30:10.696975 1956823808 net.cpp:379] conv1_p <- data_p
I0607 15:30:10.696986 1956823808 net.cpp:341] conv1_p -> conv1_p
I0607 15:30:10.696998 1956823808 net.cpp:98] Setting up conv1_p
I0607 15:30:10.697445 1956823808 net.cpp:105] Top shape: 100 20 58 43 (4988000)
I0607 15:30:10.697461 1956823808 net.cpp:423] Sharing parameters 'conv1_w' owned by layer 'conv1', param index 0
I0607 15:30:10.697492 1956823808 net.cpp:423] Sharing parameters 'conv1_b' owned by layer 'conv1', param index 1
I0607 15:30:10.697501 1956823808 layer_factory.hpp:74] Creating layer pool1_p
I0607 15:30:10.697510 1956823808 net.cpp:69] Creating Layer pool1_p
I0607 15:30:10.697513 1956823808 net.cpp:379] pool1_p <- conv1_p
I0607 15:30:10.697520 1956823808 net.cpp:341] pool1_p -> pool1_p
I0607 15:30:10.697526 1956823808 net.cpp:98] Setting up pool1_p
I0607 15:30:10.697576 1956823808 net.cpp:105] Top shape: 100 20 29 22 (1276000)
I0607 15:30:10.697581 1956823808 layer_factory.hpp:74] Creating layer conv2_p
I0607 15:30:10.697588 1956823808 net.cpp:69] Creating Layer conv2_p
I0607 15:30:10.697594 1956823808 net.cpp:379] conv2_p <- pool1_p
I0607 15:30:10.697604 1956823808 net.cpp:341] conv2_p -> conv2_p
I0607 15:30:10.697618 1956823808 net.cpp:98] Setting up conv2_p
I0607 15:30:10.698137 1956823808 net.cpp:105] Top shape: 100 50 25 18 (2250000)
I0607 15:30:10.698150 1956823808 net.cpp:423] Sharing parameters 'conv2_w' owned by layer 'conv2', param index 0
I0607 15:30:10.698180 1956823808 net.cpp:423] Sharing parameters 'conv2_b' owned by layer 'conv2', param index 1
I0607 15:30:10.698194 1956823808 layer_factory.hpp:74] Creating layer pool2_p
I0607 15:30:10.698202 1956823808 net.cpp:69] Creating Layer pool2_p
I0607 15:30:10.698207 1956823808 net.cpp:379] pool2_p <- conv2_p
I0607 15:30:10.698221 1956823808 net.cpp:341] pool2_p -> pool2_p
I0607 15:30:10.698230 1956823808 net.cpp:98] Setting up pool2_p
I0607 15:30:10.698312 1956823808 net.cpp:105] Top shape: 100 50 13 9 (585000)
I0607 15:30:10.698334 1956823808 layer_factory.hpp:74] Creating layer ip1_p
I0607 15:30:10.698361 1956823808 net.cpp:69] Creating Layer ip1_p
I0607 15:30:10.698385 1956823808 net.cpp:379] ip1_p <- pool2_p
I0607 15:30:10.698431 1956823808 net.cpp:341] ip1_p -> ip1_p
I0607 15:30:10.698444 1956823808 net.cpp:98] Setting up ip1_p
I0607 15:30:10.720033 1956823808 net.cpp:105] Top shape: 100 500 1 1 (50000)
I0607 15:30:10.720059 1956823808 net.cpp:423] Sharing parameters 'ip1_w' owned by layer 'ip1', param index 0
I0607 15:30:10.721439 1956823808 net.cpp:423] Sharing parameters 'ip1_b' owned by layer 'ip1', param index 1
I0607 15:30:10.721459 1956823808 layer_factory.hpp:74] Creating layer relu1_p
I0607 15:30:10.721472 1956823808 net.cpp:69] Creating Layer relu1_p
I0607 15:30:10.721479 1956823808 net.cpp:379] relu1_p <- ip1_p
I0607 15:30:10.721488 1956823808 net.cpp:330] relu1_p -> ip1_p (in-place)
I0607 15:30:10.721498 1956823808 net.cpp:98] Setting up relu1_p
I0607 15:30:10.721758 1956823808 net.cpp:105] Top shape: 100 500 1 1 (50000)
I0607 15:30:10.721771 1956823808 layer_factory.hpp:74] Creating layer ip2_p
I0607 15:30:10.721786 1956823808 net.cpp:69] Creating Layer ip2_p
I0607 15:30:10.721806 1956823808 net.cpp:379] ip2_p <- ip1_p
I0607 15:30:10.721812 1956823808 net.cpp:341] ip2_p -> ip2_p
I0607 15:30:10.721822 1956823808 net.cpp:98] Setting up ip2_p
I0607 15:30:10.721865 1956823808 net.cpp:105] Top shape: 100 10 1 1 (1000)
I0607 15:30:10.721875 1956823808 net.cpp:423] Sharing parameters 'ip2_w' owned by layer 'ip2', param index 0
I0607 15:30:10.721884 1956823808 net.cpp:423] Sharing parameters 'ip2_b' owned by layer 'ip2', param index 1
I0607 15:30:10.721889 1956823808 layer_factory.hpp:74] Creating layer feat_p
I0607 15:30:10.721899 1956823808 net.cpp:69] Creating Layer feat_p
I0607 15:30:10.721915 1956823808 net.cpp:379] feat_p <- ip2_p
I0607 15:30:10.721926 1956823808 net.cpp:341] feat_p -> feat_p
I0607 15:30:10.721935 1956823808 net.cpp:98] Setting up feat_p
I0607 15:30:10.721943 1956823808 net.cpp:105] Top shape: 100 2 1 1 (200)
I0607 15:30:10.721961 1956823808 net.cpp:423] Sharing parameters 'feat_w' owned by layer 'feat', param index 0
I0607 15:30:10.721966 1956823808 net.cpp:423] Sharing parameters 'feat_b' owned by layer 'feat', param index 1
I0607 15:30:10.721969 1956823808 layer_factory.hpp:74] Creating layer loss
I0607 15:30:10.721979 1956823808 net.cpp:69] Creating Layer loss
I0607 15:30:10.721983 1956823808 net.cpp:379] loss <- feat
I0607 15:30:10.721987 1956823808 net.cpp:379] loss <- feat_p
I0607 15:30:10.721992 1956823808 net.cpp:379] loss <- sim
I0607 15:30:10.721997 1956823808 net.cpp:341] loss -> loss
I0607 15:30:10.722002 1956823808 net.cpp:98] Setting up loss
I0607 15:30:10.722008 1956823808 net.cpp:105] Top shape: 1 1 1 1 (1)
I0607 15:30:10.722012 1956823808 net.cpp:111]     with loss weight 1
I0607 15:30:10.722019 1956823808 net.cpp:156] loss needs backward computation.
I0607 15:30:10.722023 1956823808 net.cpp:156] feat_p needs backward computation.
I0607 15:30:10.722026 1956823808 net.cpp:156] ip2_p needs backward computation.
I0607 15:30:10.722043 1956823808 net.cpp:156] relu1_p needs backward computation.
…
