…
I0718 22:24:43.058929 2112180992 solver.cpp:70] Creating training net from net file: src/siamese_network_bw/model/siamese_train_validate.prototxt
I0718 22:24:43.063200 2112180992 net.cpp:287] The NetState phase (0) differed from the phase (1) specified by a rule in layer pair_data
I0718 22:24:43.063235 2112180992 net.cpp:42] Initializing net from parameters: 
name: "siamese_train_validate"
state {
  phase: TRAIN
}
layer {
  name: "pair_data"
  type: "Data"
  top: "pair_data"
  top: "sim"
  include {
    phase: TRAIN
  }
  transform_param {
    scale: 0.00390625
  }
  data_param {
    source: "src/siamese_network_bw/data/siamese_network_train_leveldb"
    batch_size: 64
  }
}
layer {
  name: "slice_pair"
  type: "Slice"
  bottom: "pair_data"
  top: "data"
  top: "data_p"
  slice_param {
    slice_dim: 1
    slice_point: 1
  }
}
layer {
  name: "conv1"
  type: "Convolution"
  bottom: "data"
  top: "conv1"
  param {
    name: "conv1_w"
    lr_mult: 1
  }
  param {
    name: "conv1_b"
    lr_mult: 2
  }
  convolution_param {
    num_output: 32
    kernel_size: 3
    stride: 1
    weight_filler {
      type: "xavier"
    }
    bias_filler {
      type: "constant"
    }
  }
}
layer {
  name: "pool1"
  type: "Pooling"
  bottom: "conv1"
  top: "pool1"
  pooling_param {
    pool: MAX
    kernel_size: 2
    stride: 2
  }
}
layer {
  name: "conv2"
  type: "Convolution"
  bottom: "pool1"
  top: "conv2"
  param {
    name: "conv2_w"
    lr_mult: 1
  }
  param {
    name: "conv2_b"
    lr_mult: 2
  }
  convolution_param {
    num_output: 64
    kernel_size: 2
    stride: 1
    weight_filler {
      type: "xavier"
    }
    bias_filler {
      type: "constant"
    }
  }
}
layer {
  name: "pool2"
  type: "Pooling"
  bottom: "conv2"
  top: "pool2"
  pooling_param {
    pool: MAX
    kernel_size: 2
    stride: 2
  }
}
layer {
  name: "conv3"
  type: "Convolution"
  bottom: "pool2"
  top: "conv3"
  param {
    name: "conv3_w"
    lr_mult: 1
  }
  param {
    name: "conv3_b"
    lr_mult: 2
  }
  convolution_param {
    num_output: 128
    kernel_size: 2
    stride: 1
    weight_filler {
      type: "xavier"
    }
    bias_filler {
      type: "constant"
    }
  }
}
layer {
  name: "pool3"
  type: "Pooling"
  bottom: "conv3"
  top: "pool3"
  pooling_param {
    pool: MAX
    kernel_size: 2
    stride: 2
  }
}
layer {
  name: "ip1"
  type: "InnerProduct"
  bottom: "pool3"
  top: "ip1"
  param {
    name: "ip1_w"
    lr_mult: 1
  }
  param {
    name: "ip1_b"
    lr_mult: 2
  }
  inner_product_param {
    num_output: 500
    weight_filler {
      type: "xavier"
    }
    bias_filler {
      type: "constant"
    }
  }
}
layer {
  name: "relu1"
  type: "ReLU"
  bottom: "ip1"
  top: "ip1"
}
layer {
  name: "ip2"
  type: "InnerProduct"
  bottom: "ip1"
  top: "ip2"
  param {
    name: "ip2_w"
    lr_mult: 1
  }
  param {
    name: "ip2_b"
    lr_mult: 2
  }
  inner_product_param {
    num_output: 500
    weight_filler {
      type: "xavier"
    }
    bias_filler {
      type: "constant"
    }
  }
}
layer {
  name: "relu2"
  type: "ReLU"
  bottom: "ip2"
  top: "ip2"
}
layer {
  name: "feat"
  type: "InnerProduct"
  bottom: "ip2"
  top: "feat"
  param {
    name: "feat_w"
    lr_mult: 1
  }
  param {
    name: "feat_b"
    lr_mult: 2
  }
  inner_product_param {
    num_output: 2
    weight_filler {
      type: "xavier"
    }
    bias_filler {
      type: "constant"
    }
  }
}
layer {
  name: "conv1_p"
  type: "Convolution"
  bottom: "data_p"
  top: "conv1_p"
  param {
    name: "conv1_w"
    lr_mult: 1
  }
  param {
    name: "conv1_b"
    lr_mult: 2
  }
  convolution_param {
    num_output: 32
    kernel_size: 3
    stride: 1
    weight_filler {
      type: "xavier"
    }
    bias_filler {
      type: "constant"
    }
  }
}
layer {
  name: "pool1_p"
  type: "Pooling"
  bottom: "conv1_p"
  top: "pool1_p"
  pooling_param {
    pool: MAX
    kernel_size: 2
    stride: 2
  }
}
layer {
  name: "conv2_p"
  type: "Convolution"
  bottom: "pool1_p"
  top: "conv2_p"
  param {
    name: "conv2_w"
    lr_mult: 1
  }
  param {
    name: "conv2_b"
    lr_mult: 2
  }
  convolution_param {
    num_output: 64
    kernel_size: 2
    stride: 1
    weight_filler {
      type: "xavier"
    }
    bias_filler {
      type: "constant"
    }
  }
}
layer {
  name: "pool2_p"
  type: "Pooling"
  bottom: "conv2_p"
  top: "pool2_p"
  pooling_param {
    pool: MAX
    kernel_size: 2
    stride: 2
  }
}
layer {
  name: "conv3_p"
  type: "Convolution"
  bottom: "pool2_p"
  top: "conv3_p"
  param {
    name: "conv3_w"
    lr_mult: 1
  }
  param {
    name: "conv3_b"
    lr_mult: 2
  }
  convolution_param {
    num_output: 128
    kernel_size: 2
    stride: 1
    weight_filler {
      type: "xavier"
    }
    bias_filler {
      type: "constant"
    }
  }
}
layer {
  name: "pool3_p"
  type: "Pooling"
  bottom: "conv3_p"
  top: "pool3_p"
  pooling_param {
    pool: MAX
    kernel_size: 2
    stride: 2
  }
}
layer {
  name: "ip1_p"
  type: "InnerProduct"
  bottom: "pool3_p"
  top: "ip1_p"
  param {
    name: "ip1_w"
    lr_mult: 1
  }
  param {
    name: "ip1_b"
    lr_mult: 2
  }
  inner_product_param {
    num_output: 500
    weight_filler {
      type: "xavier"
    }
    bias_filler {
      type: "constant"
    }
  }
}
layer {
  name: "relu1_p"
  type: "ReLU"
  bottom: "ip1_p"
  top: "ip1_p"
}
layer {
  name: "ip2_p"
  type: "InnerProduct"
  bottom: "ip1_p"
  top: "ip2_p"
  param {
    name: "ip2_w"
    lr_mult: 1
  }
  param {
    name: "ip2_b"
    lr_mult: 2
  }
  inner_product_param {
    num_output: 500
    weight_filler {
      type: "xavier"
    }
    bias_filler {
      type: "constant"
    }
  }
}
layer {
  name: "relu2_p"
  type: "ReLU"
  bottom: "ip2_p"
  top: "ip2_p"
}
layer {
  name: "feat_p"
  type: "InnerProduct"
  bottom: "ip2_p"
  top: "feat_p"
  param {
    name: "feat_w"
    lr_mult: 1
  }
  param {
    name: "feat_b"
    lr_mult: 2
  }
  inner_product_param {
    num_output: 2
    weight_filler {
      type: "xavier"
    }
    bias_filler {
      type: "constant"
    }
  }
}
layer {
  name: "loss"
  type: "ContrastiveLoss"
  bottom: "feat"
  bottom: "feat_p"
  bottom: "sim"
  top: "loss"
  contrastive_loss_param {
    margin: 1
  }
}
I0718 22:24:43.063740 2112180992 layer_factory.hpp:74] Creating layer pair_data
I0718 22:24:43.064965 2112180992 net.cpp:90] Creating Layer pair_data
I0718 22:24:43.064986 2112180992 net.cpp:368] pair_data -> pair_data
I0718 22:24:43.065318 2112180992 net.cpp:368] pair_data -> sim
I0718 22:24:43.065336 2112180992 net.cpp:120] Setting up pair_data
I0718 22:24:55.619580 2112180992 db.cpp:20] Opened leveldb src/siamese_network_bw/data/siamese_network_train_leveldb
I0718 22:24:55.789459 2112180992 data_layer.cpp:52] output data size: 64,2,58,58
I0718 22:24:55.790457 2112180992 net.cpp:127] Top shape: 64 2 58 58 (430592)
I0718 22:24:55.790756 2112180992 net.cpp:127] Top shape: 64 (64)
I0718 22:24:55.790768 2112180992 layer_factory.hpp:74] Creating layer slice_pair
I0718 22:24:55.790792 2112180992 net.cpp:90] Creating Layer slice_pair
I0718 22:24:55.790799 2112180992 net.cpp:410] slice_pair <- pair_data
I0718 22:24:55.790809 2112180992 net.cpp:368] slice_pair -> data
I0718 22:24:55.790822 2112180992 net.cpp:368] slice_pair -> data_p
I0718 22:24:55.790830 2112180992 net.cpp:120] Setting up slice_pair
I0718 22:24:55.791028 2112180992 net.cpp:127] Top shape: 64 1 58 58 (215296)
I0718 22:24:55.791060 2112180992 net.cpp:127] Top shape: 64 1 58 58 (215296)
I0718 22:24:55.791075 2112180992 layer_factory.hpp:74] Creating layer conv1
I0718 22:24:55.791093 2112180992 net.cpp:90] Creating Layer conv1
I0718 22:24:55.791102 2112180992 net.cpp:410] conv1 <- data
I0718 22:24:55.791112 2112180992 net.cpp:368] conv1 -> conv1
I0718 22:24:55.791185 2112180992 net.cpp:120] Setting up conv1
I0718 22:24:55.931809 2112180992 net.cpp:127] Top shape: 64 32 56 56 (6422528)
I0718 22:24:55.931840 2112180992 layer_factory.hpp:74] Creating layer pool1
I0718 22:24:55.931861 2112180992 net.cpp:90] Creating Layer pool1
I0718 22:24:55.931867 2112180992 net.cpp:410] pool1 <- conv1
I0718 22:24:55.931875 2112180992 net.cpp:368] pool1 -> pool1
I0718 22:24:55.931885 2112180992 net.cpp:120] Setting up pool1
I0718 22:24:55.932526 2112180992 net.cpp:127] Top shape: 64 32 28 28 (1605632)
I0718 22:24:55.932543 2112180992 layer_factory.hpp:74] Creating layer conv2
I0718 22:24:55.932555 2112180992 net.cpp:90] Creating Layer conv2
I0718 22:24:55.932559 2112180992 net.cpp:410] conv2 <- pool1
I0718 22:24:55.932566 2112180992 net.cpp:368] conv2 -> conv2
I0718 22:24:55.932577 2112180992 net.cpp:120] Setting up conv2
I0718 22:24:55.932947 2112180992 net.cpp:127] Top shape: 64 64 27 27 (2985984)
I0718 22:24:55.932961 2112180992 layer_factory.hpp:74] Creating layer pool2
I0718 22:24:55.932979 2112180992 net.cpp:90] Creating Layer pool2
I0718 22:24:55.932982 2112180992 net.cpp:410] pool2 <- conv2
I0718 22:24:55.932988 2112180992 net.cpp:368] pool2 -> pool2
I0718 22:24:55.932994 2112180992 net.cpp:120] Setting up pool2
I0718 22:24:55.933037 2112180992 net.cpp:127] Top shape: 64 64 14 14 (802816)
I0718 22:24:55.933044 2112180992 layer_factory.hpp:74] Creating layer conv3
I0718 22:24:55.933053 2112180992 net.cpp:90] Creating Layer conv3
I0718 22:24:55.933056 2112180992 net.cpp:410] conv3 <- pool2
I0718 22:24:55.933063 2112180992 net.cpp:368] conv3 -> conv3
I0718 22:24:55.933070 2112180992 net.cpp:120] Setting up conv3
I0718 22:24:55.933565 2112180992 net.cpp:127] Top shape: 64 128 13 13 (1384448)
I0718 22:24:55.933578 2112180992 layer_factory.hpp:74] Creating layer pool3
I0718 22:24:55.933594 2112180992 net.cpp:90] Creating Layer pool3
I0718 22:24:55.933598 2112180992 net.cpp:410] pool3 <- conv3
I0718 22:24:55.933604 2112180992 net.cpp:368] pool3 -> pool3
I0718 22:24:55.933609 2112180992 net.cpp:120] Setting up pool3
I0718 22:24:55.933650 2112180992 net.cpp:127] Top shape: 64 128 7 7 (401408)
I0718 22:24:55.933656 2112180992 layer_factory.hpp:74] Creating layer ip1
I0718 22:24:55.933665 2112180992 net.cpp:90] Creating Layer ip1
I0718 22:24:55.933670 2112180992 net.cpp:410] ip1 <- pool3
I0718 22:24:55.933676 2112180992 net.cpp:368] ip1 -> ip1
I0718 22:24:55.933683 2112180992 net.cpp:120] Setting up ip1
I0718 22:24:55.957872 2112180992 net.cpp:127] Top shape: 64 500 (32000)
I0718 22:24:55.957905 2112180992 layer_factory.hpp:74] Creating layer relu1
I0718 22:24:55.957917 2112180992 net.cpp:90] Creating Layer relu1
I0718 22:24:55.957922 2112180992 net.cpp:410] relu1 <- ip1
I0718 22:24:55.957928 2112180992 net.cpp:357] relu1 -> ip1 (in-place)
I0718 22:24:55.957936 2112180992 net.cpp:120] Setting up relu1
I0718 22:24:55.958190 2112180992 net.cpp:127] Top shape: 64 500 (32000)
I0718 22:24:55.958202 2112180992 layer_factory.hpp:74] Creating layer ip2
I0718 22:24:55.958212 2112180992 net.cpp:90] Creating Layer ip2
I0718 22:24:55.958216 2112180992 net.cpp:410] ip2 <- ip1
I0718 22:24:55.958223 2112180992 net.cpp:368] ip2 -> ip2
I0718 22:24:55.958231 2112180992 net.cpp:120] Setting up ip2
I0718 22:24:55.959944 2112180992 net.cpp:127] Top shape: 64 500 (32000)
I0718 22:24:55.959965 2112180992 layer_factory.hpp:74] Creating layer relu2
I0718 22:24:55.959971 2112180992 net.cpp:90] Creating Layer relu2
I0718 22:24:55.959976 2112180992 net.cpp:410] relu2 <- ip2
I0718 22:24:55.959981 2112180992 net.cpp:357] relu2 -> ip2 (in-place)
I0718 22:24:55.959987 2112180992 net.cpp:120] Setting up relu2
I0718 22:24:55.960043 2112180992 net.cpp:127] Top shape: 64 500 (32000)
I0718 22:24:55.960050 2112180992 layer_factory.hpp:74] Creating layer feat
I0718 22:24:55.960058 2112180992 net.cpp:90] Creating Layer feat
I0718 22:24:55.960063 2112180992 net.cpp:410] feat <- ip2
I0718 22:24:55.960069 2112180992 net.cpp:368] feat -> feat
I0718 22:24:55.960078 2112180992 net.cpp:120] Setting up feat
I0718 22:24:55.960094 2112180992 net.cpp:127] Top shape: 64 2 (128)
I0718 22:24:55.960122 2112180992 layer_factory.hpp:74] Creating layer conv1_p
I0718 22:24:55.960130 2112180992 net.cpp:90] Creating Layer conv1_p
I0718 22:24:55.960135 2112180992 net.cpp:410] conv1_p <- data_p
I0718 22:24:55.960141 2112180992 net.cpp:368] conv1_p -> conv1_p
I0718 22:24:55.960150 2112180992 net.cpp:120] Setting up conv1_p
I0718 22:24:55.960491 2112180992 net.cpp:127] Top shape: 64 32 56 56 (6422528)
I0718 22:24:55.960502 2112180992 net.cpp:459] Sharing parameters 'conv1_w' owned by layer 'conv1', param index 0
I0718 22:24:55.960517 2112180992 net.cpp:459] Sharing parameters 'conv1_b' owned by layer 'conv1', param index 1
I0718 22:24:55.960523 2112180992 layer_factory.hpp:74] Creating layer pool1_p
I0718 22:24:55.960530 2112180992 net.cpp:90] Creating Layer pool1_p
I0718 22:24:55.960535 2112180992 net.cpp:410] pool1_p <- conv1_p
I0718 22:24:55.960539 2112180992 net.cpp:368] pool1_p -> pool1_p
I0718 22:24:55.960546 2112180992 net.cpp:120] Setting up pool1_p
I0718 22:24:55.960590 2112180992 net.cpp:127] Top shape: 64 32 28 28 (1605632)
I0718 22:24:55.960597 2112180992 layer_factory.hpp:74] Creating layer conv2_p
I0718 22:24:55.960603 2112180992 net.cpp:90] Creating Layer conv2_p
I0718 22:24:55.960608 2112180992 net.cpp:410] conv2_p <- pool1_p
I0718 22:24:55.960613 2112180992 net.cpp:368] conv2_p -> conv2_p
I0718 22:24:55.960620 2112180992 net.cpp:120] Setting up conv2_p
I0718 22:24:55.961329 2112180992 net.cpp:127] Top shape: 64 64 27 27 (2985984)
I0718 22:24:55.961340 2112180992 net.cpp:459] Sharing parameters 'conv2_w' owned by layer 'conv2', param index 0
I0718 22:24:55.961782 2112180992 net.cpp:459] Sharing parameters 'conv2_b' owned by layer 'conv2', param index 1
I0718 22:24:55.961789 2112180992 layer_factory.hpp:74] Creating layer pool2_p
I0718 22:24:55.961796 2112180992 net.cpp:90] Creating Layer pool2_p
I0718 22:24:55.961801 2112180992 net.cpp:410] pool2_p <- conv2_p
I0718 22:24:55.961805 2112180992 net.cpp:368] pool2_p -> pool2_p
I0718 22:24:55.962031 2112180992 net.cpp:120] Setting up pool2_p
I0718 22:24:55.962080 2112180992 net.cpp:127] Top shape: 64 64 14 14 (802816)
I0718 22:24:55.962085 2112180992 layer_factory.hpp:74] Creating layer conv3_p
I0718 22:24:55.962092 2112180992 net.cpp:90] Creating Layer conv3_p
I0718 22:24:55.962105 2112180992 net.cpp:410] conv3_p <- pool2_p
I0718 22:24:55.962113 2112180992 net.cpp:368] conv3_p -> conv3_p
I0718 22:24:55.962121 2112180992 net.cpp:120] Setting up conv3_p
I0718 22:24:55.962791 2112180992 net.cpp:127] Top shape: 64 128 13 13 (1384448)
I0718 22:24:55.962803 2112180992 net.cpp:459] Sharing parameters 'conv3_w' owned by layer 'conv3', param index 0
I0718 22:24:55.962821 2112180992 net.cpp:459] Sharing parameters 'conv3_b' owned by layer 'conv3', param index 1
I0718 22:24:55.962826 2112180992 layer_factory.hpp:74] Creating layer pool3_p
I0718 22:24:55.962831 2112180992 net.cpp:90] Creating Layer pool3_p
I0718 22:24:55.962836 2112180992 net.cpp:410] pool3_p <- conv3_p
I0718 22:24:55.962846 2112180992 net.cpp:368] pool3_p -> pool3_p
I0718 22:24:55.962852 2112180992 net.cpp:120] Setting up pool3_p
I0718 22:24:55.963016 2112180992 net.cpp:127] Top shape: 64 128 7 7 (401408)
I0718 22:24:55.963024 2112180992 layer_factory.hpp:74] Creating layer ip1_p
I0718 22:24:55.963032 2112180992 net.cpp:90] Creating Layer ip1_p
I0718 22:24:55.963040 2112180992 net.cpp:410] ip1_p <- pool3_p
I0718 22:24:55.963047 2112180992 net.cpp:368] ip1_p -> ip1_p
I0718 22:24:55.963054 2112180992 net.cpp:120] Setting up ip1_p
I0718 22:24:55.985693 2112180992 net.cpp:127] Top shape: 64 500 (32000)
I0718 22:24:55.985708 2112180992 net.cpp:459] Sharing parameters 'ip1_w' owned by layer 'ip1', param index 0
I0718 22:24:55.986889 2112180992 net.cpp:459] Sharing parameters 'ip1_b' owned by layer 'ip1', param index 1
I0718 22:24:55.986898 2112180992 layer_factory.hpp:74] Creating layer relu1_p
I0718 22:24:55.986915 2112180992 net.cpp:90] Creating Layer relu1_p
I0718 22:24:55.986919 2112180992 net.cpp:410] relu1_p <- ip1_p
I0718 22:24:55.986924 2112180992 net.cpp:357] relu1_p -> ip1_p (in-place)
I0718 22:24:55.986948 2112180992 net.cpp:120] Setting up relu1_p
I0718 22:24:55.987007 2112180992 net.cpp:127] Top shape: 64 500 (32000)
I0718 22:24:55.987013 2112180992 layer_factory.hpp:74] Creating layer ip2_p
I0718 22:24:55.987021 2112180992 net.cpp:90] Creating Layer ip2_p
I0718 22:24:55.987025 2112180992 net.cpp:410] ip2_p <- ip1_p
I0718 22:24:55.987031 2112180992 net.cpp:368] ip2_p -> ip2_p
I0718 22:24:55.987038 2112180992 net.cpp:120] Setting up ip2_p
I0718 22:24:55.988868 2112180992 net.cpp:127] Top shape: 64 500 (32000)
I0718 22:24:55.988879 2112180992 net.cpp:459] Sharing parameters 'ip2_w' owned by layer 'ip2', param index 0
I0718 22:24:55.988895 2112180992 net.cpp:459] Sharing parameters 'ip2_b' owned by layer 'ip2', param index 1
I0718 22:24:55.988900 2112180992 layer_factory.hpp:74] Creating layer relu2_p
I0718 22:24:55.988905 2112180992 net.cpp:90] Creating Layer relu2_p
I0718 22:24:55.988909 2112180992 net.cpp:410] relu2_p <- ip2_p
I0718 22:24:55.988914 2112180992 net.cpp:357] relu2_p -> ip2_p (in-place)
I0718 22:24:55.988919 2112180992 net.cpp:120] Setting up relu2_p
I0718 22:24:55.988970 2112180992 net.cpp:127] Top shape: 64 500 (32000)
I0718 22:24:55.988975 2112180992 layer_factory.hpp:74] Creating layer feat_p
I0718 22:24:55.988981 2112180992 net.cpp:90] Creating Layer feat_p
I0718 22:24:55.988986 2112180992 net.cpp:410] feat_p <- ip2_p
I0718 22:24:55.989009 2112180992 net.cpp:368] feat_p -> feat_p
I0718 22:24:55.989024 2112180992 net.cpp:120] Setting up feat_p
I0718 22:24:55.989043 2112180992 net.cpp:127] Top shape: 64 2 (128)
I0718 22:24:55.989050 2112180992 net.cpp:459] Sharing parameters 'feat_w' owned by layer 'feat', param index 0
I0718 22:24:55.989056 2112180992 net.cpp:459] Sharing parameters 'feat_b' owned by layer 'feat', param index 1
I0718 22:24:55.989061 2112180992 layer_factory.hpp:74] Creating layer loss
I0718 22:24:55.989281 2112180992 net.cpp:90] Creating Layer loss
I0718 22:24:55.989292 2112180992 net.cpp:410] loss <- feat
…
