…
I0718 22:52:10.335517 2112180992 solver.cpp:70] Creating training net from net file: src/siamese_network_bw/model/siamese_train_validate.prototxt
I0718 22:52:10.336629 2112180992 net.cpp:287] The NetState phase (0) differed from the phase (1) specified by a rule in layer pair_data
I0718 22:52:10.336663 2112180992 net.cpp:42] Initializing net from parameters: 
name: "siamese_train_validate"
state {
  phase: TRAIN
}
layer {
  name: "pair_data"
  type: "Data"
  top: "pair_data"
  top: "sim"
  include {
    phase: TRAIN
  }
  transform_param {
    scale: 0.00390625
  }
  data_param {
    source: "src/siamese_network_bw/data/siamese_network_train_leveldb"
    batch_size: 64
  }
}
layer {
  name: "slice_pair"
  type: "Slice"
  bottom: "pair_data"
  top: "data"
  top: "data_p"
  slice_param {
    slice_dim: 1
    slice_point: 1
  }
}
layer {
  name: "conv1"
  type: "Convolution"
  bottom: "data"
  top: "conv1"
  param {
    name: "conv1_w"
    lr_mult: 1
  }
  param {
    name: "conv1_b"
    lr_mult: 2
  }
  convolution_param {
    num_output: 32
    kernel_size: 3
    stride: 1
    weight_filler {
      type: "xavier"
    }
    bias_filler {
      type: "constant"
    }
  }
}
layer {
  name: "pool1"
  type: "Pooling"
  bottom: "conv1"
  top: "pool1"
  pooling_param {
    pool: MAX
    kernel_size: 2
    stride: 2
  }
}
layer {
  name: "conv2"
  type: "Convolution"
  bottom: "pool1"
  top: "conv2"
  param {
    name: "conv2_w"
    lr_mult: 1
  }
  param {
    name: "conv2_b"
    lr_mult: 2
  }
  convolution_param {
    num_output: 64
    kernel_size: 2
    stride: 1
    weight_filler {
      type: "xavier"
    }
    bias_filler {
      type: "constant"
    }
  }
}
layer {
  name: "pool2"
  type: "Pooling"
  bottom: "conv2"
  top: "pool2"
  pooling_param {
    pool: MAX
    kernel_size: 2
    stride: 2
  }
}
layer {
  name: "conv3"
  type: "Convolution"
  bottom: "pool2"
  top: "conv3"
  param {
    name: "conv3_w"
    lr_mult: 1
  }
  param {
    name: "conv3_b"
    lr_mult: 2
  }
  convolution_param {
    num_output: 128
    kernel_size: 2
    stride: 1
    weight_filler {
      type: "xavier"
    }
    bias_filler {
      type: "constant"
    }
  }
}
layer {
  name: "pool3"
  type: "Pooling"
  bottom: "conv3"
  top: "pool3"
  pooling_param {
    pool: MAX
    kernel_size: 2
    stride: 2
  }
}
layer {
  name: "ip1"
  type: "InnerProduct"
  bottom: "pool3"
  top: "ip1"
  param {
    name: "ip1_w"
    lr_mult: 1
  }
  param {
    name: "ip1_b"
    lr_mult: 2
  }
  inner_product_param {
    num_output: 500
    weight_filler {
      type: "xavier"
    }
    bias_filler {
      type: "constant"
    }
  }
}
layer {
  name: "relu1"
  type: "ReLU"
  bottom: "ip1"
  top: "ip1"
}
layer {
  name: "ip2"
  type: "InnerProduct"
  bottom: "ip1"
  top: "ip2"
  param {
    name: "ip2_w"
    lr_mult: 1
  }
  param {
    name: "ip2_b"
    lr_mult: 2
  }
  inner_product_param {
    num_output: 500
    weight_filler {
      type: "xavier"
    }
    bias_filler {
      type: "constant"
    }
  }
}
layer {
  name: "relu2"
  type: "ReLU"
  bottom: "ip2"
  top: "ip2"
}
layer {
  name: "feat"
  type: "InnerProduct"
  bottom: "ip2"
  top: "feat"
  param {
    name: "feat_w"
    lr_mult: 1
  }
  param {
    name: "feat_b"
    lr_mult: 2
  }
  inner_product_param {
    num_output: 2
    weight_filler {
      type: "xavier"
    }
    bias_filler {
      type: "constant"
    }
  }
}
layer {
  name: "conv1_p"
  type: "Convolution"
  bottom: "data_p"
  top: "conv1_p"
  param {
    name: "conv1_w"
    lr_mult: 1
  }
  param {
    name: "conv1_b"
    lr_mult: 2
  }
  convolution_param {
    num_output: 32
    kernel_size: 3
    stride: 1
    weight_filler {
      type: "xavier"
    }
    bias_filler {
      type: "constant"
    }
  }
}
layer {
  name: "pool1_p"
  type: "Pooling"
  bottom: "conv1_p"
  top: "pool1_p"
  pooling_param {
    pool: MAX
    kernel_size: 2
    stride: 2
  }
}
layer {
  name: "conv2_p"
  type: "Convolution"
  bottom: "pool1_p"
  top: "conv2_p"
  param {
    name: "conv2_w"
    lr_mult: 1
  }
  param {
    name: "conv2_b"
    lr_mult: 2
  }
  convolution_param {
    num_output: 64
    kernel_size: 2
    stride: 1
    weight_filler {
      type: "xavier"
    }
    bias_filler {
      type: "constant"
    }
  }
}
layer {
  name: "pool2_p"
  type: "Pooling"
  bottom: "conv2_p"
  top: "pool2_p"
  pooling_param {
    pool: MAX
    kernel_size: 2
    stride: 2
  }
}
layer {
  name: "conv3_p"
  type: "Convolution"
  bottom: "pool2_p"
  top: "conv3_p"
  param {
    name: "conv3_w"
    lr_mult: 1
  }
  param {
    name: "conv3_b"
    lr_mult: 2
  }
  convolution_param {
    num_output: 128
    kernel_size: 2
    stride: 1
    weight_filler {
      type: "xavier"
    }
    bias_filler {
      type: "constant"
    }
  }
}
layer {
  name: "pool3_p"
  type: "Pooling"
  bottom: "conv3_p"
  top: "pool3_p"
  pooling_param {
    pool: MAX
    kernel_size: 2
    stride: 2
  }
}
layer {
  name: "ip1_p"
  type: "InnerProduct"
  bottom: "pool3_p"
  top: "ip1_p"
  param {
    name: "ip1_w"
    lr_mult: 1
  }
  param {
    name: "ip1_b"
    lr_mult: 2
  }
  inner_product_param {
    num_output: 500
    weight_filler {
      type: "xavier"
    }
    bias_filler {
      type: "constant"
    }
  }
}
layer {
  name: "relu1_p"
  type: "ReLU"
  bottom: "ip1_p"
  top: "ip1_p"
}
layer {
  name: "ip2_p"
  type: "InnerProduct"
  bottom: "ip1_p"
  top: "ip2_p"
  param {
    name: "ip2_w"
    lr_mult: 1
  }
  param {
    name: "ip2_b"
    lr_mult: 2
  }
  inner_product_param {
    num_output: 500
    weight_filler {
      type: "xavier"
    }
    bias_filler {
      type: "constant"
    }
  }
}
layer {
  name: "relu2_p"
  type: "ReLU"
  bottom: "ip2_p"
  top: "ip2_p"
}
layer {
  name: "feat_p"
  type: "InnerProduct"
  bottom: "ip2_p"
  top: "feat_p"
  param {
    name: "feat_w"
    lr_mult: 1
  }
  param {
    name: "feat_b"
    lr_mult: 2
  }
  inner_product_param {
    num_output: 2
    weight_filler {
      type: "xavier"
    }
    bias_filler {
      type: "constant"
    }
  }
}
layer {
  name: "loss"
  type: "ContrastiveLoss"
  bottom: "feat"
  bottom: "feat_p"
  bottom: "sim"
  top: "loss"
  contrastive_loss_param {
    margin: 1
  }
}
I0718 22:52:10.337040 2112180992 layer_factory.hpp:74] Creating layer pair_data
I0718 22:52:10.337090 2112180992 net.cpp:90] Creating Layer pair_data
I0718 22:52:10.337105 2112180992 net.cpp:368] pair_data -> pair_data
I0718 22:52:10.337126 2112180992 net.cpp:368] pair_data -> sim
I0718 22:52:10.337136 2112180992 net.cpp:120] Setting up pair_data
I0718 22:52:11.448247 2112180992 db.cpp:20] Opened leveldb src/siamese_network_bw/data/siamese_network_train_leveldb
I0718 22:52:11.535867 2112180992 data_layer.cpp:52] output data size: 64,2,58,58
I0718 22:52:11.536098 2112180992 net.cpp:127] Top shape: 64 2 58 58 (430592)
I0718 22:52:11.536145 2112180992 net.cpp:127] Top shape: 64 (64)
I0718 22:52:11.536252 2112180992 layer_factory.hpp:74] Creating layer slice_pair
I0718 22:52:11.536316 2112180992 net.cpp:90] Creating Layer slice_pair
I0718 22:52:11.536362 2112180992 net.cpp:410] slice_pair <- pair_data
I0718 22:52:11.536403 2112180992 net.cpp:368] slice_pair -> data
I0718 22:52:11.536624 2112180992 net.cpp:368] slice_pair -> data_p
I0718 22:52:11.536648 2112180992 net.cpp:120] Setting up slice_pair
I0718 22:52:11.536728 2112180992 net.cpp:127] Top shape: 64 1 58 58 (215296)
I0718 22:52:11.536766 2112180992 net.cpp:127] Top shape: 64 1 58 58 (215296)
I0718 22:52:11.536782 2112180992 layer_factory.hpp:74] Creating layer conv1
I0718 22:52:11.536799 2112180992 net.cpp:90] Creating Layer conv1
I0718 22:52:11.536809 2112180992 net.cpp:410] conv1 <- data
I0718 22:52:11.536823 2112180992 net.cpp:368] conv1 -> conv1
I0718 22:52:11.536936 2112180992 net.cpp:120] Setting up conv1
I0718 22:52:11.615720 2112180992 net.cpp:127] Top shape: 64 32 56 56 (6422528)
I0718 22:52:11.615747 2112180992 layer_factory.hpp:74] Creating layer pool1
I0718 22:52:11.615761 2112180992 net.cpp:90] Creating Layer pool1
I0718 22:52:11.615766 2112180992 net.cpp:410] pool1 <- conv1
I0718 22:52:11.615772 2112180992 net.cpp:368] pool1 -> pool1
I0718 22:52:11.615782 2112180992 net.cpp:120] Setting up pool1
I0718 22:52:11.615985 2112180992 net.cpp:127] Top shape: 64 32 28 28 (1605632)
I0718 22:52:11.616019 2112180992 layer_factory.hpp:74] Creating layer conv2
I0718 22:52:11.616037 2112180992 net.cpp:90] Creating Layer conv2
I0718 22:52:11.616045 2112180992 net.cpp:410] conv2 <- pool1
I0718 22:52:11.616091 2112180992 net.cpp:368] conv2 -> conv2
I0718 22:52:11.616109 2112180992 net.cpp:120] Setting up conv2
I0718 22:52:11.616580 2112180992 net.cpp:127] Top shape: 64 64 27 27 (2985984)
I0718 22:52:11.616598 2112180992 layer_factory.hpp:74] Creating layer pool2
I0718 22:52:11.616606 2112180992 net.cpp:90] Creating Layer pool2
I0718 22:52:11.616611 2112180992 net.cpp:410] pool2 <- conv2
I0718 22:52:11.616721 2112180992 net.cpp:368] pool2 -> pool2
I0718 22:52:11.616753 2112180992 net.cpp:120] Setting up pool2
I0718 22:52:11.616869 2112180992 net.cpp:127] Top shape: 64 64 14 14 (802816)
I0718 22:52:11.616891 2112180992 layer_factory.hpp:74] Creating layer conv3
I0718 22:52:11.616914 2112180992 net.cpp:90] Creating Layer conv3
I0718 22:52:11.616921 2112180992 net.cpp:410] conv3 <- pool2
I0718 22:52:11.616946 2112180992 net.cpp:368] conv3 -> conv3
I0718 22:52:11.616966 2112180992 net.cpp:120] Setting up conv3
I0718 22:52:11.617609 2112180992 net.cpp:127] Top shape: 64 128 13 13 (1384448)
I0718 22:52:11.617627 2112180992 layer_factory.hpp:74] Creating layer pool3
I0718 22:52:11.617642 2112180992 net.cpp:90] Creating Layer pool3
I0718 22:52:11.617650 2112180992 net.cpp:410] pool3 <- conv3
I0718 22:52:11.617658 2112180992 net.cpp:368] pool3 -> pool3
I0718 22:52:11.617668 2112180992 net.cpp:120] Setting up pool3
I0718 22:52:11.617796 2112180992 net.cpp:127] Top shape: 64 128 7 7 (401408)
I0718 22:52:11.617810 2112180992 layer_factory.hpp:74] Creating layer ip1
I0718 22:52:11.617823 2112180992 net.cpp:90] Creating Layer ip1
I0718 22:52:11.617859 2112180992 net.cpp:410] ip1 <- pool3
I0718 22:52:11.617883 2112180992 net.cpp:368] ip1 -> ip1
I0718 22:52:11.617916 2112180992 net.cpp:120] Setting up ip1
I0718 22:52:11.642246 2112180992 net.cpp:127] Top shape: 64 500 (32000)
I0718 22:52:11.642271 2112180992 layer_factory.hpp:74] Creating layer relu1
I0718 22:52:11.642285 2112180992 net.cpp:90] Creating Layer relu1
I0718 22:52:11.642290 2112180992 net.cpp:410] relu1 <- ip1
I0718 22:52:11.642297 2112180992 net.cpp:357] relu1 -> ip1 (in-place)
I0718 22:52:11.642304 2112180992 net.cpp:120] Setting up relu1
I0718 22:52:11.642556 2112180992 net.cpp:127] Top shape: 64 500 (32000)
I0718 22:52:11.642581 2112180992 layer_factory.hpp:74] Creating layer ip2
I0718 22:52:11.642613 2112180992 net.cpp:90] Creating Layer ip2
I0718 22:52:11.642622 2112180992 net.cpp:410] ip2 <- ip1
I0718 22:52:11.642634 2112180992 net.cpp:368] ip2 -> ip2
I0718 22:52:11.642663 2112180992 net.cpp:120] Setting up ip2
I0718 22:52:11.644505 2112180992 net.cpp:127] Top shape: 64 500 (32000)
I0718 22:52:11.644527 2112180992 layer_factory.hpp:74] Creating layer relu2
I0718 22:52:11.644562 2112180992 net.cpp:90] Creating Layer relu2
I0718 22:52:11.644573 2112180992 net.cpp:410] relu2 <- ip2
I0718 22:52:11.644592 2112180992 net.cpp:357] relu2 -> ip2 (in-place)
I0718 22:52:11.644603 2112180992 net.cpp:120] Setting up relu2
I0718 22:52:11.644734 2112180992 net.cpp:127] Top shape: 64 500 (32000)
I0718 22:52:11.644747 2112180992 layer_factory.hpp:74] Creating layer feat
I0718 22:52:11.644831 2112180992 net.cpp:90] Creating Layer feat
I0718 22:52:11.644887 2112180992 net.cpp:410] feat <- ip2
I0718 22:52:11.644899 2112180992 net.cpp:368] feat -> feat
I0718 22:52:11.644951 2112180992 net.cpp:120] Setting up feat
I0718 22:52:11.645045 2112180992 net.cpp:127] Top shape: 64 2 (128)
I0718 22:52:11.645133 2112180992 layer_factory.hpp:74] Creating layer conv1_p
I0718 22:52:11.645190 2112180992 net.cpp:90] Creating Layer conv1_p
I0718 22:52:11.645210 2112180992 net.cpp:410] conv1_p <- data_p
I0718 22:52:11.645241 2112180992 net.cpp:368] conv1_p -> conv1_p
I0718 22:52:11.645257 2112180992 net.cpp:120] Setting up conv1_p
I0718 22:52:11.645632 2112180992 net.cpp:127] Top shape: 64 32 56 56 (6422528)
I0718 22:52:11.645647 2112180992 net.cpp:459] Sharing parameters 'conv1_w' owned by layer 'conv1', param index 0
I0718 22:52:11.645659 2112180992 net.cpp:459] Sharing parameters 'conv1_b' owned by layer 'conv1', param index 1
I0718 22:52:11.645664 2112180992 layer_factory.hpp:74] Creating layer pool1_p
I0718 22:52:11.645671 2112180992 net.cpp:90] Creating Layer pool1_p
I0718 22:52:11.645675 2112180992 net.cpp:410] pool1_p <- conv1_p
I0718 22:52:11.645681 2112180992 net.cpp:368] pool1_p -> pool1_p
I0718 22:52:11.645689 2112180992 net.cpp:120] Setting up pool1_p
I0718 22:52:11.645769 2112180992 net.cpp:127] Top shape: 64 32 28 28 (1605632)
I0718 22:52:11.645784 2112180992 layer_factory.hpp:74] Creating layer conv2_p
I0718 22:52:11.645828 2112180992 net.cpp:90] Creating Layer conv2_p
I0718 22:52:11.645843 2112180992 net.cpp:410] conv2_p <- pool1_p
I0718 22:52:11.645859 2112180992 net.cpp:368] conv2_p -> conv2_p
I0718 22:52:11.645870 2112180992 net.cpp:120] Setting up conv2_p
I0718 22:52:11.646332 2112180992 net.cpp:127] Top shape: 64 64 27 27 (2985984)
I0718 22:52:11.646364 2112180992 net.cpp:459] Sharing parameters 'conv2_w' owned by layer 'conv2', param index 0
I0718 22:52:11.646399 2112180992 net.cpp:459] Sharing parameters 'conv2_b' owned by layer 'conv2', param index 1
I0718 22:52:11.646462 2112180992 layer_factory.hpp:74] Creating layer pool2_p
I0718 22:52:11.646476 2112180992 net.cpp:90] Creating Layer pool2_p
I0718 22:52:11.646495 2112180992 net.cpp:410] pool2_p <- conv2_p
I0718 22:52:11.646510 2112180992 net.cpp:368] pool2_p -> pool2_p
I0718 22:52:11.646520 2112180992 net.cpp:120] Setting up pool2_p
I0718 22:52:11.646582 2112180992 net.cpp:127] Top shape: 64 64 14 14 (802816)
I0718 22:52:11.646595 2112180992 layer_factory.hpp:74] Creating layer conv3_p
I0718 22:52:11.646606 2112180992 net.cpp:90] Creating Layer conv3_p
I0718 22:52:11.646625 2112180992 net.cpp:410] conv3_p <- pool2_p
I0718 22:52:11.646674 2112180992 net.cpp:368] conv3_p -> conv3_p
I0718 22:52:11.646687 2112180992 net.cpp:120] Setting up conv3_p
I0718 22:52:11.647595 2112180992 net.cpp:127] Top shape: 64 128 13 13 (1384448)
I0718 22:52:11.647614 2112180992 net.cpp:459] Sharing parameters 'conv3_w' owned by layer 'conv3', param index 0
I0718 22:52:11.647624 2112180992 net.cpp:459] Sharing parameters 'conv3_b' owned by layer 'conv3', param index 1
I0718 22:52:11.647629 2112180992 layer_factory.hpp:74] Creating layer pool3_p
I0718 22:52:11.647637 2112180992 net.cpp:90] Creating Layer pool3_p
I0718 22:52:11.647644 2112180992 net.cpp:410] pool3_p <- conv3_p
I0718 22:52:11.647650 2112180992 net.cpp:368] pool3_p -> pool3_p
I0718 22:52:11.647656 2112180992 net.cpp:120] Setting up pool3_p
I0718 22:52:11.647867 2112180992 net.cpp:127] Top shape: 64 128 7 7 (401408)
I0718 22:52:11.647894 2112180992 layer_factory.hpp:74] Creating layer ip1_p
I0718 22:52:11.647925 2112180992 net.cpp:90] Creating Layer ip1_p
I0718 22:52:11.647964 2112180992 net.cpp:410] ip1_p <- pool3_p
I0718 22:52:11.647989 2112180992 net.cpp:368] ip1_p -> ip1_p
I0718 22:52:11.648006 2112180992 net.cpp:120] Setting up ip1_p
I0718 22:52:11.671672 2112180992 net.cpp:127] Top shape: 64 500 (32000)
I0718 22:52:11.671711 2112180992 net.cpp:459] Sharing parameters 'ip1_w' owned by layer 'ip1', param index 0
I0718 22:52:11.673368 2112180992 net.cpp:459] Sharing parameters 'ip1_b' owned by layer 'ip1', param index 1
I0718 22:52:11.673396 2112180992 layer_factory.hpp:74] Creating layer relu1_p
I0718 22:52:11.673427 2112180992 net.cpp:90] Creating Layer relu1_p
I0718 22:52:11.673558 2112180992 net.cpp:410] relu1_p <- ip1_p
I0718 22:52:11.673598 2112180992 net.cpp:357] relu1_p -> ip1_p (in-place)
I0718 22:52:11.673660 2112180992 net.cpp:120] Setting up relu1_p
I0718 22:52:11.673828 2112180992 net.cpp:127] Top shape: 64 500 (32000)
I0718 22:52:11.673856 2112180992 layer_factory.hpp:74] Creating layer ip2_p
I0718 22:52:11.673887 2112180992 net.cpp:90] Creating Layer ip2_p
I0718 22:52:11.673910 2112180992 net.cpp:410] ip2_p <- ip1_p
I0718 22:52:11.673938 2112180992 net.cpp:368] ip2_p -> ip2_p
I0718 22:52:11.673967 2112180992 net.cpp:120] Setting up ip2_p
I0718 22:52:11.677865 2112180992 net.cpp:127] Top shape: 64 500 (32000)
I0718 22:52:11.677911 2112180992 net.cpp:459] Sharing parameters 'ip2_w' owned by layer 'ip2', param index 0
I0718 22:52:11.677948 2112180992 net.cpp:459] Sharing parameters 'ip2_b' owned by layer 'ip2', param index 1
I0718 22:52:11.677975 2112180992 layer_factory.hpp:74] Creating layer relu2_p
I0718 22:52:11.677997 2112180992 net.cpp:90] Creating Layer relu2_p
I0718 22:52:11.678009 2112180992 net.cpp:410] relu2_p <- ip2_p
I0718 22:52:11.678022 2112180992 net.cpp:357] relu2_p -> ip2_p (in-place)
I0718 22:52:11.678036 2112180992 net.cpp:120] Setting up relu2_p
I0718 22:52:11.678139 2112180992 net.cpp:127] Top shape: 64 500 (32000)
I0718 22:52:11.678182 2112180992 layer_factory.hpp:74] Creating layer feat_p
I0718 22:52:11.678194 2112180992 net.cpp:90] Creating Layer feat_p
I0718 22:52:11.678200 2112180992 net.cpp:410] feat_p <- ip2_p
I0718 22:52:11.678222 2112180992 net.cpp:368] feat_p -> feat_p
I0718 22:52:11.678304 2112180992 net.cpp:120] Setting up feat_p
I0718 22:52:11.678328 2112180992 net.cpp:127] Top shape: 64 2 (128)
I0718 22:52:11.678334 2112180992 net.cpp:459] Sharing parameters 'feat_w' owned by layer 'feat', param index 0
I0718 22:52:11.678340 2112180992 net.cpp:459] Sharing parameters 'feat_b' owned by layer 'feat', param index 1
I0718 22:52:11.678345 2112180992 layer_factory.hpp:74] Creating layer loss
I0718 22:52:11.678380 2112180992 net.cpp:90] Creating Layer loss
I0718 22:52:11.678392 2112180992 net.cpp:410] loss <- feat
…
