…
I0627 11:34:09.950271 1970144000 solver.cpp:70] Creating training net from net file: src/siamese_network_bw/model/siamese_train_validate.prototxt
I0627 11:34:09.950778 1970144000 net.cpp:287] The NetState phase (0) differed from the phase (1) specified by a rule in layer pair_data
I0627 11:34:09.950803 1970144000 net.cpp:42] Initializing net from parameters: 
name: "siamese_train_validate"
state {
  phase: TRAIN
}
layer {
  name: "pair_data"
  type: "Data"
  top: "pair_data"
  top: "sim"
  include {
    phase: TRAIN
  }
  transform_param {
    scale: 0.00390625
  }
  data_param {
    source: "src/siamese_network_bw/data/siamese_network_train_leveldb"
    batch_size: 64
  }
}
layer {
  name: "slice_pair"
  type: "Slice"
  bottom: "pair_data"
  top: "data"
  top: "data_p"
  slice_param {
    slice_dim: 1
    slice_point: 1
  }
}
layer {
  name: "conv1"
  type: "Convolution"
  bottom: "data"
  top: "conv1"
  param {
    name: "conv1_w"
    lr_mult: 1
  }
  param {
    name: "conv1_b"
    lr_mult: 2
  }
  convolution_param {
    num_output: 20
    kernel_size: 5
    stride: 1
    weight_filler {
      type: "xavier"
    }
    bias_filler {
      type: "constant"
    }
  }
}
layer {
  name: "pool1"
  type: "Pooling"
  bottom: "conv1"
  top: "pool1"
  pooling_param {
    pool: MAX
    kernel_size: 2
    stride: 2
  }
}
layer {
  name: "conv2"
  type: "Convolution"
  bottom: "pool1"
  top: "conv2"
  param {
    name: "conv2_w"
    lr_mult: 1
  }
  param {
    name: "conv2_b"
    lr_mult: 2
  }
  convolution_param {
    num_output: 50
    kernel_size: 5
    stride: 1
    weight_filler {
      type: "xavier"
    }
    bias_filler {
      type: "constant"
    }
  }
}
layer {
  name: "pool2"
  type: "Pooling"
  bottom: "conv2"
  top: "pool2"
  pooling_param {
    pool: MAX
    kernel_size: 2
    stride: 2
  }
}
layer {
  name: "ip1"
  type: "InnerProduct"
  bottom: "pool2"
  top: "ip1"
  param {
    name: "ip1_w"
    lr_mult: 1
  }
  param {
    name: "ip1_b"
    lr_mult: 2
  }
  inner_product_param {
    num_output: 500
    weight_filler {
      type: "xavier"
    }
    bias_filler {
      type: "constant"
    }
  }
}
layer {
  name: "relu1"
  type: "ReLU"
  bottom: "ip1"
  top: "ip1"
}
layer {
  name: "ip2"
  type: "InnerProduct"
  bottom: "ip1"
  top: "ip2"
  param {
    name: "ip2_w"
    lr_mult: 1
  }
  param {
    name: "ip2_b"
    lr_mult: 2
  }
  inner_product_param {
    num_output: 10
    weight_filler {
      type: "xavier"
    }
    bias_filler {
      type: "constant"
    }
  }
}
layer {
  name: "feat"
  type: "InnerProduct"
  bottom: "ip2"
  top: "feat"
  param {
    name: "feat_w"
    lr_mult: 1
  }
  param {
    name: "feat_b"
    lr_mult: 2
  }
  inner_product_param {
    num_output: 2
    weight_filler {
      type: "xavier"
    }
    bias_filler {
      type: "constant"
    }
  }
}
layer {
  name: "conv1_p"
  type: "Convolution"
  bottom: "data_p"
  top: "conv1_p"
  param {
    name: "conv1_w"
    lr_mult: 1
  }
  param {
    name: "conv1_b"
    lr_mult: 2
  }
  convolution_param {
    num_output: 20
    kernel_size: 5
    stride: 1
    weight_filler {
      type: "xavier"
    }
    bias_filler {
      type: "constant"
    }
  }
}
layer {
  name: "pool1_p"
  type: "Pooling"
  bottom: "conv1_p"
  top: "pool1_p"
  pooling_param {
    pool: MAX
    kernel_size: 2
    stride: 2
  }
}
layer {
  name: "conv2_p"
  type: "Convolution"
  bottom: "pool1_p"
  top: "conv2_p"
  param {
    name: "conv2_w"
    lr_mult: 1
  }
  param {
    name: "conv2_b"
    lr_mult: 2
  }
  convolution_param {
    num_output: 50
    kernel_size: 5
    stride: 1
    weight_filler {
      type: "xavier"
    }
    bias_filler {
      type: "constant"
    }
  }
}
layer {
  name: "pool2_p"
  type: "Pooling"
  bottom: "conv2_p"
  top: "pool2_p"
  pooling_param {
    pool: MAX
    kernel_size: 2
    stride: 2
  }
}
layer {
  name: "ip1_p"
  type: "InnerProduct"
  bottom: "pool2_p"
  top: "ip1_p"
  param {
    name: "ip1_w"
    lr_mult: 1
  }
  param {
    name: "ip1_b"
    lr_mult: 2
  }
  inner_product_param {
    num_output: 500
    weight_filler {
      type: "xavier"
    }
    bias_filler {
      type: "constant"
    }
  }
}
layer {
  name: "relu1_p"
  type: "ReLU"
  bottom: "ip1_p"
  top: "ip1_p"
}
layer {
  name: "ip2_p"
  type: "InnerProduct"
  bottom: "ip1_p"
  top: "ip2_p"
  param {
    name: "ip2_w"
    lr_mult: 1
  }
  param {
    name: "ip2_b"
    lr_mult: 2
  }
  inner_product_param {
    num_output: 10
    weight_filler {
      type: "xavier"
    }
    bias_filler {
      type: "constant"
    }
  }
}
layer {
  name: "feat_p"
  type: "InnerProduct"
  bottom: "ip2_p"
  top: "feat_p"
  param {
    name: "feat_w"
    lr_mult: 1
  }
  param {
    name: "feat_b"
    lr_mult: 2
  }
  inner_product_param {
    num_output: 2
    weight_filler {
      type: "xavier"
    }
    bias_filler {
      type: "constant"
    }
  }
}
layer {
  name: "loss"
  type: "ContrastiveLoss"
  bottom: "feat"
  bottom: "feat_p"
  bottom: "sim"
  top: "loss"
  contrastive_loss_param {
    margin: 1
  }
}
I0627 11:34:09.951030 1970144000 layer_factory.hpp:74] Creating layer pair_data
I0627 11:34:09.951047 1970144000 net.cpp:90] Creating Layer pair_data
I0627 11:34:09.951055 1970144000 net.cpp:368] pair_data -> pair_data
I0627 11:34:09.951074 1970144000 net.cpp:368] pair_data -> sim
I0627 11:34:09.951081 1970144000 net.cpp:120] Setting up pair_data
I0627 11:34:09.957067 1970144000 db.cpp:20] Opened leveldb src/siamese_network_bw/data/siamese_network_train_leveldb
I0627 11:34:09.961751 1970144000 data_layer.cpp:52] output data size: 64,2,62,47
I0627 11:34:09.962537 1970144000 net.cpp:127] Top shape: 64 2 62 47 (372992)
I0627 11:34:09.962584 1970144000 net.cpp:127] Top shape: 64 (64)
I0627 11:34:09.962599 1970144000 layer_factory.hpp:74] Creating layer slice_pair
I0627 11:34:09.962622 1970144000 net.cpp:90] Creating Layer slice_pair
I0627 11:34:09.962631 1970144000 net.cpp:410] slice_pair <- pair_data
I0627 11:34:09.962643 1970144000 net.cpp:368] slice_pair -> data
I0627 11:34:09.962659 1970144000 net.cpp:368] slice_pair -> data_p
I0627 11:34:09.962671 1970144000 net.cpp:120] Setting up slice_pair
I0627 11:34:09.962684 1970144000 net.cpp:127] Top shape: 64 1 62 47 (186496)
I0627 11:34:09.962695 1970144000 net.cpp:127] Top shape: 64 1 62 47 (186496)
I0627 11:34:09.962705 1970144000 layer_factory.hpp:74] Creating layer conv1
I0627 11:34:09.962729 1970144000 net.cpp:90] Creating Layer conv1
I0627 11:34:09.962738 1970144000 net.cpp:410] conv1 <- data
I0627 11:34:09.962748 1970144000 net.cpp:368] conv1 -> conv1
I0627 11:34:09.962762 1970144000 net.cpp:120] Setting up conv1
I0627 11:34:10.051092 1970144000 net.cpp:127] Top shape: 64 20 58 43 (3192320)
I0627 11:34:10.051125 1970144000 layer_factory.hpp:74] Creating layer pool1
I0627 11:34:10.051136 1970144000 net.cpp:90] Creating Layer pool1
I0627 11:34:10.051141 1970144000 net.cpp:410] pool1 <- conv1
I0627 11:34:10.051148 1970144000 net.cpp:368] pool1 -> pool1
I0627 11:34:10.051156 1970144000 net.cpp:120] Setting up pool1
I0627 11:34:10.051326 1970144000 net.cpp:127] Top shape: 64 20 29 22 (816640)
I0627 11:34:10.051337 1970144000 layer_factory.hpp:74] Creating layer conv2
I0627 11:34:10.051348 1970144000 net.cpp:90] Creating Layer conv2
I0627 11:34:10.051352 1970144000 net.cpp:410] conv2 <- pool1
I0627 11:34:10.051358 1970144000 net.cpp:368] conv2 -> conv2
I0627 11:34:10.051367 1970144000 net.cpp:120] Setting up conv2
I0627 11:34:10.051832 1970144000 net.cpp:127] Top shape: 64 50 25 18 (1440000)
I0627 11:34:10.051846 1970144000 layer_factory.hpp:74] Creating layer pool2
I0627 11:34:10.051854 1970144000 net.cpp:90] Creating Layer pool2
I0627 11:34:10.051858 1970144000 net.cpp:410] pool2 <- conv2
I0627 11:34:10.051883 1970144000 net.cpp:368] pool2 -> pool2
I0627 11:34:10.051892 1970144000 net.cpp:120] Setting up pool2
I0627 11:34:10.051941 1970144000 net.cpp:127] Top shape: 64 50 13 9 (374400)
I0627 11:34:10.051949 1970144000 layer_factory.hpp:74] Creating layer ip1
I0627 11:34:10.051970 1970144000 net.cpp:90] Creating Layer ip1
I0627 11:34:10.051975 1970144000 net.cpp:410] ip1 <- pool2
I0627 11:34:10.051981 1970144000 net.cpp:368] ip1 -> ip1
I0627 11:34:10.051990 1970144000 net.cpp:120] Setting up ip1
I0627 11:34:10.076766 1970144000 net.cpp:127] Top shape: 64 500 (32000)
I0627 11:34:10.076794 1970144000 layer_factory.hpp:74] Creating layer relu1
I0627 11:34:10.076813 1970144000 net.cpp:90] Creating Layer relu1
I0627 11:34:10.076819 1970144000 net.cpp:410] relu1 <- ip1
I0627 11:34:10.076833 1970144000 net.cpp:357] relu1 -> ip1 (in-place)
I0627 11:34:10.076841 1970144000 net.cpp:120] Setting up relu1
I0627 11:34:10.076930 1970144000 net.cpp:127] Top shape: 64 500 (32000)
I0627 11:34:10.076937 1970144000 layer_factory.hpp:74] Creating layer ip2
I0627 11:34:10.076946 1970144000 net.cpp:90] Creating Layer ip2
I0627 11:34:10.076949 1970144000 net.cpp:410] ip2 <- ip1
I0627 11:34:10.076956 1970144000 net.cpp:368] ip2 -> ip2
I0627 11:34:10.076962 1970144000 net.cpp:120] Setting up ip2
I0627 11:34:10.077015 1970144000 net.cpp:127] Top shape: 64 10 (640)
I0627 11:34:10.077021 1970144000 layer_factory.hpp:74] Creating layer feat
I0627 11:34:10.077029 1970144000 net.cpp:90] Creating Layer feat
I0627 11:34:10.077059 1970144000 net.cpp:410] feat <- ip2
I0627 11:34:10.077075 1970144000 net.cpp:368] feat -> feat
I0627 11:34:10.077087 1970144000 net.cpp:120] Setting up feat
I0627 11:34:10.077100 1970144000 net.cpp:127] Top shape: 64 2 (128)
I0627 11:34:10.077108 1970144000 layer_factory.hpp:74] Creating layer conv1_p
I0627 11:34:10.077122 1970144000 net.cpp:90] Creating Layer conv1_p
I0627 11:34:10.077126 1970144000 net.cpp:410] conv1_p <- data_p
I0627 11:34:10.077133 1970144000 net.cpp:368] conv1_p -> conv1_p
I0627 11:34:10.077142 1970144000 net.cpp:120] Setting up conv1_p
I0627 11:34:10.077518 1970144000 net.cpp:127] Top shape: 64 20 58 43 (3192320)
I0627 11:34:10.077529 1970144000 net.cpp:459] Sharing parameters 'conv1_w' owned by layer 'conv1', param index 0
I0627 11:34:10.077545 1970144000 net.cpp:459] Sharing parameters 'conv1_b' owned by layer 'conv1', param index 1
I0627 11:34:10.077551 1970144000 layer_factory.hpp:74] Creating layer pool1_p
I0627 11:34:10.077558 1970144000 net.cpp:90] Creating Layer pool1_p
I0627 11:34:10.077563 1970144000 net.cpp:410] pool1_p <- conv1_p
I0627 11:34:10.077569 1970144000 net.cpp:368] pool1_p -> pool1_p
I0627 11:34:10.077576 1970144000 net.cpp:120] Setting up pool1_p
I0627 11:34:10.077791 1970144000 net.cpp:127] Top shape: 64 20 29 22 (816640)
I0627 11:34:10.077800 1970144000 layer_factory.hpp:74] Creating layer conv2_p
I0627 11:34:10.077808 1970144000 net.cpp:90] Creating Layer conv2_p
I0627 11:34:10.077812 1970144000 net.cpp:410] conv2_p <- pool1_p
I0627 11:34:10.077821 1970144000 net.cpp:368] conv2_p -> conv2_p
I0627 11:34:10.077828 1970144000 net.cpp:120] Setting up conv2_p
I0627 11:34:10.078346 1970144000 net.cpp:127] Top shape: 64 50 25 18 (1440000)
I0627 11:34:10.078369 1970144000 net.cpp:459] Sharing parameters 'conv2_w' owned by layer 'conv2', param index 0
I0627 11:34:10.078382 1970144000 net.cpp:459] Sharing parameters 'conv2_b' owned by layer 'conv2', param index 1
I0627 11:34:10.078392 1970144000 layer_factory.hpp:74] Creating layer pool2_p
I0627 11:34:10.078403 1970144000 net.cpp:90] Creating Layer pool2_p
I0627 11:34:10.078410 1970144000 net.cpp:410] pool2_p <- conv2_p
I0627 11:34:10.078416 1970144000 net.cpp:368] pool2_p -> pool2_p
I0627 11:34:10.078423 1970144000 net.cpp:120] Setting up pool2_p
I0627 11:34:10.078476 1970144000 net.cpp:127] Top shape: 64 50 13 9 (374400)
I0627 11:34:10.078483 1970144000 layer_factory.hpp:74] Creating layer ip1_p
I0627 11:34:10.078492 1970144000 net.cpp:90] Creating Layer ip1_p
I0627 11:34:10.078496 1970144000 net.cpp:410] ip1_p <- pool2_p
I0627 11:34:10.078531 1970144000 net.cpp:368] ip1_p -> ip1_p
I0627 11:34:10.078541 1970144000 net.cpp:120] Setting up ip1_p
I0627 11:34:10.102938 1970144000 net.cpp:127] Top shape: 64 500 (32000)
I0627 11:34:10.102983 1970144000 net.cpp:459] Sharing parameters 'ip1_w' owned by layer 'ip1', param index 0
I0627 11:34:10.104164 1970144000 net.cpp:459] Sharing parameters 'ip1_b' owned by layer 'ip1', param index 1
I0627 11:34:10.104173 1970144000 layer_factory.hpp:74] Creating layer relu1_p
I0627 11:34:10.104184 1970144000 net.cpp:90] Creating Layer relu1_p
I0627 11:34:10.104189 1970144000 net.cpp:410] relu1_p <- ip1_p
I0627 11:34:10.104195 1970144000 net.cpp:357] relu1_p -> ip1_p (in-place)
I0627 11:34:10.104202 1970144000 net.cpp:120] Setting up relu1_p
I0627 11:34:10.104327 1970144000 net.cpp:127] Top shape: 64 500 (32000)
I0627 11:34:10.104336 1970144000 layer_factory.hpp:74] Creating layer ip2_p
I0627 11:34:10.104346 1970144000 net.cpp:90] Creating Layer ip2_p
I0627 11:34:10.104349 1970144000 net.cpp:410] ip2_p <- ip1_p
I0627 11:34:10.104357 1970144000 net.cpp:368] ip2_p -> ip2_p
I0627 11:34:10.104367 1970144000 net.cpp:120] Setting up ip2_p
I0627 11:34:10.104420 1970144000 net.cpp:127] Top shape: 64 10 (640)
I0627 11:34:10.104429 1970144000 net.cpp:459] Sharing parameters 'ip2_w' owned by layer 'ip2', param index 0
I0627 11:34:10.104434 1970144000 net.cpp:459] Sharing parameters 'ip2_b' owned by layer 'ip2', param index 1
I0627 11:34:10.104439 1970144000 layer_factory.hpp:74] Creating layer feat_p
I0627 11:34:10.104454 1970144000 net.cpp:90] Creating Layer feat_p
I0627 11:34:10.104459 1970144000 net.cpp:410] feat_p <- ip2_p
I0627 11:34:10.104465 1970144000 net.cpp:368] feat_p -> feat_p
I0627 11:34:10.104471 1970144000 net.cpp:120] Setting up feat_p
I0627 11:34:10.104480 1970144000 net.cpp:127] Top shape: 64 2 (128)
I0627 11:34:10.104486 1970144000 net.cpp:459] Sharing parameters 'feat_w' owned by layer 'feat', param index 0
I0627 11:34:10.104491 1970144000 net.cpp:459] Sharing parameters 'feat_b' owned by layer 'feat', param index 1
I0627 11:34:10.104496 1970144000 layer_factory.hpp:74] Creating layer loss
I0627 11:34:10.104506 1970144000 net.cpp:90] Creating Layer loss
I0627 11:34:10.104509 1970144000 net.cpp:410] loss <- feat
…
I0627 11:34:10.105126 1970144000 solver.cpp:154] Creating test net (#0) specified by net file: src/siamese_network_bw/model/siamese_train_validate.prototxt
I0627 11:34:10.105166 1970144000 net.cpp:287] The NetState phase (1) differed from the phase (0) specified by a rule in layer pair_data
I0627 11:34:10.105183 1970144000 net.cpp:42] Initializing net from parameters: 
name: "siamese_train_validate"
state {
  phase: TEST
}
layer {
  name: "pair_data"
  type: "Data"
  top: "pair_data"
  top: "sim"
  include {
    phase: TEST
  }
  transform_param {
    scale: 0.00390625
  }
  data_param {
    source: "src/siamese_network_bw/data/siamese_network_validation_leveldb"
    batch_size: 100
  }
}
layer {
  name: "slice_pair"
  type: "Slice"
  bottom: "pair_data"
  top: "data"
  top: "data_p"
  slice_param {
    slice_dim: 1
    slice_point: 1
  }
}
layer {
  name: "conv1"
  type: "Convolution"
  bottom: "data"
  top: "conv1"
  param {
    name: "conv1_w"
    lr_mult: 1
  }
  param {
    name: "conv1_b"
    lr_mult: 2
  }
  convolution_param {
    num_output: 20
    kernel_size: 5
    stride: 1
    weight_filler {
      type: "xavier"
    }
    bias_filler {
      type: "constant"
    }
  }
}
layer {
  name: "pool1"
  type: "Pooling"
  bottom: "conv1"
  top: "pool1"
  pooling_param {
    pool: MAX
    kernel_size: 2
    stride: 2
  }
}
layer {
  name: "conv2"
  type: "Convolution"
  bottom: "pool1"
  top: "conv2"
  param {
    name: "conv2_w"
    lr_mult: 1
  }
  param {
    name: "conv2_b"
    lr_mult: 2
  }
  convolution_param {
    num_output: 50
    kernel_size: 5
    stride: 1
    weight_filler {
      type: "xavier"
    }
    bias_filler {
      type: "constant"
    }
  }
}
layer {
  name: "pool2"
  type: "Pooling"
  bottom: "conv2"
  top: "pool2"
  pooling_param {
    pool: MAX
    kernel_size: 2
    stride: 2
  }
}
layer {
  name: "ip1"
  type: "InnerProduct"
  bottom: "pool2"
  top: "ip1"
  param {
    name: "ip1_w"
    lr_mult: 1
  }
  param {
    name: "ip1_b"
    lr_mult: 2
  }
  inner_product_param {
    num_output: 500
    weight_filler {
      type: "xavier"
    }
    bias_filler {
      type: "constant"
    }
  }
}
layer {
  name: "relu1"
  type: "ReLU"
  bottom: "ip1"
  top: "ip1"
}
layer {
  name: "ip2"
  type: "InnerProduct"
  bottom: "ip1"
  top: "ip2"
  param {
    name: "ip2_w"
    lr_mult: 1
  }
  param {
    name: "ip2_b"
    lr_mult: 2
  }
  inner_product_param {
    num_output: 10
    weight_filler {
      type: "xavier"
    }
    bias_filler {
      type: "constant"
    }
  }
}
layer {
  name: "feat"
  type: "InnerProduct"
  bottom: "ip2"
  top: "feat"
  param {
    name: "feat_w"
    lr_mult: 1
  }
  param {
    name: "feat_b"
    lr_mult: 2
  }
  inner_product_param {
    num_output: 2
    weight_filler {
      type: "xavier"
    }
    bias_filler {
      type: "constant"
    }
  }
}
layer {
  name: "conv1_p"
  type: "Convolution"
  bottom: "data_p"
  top: "conv1_p"
  param {
    name: "conv1_w"
    lr_mult: 1
  }
  param {
    name: "conv1_b"
    lr_mult: 2
  }
  convolution_param {
    num_output: 20
    kernel_size: 5
    stride: 1
    weight_filler {
      type: "xavier"
    }
    bias_filler {
      type: "constant"
    }
  }
}
layer {
  name: "pool1_p"
  type: "Pooling"
  bottom: "conv1_p"
  top: "pool1_p"
  pooling_param {
    pool: MAX
    kernel_size: 2
    stride: 2
  }
}
layer {
  name: "conv2_p"
  type: "Convolution"
  bottom: "pool1_p"
  top: "conv2_p"
  param {
    name: "conv2_w"
    lr_mult: 1
  }
  param {
    name: "conv2_b"
    lr_mult: 2
  }
  convolution_param {
    num_output: 50
    kernel_size: 5
    stride: 1
    weight_filler {
      type: "xavier"
    }
    bias_filler {
      type: "constant"
    }
  }
}
layer {
  name: "pool2_p"
  type: "Pooling"
  bottom: "conv2_p"
  top: "pool2_p"
  pooling_param {
    pool: MAX
    kernel_size: 2
    stride: 2
  }
}
layer {
  name: "ip1_p"
  type: "InnerProduct"
  bottom: "pool2_p"
  top: "ip1_p"
  param {
    name: "ip1_w"
    lr_mult: 1
  }
  param {
    name: "ip1_b"
    lr_mult: 2
  }
  inner_product_param {
    num_output: 500
    weight_filler {
      type: "xavier"
    }
    bias_filler {
      type: "constant"
    }
  }
}
layer {
  name: "relu1_p"
  type: "ReLU"
  bottom: "ip1_p"
  top: "ip1_p"
}
layer {
  name: "ip2_p"
  type: "InnerProduct"
  bottom: "ip1_p"
  top: "ip2_p"
  param {
    name: "ip2_w"
    lr_mult: 1
  }
  param {
    name: "ip2_b"
    lr_mult: 2
  }
  inner_product_param {
    num_output: 10
    weight_filler {
      type: "xavier"
    }
    bias_filler {
      type: "constant"
    }
  }
}
layer {
  name: "feat_p"
  type: "InnerProduct"
  bottom: "ip2_p"
  top: "feat_p"
  param {
    name: "feat_w"
    lr_mult: 1
  }
  param {
    name: "feat_b"
    lr_mult: 2
  }
  inner_product_param {
    num_output: 2
    weight_filler {
      type: "xavier"
    }
    bias_filler {
      type: "constant"
    }
  }
}
layer {
  name: "loss"
  type: "ContrastiveLoss"
  bottom: "feat"
  bottom: "feat_p"
  bottom: "sim"
  top: "loss"
  contrastive_loss_param {
    margin: 1
  }
}
I0627 11:34:10.105415 1970144000 layer_factory.hpp:74] Creating layer pair_data
I0627 11:34:10.105434 1970144000 net.cpp:90] Creating Layer pair_data
I0627 11:34:10.105447 1970144000 net.cpp:368] pair_data -> pair_data
I0627 11:34:10.105507 1970144000 net.cpp:368] pair_data -> sim
I0627 11:34:10.105520 1970144000 net.cpp:120] Setting up pair_data
I0627 11:34:10.107913 1970144000 db.cpp:20] Opened leveldb src/siamese_network_bw/data/siamese_network_validation_leveldb
I0627 11:34:10.110342 1970144000 data_layer.cpp:52] output data size: 100,2,62,47
I0627 11:34:10.111652 1970144000 net.cpp:127] Top shape: 100 2 62 47 (582800)
I0627 11:34:10.111672 1970144000 net.cpp:127] Top shape: 100 (100)
I0627 11:34:10.111682 1970144000 layer_factory.hpp:74] Creating layer slice_pair
I0627 11:34:10.111708 1970144000 net.cpp:90] Creating Layer slice_pair
I0627 11:34:10.111716 1970144000 net.cpp:410] slice_pair <- pair_data
I0627 11:34:10.111737 1970144000 net.cpp:368] slice_pair -> data
I0627 11:34:10.111750 1970144000 net.cpp:368] slice_pair -> data_p
I0627 11:34:10.111762 1970144000 net.cpp:120] Setting up slice_pair
I0627 11:34:10.111778 1970144000 net.cpp:127] Top shape: 100 1 62 47 (291400)
I0627 11:34:10.111784 1970144000 net.cpp:127] Top shape: 100 1 62 47 (291400)
I0627 11:34:10.111789 1970144000 layer_factory.hpp:74] Creating layer conv1
I0627 11:34:10.111811 1970144000 net.cpp:90] Creating Layer conv1
I0627 11:34:10.111825 1970144000 net.cpp:410] conv1 <- data
I0627 11:34:10.111838 1970144000 net.cpp:368] conv1 -> conv1
I0627 11:34:10.111848 1970144000 net.cpp:120] Setting up conv1
I0627 11:34:10.112318 1970144000 net.cpp:127] Top shape: 100 20 58 43 (4988000)
I0627 11:34:10.112337 1970144000 layer_factory.hpp:74] Creating layer pool1
I0627 11:34:10.112349 1970144000 net.cpp:90] Creating Layer pool1
I0627 11:34:10.112354 1970144000 net.cpp:410] pool1 <- conv1
I0627 11:34:10.112362 1970144000 net.cpp:368] pool1 -> pool1
I0627 11:34:10.112373 1970144000 net.cpp:120] Setting up pool1
I0627 11:34:10.112445 1970144000 net.cpp:127] Top shape: 100 20 29 22 (1276000)
I0627 11:34:10.112458 1970144000 layer_factory.hpp:74] Creating layer conv2
I0627 11:34:10.112473 1970144000 net.cpp:90] Creating Layer conv2
I0627 11:34:10.112479 1970144000 net.cpp:410] conv2 <- pool1
I0627 11:34:10.112488 1970144000 net.cpp:368] conv2 -> conv2
I0627 11:34:10.112499 1970144000 net.cpp:120] Setting up conv2
I0627 11:34:10.113174 1970144000 net.cpp:127] Top shape: 100 50 25 18 (2250000)
I0627 11:34:10.113195 1970144000 layer_factory.hpp:74] Creating layer pool2
I0627 11:34:10.113204 1970144000 net.cpp:90] Creating Layer pool2
I0627 11:34:10.113207 1970144000 net.cpp:410] pool2 <- conv2
I0627 11:34:10.113237 1970144000 net.cpp:368] pool2 -> pool2
I0627 11:34:10.113245 1970144000 net.cpp:120] Setting up pool2
I0627 11:34:10.113373 1970144000 net.cpp:127] Top shape: 100 50 13 9 (585000)
I0627 11:34:10.113387 1970144000 layer_factory.hpp:74] Creating layer ip1
I0627 11:34:10.113397 1970144000 net.cpp:90] Creating Layer ip1
I0627 11:34:10.113402 1970144000 net.cpp:410] ip1 <- pool2
I0627 11:34:10.113417 1970144000 net.cpp:368] ip1 -> ip1
I0627 11:34:10.113431 1970144000 net.cpp:120] Setting up ip1
I0627 11:34:10.136232 1970144000 net.cpp:127] Top shape: 100 500 (50000)
I0627 11:34:10.136265 1970144000 layer_factory.hpp:74] Creating layer relu1
I0627 11:34:10.136276 1970144000 net.cpp:90] Creating Layer relu1
I0627 11:34:10.136281 1970144000 net.cpp:410] relu1 <- ip1
I0627 11:34:10.136288 1970144000 net.cpp:357] relu1 -> ip1 (in-place)
I0627 11:34:10.136296 1970144000 net.cpp:120] Setting up relu1
I0627 11:34:10.136389 1970144000 net.cpp:127] Top shape: 100 500 (50000)
I0627 11:34:10.136396 1970144000 layer_factory.hpp:74] Creating layer ip2
I0627 11:34:10.136407 1970144000 net.cpp:90] Creating Layer ip2
I0627 11:34:10.136411 1970144000 net.cpp:410] ip2 <- ip1
I0627 11:34:10.136418 1970144000 net.cpp:368] ip2 -> ip2
I0627 11:34:10.136426 1970144000 net.cpp:120] Setting up ip2
I0627 11:34:10.136504 1970144000 net.cpp:127] Top shape: 100 10 (1000)
I0627 11:34:10.136513 1970144000 layer_factory.hpp:74] Creating layer feat
I0627 11:34:10.136521 1970144000 net.cpp:90] Creating Layer feat
I0627 11:34:10.136524 1970144000 net.cpp:410] feat <- ip2
I0627 11:34:10.136533 1970144000 net.cpp:368] feat -> feat
I0627 11:34:10.136540 1970144000 net.cpp:120] Setting up feat
I0627 11:34:10.136549 1970144000 net.cpp:127] Top shape: 100 2 (200)
I0627 11:34:10.136557 1970144000 layer_factory.hpp:74] Creating layer conv1_p
I0627 11:34:10.136564 1970144000 net.cpp:90] Creating Layer conv1_p
I0627 11:34:10.136582 1970144000 net.cpp:410] conv1_p <- data_p
I0627 11:34:10.136602 1970144000 net.cpp:368] conv1_p -> conv1_p
I0627 11:34:10.136612 1970144000 net.cpp:120] Setting up conv1_p
I0627 11:34:10.136975 1970144000 net.cpp:127] Top shape: 100 20 58 43 (4988000)
I0627 11:34:10.136991 1970144000 net.cpp:459] Sharing parameters 'conv1_w' owned by layer 'conv1', param index 0
I0627 11:34:10.136998 1970144000 net.cpp:459] Sharing parameters 'conv1_b' owned by layer 'conv1', param index 1
I0627 11:34:10.137003 1970144000 layer_factory.hpp:74] Creating layer pool1_p
I0627 11:34:10.137017 1970144000 net.cpp:90] Creating Layer pool1_p
I0627 11:34:10.137022 1970144000 net.cpp:410] pool1_p <- conv1_p
I0627 11:34:10.137027 1970144000 net.cpp:368] pool1_p -> pool1_p
I0627 11:34:10.137033 1970144000 net.cpp:120] Setting up pool1_p
I0627 11:34:10.137079 1970144000 net.cpp:127] Top shape: 100 20 29 22 (1276000)
I0627 11:34:10.137085 1970144000 layer_factory.hpp:74] Creating layer conv2_p
I0627 11:34:10.137092 1970144000 net.cpp:90] Creating Layer conv2_p
I0627 11:34:10.137096 1970144000 net.cpp:410] conv2_p <- pool1_p
I0627 11:34:10.137104 1970144000 net.cpp:368] conv2_p -> conv2_p
I0627 11:34:10.137111 1970144000 net.cpp:120] Setting up conv2_p
I0627 11:34:10.137609 1970144000 net.cpp:127] Top shape: 100 50 25 18 (2250000)
I0627 11:34:10.137619 1970144000 net.cpp:459] Sharing parameters 'conv2_w' owned by layer 'conv2', param index 0
I0627 11:34:10.137625 1970144000 net.cpp:459] Sharing parameters 'conv2_b' owned by layer 'conv2', param index 1
I0627 11:34:10.137630 1970144000 layer_factory.hpp:74] Creating layer pool2_p
I0627 11:34:10.137636 1970144000 net.cpp:90] Creating Layer pool2_p
I0627 11:34:10.137641 1970144000 net.cpp:410] pool2_p <- conv2_p
I0627 11:34:10.137647 1970144000 net.cpp:368] pool2_p -> pool2_p
I0627 11:34:10.137653 1970144000 net.cpp:120] Setting up pool2_p
I0627 11:34:10.137699 1970144000 net.cpp:127] Top shape: 100 50 13 9 (585000)
I0627 11:34:10.137706 1970144000 layer_factory.hpp:74] Creating layer ip1_p
I0627 11:34:10.137713 1970144000 net.cpp:90] Creating Layer ip1_p
I0627 11:34:10.137717 1970144000 net.cpp:410] ip1_p <- pool2_p
I0627 11:34:10.137768 1970144000 net.cpp:368] ip1_p -> ip1_p
I0627 11:34:10.137776 1970144000 net.cpp:120] Setting up ip1_p
I0627 11:34:10.162101 1970144000 net.cpp:127] Top shape: 100 500 (50000)
I0627 11:34:10.162134 1970144000 net.cpp:459] Sharing parameters 'ip1_w' owned by layer 'ip1', param index 0
I0627 11:34:10.163445 1970144000 net.cpp:459] Sharing parameters 'ip1_b' owned by layer 'ip1', param index 1
I0627 11:34:10.163462 1970144000 layer_factory.hpp:74] Creating layer relu1_p
I0627 11:34:10.163480 1970144000 net.cpp:90] Creating Layer relu1_p
I0627 11:34:10.163486 1970144000 net.cpp:410] relu1_p <- ip1_p
I0627 11:34:10.163492 1970144000 net.cpp:357] relu1_p -> ip1_p (in-place)
I0627 11:34:10.163501 1970144000 net.cpp:120] Setting up relu1_p
I0627 11:34:10.163696 1970144000 net.cpp:127] Top shape: 100 500 (50000)
I0627 11:34:10.163707 1970144000 layer_factory.hpp:74] Creating layer ip2_p
I0627 11:34:10.163719 1970144000 net.cpp:90] Creating Layer ip2_p
I0627 11:34:10.163723 1970144000 net.cpp:410] ip2_p <- ip1_p
I0627 11:34:10.163730 1970144000 net.cpp:368] ip2_p -> ip2_p
I0627 11:34:10.163758 1970144000 net.cpp:120] Setting up ip2_p
I0627 11:34:10.163839 1970144000 net.cpp:127] Top shape: 100 10 (1000)
I0627 11:34:10.163852 1970144000 net.cpp:459] Sharing parameters 'ip2_w' owned by layer 'ip2', param index 0
I0627 11:34:10.163858 1970144000 net.cpp:459] Sharing parameters 'ip2_b' owned by layer 'ip2', param index 1
I0627 11:34:10.163864 1970144000 layer_factory.hpp:74] Creating layer feat_p
I0627 11:34:10.163877 1970144000 net.cpp:90] Creating Layer feat_p
I0627 11:34:10.163882 1970144000 net.cpp:410] feat_p <- ip2_p
I0627 11:34:10.163890 1970144000 net.cpp:368] feat_p -> feat_p
I0627 11:34:10.163903 1970144000 net.cpp:120] Setting up feat_p
I0627 11:34:10.163914 1970144000 net.cpp:127] Top shape: 100 2 (200)
I0627 11:34:10.163920 1970144000 net.cpp:459] Sharing parameters 'feat_w' owned by layer 'feat', param index 0
I0627 11:34:10.163926 1970144000 net.cpp:459] Sharing parameters 'feat_b' owned by layer 'feat', param index 1
I0627 11:34:10.163931 1970144000 layer_factory.hpp:74] Creating layer loss
I0627 11:34:10.163938 1970144000 net.cpp:90] Creating Layer loss
I0627 11:34:10.163941 1970144000 net.cpp:410] loss <- feat
…
