…
I0627 02:33:26.151698 1970144000 solver.cpp:70] Creating training net from net file: src/siamese_network_bw/model/siamese_train_validate.prototxt
I0627 02:33:26.155771 1970144000 net.cpp:287] The NetState phase (0) differed from the phase (1) specified by a rule in layer pair_data
I0627 02:33:26.155824 1970144000 net.cpp:42] Initializing net from parameters: 
name: "siamese_train_validate"
state {
  phase: TRAIN
}
layer {
  name: "pair_data"
  type: "Data"
  top: "pair_data"
  top: "sim"
  include {
    phase: TRAIN
  }
  transform_param {
    scale: 0.00390625
  }
  data_param {
    source: "src/siamese_network_bw/data/siamese_network_train_leveldb"
    batch_size: 64
  }
}
layer {
  name: "slice_pair"
  type: "Slice"
  bottom: "pair_data"
  top: "data"
  top: "data_p"
  slice_param {
    slice_dim: 1
    slice_point: 1
  }
}
layer {
  name: "conv1"
  type: "Convolution"
  bottom: "data"
  top: "conv1"
  param {
    name: "conv1_w"
    lr_mult: 1
  }
  param {
    name: "conv1_b"
    lr_mult: 2
  }
  convolution_param {
    num_output: 20
    kernel_size: 5
    stride: 1
    weight_filler {
      type: "xavier"
    }
    bias_filler {
      type: "constant"
    }
  }
}
layer {
  name: "pool1"
  type: "Pooling"
  bottom: "conv1"
  top: "pool1"
  pooling_param {
    pool: MAX
    kernel_size: 2
    stride: 2
  }
}
layer {
  name: "conv2"
  type: "Convolution"
  bottom: "pool1"
  top: "conv2"
  param {
    name: "conv2_w"
    lr_mult: 1
  }
  param {
    name: "conv2_b"
    lr_mult: 2
  }
  convolution_param {
    num_output: 50
    kernel_size: 5
    stride: 1
    weight_filler {
      type: "xavier"
    }
    bias_filler {
      type: "constant"
    }
  }
}
layer {
  name: "pool2"
  type: "Pooling"
  bottom: "conv2"
  top: "pool2"
  pooling_param {
    pool: MAX
    kernel_size: 2
    stride: 2
  }
}
layer {
  name: "ip1"
  type: "InnerProduct"
  bottom: "pool2"
  top: "ip1"
  param {
    name: "ip1_w"
    lr_mult: 1
  }
  param {
    name: "ip1_b"
    lr_mult: 2
  }
  inner_product_param {
    num_output: 500
    weight_filler {
      type: "xavier"
    }
    bias_filler {
      type: "constant"
    }
  }
}
layer {
  name: "relu1"
  type: "ReLU"
  bottom: "ip1"
  top: "ip1"
}
layer {
  name: "ip2"
  type: "InnerProduct"
  bottom: "ip1"
  top: "ip2"
  param {
    name: "ip2_w"
    lr_mult: 1
  }
  param {
    name: "ip2_b"
    lr_mult: 2
  }
  inner_product_param {
    num_output: 10
    weight_filler {
      type: "xavier"
    }
    bias_filler {
      type: "constant"
    }
  }
}
layer {
  name: "feat"
  type: "InnerProduct"
  bottom: "ip2"
  top: "feat"
  param {
    name: "feat_w"
    lr_mult: 1
  }
  param {
    name: "feat_b"
    lr_mult: 2
  }
  inner_product_param {
    num_output: 2
    weight_filler {
      type: "xavier"
    }
    bias_filler {
      type: "constant"
    }
  }
}
layer {
  name: "conv1_p"
  type: "Convolution"
  bottom: "data_p"
  top: "conv1_p"
  param {
    name: "conv1_w"
    lr_mult: 1
  }
  param {
    name: "conv1_b"
    lr_mult: 2
  }
  convolution_param {
    num_output: 20
    kernel_size: 5
    stride: 1
    weight_filler {
      type: "xavier"
    }
    bias_filler {
      type: "constant"
    }
  }
}
layer {
  name: "pool1_p"
  type: "Pooling"
  bottom: "conv1_p"
  top: "pool1_p"
  pooling_param {
    pool: MAX
    kernel_size: 2
    stride: 2
  }
}
layer {
  name: "conv2_p"
  type: "Convolution"
  bottom: "pool1_p"
  top: "conv2_p"
  param {
    name: "conv2_w"
    lr_mult: 1
  }
  param {
    name: "conv2_b"
    lr_mult: 2
  }
  convolution_param {
    num_output: 50
    kernel_size: 5
    stride: 1
    weight_filler {
      type: "xavier"
    }
    bias_filler {
      type: "constant"
    }
  }
}
layer {
  name: "pool2_p"
  type: "Pooling"
  bottom: "conv2_p"
  top: "pool2_p"
  pooling_param {
    pool: MAX
    kernel_size: 2
    stride: 2
  }
}
layer {
  name: "ip1_p"
  type: "InnerProduct"
  bottom: "pool2_p"
  top: "ip1_p"
  param {
    name: "ip1_w"
    lr_mult: 1
  }
  param {
    name: "ip1_b"
    lr_mult: 2
  }
  inner_product_param {
    num_output: 500
    weight_filler {
      type: "xavier"
    }
    bias_filler {
      type: "constant"
    }
  }
}
layer {
  name: "relu1_p"
  type: "ReLU"
  bottom: "ip1_p"
  top: "ip1_p"
}
layer {
  name: "ip2_p"
  type: "InnerProduct"
  bottom: "ip1_p"
  top: "ip2_p"
  param {
    name: "ip2_w"
    lr_mult: 1
  }
  param {
    name: "ip2_b"
    lr_mult: 2
  }
  inner_product_param {
    num_output: 10
    weight_filler {
      type: "xavier"
    }
    bias_filler {
      type: "constant"
    }
  }
}
layer {
  name: "feat_p"
  type: "InnerProduct"
  bottom: "ip2_p"
  top: "feat_p"
  param {
    name: "feat_w"
    lr_mult: 1
  }
  param {
    name: "feat_b"
    lr_mult: 2
  }
  inner_product_param {
    num_output: 2
    weight_filler {
      type: "xavier"
    }
    bias_filler {
      type: "constant"
    }
  }
}
layer {
  name: "loss"
  type: "ContrastiveLoss"
  bottom: "feat"
  bottom: "feat_p"
  bottom: "sim"
  top: "loss"
  contrastive_loss_param {
    margin: 1
  }
}
I0627 02:33:26.156507 1970144000 layer_factory.hpp:74] Creating layer pair_data
I0627 02:33:26.157685 1970144000 net.cpp:90] Creating Layer pair_data
I0627 02:33:26.157714 1970144000 net.cpp:368] pair_data -> pair_data
I0627 02:33:26.158104 1970144000 net.cpp:368] pair_data -> sim
I0627 02:33:26.158124 1970144000 net.cpp:120] Setting up pair_data
I0627 02:33:26.204484 1970144000 db.cpp:20] Opened leveldb src/siamese_network_bw/data/siamese_network_train_leveldb
I0627 02:33:26.206719 1970144000 data_layer.cpp:52] output data size: 64,2,62,47
I0627 02:33:26.208379 1970144000 net.cpp:127] Top shape: 64 2 62 47 (372992)
I0627 02:33:26.208593 1970144000 net.cpp:127] Top shape: 64 (64)
I0627 02:33:26.208613 1970144000 layer_factory.hpp:74] Creating layer slice_pair
I0627 02:33:26.208636 1970144000 net.cpp:90] Creating Layer slice_pair
I0627 02:33:26.208645 1970144000 net.cpp:410] slice_pair <- pair_data
I0627 02:33:26.208660 1970144000 net.cpp:368] slice_pair -> data
I0627 02:33:26.208681 1970144000 net.cpp:368] slice_pair -> data_p
I0627 02:33:26.208693 1970144000 net.cpp:120] Setting up slice_pair
I0627 02:33:26.208890 1970144000 net.cpp:127] Top shape: 64 1 62 47 (186496)
I0627 02:33:26.208916 1970144000 net.cpp:127] Top shape: 64 1 62 47 (186496)
I0627 02:33:26.208945 1970144000 layer_factory.hpp:74] Creating layer conv1
I0627 02:33:26.208974 1970144000 net.cpp:90] Creating Layer conv1
I0627 02:33:26.208986 1970144000 net.cpp:410] conv1 <- data
I0627 02:33:26.209002 1970144000 net.cpp:368] conv1 -> conv1
I0627 02:33:26.209019 1970144000 net.cpp:120] Setting up conv1
I0627 02:33:26.360013 1970144000 net.cpp:127] Top shape: 64 20 58 43 (3192320)
I0627 02:33:26.360046 1970144000 layer_factory.hpp:74] Creating layer pool1
I0627 02:33:26.360060 1970144000 net.cpp:90] Creating Layer pool1
I0627 02:33:26.360066 1970144000 net.cpp:410] pool1 <- conv1
I0627 02:33:26.360075 1970144000 net.cpp:368] pool1 -> pool1
I0627 02:33:26.360085 1970144000 net.cpp:120] Setting up pool1
I0627 02:33:26.360826 1970144000 net.cpp:127] Top shape: 64 20 29 22 (816640)
I0627 02:33:26.360847 1970144000 layer_factory.hpp:74] Creating layer conv2
I0627 02:33:26.360862 1970144000 net.cpp:90] Creating Layer conv2
I0627 02:33:26.360868 1970144000 net.cpp:410] conv2 <- pool1
I0627 02:33:26.360877 1970144000 net.cpp:368] conv2 -> conv2
I0627 02:33:26.360888 1970144000 net.cpp:120] Setting up conv2
I0627 02:33:26.361413 1970144000 net.cpp:127] Top shape: 64 50 25 18 (1440000)
I0627 02:33:26.361431 1970144000 layer_factory.hpp:74] Creating layer pool2
I0627 02:33:26.361440 1970144000 net.cpp:90] Creating Layer pool2
I0627 02:33:26.361446 1970144000 net.cpp:410] pool2 <- conv2
I0627 02:33:26.361480 1970144000 net.cpp:368] pool2 -> pool2
I0627 02:33:26.361490 1970144000 net.cpp:120] Setting up pool2
I0627 02:33:26.361556 1970144000 net.cpp:127] Top shape: 64 50 13 9 (374400)
I0627 02:33:26.361564 1970144000 layer_factory.hpp:74] Creating layer ip1
I0627 02:33:26.361577 1970144000 net.cpp:90] Creating Layer ip1
I0627 02:33:26.361583 1970144000 net.cpp:410] ip1 <- pool2
I0627 02:33:26.361601 1970144000 net.cpp:368] ip1 -> ip1
I0627 02:33:26.361610 1970144000 net.cpp:120] Setting up ip1
I0627 02:33:26.385723 1970144000 net.cpp:127] Top shape: 64 500 (32000)
I0627 02:33:26.385766 1970144000 layer_factory.hpp:74] Creating layer relu1
I0627 02:33:26.385874 1970144000 net.cpp:90] Creating Layer relu1
I0627 02:33:26.385885 1970144000 net.cpp:410] relu1 <- ip1
I0627 02:33:26.385892 1970144000 net.cpp:357] relu1 -> ip1 (in-place)
I0627 02:33:26.385900 1970144000 net.cpp:120] Setting up relu1
I0627 02:33:26.385980 1970144000 net.cpp:127] Top shape: 64 500 (32000)
I0627 02:33:26.385987 1970144000 layer_factory.hpp:74] Creating layer ip2
I0627 02:33:26.385998 1970144000 net.cpp:90] Creating Layer ip2
I0627 02:33:26.386003 1970144000 net.cpp:410] ip2 <- ip1
I0627 02:33:26.386008 1970144000 net.cpp:368] ip2 -> ip2
I0627 02:33:26.386016 1970144000 net.cpp:120] Setting up ip2
I0627 02:33:26.386065 1970144000 net.cpp:127] Top shape: 64 10 (640)
I0627 02:33:26.386071 1970144000 layer_factory.hpp:74] Creating layer feat
I0627 02:33:26.386077 1970144000 net.cpp:90] Creating Layer feat
I0627 02:33:26.386081 1970144000 net.cpp:410] feat <- ip2
I0627 02:33:26.386090 1970144000 net.cpp:368] feat -> feat
I0627 02:33:26.386096 1970144000 net.cpp:120] Setting up feat
I0627 02:33:26.386104 1970144000 net.cpp:127] Top shape: 64 2 (128)
I0627 02:33:26.386111 1970144000 layer_factory.hpp:74] Creating layer conv1_p
I0627 02:33:26.386118 1970144000 net.cpp:90] Creating Layer conv1_p
I0627 02:33:26.386121 1970144000 net.cpp:410] conv1_p <- data_p
I0627 02:33:26.386129 1970144000 net.cpp:368] conv1_p -> conv1_p
I0627 02:33:26.386137 1970144000 net.cpp:120] Setting up conv1_p
I0627 02:33:26.386456 1970144000 net.cpp:127] Top shape: 64 20 58 43 (3192320)
I0627 02:33:26.386466 1970144000 net.cpp:459] Sharing parameters 'conv1_w' owned by layer 'conv1', param index 0
I0627 02:33:26.386479 1970144000 net.cpp:459] Sharing parameters 'conv1_b' owned by layer 'conv1', param index 1
I0627 02:33:26.386486 1970144000 layer_factory.hpp:74] Creating layer pool1_p
I0627 02:33:26.386492 1970144000 net.cpp:90] Creating Layer pool1_p
I0627 02:33:26.386497 1970144000 net.cpp:410] pool1_p <- conv1_p
I0627 02:33:26.386502 1970144000 net.cpp:368] pool1_p -> pool1_p
I0627 02:33:26.386508 1970144000 net.cpp:120] Setting up pool1_p
I0627 02:33:26.386613 1970144000 net.cpp:127] Top shape: 64 20 29 22 (816640)
I0627 02:33:26.386622 1970144000 layer_factory.hpp:74] Creating layer conv2_p
I0627 02:33:26.386629 1970144000 net.cpp:90] Creating Layer conv2_p
I0627 02:33:26.386633 1970144000 net.cpp:410] conv2_p <- pool1_p
I0627 02:33:26.386639 1970144000 net.cpp:368] conv2_p -> conv2_p
I0627 02:33:26.386646 1970144000 net.cpp:120] Setting up conv2_p
I0627 02:33:26.387013 1970144000 net.cpp:127] Top shape: 64 50 25 18 (1440000)
I0627 02:33:26.387022 1970144000 net.cpp:459] Sharing parameters 'conv2_w' owned by layer 'conv2', param index 0
I0627 02:33:26.387028 1970144000 net.cpp:459] Sharing parameters 'conv2_b' owned by layer 'conv2', param index 1
I0627 02:33:26.387032 1970144000 layer_factory.hpp:74] Creating layer pool2_p
I0627 02:33:26.387039 1970144000 net.cpp:90] Creating Layer pool2_p
I0627 02:33:26.387043 1970144000 net.cpp:410] pool2_p <- conv2_p
I0627 02:33:26.387048 1970144000 net.cpp:368] pool2_p -> pool2_p
I0627 02:33:26.387054 1970144000 net.cpp:120] Setting up pool2_p
I0627 02:33:26.387096 1970144000 net.cpp:127] Top shape: 64 50 13 9 (374400)
I0627 02:33:26.387104 1970144000 layer_factory.hpp:74] Creating layer ip1_p
I0627 02:33:26.387111 1970144000 net.cpp:90] Creating Layer ip1_p
I0627 02:33:26.387115 1970144000 net.cpp:410] ip1_p <- pool2_p
I0627 02:33:26.387150 1970144000 net.cpp:368] ip1_p -> ip1_p
I0627 02:33:26.387156 1970144000 net.cpp:120] Setting up ip1_p
I0627 02:33:26.411521 1970144000 net.cpp:127] Top shape: 64 500 (32000)
I0627 02:33:26.411550 1970144000 net.cpp:459] Sharing parameters 'ip1_w' owned by layer 'ip1', param index 0
I0627 02:33:26.412622 1970144000 net.cpp:459] Sharing parameters 'ip1_b' owned by layer 'ip1', param index 1
I0627 02:33:26.412631 1970144000 layer_factory.hpp:74] Creating layer relu1_p
I0627 02:33:26.412652 1970144000 net.cpp:90] Creating Layer relu1_p
I0627 02:33:26.412657 1970144000 net.cpp:410] relu1_p <- ip1_p
I0627 02:33:26.412667 1970144000 net.cpp:357] relu1_p -> ip1_p (in-place)
I0627 02:33:26.412674 1970144000 net.cpp:120] Setting up relu1_p
I0627 02:33:26.412752 1970144000 net.cpp:127] Top shape: 64 500 (32000)
I0627 02:33:26.412760 1970144000 layer_factory.hpp:74] Creating layer ip2_p
I0627 02:33:26.412771 1970144000 net.cpp:90] Creating Layer ip2_p
I0627 02:33:26.412778 1970144000 net.cpp:410] ip2_p <- ip1_p
I0627 02:33:26.412785 1970144000 net.cpp:368] ip2_p -> ip2_p
I0627 02:33:26.412794 1970144000 net.cpp:120] Setting up ip2_p
I0627 02:33:26.412858 1970144000 net.cpp:127] Top shape: 64 10 (640)
I0627 02:33:26.412866 1970144000 net.cpp:459] Sharing parameters 'ip2_w' owned by layer 'ip2', param index 0
I0627 02:33:26.412873 1970144000 net.cpp:459] Sharing parameters 'ip2_b' owned by layer 'ip2', param index 1
I0627 02:33:26.412878 1970144000 layer_factory.hpp:74] Creating layer feat_p
I0627 02:33:26.412889 1970144000 net.cpp:90] Creating Layer feat_p
I0627 02:33:26.412895 1970144000 net.cpp:410] feat_p <- ip2_p
I0627 02:33:26.412901 1970144000 net.cpp:368] feat_p -> feat_p
I0627 02:33:26.412909 1970144000 net.cpp:120] Setting up feat_p
I0627 02:33:26.412917 1970144000 net.cpp:127] Top shape: 64 2 (128)
I0627 02:33:26.412926 1970144000 net.cpp:459] Sharing parameters 'feat_w' owned by layer 'feat', param index 0
I0627 02:33:26.412933 1970144000 net.cpp:459] Sharing parameters 'feat_b' owned by layer 'feat', param index 1
I0627 02:33:26.412940 1970144000 layer_factory.hpp:74] Creating layer loss
I0627 02:33:26.413187 1970144000 net.cpp:90] Creating Layer loss
I0627 02:33:26.413200 1970144000 net.cpp:410] loss <- feat
…
I0627 02:33:26.413841 1970144000 solver.cpp:154] Creating test net (#0) specified by net file: src/siamese_network_bw/model/siamese_train_validate.prototxt
I0627 02:33:26.413930 1970144000 net.cpp:287] The NetState phase (1) differed from the phase (0) specified by a rule in layer pair_data
I0627 02:33:26.413954 1970144000 net.cpp:42] Initializing net from parameters: 
name: "siamese_train_validate"
state {
  phase: TEST
}
layer {
  name: "pair_data"
  type: "Data"
  top: "pair_data"
  top: "sim"
  include {
    phase: TEST
  }
  transform_param {
    scale: 0.00390625
  }
  data_param {
    source: "src/siamese_network_bw/data/siamese_network_validation_leveldb"
    batch_size: 100
  }
}
layer {
  name: "slice_pair"
  type: "Slice"
  bottom: "pair_data"
  top: "data"
  top: "data_p"
  slice_param {
    slice_dim: 1
    slice_point: 1
  }
}
layer {
  name: "conv1"
  type: "Convolution"
  bottom: "data"
  top: "conv1"
  param {
    name: "conv1_w"
    lr_mult: 1
  }
  param {
    name: "conv1_b"
    lr_mult: 2
  }
  convolution_param {
    num_output: 20
    kernel_size: 5
    stride: 1
    weight_filler {
      type: "xavier"
    }
    bias_filler {
      type: "constant"
    }
  }
}
layer {
  name: "pool1"
  type: "Pooling"
  bottom: "conv1"
  top: "pool1"
  pooling_param {
    pool: MAX
    kernel_size: 2
    stride: 2
  }
}
layer {
  name: "conv2"
  type: "Convolution"
  bottom: "pool1"
  top: "conv2"
  param {
    name: "conv2_w"
    lr_mult: 1
  }
  param {
    name: "conv2_b"
    lr_mult: 2
  }
  convolution_param {
    num_output: 50
    kernel_size: 5
    stride: 1
    weight_filler {
      type: "xavier"
    }
    bias_filler {
      type: "constant"
    }
  }
}
layer {
  name: "pool2"
  type: "Pooling"
  bottom: "conv2"
  top: "pool2"
  pooling_param {
    pool: MAX
    kernel_size: 2
    stride: 2
  }
}
layer {
  name: "ip1"
  type: "InnerProduct"
  bottom: "pool2"
  top: "ip1"
  param {
    name: "ip1_w"
    lr_mult: 1
  }
  param {
    name: "ip1_b"
    lr_mult: 2
  }
  inner_product_param {
    num_output: 500
    weight_filler {
      type: "xavier"
    }
    bias_filler {
      type: "constant"
    }
  }
}
layer {
  name: "relu1"
  type: "ReLU"
  bottom: "ip1"
  top: "ip1"
}
layer {
  name: "ip2"
  type: "InnerProduct"
  bottom: "ip1"
  top: "ip2"
  param {
    name: "ip2_w"
    lr_mult: 1
  }
  param {
    name: "ip2_b"
    lr_mult: 2
  }
  inner_product_param {
    num_output: 10
    weight_filler {
      type: "xavier"
    }
    bias_filler {
      type: "constant"
    }
  }
}
layer {
  name: "feat"
  type: "InnerProduct"
  bottom: "ip2"
  top: "feat"
  param {
    name: "feat_w"
    lr_mult: 1
  }
  param {
    name: "feat_b"
    lr_mult: 2
  }
  inner_product_param {
    num_output: 2
    weight_filler {
      type: "xavier"
    }
    bias_filler {
      type: "constant"
    }
  }
}
layer {
  name: "conv1_p"
  type: "Convolution"
  bottom: "data_p"
  top: "conv1_p"
  param {
    name: "conv1_w"
    lr_mult: 1
  }
  param {
    name: "conv1_b"
    lr_mult: 2
  }
  convolution_param {
    num_output: 20
    kernel_size: 5
    stride: 1
    weight_filler {
      type: "xavier"
    }
    bias_filler {
      type: "constant"
    }
  }
}
layer {
  name: "pool1_p"
  type: "Pooling"
  bottom: "conv1_p"
  top: "pool1_p"
  pooling_param {
    pool: MAX
    kernel_size: 2
    stride: 2
  }
}
layer {
  name: "conv2_p"
  type: "Convolution"
  bottom: "pool1_p"
  top: "conv2_p"
  param {
    name: "conv2_w"
    lr_mult: 1
  }
  param {
    name: "conv2_b"
    lr_mult: 2
  }
  convolution_param {
    num_output: 50
    kernel_size: 5
    stride: 1
    weight_filler {
      type: "xavier"
    }
    bias_filler {
      type: "constant"
    }
  }
}
layer {
  name: "pool2_p"
  type: "Pooling"
  bottom: "conv2_p"
  top: "pool2_p"
  pooling_param {
    pool: MAX
    kernel_size: 2
    stride: 2
  }
}
layer {
  name: "ip1_p"
  type: "InnerProduct"
  bottom: "pool2_p"
  top: "ip1_p"
  param {
    name: "ip1_w"
    lr_mult: 1
  }
  param {
    name: "ip1_b"
    lr_mult: 2
  }
  inner_product_param {
    num_output: 500
    weight_filler {
      type: "xavier"
    }
    bias_filler {
      type: "constant"
    }
  }
}
layer {
  name: "relu1_p"
  type: "ReLU"
  bottom: "ip1_p"
  top: "ip1_p"
}
layer {
  name: "ip2_p"
  type: "InnerProduct"
  bottom: "ip1_p"
  top: "ip2_p"
  param {
    name: "ip2_w"
    lr_mult: 1
  }
  param {
    name: "ip2_b"
    lr_mult: 2
  }
  inner_product_param {
    num_output: 10
    weight_filler {
      type: "xavier"
    }
    bias_filler {
      type: "constant"
    }
  }
}
layer {
  name: "feat_p"
  type: "InnerProduct"
  bottom: "ip2_p"
  top: "feat_p"
  param {
    name: "feat_w"
    lr_mult: 1
  }
  param {
    name: "feat_b"
    lr_mult: 2
  }
  inner_product_param {
    num_output: 2
    weight_filler {
      type: "xavier"
    }
    bias_filler {
      type: "constant"
    }
  }
}
layer {
  name: "loss"
  type: "ContrastiveLoss"
  bottom: "feat"
  bottom: "feat_p"
  bottom: "sim"
  top: "loss"
  contrastive_loss_param {
    margin: 1
  }
}
I0627 02:33:26.414233 1970144000 layer_factory.hpp:74] Creating layer pair_data
I0627 02:33:26.414245 1970144000 net.cpp:90] Creating Layer pair_data
I0627 02:33:26.414255 1970144000 net.cpp:368] pair_data -> pair_data
I0627 02:33:26.414265 1970144000 net.cpp:368] pair_data -> sim
I0627 02:33:26.414273 1970144000 net.cpp:120] Setting up pair_data
I0627 02:33:26.472281 1970144000 db.cpp:20] Opened leveldb src/siamese_network_bw/data/siamese_network_validation_leveldb
I0627 02:33:26.472720 1970144000 data_layer.cpp:52] output data size: 100,2,62,47
I0627 02:33:26.473886 1970144000 net.cpp:127] Top shape: 100 2 62 47 (582800)
I0627 02:33:26.473901 1970144000 net.cpp:127] Top shape: 100 (100)
I0627 02:33:26.473909 1970144000 layer_factory.hpp:74] Creating layer slice_pair
I0627 02:33:26.473922 1970144000 net.cpp:90] Creating Layer slice_pair
I0627 02:33:26.473928 1970144000 net.cpp:410] slice_pair <- pair_data
I0627 02:33:26.473944 1970144000 net.cpp:368] slice_pair -> data
I0627 02:33:26.473956 1970144000 net.cpp:368] slice_pair -> data_p
I0627 02:33:26.473963 1970144000 net.cpp:120] Setting up slice_pair
I0627 02:33:26.473975 1970144000 net.cpp:127] Top shape: 100 1 62 47 (291400)
I0627 02:33:26.473983 1970144000 net.cpp:127] Top shape: 100 1 62 47 (291400)
I0627 02:33:26.473987 1970144000 layer_factory.hpp:74] Creating layer conv1
I0627 02:33:26.474000 1970144000 net.cpp:90] Creating Layer conv1
I0627 02:33:26.474005 1970144000 net.cpp:410] conv1 <- data
I0627 02:33:26.474012 1970144000 net.cpp:368] conv1 -> conv1
I0627 02:33:26.474021 1970144000 net.cpp:120] Setting up conv1
I0627 02:33:26.474409 1970144000 net.cpp:127] Top shape: 100 20 58 43 (4988000)
I0627 02:33:26.474454 1970144000 layer_factory.hpp:74] Creating layer pool1
I0627 02:33:26.474479 1970144000 net.cpp:90] Creating Layer pool1
I0627 02:33:26.474489 1970144000 net.cpp:410] pool1 <- conv1
I0627 02:33:26.474503 1970144000 net.cpp:368] pool1 -> pool1
I0627 02:33:26.474516 1970144000 net.cpp:120] Setting up pool1
I0627 02:33:26.474617 1970144000 net.cpp:127] Top shape: 100 20 29 22 (1276000)
I0627 02:33:26.474635 1970144000 layer_factory.hpp:74] Creating layer conv2
I0627 02:33:26.474654 1970144000 net.cpp:90] Creating Layer conv2
I0627 02:33:26.474665 1970144000 net.cpp:410] conv2 <- pool1
I0627 02:33:26.474678 1970144000 net.cpp:368] conv2 -> conv2
I0627 02:33:26.474692 1970144000 net.cpp:120] Setting up conv2
I0627 02:33:26.475447 1970144000 net.cpp:127] Top shape: 100 50 25 18 (2250000)
I0627 02:33:26.475473 1970144000 layer_factory.hpp:74] Creating layer pool2
I0627 02:33:26.475518 1970144000 net.cpp:90] Creating Layer pool2
I0627 02:33:26.475536 1970144000 net.cpp:410] pool2 <- conv2
I0627 02:33:26.475585 1970144000 net.cpp:368] pool2 -> pool2
I0627 02:33:26.475602 1970144000 net.cpp:120] Setting up pool2
I0627 02:33:26.475829 1970144000 net.cpp:127] Top shape: 100 50 13 9 (585000)
I0627 02:33:26.475850 1970144000 layer_factory.hpp:74] Creating layer ip1
I0627 02:33:26.475890 1970144000 net.cpp:90] Creating Layer ip1
I0627 02:33:26.475903 1970144000 net.cpp:410] ip1 <- pool2
I0627 02:33:26.475950 1970144000 net.cpp:368] ip1 -> ip1
I0627 02:33:26.475963 1970144000 net.cpp:120] Setting up ip1
I0627 02:33:26.498175 1970144000 net.cpp:127] Top shape: 100 500 (50000)
I0627 02:33:26.498204 1970144000 layer_factory.hpp:74] Creating layer relu1
I0627 02:33:26.498214 1970144000 net.cpp:90] Creating Layer relu1
I0627 02:33:26.498219 1970144000 net.cpp:410] relu1 <- ip1
I0627 02:33:26.498224 1970144000 net.cpp:357] relu1 -> ip1 (in-place)
I0627 02:33:26.498231 1970144000 net.cpp:120] Setting up relu1
I0627 02:33:26.498322 1970144000 net.cpp:127] Top shape: 100 500 (50000)
I0627 02:33:26.498327 1970144000 layer_factory.hpp:74] Creating layer ip2
I0627 02:33:26.498337 1970144000 net.cpp:90] Creating Layer ip2
I0627 02:33:26.498342 1970144000 net.cpp:410] ip2 <- ip1
I0627 02:33:26.498347 1970144000 net.cpp:368] ip2 -> ip2
I0627 02:33:26.498354 1970144000 net.cpp:120] Setting up ip2
I0627 02:33:26.498399 1970144000 net.cpp:127] Top shape: 100 10 (1000)
I0627 02:33:26.498407 1970144000 layer_factory.hpp:74] Creating layer feat
I0627 02:33:26.498414 1970144000 net.cpp:90] Creating Layer feat
I0627 02:33:26.498417 1970144000 net.cpp:410] feat <- ip2
I0627 02:33:26.498425 1970144000 net.cpp:368] feat -> feat
I0627 02:33:26.498430 1970144000 net.cpp:120] Setting up feat
I0627 02:33:26.498438 1970144000 net.cpp:127] Top shape: 100 2 (200)
I0627 02:33:26.498445 1970144000 layer_factory.hpp:74] Creating layer conv1_p
I0627 02:33:26.498452 1970144000 net.cpp:90] Creating Layer conv1_p
I0627 02:33:26.498457 1970144000 net.cpp:410] conv1_p <- data_p
I0627 02:33:26.498464 1970144000 net.cpp:368] conv1_p -> conv1_p
I0627 02:33:26.498471 1970144000 net.cpp:120] Setting up conv1_p
I0627 02:33:26.498765 1970144000 net.cpp:127] Top shape: 100 20 58 43 (4988000)
I0627 02:33:26.498776 1970144000 net.cpp:459] Sharing parameters 'conv1_w' owned by layer 'conv1', param index 0
I0627 02:33:26.498783 1970144000 net.cpp:459] Sharing parameters 'conv1_b' owned by layer 'conv1', param index 1
I0627 02:33:26.498787 1970144000 layer_factory.hpp:74] Creating layer pool1_p
I0627 02:33:26.498795 1970144000 net.cpp:90] Creating Layer pool1_p
I0627 02:33:26.498798 1970144000 net.cpp:410] pool1_p <- conv1_p
I0627 02:33:26.498805 1970144000 net.cpp:368] pool1_p -> pool1_p
I0627 02:33:26.498814 1970144000 net.cpp:120] Setting up pool1_p
I0627 02:33:26.498857 1970144000 net.cpp:127] Top shape: 100 20 29 22 (1276000)
I0627 02:33:26.498863 1970144000 layer_factory.hpp:74] Creating layer conv2_p
I0627 02:33:26.498872 1970144000 net.cpp:90] Creating Layer conv2_p
I0627 02:33:26.498875 1970144000 net.cpp:410] conv2_p <- pool1_p
I0627 02:33:26.498881 1970144000 net.cpp:368] conv2_p -> conv2_p
I0627 02:33:26.498888 1970144000 net.cpp:120] Setting up conv2_p
I0627 02:33:26.499255 1970144000 net.cpp:127] Top shape: 100 50 25 18 (2250000)
I0627 02:33:26.499265 1970144000 net.cpp:459] Sharing parameters 'conv2_w' owned by layer 'conv2', param index 0
I0627 02:33:26.499271 1970144000 net.cpp:459] Sharing parameters 'conv2_b' owned by layer 'conv2', param index 1
I0627 02:33:26.499275 1970144000 layer_factory.hpp:74] Creating layer pool2_p
I0627 02:33:26.499281 1970144000 net.cpp:90] Creating Layer pool2_p
I0627 02:33:26.499286 1970144000 net.cpp:410] pool2_p <- conv2_p
I0627 02:33:26.499294 1970144000 net.cpp:368] pool2_p -> pool2_p
I0627 02:33:26.499300 1970144000 net.cpp:120] Setting up pool2_p
I0627 02:33:26.499349 1970144000 net.cpp:127] Top shape: 100 50 13 9 (585000)
I0627 02:33:26.499356 1970144000 layer_factory.hpp:74] Creating layer ip1_p
I0627 02:33:26.499362 1970144000 net.cpp:90] Creating Layer ip1_p
I0627 02:33:26.499366 1970144000 net.cpp:410] ip1_p <- pool2_p
I0627 02:33:26.499399 1970144000 net.cpp:368] ip1_p -> ip1_p
I0627 02:33:26.499408 1970144000 net.cpp:120] Setting up ip1_p
I0627 02:33:26.524916 1970144000 net.cpp:127] Top shape: 100 500 (50000)
I0627 02:33:26.524973 1970144000 net.cpp:459] Sharing parameters 'ip1_w' owned by layer 'ip1', param index 0
I0627 02:33:26.526355 1970144000 net.cpp:459] Sharing parameters 'ip1_b' owned by layer 'ip1', param index 1
I0627 02:33:26.526377 1970144000 layer_factory.hpp:74] Creating layer relu1_p
I0627 02:33:26.526391 1970144000 net.cpp:90] Creating Layer relu1_p
I0627 02:33:26.526396 1970144000 net.cpp:410] relu1_p <- ip1_p
I0627 02:33:26.526413 1970144000 net.cpp:357] relu1_p -> ip1_p (in-place)
I0627 02:33:26.526422 1970144000 net.cpp:120] Setting up relu1_p
I0627 02:33:26.526636 1970144000 net.cpp:127] Top shape: 100 500 (50000)
I0627 02:33:26.526665 1970144000 layer_factory.hpp:74] Creating layer ip2_p
I0627 02:33:26.526679 1970144000 net.cpp:90] Creating Layer ip2_p
I0627 02:33:26.526684 1970144000 net.cpp:410] ip2_p <- ip1_p
I0627 02:33:26.526715 1970144000 net.cpp:368] ip2_p -> ip2_p
I0627 02:33:26.526734 1970144000 net.cpp:120] Setting up ip2_p
I0627 02:33:26.526793 1970144000 net.cpp:127] Top shape: 100 10 (1000)
I0627 02:33:26.526808 1970144000 net.cpp:459] Sharing parameters 'ip2_w' owned by layer 'ip2', param index 0
I0627 02:33:26.526819 1970144000 net.cpp:459] Sharing parameters 'ip2_b' owned by layer 'ip2', param index 1
I0627 02:33:26.526825 1970144000 layer_factory.hpp:74] Creating layer feat_p
I0627 02:33:26.526834 1970144000 net.cpp:90] Creating Layer feat_p
I0627 02:33:26.526837 1970144000 net.cpp:410] feat_p <- ip2_p
I0627 02:33:26.526850 1970144000 net.cpp:368] feat_p -> feat_p
I0627 02:33:26.526859 1970144000 net.cpp:120] Setting up feat_p
I0627 02:33:26.526887 1970144000 net.cpp:127] Top shape: 100 2 (200)
I0627 02:33:26.526898 1970144000 net.cpp:459] Sharing parameters 'feat_w' owned by layer 'feat', param index 0
I0627 02:33:26.526907 1970144000 net.cpp:459] Sharing parameters 'feat_b' owned by layer 'feat', param index 1
I0627 02:33:26.526916 1970144000 layer_factory.hpp:74] Creating layer loss
I0627 02:33:26.526928 1970144000 net.cpp:90] Creating Layer loss
I0627 02:33:26.526937 1970144000 net.cpp:410] loss <- feat
…
