…
I0629 02:01:49.231523 1970144000 solver.cpp:70] Creating training net from net file: src/siamese_network_bw/model/siamese_train_validate.prototxt
I0629 02:01:49.231925 1970144000 net.cpp:287] The NetState phase (0) differed from the phase (1) specified by a rule in layer pair_data
I0629 02:01:49.231953 1970144000 net.cpp:42] Initializing net from parameters: 
name: "siamese_train_validate"
state {
  phase: TRAIN
}
layer {
  name: "pair_data"
  type: "Data"
  top: "pair_data"
  top: "sim"
  include {
    phase: TRAIN
  }
  transform_param {
    scale: 0.00390625
  }
  data_param {
    source: "src/siamese_network_bw/data/siamese_network_train_leveldb"
    batch_size: 64
  }
}
layer {
  name: "slice_pair"
  type: "Slice"
  bottom: "pair_data"
  top: "data"
  top: "data_p"
  slice_param {
    slice_dim: 1
    slice_point: 1
  }
}
layer {
  name: "conv1"
  type: "Convolution"
  bottom: "data"
  top: "conv1"
  param {
    name: "conv1_w"
    lr_mult: 1
  }
  param {
    name: "conv1_b"
    lr_mult: 2
  }
  convolution_param {
    num_output: 32
    kernel_size: 3
    stride: 1
    weight_filler {
      type: "xavier"
    }
    bias_filler {
      type: "constant"
    }
  }
}
layer {
  name: "pool1"
  type: "Pooling"
  bottom: "conv1"
  top: "pool1"
  pooling_param {
    pool: MAX
    kernel_size: 2
    stride: 2
  }
}
layer {
  name: "conv2"
  type: "Convolution"
  bottom: "pool1"
  top: "conv2"
  param {
    name: "conv2_w"
    lr_mult: 1
  }
  param {
    name: "conv2_b"
    lr_mult: 2
  }
  convolution_param {
    num_output: 64
    kernel_size: 2
    stride: 1
    weight_filler {
      type: "xavier"
    }
    bias_filler {
      type: "constant"
    }
  }
}
layer {
  name: "pool2"
  type: "Pooling"
  bottom: "conv2"
  top: "pool2"
  pooling_param {
    pool: MAX
    kernel_size: 2
    stride: 2
  }
}
layer {
  name: "conv3"
  type: "Convolution"
  bottom: "pool2"
  top: "conv3"
  param {
    name: "conv3_w"
    lr_mult: 1
  }
  param {
    name: "conv3_b"
    lr_mult: 2
  }
  convolution_param {
    num_output: 128
    kernel_size: 2
    stride: 1
    weight_filler {
      type: "xavier"
    }
    bias_filler {
      type: "constant"
    }
  }
}
layer {
  name: "pool3"
  type: "Pooling"
  bottom: "conv3"
  top: "pool3"
  pooling_param {
    pool: MAX
    kernel_size: 2
    stride: 2
  }
}
layer {
  name: "ip1"
  type: "InnerProduct"
  bottom: "pool3"
  top: "ip1"
  param {
    name: "ip1_w"
    lr_mult: 1
  }
  param {
    name: "ip1_b"
    lr_mult: 2
  }
  inner_product_param {
    num_output: 500
    weight_filler {
      type: "xavier"
    }
    bias_filler {
      type: "constant"
    }
  }
}
layer {
  name: "relu1"
  type: "ReLU"
  bottom: "ip1"
  top: "ip1"
}
layer {
  name: "ip2"
  type: "InnerProduct"
  bottom: "ip1"
  top: "ip2"
  param {
    name: "ip2_w"
    lr_mult: 1
  }
  param {
    name: "ip2_b"
    lr_mult: 2
  }
  inner_product_param {
    num_output: 500
    weight_filler {
      type: "xavier"
    }
    bias_filler {
      type: "constant"
    }
  }
}
layer {
  name: "relu2"
  type: "ReLU"
  bottom: "ip2"
  top: "ip2"
}
layer {
  name: "feat"
  type: "InnerProduct"
  bottom: "ip2"
  top: "feat"
  param {
    name: "feat_w"
    lr_mult: 1
  }
  param {
    name: "feat_b"
    lr_mult: 2
  }
  inner_product_param {
    num_output: 2
    weight_filler {
      type: "xavier"
    }
    bias_filler {
      type: "constant"
    }
  }
}
layer {
  name: "conv1_p"
  type: "Convolution"
  bottom: "data_p"
  top: "conv1_p"
  param {
    name: "conv1_w"
    lr_mult: 1
  }
  param {
    name: "conv1_b"
    lr_mult: 2
  }
  convolution_param {
    num_output: 32
    kernel_size: 3
    stride: 1
    weight_filler {
      type: "xavier"
    }
    bias_filler {
      type: "constant"
    }
  }
}
layer {
  name: "pool1_p"
  type: "Pooling"
  bottom: "conv1_p"
  top: "pool1_p"
  pooling_param {
    pool: MAX
    kernel_size: 2
    stride: 2
  }
}
layer {
  name: "conv2_p"
  type: "Convolution"
  bottom: "pool1_p"
  top: "conv2_p"
  param {
    name: "conv2_w"
    lr_mult: 1
  }
  param {
    name: "conv2_b"
    lr_mult: 2
  }
  convolution_param {
    num_output: 64
    kernel_size: 2
    stride: 1
    weight_filler {
      type: "xavier"
    }
    bias_filler {
      type: "constant"
    }
  }
}
layer {
  name: "pool2_p"
  type: "Pooling"
  bottom: "conv2_p"
  top: "pool2_p"
  pooling_param {
    pool: MAX
    kernel_size: 2
    stride: 2
  }
}
layer {
  name: "conv3_p"
  type: "Convolution"
  bottom: "pool2_p"
  top: "conv3_p"
  param {
    name: "conv3_w"
    lr_mult: 1
  }
  param {
    name: "conv3_b"
    lr_mult: 2
  }
  convolution_param {
    num_output: 128
    kernel_size: 2
    stride: 1
    weight_filler {
      type: "xavier"
    }
    bias_filler {
      type: "constant"
    }
  }
}
layer {
  name: "pool3_p"
  type: "Pooling"
  bottom: "conv3_p"
  top: "pool3_p"
  pooling_param {
    pool: MAX
    kernel_size: 2
    stride: 2
  }
}
layer {
  name: "ip1_p"
  type: "InnerProduct"
  bottom: "pool3_p"
  top: "ip1_p"
  param {
    name: "ip1_w"
    lr_mult: 1
  }
  param {
    name: "ip1_b"
    lr_mult: 2
  }
  inner_product_param {
    num_output: 500
    weight_filler {
      type: "xavier"
    }
    bias_filler {
      type: "constant"
    }
  }
}
layer {
  name: "relu1_p"
  type: "ReLU"
  bottom: "ip1_p"
  top: "ip1_p"
}
layer {
  name: "ip2_p"
  type: "InnerProduct"
  bottom: "ip1_p"
  top: "ip2_p"
  param {
    name: "ip2_w"
    lr_mult: 1
  }
  param {
    name: "ip2_b"
    lr_mult: 2
  }
  inner_product_param {
    num_output: 500
    weight_filler {
      type: "xavier"
    }
    bias_filler {
      type: "constant"
    }
  }
}
layer {
  name: "relu2_p"
  type: "ReLU"
  bottom: "ip2_p"
  top: "ip2_p"
}
layer {
  name: "feat_p"
  type: "InnerProduct"
  bottom: "ip2_p"
  top: "feat_p"
  param {
    name: "feat_w"
    lr_mult: 1
  }
  param {
    name: "feat_b"
    lr_mult: 2
  }
  inner_product_param {
    num_output: 2
    weight_filler {
      type: "xavier"
    }
    bias_filler {
      type: "constant"
    }
  }
}
layer {
  name: "loss"
  type: "ContrastiveLoss"
  bottom: "feat"
  bottom: "feat_p"
  bottom: "sim"
  top: "loss"
  contrastive_loss_param {
    margin: 1
  }
}
I0629 02:01:49.232246 1970144000 layer_factory.hpp:74] Creating layer pair_data
I0629 02:01:49.232266 1970144000 net.cpp:90] Creating Layer pair_data
I0629 02:01:49.232275 1970144000 net.cpp:368] pair_data -> pair_data
I0629 02:01:49.232298 1970144000 net.cpp:368] pair_data -> sim
I0629 02:01:49.232306 1970144000 net.cpp:120] Setting up pair_data
I0629 02:01:49.238292 1970144000 db.cpp:20] Opened leveldb src/siamese_network_bw/data/siamese_network_train_leveldb
I0629 02:01:49.239001 1970144000 data_layer.cpp:52] output data size: 64,2,62,47
I0629 02:01:49.239692 1970144000 net.cpp:127] Top shape: 64 2 62 47 (372992)
I0629 02:01:49.239712 1970144000 net.cpp:127] Top shape: 64 (64)
I0629 02:01:49.239718 1970144000 layer_factory.hpp:74] Creating layer slice_pair
I0629 02:01:49.239728 1970144000 net.cpp:90] Creating Layer slice_pair
I0629 02:01:49.239733 1970144000 net.cpp:410] slice_pair <- pair_data
I0629 02:01:49.239739 1970144000 net.cpp:368] slice_pair -> data
I0629 02:01:49.239748 1970144000 net.cpp:368] slice_pair -> data_p
I0629 02:01:49.239755 1970144000 net.cpp:120] Setting up slice_pair
I0629 02:01:49.239764 1970144000 net.cpp:127] Top shape: 64 1 62 47 (186496)
I0629 02:01:49.239769 1970144000 net.cpp:127] Top shape: 64 1 62 47 (186496)
I0629 02:01:49.239774 1970144000 layer_factory.hpp:74] Creating layer conv1
I0629 02:01:49.239783 1970144000 net.cpp:90] Creating Layer conv1
I0629 02:01:49.239811 1970144000 net.cpp:410] conv1 <- data
I0629 02:01:49.239833 1970144000 net.cpp:368] conv1 -> conv1
I0629 02:01:49.239877 1970144000 net.cpp:120] Setting up conv1
I0629 02:01:49.306040 1970144000 net.cpp:127] Top shape: 64 32 60 45 (5529600)
I0629 02:01:49.306069 1970144000 layer_factory.hpp:74] Creating layer pool1
I0629 02:01:49.306082 1970144000 net.cpp:90] Creating Layer pool1
I0629 02:01:49.306087 1970144000 net.cpp:410] pool1 <- conv1
I0629 02:01:49.306093 1970144000 net.cpp:368] pool1 -> pool1
I0629 02:01:49.306102 1970144000 net.cpp:120] Setting up pool1
I0629 02:01:49.306356 1970144000 net.cpp:127] Top shape: 64 32 30 23 (1413120)
I0629 02:01:49.306366 1970144000 layer_factory.hpp:74] Creating layer conv2
I0629 02:01:49.306437 1970144000 net.cpp:90] Creating Layer conv2
I0629 02:01:49.306444 1970144000 net.cpp:410] conv2 <- pool1
I0629 02:01:49.306452 1970144000 net.cpp:368] conv2 -> conv2
I0629 02:01:49.306459 1970144000 net.cpp:120] Setting up conv2
I0629 02:01:49.306830 1970144000 net.cpp:127] Top shape: 64 64 29 22 (2613248)
I0629 02:01:49.306845 1970144000 layer_factory.hpp:74] Creating layer pool2
I0629 02:01:49.306852 1970144000 net.cpp:90] Creating Layer pool2
I0629 02:01:49.306856 1970144000 net.cpp:410] pool2 <- conv2
I0629 02:01:49.306915 1970144000 net.cpp:368] pool2 -> pool2
I0629 02:01:49.306928 1970144000 net.cpp:120] Setting up pool2
I0629 02:01:49.307042 1970144000 net.cpp:127] Top shape: 64 64 15 11 (675840)
I0629 02:01:49.307060 1970144000 layer_factory.hpp:74] Creating layer conv3
I0629 02:01:49.307072 1970144000 net.cpp:90] Creating Layer conv3
I0629 02:01:49.307080 1970144000 net.cpp:410] conv3 <- pool2
I0629 02:01:49.307090 1970144000 net.cpp:368] conv3 -> conv3
I0629 02:01:49.307108 1970144000 net.cpp:120] Setting up conv3
I0629 02:01:49.307760 1970144000 net.cpp:127] Top shape: 64 128 14 10 (1146880)
I0629 02:01:49.307776 1970144000 layer_factory.hpp:74] Creating layer pool3
I0629 02:01:49.307785 1970144000 net.cpp:90] Creating Layer pool3
I0629 02:01:49.307790 1970144000 net.cpp:410] pool3 <- conv3
I0629 02:01:49.307796 1970144000 net.cpp:368] pool3 -> pool3
I0629 02:01:49.307802 1970144000 net.cpp:120] Setting up pool3
I0629 02:01:49.307847 1970144000 net.cpp:127] Top shape: 64 128 7 5 (286720)
I0629 02:01:49.307857 1970144000 layer_factory.hpp:74] Creating layer ip1
I0629 02:01:49.307871 1970144000 net.cpp:90] Creating Layer ip1
I0629 02:01:49.307878 1970144000 net.cpp:410] ip1 <- pool3
I0629 02:01:49.307888 1970144000 net.cpp:368] ip1 -> ip1
I0629 02:01:49.307899 1970144000 net.cpp:120] Setting up ip1
I0629 02:01:49.326536 1970144000 net.cpp:127] Top shape: 64 500 (32000)
I0629 02:01:49.326566 1970144000 layer_factory.hpp:74] Creating layer relu1
I0629 02:01:49.326582 1970144000 net.cpp:90] Creating Layer relu1
I0629 02:01:49.326587 1970144000 net.cpp:410] relu1 <- ip1
I0629 02:01:49.326594 1970144000 net.cpp:357] relu1 -> ip1 (in-place)
I0629 02:01:49.326608 1970144000 net.cpp:120] Setting up relu1
I0629 02:01:49.326954 1970144000 net.cpp:127] Top shape: 64 500 (32000)
I0629 02:01:49.326972 1970144000 layer_factory.hpp:74] Creating layer ip2
I0629 02:01:49.326983 1970144000 net.cpp:90] Creating Layer ip2
I0629 02:01:49.326989 1970144000 net.cpp:410] ip2 <- ip1
I0629 02:01:49.326997 1970144000 net.cpp:368] ip2 -> ip2
I0629 02:01:49.327005 1970144000 net.cpp:120] Setting up ip2
I0629 02:01:49.328742 1970144000 net.cpp:127] Top shape: 64 500 (32000)
I0629 02:01:49.328758 1970144000 layer_factory.hpp:74] Creating layer relu2
I0629 02:01:49.328769 1970144000 net.cpp:90] Creating Layer relu2
I0629 02:01:49.328773 1970144000 net.cpp:410] relu2 <- ip2
I0629 02:01:49.328784 1970144000 net.cpp:357] relu2 -> ip2 (in-place)
I0629 02:01:49.328790 1970144000 net.cpp:120] Setting up relu2
I0629 02:01:49.328850 1970144000 net.cpp:127] Top shape: 64 500 (32000)
I0629 02:01:49.328855 1970144000 layer_factory.hpp:74] Creating layer feat
I0629 02:01:49.328862 1970144000 net.cpp:90] Creating Layer feat
I0629 02:01:49.328866 1970144000 net.cpp:410] feat <- ip2
I0629 02:01:49.328874 1970144000 net.cpp:368] feat -> feat
I0629 02:01:49.328886 1970144000 net.cpp:120] Setting up feat
I0629 02:01:49.328914 1970144000 net.cpp:127] Top shape: 64 2 (128)
I0629 02:01:49.328975 1970144000 layer_factory.hpp:74] Creating layer conv1_p
I0629 02:01:49.328990 1970144000 net.cpp:90] Creating Layer conv1_p
I0629 02:01:49.328995 1970144000 net.cpp:410] conv1_p <- data_p
I0629 02:01:49.329012 1970144000 net.cpp:368] conv1_p -> conv1_p
I0629 02:01:49.329020 1970144000 net.cpp:120] Setting up conv1_p
I0629 02:01:49.329502 1970144000 net.cpp:127] Top shape: 64 32 60 45 (5529600)
I0629 02:01:49.329516 1970144000 net.cpp:459] Sharing parameters 'conv1_w' owned by layer 'conv1', param index 0
I0629 02:01:49.329535 1970144000 net.cpp:459] Sharing parameters 'conv1_b' owned by layer 'conv1', param index 1
I0629 02:01:49.329540 1970144000 layer_factory.hpp:74] Creating layer pool1_p
I0629 02:01:49.329548 1970144000 net.cpp:90] Creating Layer pool1_p
I0629 02:01:49.329552 1970144000 net.cpp:410] pool1_p <- conv1_p
I0629 02:01:49.329560 1970144000 net.cpp:368] pool1_p -> pool1_p
I0629 02:01:49.329566 1970144000 net.cpp:120] Setting up pool1_p
I0629 02:01:49.329612 1970144000 net.cpp:127] Top shape: 64 32 30 23 (1413120)
I0629 02:01:49.329619 1970144000 layer_factory.hpp:74] Creating layer conv2_p
I0629 02:01:49.329665 1970144000 net.cpp:90] Creating Layer conv2_p
I0629 02:01:49.329673 1970144000 net.cpp:410] conv2_p <- pool1_p
I0629 02:01:49.329684 1970144000 net.cpp:368] conv2_p -> conv2_p
I0629 02:01:49.329692 1970144000 net.cpp:120] Setting up conv2_p
I0629 02:01:49.330060 1970144000 net.cpp:127] Top shape: 64 64 29 22 (2613248)
I0629 02:01:49.330070 1970144000 net.cpp:459] Sharing parameters 'conv2_w' owned by layer 'conv2', param index 0
I0629 02:01:49.330104 1970144000 net.cpp:459] Sharing parameters 'conv2_b' owned by layer 'conv2', param index 1
I0629 02:01:49.330113 1970144000 layer_factory.hpp:74] Creating layer pool2_p
I0629 02:01:49.330122 1970144000 net.cpp:90] Creating Layer pool2_p
I0629 02:01:49.330127 1970144000 net.cpp:410] pool2_p <- conv2_p
I0629 02:01:49.330133 1970144000 net.cpp:368] pool2_p -> pool2_p
I0629 02:01:49.330142 1970144000 net.cpp:120] Setting up pool2_p
I0629 02:01:49.330184 1970144000 net.cpp:127] Top shape: 64 64 15 11 (675840)
I0629 02:01:49.330190 1970144000 layer_factory.hpp:74] Creating layer conv3_p
I0629 02:01:49.330198 1970144000 net.cpp:90] Creating Layer conv3_p
I0629 02:01:49.330201 1970144000 net.cpp:410] conv3_p <- pool2_p
I0629 02:01:49.330207 1970144000 net.cpp:368] conv3_p -> conv3_p
I0629 02:01:49.330214 1970144000 net.cpp:120] Setting up conv3_p
I0629 02:01:49.330783 1970144000 net.cpp:127] Top shape: 64 128 14 10 (1146880)
I0629 02:01:49.330796 1970144000 net.cpp:459] Sharing parameters 'conv3_w' owned by layer 'conv3', param index 0
I0629 02:01:49.330822 1970144000 net.cpp:459] Sharing parameters 'conv3_b' owned by layer 'conv3', param index 1
I0629 02:01:49.330834 1970144000 layer_factory.hpp:74] Creating layer pool3_p
I0629 02:01:49.330852 1970144000 net.cpp:90] Creating Layer pool3_p
I0629 02:01:49.330864 1970144000 net.cpp:410] pool3_p <- conv3_p
I0629 02:01:49.330888 1970144000 net.cpp:368] pool3_p -> pool3_p
I0629 02:01:49.330904 1970144000 net.cpp:120] Setting up pool3_p
I0629 02:01:49.331132 1970144000 net.cpp:127] Top shape: 64 128 7 5 (286720)
I0629 02:01:49.331143 1970144000 layer_factory.hpp:74] Creating layer ip1_p
I0629 02:01:49.331151 1970144000 net.cpp:90] Creating Layer ip1_p
I0629 02:01:49.331161 1970144000 net.cpp:410] ip1_p <- pool3_p
I0629 02:01:49.331167 1970144000 net.cpp:368] ip1_p -> ip1_p
I0629 02:01:49.331176 1970144000 net.cpp:120] Setting up ip1_p
I0629 02:01:49.349647 1970144000 net.cpp:127] Top shape: 64 500 (32000)
I0629 02:01:49.349665 1970144000 net.cpp:459] Sharing parameters 'ip1_w' owned by layer 'ip1', param index 0
I0629 02:01:49.350431 1970144000 net.cpp:459] Sharing parameters 'ip1_b' owned by layer 'ip1', param index 1
I0629 02:01:49.350440 1970144000 layer_factory.hpp:74] Creating layer relu1_p
I0629 02:01:49.350448 1970144000 net.cpp:90] Creating Layer relu1_p
I0629 02:01:49.350453 1970144000 net.cpp:410] relu1_p <- ip1_p
I0629 02:01:49.350463 1970144000 net.cpp:357] relu1_p -> ip1_p (in-place)
I0629 02:01:49.350489 1970144000 net.cpp:120] Setting up relu1_p
I0629 02:01:49.350554 1970144000 net.cpp:127] Top shape: 64 500 (32000)
I0629 02:01:49.350560 1970144000 layer_factory.hpp:74] Creating layer ip2_p
I0629 02:01:49.350569 1970144000 net.cpp:90] Creating Layer ip2_p
I0629 02:01:49.350574 1970144000 net.cpp:410] ip2_p <- ip1_p
I0629 02:01:49.350579 1970144000 net.cpp:368] ip2_p -> ip2_p
I0629 02:01:49.350586 1970144000 net.cpp:120] Setting up ip2_p
I0629 02:01:49.352771 1970144000 net.cpp:127] Top shape: 64 500 (32000)
I0629 02:01:49.352782 1970144000 net.cpp:459] Sharing parameters 'ip2_w' owned by layer 'ip2', param index 0
I0629 02:01:49.352793 1970144000 net.cpp:459] Sharing parameters 'ip2_b' owned by layer 'ip2', param index 1
I0629 02:01:49.352802 1970144000 layer_factory.hpp:74] Creating layer relu2_p
I0629 02:01:49.352812 1970144000 net.cpp:90] Creating Layer relu2_p
I0629 02:01:49.352815 1970144000 net.cpp:410] relu2_p <- ip2_p
I0629 02:01:49.352820 1970144000 net.cpp:357] relu2_p -> ip2_p (in-place)
I0629 02:01:49.352826 1970144000 net.cpp:120] Setting up relu2_p
I0629 02:01:49.352896 1970144000 net.cpp:127] Top shape: 64 500 (32000)
I0629 02:01:49.352907 1970144000 layer_factory.hpp:74] Creating layer feat_p
I0629 02:01:49.352918 1970144000 net.cpp:90] Creating Layer feat_p
I0629 02:01:49.352924 1970144000 net.cpp:410] feat_p <- ip2_p
I0629 02:01:49.352934 1970144000 net.cpp:368] feat_p -> feat_p
I0629 02:01:49.352946 1970144000 net.cpp:120] Setting up feat_p
I0629 02:01:49.352977 1970144000 net.cpp:127] Top shape: 64 2 (128)
I0629 02:01:49.352987 1970144000 net.cpp:459] Sharing parameters 'feat_w' owned by layer 'feat', param index 0
I0629 02:01:49.352995 1970144000 net.cpp:459] Sharing parameters 'feat_b' owned by layer 'feat', param index 1
I0629 02:01:49.353003 1970144000 layer_factory.hpp:74] Creating layer loss
I0629 02:01:49.353018 1970144000 net.cpp:90] Creating Layer loss
I0629 02:01:49.353024 1970144000 net.cpp:410] loss <- feat
…
I0629 02:01:49.353868 1970144000 solver.cpp:154] Creating test net (#0) specified by net file: src/siamese_network_bw/model/siamese_train_validate.prototxt
I0629 02:01:49.353936 1970144000 net.cpp:287] The NetState phase (1) differed from the phase (0) specified by a rule in layer pair_data
I0629 02:01:49.353966 1970144000 net.cpp:42] Initializing net from parameters: 
name: "siamese_train_validate"
state {
  phase: TEST
}
layer {
  name: "pair_data"
  type: "Data"
  top: "pair_data"
  top: "sim"
  include {
    phase: TEST
  }
  transform_param {
    scale: 0.00390625
  }
  data_param {
    source: "src/siamese_network_bw/data/siamese_network_validation_leveldb"
    batch_size: 100
  }
}
layer {
  name: "slice_pair"
  type: "Slice"
  bottom: "pair_data"
  top: "data"
  top: "data_p"
  slice_param {
    slice_dim: 1
    slice_point: 1
  }
}
layer {
  name: "conv1"
  type: "Convolution"
  bottom: "data"
  top: "conv1"
  param {
    name: "conv1_w"
    lr_mult: 1
  }
  param {
    name: "conv1_b"
    lr_mult: 2
  }
  convolution_param {
    num_output: 32
    kernel_size: 3
    stride: 1
    weight_filler {
      type: "xavier"
    }
    bias_filler {
      type: "constant"
    }
  }
}
layer {
  name: "pool1"
  type: "Pooling"
  bottom: "conv1"
  top: "pool1"
  pooling_param {
    pool: MAX
    kernel_size: 2
    stride: 2
  }
}
layer {
  name: "conv2"
  type: "Convolution"
  bottom: "pool1"
  top: "conv2"
  param {
    name: "conv2_w"
    lr_mult: 1
  }
  param {
    name: "conv2_b"
    lr_mult: 2
  }
  convolution_param {
    num_output: 64
    kernel_size: 2
    stride: 1
    weight_filler {
      type: "xavier"
    }
    bias_filler {
      type: "constant"
    }
  }
}
layer {
  name: "pool2"
  type: "Pooling"
  bottom: "conv2"
  top: "pool2"
  pooling_param {
    pool: MAX
    kernel_size: 2
    stride: 2
  }
}
layer {
  name: "conv3"
  type: "Convolution"
  bottom: "pool2"
  top: "conv3"
  param {
    name: "conv3_w"
    lr_mult: 1
  }
  param {
    name: "conv3_b"
    lr_mult: 2
  }
  convolution_param {
    num_output: 128
    kernel_size: 2
    stride: 1
    weight_filler {
      type: "xavier"
    }
    bias_filler {
      type: "constant"
    }
  }
}
layer {
  name: "pool3"
  type: "Pooling"
  bottom: "conv3"
  top: "pool3"
  pooling_param {
    pool: MAX
    kernel_size: 2
    stride: 2
  }
}
layer {
  name: "ip1"
  type: "InnerProduct"
  bottom: "pool3"
  top: "ip1"
  param {
    name: "ip1_w"
    lr_mult: 1
  }
  param {
    name: "ip1_b"
    lr_mult: 2
  }
  inner_product_param {
    num_output: 500
    weight_filler {
      type: "xavier"
    }
    bias_filler {
      type: "constant"
    }
  }
}
layer {
  name: "relu1"
  type: "ReLU"
  bottom: "ip1"
  top: "ip1"
}
layer {
  name: "ip2"
  type: "InnerProduct"
  bottom: "ip1"
  top: "ip2"
  param {
    name: "ip2_w"
    lr_mult: 1
  }
  param {
    name: "ip2_b"
    lr_mult: 2
  }
  inner_product_param {
    num_output: 500
    weight_filler {
      type: "xavier"
    }
    bias_filler {
      type: "constant"
    }
  }
}
layer {
  name: "relu2"
  type: "ReLU"
  bottom: "ip2"
  top: "ip2"
}
layer {
  name: "feat"
  type: "InnerProduct"
  bottom: "ip2"
  top: "feat"
  param {
    name: "feat_w"
    lr_mult: 1
  }
  param {
    name: "feat_b"
    lr_mult: 2
  }
  inner_product_param {
    num_output: 2
    weight_filler {
      type: "xavier"
    }
    bias_filler {
      type: "constant"
    }
  }
}
layer {
  name: "conv1_p"
  type: "Convolution"
  bottom: "data_p"
  top: "conv1_p"
  param {
    name: "conv1_w"
    lr_mult: 1
  }
  param {
    name: "conv1_b"
    lr_mult: 2
  }
  convolution_param {
    num_output: 32
    kernel_size: 3
    stride: 1
    weight_filler {
      type: "xavier"
    }
    bias_filler {
      type: "constant"
    }
  }
}
layer {
  name: "pool1_p"
  type: "Pooling"
  bottom: "conv1_p"
  top: "pool1_p"
  pooling_param {
    pool: MAX
    kernel_size: 2
    stride: 2
  }
}
layer {
  name: "conv2_p"
  type: "Convolution"
  bottom: "pool1_p"
  top: "conv2_p"
  param {
    name: "conv2_w"
    lr_mult: 1
  }
  param {
    name: "conv2_b"
    lr_mult: 2
  }
  convolution_param {
    num_output: 64
    kernel_size: 2
    stride: 1
    weight_filler {
      type: "xavier"
    }
    bias_filler {
      type: "constant"
    }
  }
}
layer {
  name: "pool2_p"
  type: "Pooling"
  bottom: "conv2_p"
  top: "pool2_p"
  pooling_param {
    pool: MAX
    kernel_size: 2
    stride: 2
  }
}
layer {
  name: "conv3_p"
  type: "Convolution"
  bottom: "pool2_p"
  top: "conv3_p"
  param {
    name: "conv3_w"
    lr_mult: 1
  }
  param {
    name: "conv3_b"
    lr_mult: 2
  }
  convolution_param {
    num_output: 128
    kernel_size: 2
    stride: 1
    weight_filler {
      type: "xavier"
    }
    bias_filler {
      type: "constant"
    }
  }
}
layer {
  name: "pool3_p"
  type: "Pooling"
  bottom: "conv3_p"
  top: "pool3_p"
  pooling_param {
    pool: MAX
    kernel_size: 2
    stride: 2
  }
}
layer {
  name: "ip1_p"
  type: "InnerProduct"
  bottom: "pool3_p"
  top: "ip1_p"
  param {
    name: "ip1_w"
    lr_mult: 1
  }
  param {
    name: "ip1_b"
    lr_mult: 2
  }
  inner_product_param {
    num_output: 500
    weight_filler {
      type: "xavier"
    }
    bias_filler {
      type: "constant"
    }
  }
}
layer {
  name: "relu1_p"
  type: "ReLU"
  bottom: "ip1_p"
  top: "ip1_p"
}
layer {
  name: "ip2_p"
  type: "InnerProduct"
  bottom: "ip1_p"
  top: "ip2_p"
  param {
    name: "ip2_w"
    lr_mult: 1
  }
  param {
    name: "ip2_b"
    lr_mult: 2
  }
  inner_product_param {
    num_output: 500
    weight_filler {
      type: "xavier"
    }
    bias_filler {
      type: "constant"
    }
  }
}
layer {
  name: "relu2_p"
  type: "ReLU"
  bottom: "ip2_p"
  top: "ip2_p"
}
layer {
  name: "feat_p"
  type: "InnerProduct"
  bottom: "ip2_p"
  top: "feat_p"
  param {
    name: "feat_w"
    lr_mult: 1
  }
  param {
    name: "feat_b"
    lr_mult: 2
  }
  inner_product_param {
    num_output: 2
    weight_filler {
      type: "xavier"
    }
    bias_filler {
      type: "constant"
    }
  }
}
layer {
  name: "loss"
  type: "ContrastiveLoss"
  bottom: "feat"
  bottom: "feat_p"
  bottom: "sim"
  top: "loss"
  contrastive_loss_param {
    margin: 1
  }
}
I0629 02:01:49.354320 1970144000 layer_factory.hpp:74] Creating layer pair_data
I0629 02:01:49.354329 1970144000 net.cpp:90] Creating Layer pair_data
I0629 02:01:49.354334 1970144000 net.cpp:368] pair_data -> pair_data
I0629 02:01:49.354342 1970144000 net.cpp:368] pair_data -> sim
I0629 02:01:49.354349 1970144000 net.cpp:120] Setting up pair_data
I0629 02:01:49.356708 1970144000 db.cpp:20] Opened leveldb src/siamese_network_bw/data/siamese_network_validation_leveldb
I0629 02:01:49.357373 1970144000 data_layer.cpp:52] output data size: 100,2,62,47
I0629 02:01:49.358808 1970144000 net.cpp:127] Top shape: 100 2 62 47 (582800)
I0629 02:01:49.358829 1970144000 net.cpp:127] Top shape: 100 (100)
I0629 02:01:49.358839 1970144000 layer_factory.hpp:74] Creating layer slice_pair
I0629 02:01:49.358855 1970144000 net.cpp:90] Creating Layer slice_pair
I0629 02:01:49.358863 1970144000 net.cpp:410] slice_pair <- pair_data
I0629 02:01:49.358876 1970144000 net.cpp:368] slice_pair -> data
I0629 02:01:49.358892 1970144000 net.cpp:368] slice_pair -> data_p
I0629 02:01:49.358904 1970144000 net.cpp:120] Setting up slice_pair
I0629 02:01:49.358916 1970144000 net.cpp:127] Top shape: 100 1 62 47 (291400)
I0629 02:01:49.358927 1970144000 net.cpp:127] Top shape: 100 1 62 47 (291400)
I0629 02:01:49.358937 1970144000 layer_factory.hpp:74] Creating layer conv1
I0629 02:01:49.358978 1970144000 net.cpp:90] Creating Layer conv1
I0629 02:01:49.358986 1970144000 net.cpp:410] conv1 <- data
I0629 02:01:49.358999 1970144000 net.cpp:368] conv1 -> conv1
I0629 02:01:49.359011 1970144000 net.cpp:120] Setting up conv1
I0629 02:01:49.359429 1970144000 net.cpp:127] Top shape: 100 32 60 45 (8640000)
I0629 02:01:49.359449 1970144000 layer_factory.hpp:74] Creating layer pool1
I0629 02:01:49.359462 1970144000 net.cpp:90] Creating Layer pool1
I0629 02:01:49.359472 1970144000 net.cpp:410] pool1 <- conv1
I0629 02:01:49.359486 1970144000 net.cpp:368] pool1 -> pool1
I0629 02:01:49.359498 1970144000 net.cpp:120] Setting up pool1
I0629 02:01:49.359575 1970144000 net.cpp:127] Top shape: 100 32 30 23 (2208000)
I0629 02:01:49.359590 1970144000 layer_factory.hpp:74] Creating layer conv2
I0629 02:01:49.359601 1970144000 net.cpp:90] Creating Layer conv2
I0629 02:01:49.359611 1970144000 net.cpp:410] conv2 <- pool1
I0629 02:01:49.359622 1970144000 net.cpp:368] conv2 -> conv2
I0629 02:01:49.359633 1970144000 net.cpp:120] Setting up conv2
I0629 02:01:49.360085 1970144000 net.cpp:127] Top shape: 100 64 29 22 (4083200)
I0629 02:01:49.360105 1970144000 layer_factory.hpp:74] Creating layer pool2
I0629 02:01:49.360118 1970144000 net.cpp:90] Creating Layer pool2
I0629 02:01:49.360126 1970144000 net.cpp:410] pool2 <- conv2
I0629 02:01:49.360134 1970144000 net.cpp:368] pool2 -> pool2
I0629 02:01:49.360144 1970144000 net.cpp:120] Setting up pool2
I0629 02:01:49.360306 1970144000 net.cpp:127] Top shape: 100 64 15 11 (1056000)
I0629 02:01:49.360321 1970144000 layer_factory.hpp:74] Creating layer conv3
I0629 02:01:49.360332 1970144000 net.cpp:90] Creating Layer conv3
I0629 02:01:49.360339 1970144000 net.cpp:410] conv3 <- pool2
I0629 02:01:49.360352 1970144000 net.cpp:368] conv3 -> conv3
I0629 02:01:49.360368 1970144000 net.cpp:120] Setting up conv3
I0629 02:01:49.361096 1970144000 net.cpp:127] Top shape: 100 128 14 10 (1792000)
I0629 02:01:49.361122 1970144000 layer_factory.hpp:74] Creating layer pool3
I0629 02:01:49.361135 1970144000 net.cpp:90] Creating Layer pool3
I0629 02:01:49.361142 1970144000 net.cpp:410] pool3 <- conv3
I0629 02:01:49.361152 1970144000 net.cpp:368] pool3 -> pool3
I0629 02:01:49.361165 1970144000 net.cpp:120] Setting up pool3
I0629 02:01:49.361227 1970144000 net.cpp:127] Top shape: 100 128 7 5 (448000)
I0629 02:01:49.361239 1970144000 layer_factory.hpp:74] Creating layer ip1
I0629 02:01:49.361253 1970144000 net.cpp:90] Creating Layer ip1
I0629 02:01:49.361269 1970144000 net.cpp:410] ip1 <- pool3
I0629 02:01:49.361281 1970144000 net.cpp:368] ip1 -> ip1
I0629 02:01:49.361294 1970144000 net.cpp:120] Setting up ip1
I0629 02:01:49.386832 1970144000 net.cpp:127] Top shape: 100 500 (50000)
I0629 02:01:49.386868 1970144000 layer_factory.hpp:74] Creating layer relu1
I0629 02:01:49.386881 1970144000 net.cpp:90] Creating Layer relu1
I0629 02:01:49.386890 1970144000 net.cpp:410] relu1 <- ip1
I0629 02:01:49.386901 1970144000 net.cpp:357] relu1 -> ip1 (in-place)
I0629 02:01:49.386914 1970144000 net.cpp:120] Setting up relu1
I0629 02:01:49.387015 1970144000 net.cpp:127] Top shape: 100 500 (50000)
I0629 02:01:49.387028 1970144000 layer_factory.hpp:74] Creating layer ip2
I0629 02:01:49.387040 1970144000 net.cpp:90] Creating Layer ip2
I0629 02:01:49.387048 1970144000 net.cpp:410] ip2 <- ip1
I0629 02:01:49.387058 1970144000 net.cpp:368] ip2 -> ip2
I0629 02:01:49.387070 1970144000 net.cpp:120] Setting up ip2
I0629 02:01:49.389294 1970144000 net.cpp:127] Top shape: 100 500 (50000)
I0629 02:01:49.389322 1970144000 layer_factory.hpp:74] Creating layer relu2
I0629 02:01:49.389335 1970144000 net.cpp:90] Creating Layer relu2
I0629 02:01:49.389343 1970144000 net.cpp:410] relu2 <- ip2
I0629 02:01:49.389353 1970144000 net.cpp:357] relu2 -> ip2 (in-place)
I0629 02:01:49.389364 1970144000 net.cpp:120] Setting up relu2
I0629 02:01:49.389458 1970144000 net.cpp:127] Top shape: 100 500 (50000)
I0629 02:01:49.389472 1970144000 layer_factory.hpp:74] Creating layer feat
I0629 02:01:49.389510 1970144000 net.cpp:90] Creating Layer feat
I0629 02:01:49.389520 1970144000 net.cpp:410] feat <- ip2
I0629 02:01:49.389531 1970144000 net.cpp:368] feat -> feat
I0629 02:01:49.389545 1970144000 net.cpp:120] Setting up feat
I0629 02:01:49.389581 1970144000 net.cpp:127] Top shape: 100 2 (200)
I0629 02:01:49.389595 1970144000 layer_factory.hpp:74] Creating layer conv1_p
I0629 02:01:49.389606 1970144000 net.cpp:90] Creating Layer conv1_p
I0629 02:01:49.389613 1970144000 net.cpp:410] conv1_p <- data_p
I0629 02:01:49.389624 1970144000 net.cpp:368] conv1_p -> conv1_p
I0629 02:01:49.389638 1970144000 net.cpp:120] Setting up conv1_p
I0629 02:01:49.390099 1970144000 net.cpp:127] Top shape: 100 32 60 45 (8640000)
I0629 02:01:49.390115 1970144000 net.cpp:459] Sharing parameters 'conv1_w' owned by layer 'conv1', param index 0
I0629 02:01:49.390166 1970144000 net.cpp:459] Sharing parameters 'conv1_b' owned by layer 'conv1', param index 1
I0629 02:01:49.390178 1970144000 layer_factory.hpp:74] Creating layer pool1_p
I0629 02:01:49.390189 1970144000 net.cpp:90] Creating Layer pool1_p
I0629 02:01:49.390197 1970144000 net.cpp:410] pool1_p <- conv1_p
I0629 02:01:49.390208 1970144000 net.cpp:368] pool1_p -> pool1_p
I0629 02:01:49.390218 1970144000 net.cpp:120] Setting up pool1_p
I0629 02:01:49.390430 1970144000 net.cpp:127] Top shape: 100 32 30 23 (2208000)
I0629 02:01:49.390447 1970144000 layer_factory.hpp:74] Creating layer conv2_p
I0629 02:01:49.390460 1970144000 net.cpp:90] Creating Layer conv2_p
I0629 02:01:49.390466 1970144000 net.cpp:410] conv2_p <- pool1_p
I0629 02:01:49.390477 1970144000 net.cpp:368] conv2_p -> conv2_p
I0629 02:01:49.390493 1970144000 net.cpp:120] Setting up conv2_p
I0629 02:01:49.391109 1970144000 net.cpp:127] Top shape: 100 64 29 22 (4083200)
I0629 02:01:49.391129 1970144000 net.cpp:459] Sharing parameters 'conv2_w' owned by layer 'conv2', param index 0
I0629 02:01:49.391140 1970144000 net.cpp:459] Sharing parameters 'conv2_b' owned by layer 'conv2', param index 1
I0629 02:01:49.391149 1970144000 layer_factory.hpp:74] Creating layer pool2_p
I0629 02:01:49.391165 1970144000 net.cpp:90] Creating Layer pool2_p
I0629 02:01:49.391182 1970144000 net.cpp:410] pool2_p <- conv2_p
I0629 02:01:49.391204 1970144000 net.cpp:368] pool2_p -> pool2_p
I0629 02:01:49.391219 1970144000 net.cpp:120] Setting up pool2_p
I0629 02:01:49.391340 1970144000 net.cpp:127] Top shape: 100 64 15 11 (1056000)
I0629 02:01:49.391356 1970144000 layer_factory.hpp:74] Creating layer conv3_p
I0629 02:01:49.391371 1970144000 net.cpp:90] Creating Layer conv3_p
I0629 02:01:49.391378 1970144000 net.cpp:410] conv3_p <- pool2_p
I0629 02:01:49.391391 1970144000 net.cpp:368] conv3_p -> conv3_p
I0629 02:01:49.391403 1970144000 net.cpp:120] Setting up conv3_p
I0629 02:01:49.392357 1970144000 net.cpp:127] Top shape: 100 128 14 10 (1792000)
I0629 02:01:49.392384 1970144000 net.cpp:459] Sharing parameters 'conv3_w' owned by layer 'conv3', param index 0
I0629 02:01:49.392397 1970144000 net.cpp:459] Sharing parameters 'conv3_b' owned by layer 'conv3', param index 1
I0629 02:01:49.392417 1970144000 layer_factory.hpp:74] Creating layer pool3_p
I0629 02:01:49.392432 1970144000 net.cpp:90] Creating Layer pool3_p
I0629 02:01:49.392441 1970144000 net.cpp:410] pool3_p <- conv3_p
I0629 02:01:49.392452 1970144000 net.cpp:368] pool3_p -> pool3_p
I0629 02:01:49.392464 1970144000 net.cpp:120] Setting up pool3_p
I0629 02:01:49.392536 1970144000 net.cpp:127] Top shape: 100 128 7 5 (448000)
I0629 02:01:49.392550 1970144000 layer_factory.hpp:74] Creating layer ip1_p
I0629 02:01:49.392565 1970144000 net.cpp:90] Creating Layer ip1_p
I0629 02:01:49.392573 1970144000 net.cpp:410] ip1_p <- pool3_p
I0629 02:01:49.392596 1970144000 net.cpp:368] ip1_p -> ip1_p
I0629 02:01:49.392618 1970144000 net.cpp:120] Setting up ip1_p
I0629 02:01:49.418437 1970144000 net.cpp:127] Top shape: 100 500 (50000)
I0629 02:01:49.418457 1970144000 net.cpp:459] Sharing parameters 'ip1_w' owned by layer 'ip1', param index 0
I0629 02:01:49.419203 1970144000 net.cpp:459] Sharing parameters 'ip1_b' owned by layer 'ip1', param index 1
I0629 02:01:49.419242 1970144000 layer_factory.hpp:74] Creating layer relu1_p
I0629 02:01:49.419256 1970144000 net.cpp:90] Creating Layer relu1_p
I0629 02:01:49.419265 1970144000 net.cpp:410] relu1_p <- ip1_p
I0629 02:01:49.419275 1970144000 net.cpp:357] relu1_p -> ip1_p (in-place)
I0629 02:01:49.419303 1970144000 net.cpp:120] Setting up relu1_p
I0629 02:01:49.419494 1970144000 net.cpp:127] Top shape: 100 500 (50000)
I0629 02:01:49.419510 1970144000 layer_factory.hpp:74] Creating layer ip2_p
I0629 02:01:49.419520 1970144000 net.cpp:90] Creating Layer ip2_p
I0629 02:01:49.419527 1970144000 net.cpp:410] ip2_p <- ip1_p
I0629 02:01:49.419538 1970144000 net.cpp:368] ip2_p -> ip2_p
I0629 02:01:49.419551 1970144000 net.cpp:120] Setting up ip2_p
I0629 02:01:49.422271 1970144000 net.cpp:127] Top shape: 100 500 (50000)
I0629 02:01:49.422288 1970144000 net.cpp:459] Sharing parameters 'ip2_w' owned by layer 'ip2', param index 0
I0629 02:01:49.422301 1970144000 net.cpp:459] Sharing parameters 'ip2_b' owned by layer 'ip2', param index 1
I0629 02:01:49.422322 1970144000 layer_factory.hpp:74] Creating layer relu2_p
I0629 02:01:49.422336 1970144000 net.cpp:90] Creating Layer relu2_p
I0629 02:01:49.422349 1970144000 net.cpp:410] relu2_p <- ip2_p
I0629 02:01:49.422358 1970144000 net.cpp:357] relu2_p -> ip2_p (in-place)
I0629 02:01:49.422365 1970144000 net.cpp:120] Setting up relu2_p
I0629 02:01:49.422452 1970144000 net.cpp:127] Top shape: 100 500 (50000)
I0629 02:01:49.422466 1970144000 layer_factory.hpp:74] Creating layer feat_p
I0629 02:01:49.422478 1970144000 net.cpp:90] Creating Layer feat_p
I0629 02:01:49.422485 1970144000 net.cpp:410] feat_p <- ip2_p
I0629 02:01:49.422497 1970144000 net.cpp:368] feat_p -> feat_p
I0629 02:01:49.422508 1970144000 net.cpp:120] Setting up feat_p
I0629 02:01:49.422538 1970144000 net.cpp:127] Top shape: 100 2 (200)
I0629 02:01:49.422549 1970144000 net.cpp:459] Sharing parameters 'feat_w' owned by layer 'feat', param index 0
I0629 02:01:49.422557 1970144000 net.cpp:459] Sharing parameters 'feat_b' owned by layer 'feat', param index 1
I0629 02:01:49.422574 1970144000 layer_factory.hpp:74] Creating layer loss
I0629 02:01:49.422588 1970144000 net.cpp:90] Creating Layer loss
I0629 02:01:49.422595 1970144000 net.cpp:410] loss <- feat
…
