…
I0626 00:34:11.886792 1970144000 solver.cpp:70] Creating training net from net file: src/siamese_network_bw/model/siamese_train_validate.prototxt
I0626 00:34:11.890010 1970144000 net.cpp:287] The NetState phase (0) differed from the phase (1) specified by a rule in layer pair_data
I0626 00:34:11.890048 1970144000 net.cpp:42] Initializing net from parameters: 
name: "siamese_train_validate"
state {
  phase: TRAIN
}
layer {
  name: "pair_data"
  type: "Data"
  top: "pair_data"
  top: "sim"
  include {
    phase: TRAIN
  }
  transform_param {
    scale: 0.00390625
  }
  data_param {
    source: "src/siamese_network_bw/data/siamese_network_train_leveldb"
    batch_size: 64
  }
}
layer {
  name: "slice_pair"
  type: "Slice"
  bottom: "pair_data"
  top: "data"
  top: "data_p"
  slice_param {
    slice_dim: 1
    slice_point: 1
  }
}
layer {
  name: "conv1"
  type: "Convolution"
  bottom: "data"
  top: "conv1"
  param {
    name: "conv1_w"
    lr_mult: 1
  }
  param {
    name: "conv1_b"
    lr_mult: 2
  }
  convolution_param {
    num_output: 20
    kernel_size: 5
    stride: 1
    weight_filler {
      type: "xavier"
    }
    bias_filler {
      type: "constant"
    }
  }
}
layer {
  name: "pool1"
  type: "Pooling"
  bottom: "conv1"
  top: "pool1"
  pooling_param {
    pool: MAX
    kernel_size: 2
    stride: 2
  }
}
layer {
  name: "conv2"
  type: "Convolution"
  bottom: "pool1"
  top: "conv2"
  param {
    name: "conv2_w"
    lr_mult: 1
  }
  param {
    name: "conv2_b"
    lr_mult: 2
  }
  convolution_param {
    num_output: 50
    kernel_size: 5
    stride: 1
    weight_filler {
      type: "xavier"
    }
    bias_filler {
      type: "constant"
    }
  }
}
layer {
  name: "pool2"
  type: "Pooling"
  bottom: "conv2"
  top: "pool2"
  pooling_param {
    pool: MAX
    kernel_size: 2
    stride: 2
  }
}
layer {
  name: "ip1"
  type: "InnerProduct"
  bottom: "pool2"
  top: "ip1"
  param {
    name: "ip1_w"
    lr_mult: 1
  }
  param {
    name: "ip1_b"
    lr_mult: 2
  }
  inner_product_param {
    num_output: 500
    weight_filler {
      type: "xavier"
    }
    bias_filler {
      type: "constant"
    }
  }
}
layer {
  name: "relu1"
  type: "ReLU"
  bottom: "ip1"
  top: "ip1"
}
layer {
  name: "ip2"
  type: "InnerProduct"
  bottom: "ip1"
  top: "ip2"
  param {
    name: "ip2_w"
    lr_mult: 1
  }
  param {
    name: "ip2_b"
    lr_mult: 2
  }
  inner_product_param {
    num_output: 10
    weight_filler {
      type: "xavier"
    }
    bias_filler {
      type: "constant"
    }
  }
}
layer {
  name: "feat"
  type: "InnerProduct"
  bottom: "ip2"
  top: "feat"
  param {
    name: "feat_w"
    lr_mult: 1
  }
  param {
    name: "feat_b"
    lr_mult: 2
  }
  inner_product_param {
    num_output: 2
    weight_filler {
      type: "xavier"
    }
    bias_filler {
      type: "constant"
    }
  }
}
layer {
  name: "conv1_p"
  type: "Convolution"
  bottom: "data_p"
  top: "conv1_p"
  param {
    name: "conv1_w"
    lr_mult: 1
  }
  param {
    name: "conv1_b"
    lr_mult: 2
  }
  convolution_param {
    num_output: 20
    kernel_size: 5
    stride: 1
    weight_filler {
      type: "xavier"
    }
    bias_filler {
      type: "constant"
    }
  }
}
layer {
  name: "pool1_p"
  type: "Pooling"
  bottom: "conv1_p"
  top: "pool1_p"
  pooling_param {
    pool: MAX
    kernel_size: 2
    stride: 2
  }
}
layer {
  name: "conv2_p"
  type: "Convolution"
  bottom: "pool1_p"
  top: "conv2_p"
  param {
    name: "conv2_w"
    lr_mult: 1
  }
  param {
    name: "conv2_b"
    lr_mult: 2
  }
  convolution_param {
    num_output: 50
    kernel_size: 5
    stride: 1
    weight_filler {
      type: "xavier"
    }
    bias_filler {
      type: "constant"
    }
  }
}
layer {
  name: "pool2_p"
  type: "Pooling"
  bottom: "conv2_p"
  top: "pool2_p"
  pooling_param {
    pool: MAX
    kernel_size: 2
    stride: 2
  }
}
layer {
  name: "ip1_p"
  type: "InnerProduct"
  bottom: "pool2_p"
  top: "ip1_p"
  param {
    name: "ip1_w"
    lr_mult: 1
  }
  param {
    name: "ip1_b"
    lr_mult: 2
  }
  inner_product_param {
    num_output: 500
    weight_filler {
      type: "xavier"
    }
    bias_filler {
      type: "constant"
    }
  }
}
layer {
  name: "relu1_p"
  type: "ReLU"
  bottom: "ip1_p"
  top: "ip1_p"
}
layer {
  name: "ip2_p"
  type: "InnerProduct"
  bottom: "ip1_p"
  top: "ip2_p"
  param {
    name: "ip2_w"
    lr_mult: 1
  }
  param {
    name: "ip2_b"
    lr_mult: 2
  }
  inner_product_param {
    num_output: 10
    weight_filler {
      type: "xavier"
    }
    bias_filler {
      type: "constant"
    }
  }
}
layer {
  name: "feat_p"
  type: "InnerProduct"
  bottom: "ip2_p"
  top: "feat_p"
  param {
    name: "feat_w"
    lr_mult: 1
  }
  param {
    name: "feat_b"
    lr_mult: 2
  }
  inner_product_param {
    num_output: 2
    weight_filler {
      type: "xavier"
    }
    bias_filler {
      type: "constant"
    }
  }
}
layer {
  name: "loss"
  type: "ContrastiveLoss"
  bottom: "feat"
  bottom: "feat_p"
  bottom: "sim"
  top: "loss"
  contrastive_loss_param {
    margin: 1
  }
}
I0626 00:34:11.890573 1970144000 layer_factory.hpp:74] Creating layer pair_data
I0626 00:34:11.891803 1970144000 net.cpp:90] Creating Layer pair_data
I0626 00:34:11.891834 1970144000 net.cpp:368] pair_data -> pair_data
I0626 00:34:11.892237 1970144000 net.cpp:368] pair_data -> sim
I0626 00:34:11.892258 1970144000 net.cpp:120] Setting up pair_data
I0626 00:34:11.925823 1970144000 db.cpp:20] Opened leveldb src/siamese_network_bw/data/siamese_network_train_leveldb
I0626 00:34:11.926861 1970144000 data_layer.cpp:52] output data size: 64,2,28,28
I0626 00:34:11.927577 1970144000 net.cpp:127] Top shape: 64 2 28 28 (100352)
I0626 00:34:11.927775 1970144000 net.cpp:127] Top shape: 64 (64)
I0626 00:34:11.927790 1970144000 layer_factory.hpp:74] Creating layer slice_pair
I0626 00:34:11.927820 1970144000 net.cpp:90] Creating Layer slice_pair
I0626 00:34:11.927856 1970144000 net.cpp:410] slice_pair <- pair_data
I0626 00:34:11.927868 1970144000 net.cpp:368] slice_pair -> data
I0626 00:34:11.927902 1970144000 net.cpp:368] slice_pair -> data_p
I0626 00:34:11.927919 1970144000 net.cpp:120] Setting up slice_pair
I0626 00:34:11.928308 1970144000 net.cpp:127] Top shape: 64 1 28 28 (50176)
I0626 00:34:11.928331 1970144000 net.cpp:127] Top shape: 64 1 28 28 (50176)
I0626 00:34:11.928338 1970144000 layer_factory.hpp:74] Creating layer conv1
I0626 00:34:11.928349 1970144000 net.cpp:90] Creating Layer conv1
I0626 00:34:11.928354 1970144000 net.cpp:410] conv1 <- data
I0626 00:34:11.928360 1970144000 net.cpp:368] conv1 -> conv1
I0626 00:34:11.928371 1970144000 net.cpp:120] Setting up conv1
I0626 00:34:12.078068 1970144000 net.cpp:127] Top shape: 64 20 24 24 (737280)
I0626 00:34:12.078109 1970144000 layer_factory.hpp:74] Creating layer pool1
I0626 00:34:12.078124 1970144000 net.cpp:90] Creating Layer pool1
I0626 00:34:12.078137 1970144000 net.cpp:410] pool1 <- conv1
I0626 00:34:12.078146 1970144000 net.cpp:368] pool1 -> pool1
I0626 00:34:12.078156 1970144000 net.cpp:120] Setting up pool1
I0626 00:34:12.078908 1970144000 net.cpp:127] Top shape: 64 20 12 12 (184320)
I0626 00:34:12.078927 1970144000 layer_factory.hpp:74] Creating layer conv2
I0626 00:34:12.078941 1970144000 net.cpp:90] Creating Layer conv2
I0626 00:34:12.078948 1970144000 net.cpp:410] conv2 <- pool1
I0626 00:34:12.078959 1970144000 net.cpp:368] conv2 -> conv2
I0626 00:34:12.078971 1970144000 net.cpp:120] Setting up conv2
I0626 00:34:12.079560 1970144000 net.cpp:127] Top shape: 64 50 8 8 (204800)
I0626 00:34:12.079579 1970144000 layer_factory.hpp:74] Creating layer pool2
I0626 00:34:12.079588 1970144000 net.cpp:90] Creating Layer pool2
I0626 00:34:12.079596 1970144000 net.cpp:410] pool2 <- conv2
I0626 00:34:12.079632 1970144000 net.cpp:368] pool2 -> pool2
I0626 00:34:12.079641 1970144000 net.cpp:120] Setting up pool2
I0626 00:34:12.079705 1970144000 net.cpp:127] Top shape: 64 50 4 4 (51200)
I0626 00:34:12.079715 1970144000 layer_factory.hpp:74] Creating layer ip1
I0626 00:34:12.079725 1970144000 net.cpp:90] Creating Layer ip1
I0626 00:34:12.079730 1970144000 net.cpp:410] ip1 <- pool2
I0626 00:34:12.079737 1970144000 net.cpp:368] ip1 -> ip1
I0626 00:34:12.079748 1970144000 net.cpp:120] Setting up ip1
I0626 00:34:12.083351 1970144000 net.cpp:127] Top shape: 64 500 (32000)
I0626 00:34:12.083382 1970144000 layer_factory.hpp:74] Creating layer relu1
I0626 00:34:12.083392 1970144000 net.cpp:90] Creating Layer relu1
I0626 00:34:12.083397 1970144000 net.cpp:410] relu1 <- ip1
I0626 00:34:12.083410 1970144000 net.cpp:357] relu1 -> ip1 (in-place)
I0626 00:34:12.083416 1970144000 net.cpp:120] Setting up relu1
I0626 00:34:12.083474 1970144000 net.cpp:127] Top shape: 64 500 (32000)
I0626 00:34:12.083497 1970144000 layer_factory.hpp:74] Creating layer ip2
I0626 00:34:12.083520 1970144000 net.cpp:90] Creating Layer ip2
I0626 00:34:12.083528 1970144000 net.cpp:410] ip2 <- ip1
I0626 00:34:12.083535 1970144000 net.cpp:368] ip2 -> ip2
I0626 00:34:12.083545 1970144000 net.cpp:120] Setting up ip2
I0626 00:34:12.083621 1970144000 net.cpp:127] Top shape: 64 10 (640)
I0626 00:34:12.083632 1970144000 layer_factory.hpp:74] Creating layer feat
I0626 00:34:12.083647 1970144000 net.cpp:90] Creating Layer feat
I0626 00:34:12.083653 1970144000 net.cpp:410] feat <- ip2
I0626 00:34:12.083659 1970144000 net.cpp:368] feat -> feat
I0626 00:34:12.083669 1970144000 net.cpp:120] Setting up feat
I0626 00:34:12.083683 1970144000 net.cpp:127] Top shape: 64 2 (128)
I0626 00:34:12.083690 1970144000 layer_factory.hpp:74] Creating layer conv1_p
I0626 00:34:12.083701 1970144000 net.cpp:90] Creating Layer conv1_p
I0626 00:34:12.083706 1970144000 net.cpp:410] conv1_p <- data_p
I0626 00:34:12.083714 1970144000 net.cpp:368] conv1_p -> conv1_p
I0626 00:34:12.083720 1970144000 net.cpp:120] Setting up conv1_p
I0626 00:34:12.084053 1970144000 net.cpp:127] Top shape: 64 20 24 24 (737280)
I0626 00:34:12.084069 1970144000 net.cpp:459] Sharing parameters 'conv1_w' owned by layer 'conv1', param index 0
I0626 00:34:12.084091 1970144000 net.cpp:459] Sharing parameters 'conv1_b' owned by layer 'conv1', param index 1
I0626 00:34:12.084098 1970144000 layer_factory.hpp:74] Creating layer pool1_p
I0626 00:34:12.084108 1970144000 net.cpp:90] Creating Layer pool1_p
I0626 00:34:12.084113 1970144000 net.cpp:410] pool1_p <- conv1_p
I0626 00:34:12.084120 1970144000 net.cpp:368] pool1_p -> pool1_p
I0626 00:34:12.084126 1970144000 net.cpp:120] Setting up pool1_p
I0626 00:34:12.084241 1970144000 net.cpp:127] Top shape: 64 20 12 12 (184320)
I0626 00:34:12.084252 1970144000 layer_factory.hpp:74] Creating layer conv2_p
I0626 00:34:12.084262 1970144000 net.cpp:90] Creating Layer conv2_p
I0626 00:34:12.084267 1970144000 net.cpp:410] conv2_p <- pool1_p
I0626 00:34:12.084275 1970144000 net.cpp:368] conv2_p -> conv2_p
I0626 00:34:12.084282 1970144000 net.cpp:120] Setting up conv2_p
I0626 00:34:12.084731 1970144000 net.cpp:127] Top shape: 64 50 8 8 (204800)
I0626 00:34:12.084743 1970144000 net.cpp:459] Sharing parameters 'conv2_w' owned by layer 'conv2', param index 0
I0626 00:34:12.084748 1970144000 net.cpp:459] Sharing parameters 'conv2_b' owned by layer 'conv2', param index 1
I0626 00:34:12.084753 1970144000 layer_factory.hpp:74] Creating layer pool2_p
I0626 00:34:12.084760 1970144000 net.cpp:90] Creating Layer pool2_p
I0626 00:34:12.084765 1970144000 net.cpp:410] pool2_p <- conv2_p
I0626 00:34:12.084774 1970144000 net.cpp:368] pool2_p -> pool2_p
I0626 00:34:12.084780 1970144000 net.cpp:120] Setting up pool2_p
I0626 00:34:12.084827 1970144000 net.cpp:127] Top shape: 64 50 4 4 (51200)
I0626 00:34:12.084841 1970144000 layer_factory.hpp:74] Creating layer ip1_p
I0626 00:34:12.084851 1970144000 net.cpp:90] Creating Layer ip1_p
I0626 00:34:12.084854 1970144000 net.cpp:410] ip1_p <- pool2_p
I0626 00:34:12.084861 1970144000 net.cpp:368] ip1_p -> ip1_p
I0626 00:34:12.084885 1970144000 net.cpp:120] Setting up ip1_p
I0626 00:34:12.087934 1970144000 net.cpp:127] Top shape: 64 500 (32000)
I0626 00:34:12.087949 1970144000 net.cpp:459] Sharing parameters 'ip1_w' owned by layer 'ip1', param index 0
I0626 00:34:12.087957 1970144000 net.cpp:459] Sharing parameters 'ip1_b' owned by layer 'ip1', param index 1
I0626 00:34:12.087962 1970144000 layer_factory.hpp:74] Creating layer relu1_p
I0626 00:34:12.087973 1970144000 net.cpp:90] Creating Layer relu1_p
I0626 00:34:12.087978 1970144000 net.cpp:410] relu1_p <- ip1_p
I0626 00:34:12.087983 1970144000 net.cpp:357] relu1_p -> ip1_p (in-place)
I0626 00:34:12.087990 1970144000 net.cpp:120] Setting up relu1_p
I0626 00:34:12.088049 1970144000 net.cpp:127] Top shape: 64 500 (32000)
I0626 00:34:12.088055 1970144000 layer_factory.hpp:74] Creating layer ip2_p
I0626 00:34:12.088063 1970144000 net.cpp:90] Creating Layer ip2_p
I0626 00:34:12.088068 1970144000 net.cpp:410] ip2_p <- ip1_p
I0626 00:34:12.088075 1970144000 net.cpp:368] ip2_p -> ip2_p
I0626 00:34:12.088083 1970144000 net.cpp:120] Setting up ip2_p
I0626 00:34:12.088129 1970144000 net.cpp:127] Top shape: 64 10 (640)
I0626 00:34:12.088136 1970144000 net.cpp:459] Sharing parameters 'ip2_w' owned by layer 'ip2', param index 0
I0626 00:34:12.088141 1970144000 net.cpp:459] Sharing parameters 'ip2_b' owned by layer 'ip2', param index 1
I0626 00:34:12.088146 1970144000 layer_factory.hpp:74] Creating layer feat_p
I0626 00:34:12.088153 1970144000 net.cpp:90] Creating Layer feat_p
I0626 00:34:12.088157 1970144000 net.cpp:410] feat_p <- ip2_p
I0626 00:34:12.088163 1970144000 net.cpp:368] feat_p -> feat_p
I0626 00:34:12.088171 1970144000 net.cpp:120] Setting up feat_p
I0626 00:34:12.088178 1970144000 net.cpp:127] Top shape: 64 2 (128)
I0626 00:34:12.088184 1970144000 net.cpp:459] Sharing parameters 'feat_w' owned by layer 'feat', param index 0
I0626 00:34:12.088188 1970144000 net.cpp:459] Sharing parameters 'feat_b' owned by layer 'feat', param index 1
I0626 00:34:12.088193 1970144000 layer_factory.hpp:74] Creating layer loss
I0626 00:34:12.088414 1970144000 net.cpp:90] Creating Layer loss
I0626 00:34:12.088424 1970144000 net.cpp:410] loss <- feat
…
I0626 00:34:12.089017 1970144000 solver.cpp:154] Creating test net (#0) specified by net file: src/siamese_network_bw/model/siamese_train_validate.prototxt
I0626 00:34:12.089064 1970144000 net.cpp:287] The NetState phase (1) differed from the phase (0) specified by a rule in layer pair_data
I0626 00:34:12.089092 1970144000 net.cpp:42] Initializing net from parameters: 
name: "siamese_train_validate"
state {
  phase: TEST
}
layer {
  name: "pair_data"
  type: "Data"
  top: "pair_data"
  top: "sim"
  include {
    phase: TEST
  }
  transform_param {
    scale: 0.00390625
  }
  data_param {
    source: "src/siamese_network_bw/data/siamese_network_validation_leveldb"
    batch_size: 100
  }
}
layer {
  name: "slice_pair"
  type: "Slice"
  bottom: "pair_data"
  top: "data"
  top: "data_p"
  slice_param {
    slice_dim: 1
    slice_point: 1
  }
}
layer {
  name: "conv1"
  type: "Convolution"
  bottom: "data"
  top: "conv1"
  param {
    name: "conv1_w"
    lr_mult: 1
  }
  param {
    name: "conv1_b"
    lr_mult: 2
  }
  convolution_param {
    num_output: 20
    kernel_size: 5
    stride: 1
    weight_filler {
      type: "xavier"
    }
    bias_filler {
      type: "constant"
    }
  }
}
layer {
  name: "pool1"
  type: "Pooling"
  bottom: "conv1"
  top: "pool1"
  pooling_param {
    pool: MAX
    kernel_size: 2
    stride: 2
  }
}
layer {
  name: "conv2"
  type: "Convolution"
  bottom: "pool1"
  top: "conv2"
  param {
    name: "conv2_w"
    lr_mult: 1
  }
  param {
    name: "conv2_b"
    lr_mult: 2
  }
  convolution_param {
    num_output: 50
    kernel_size: 5
    stride: 1
    weight_filler {
      type: "xavier"
    }
    bias_filler {
      type: "constant"
    }
  }
}
layer {
  name: "pool2"
  type: "Pooling"
  bottom: "conv2"
  top: "pool2"
  pooling_param {
    pool: MAX
    kernel_size: 2
    stride: 2
  }
}
layer {
  name: "ip1"
  type: "InnerProduct"
  bottom: "pool2"
  top: "ip1"
  param {
    name: "ip1_w"
    lr_mult: 1
  }
  param {
    name: "ip1_b"
    lr_mult: 2
  }
  inner_product_param {
    num_output: 500
    weight_filler {
      type: "xavier"
    }
    bias_filler {
      type: "constant"
    }
  }
}
layer {
  name: "relu1"
  type: "ReLU"
  bottom: "ip1"
  top: "ip1"
}
layer {
  name: "ip2"
  type: "InnerProduct"
  bottom: "ip1"
  top: "ip2"
  param {
    name: "ip2_w"
    lr_mult: 1
  }
  param {
    name: "ip2_b"
    lr_mult: 2
  }
  inner_product_param {
    num_output: 10
    weight_filler {
      type: "xavier"
    }
    bias_filler {
      type: "constant"
    }
  }
}
layer {
  name: "feat"
  type: "InnerProduct"
  bottom: "ip2"
  top: "feat"
  param {
    name: "feat_w"
    lr_mult: 1
  }
  param {
    name: "feat_b"
    lr_mult: 2
  }
  inner_product_param {
    num_output: 2
    weight_filler {
      type: "xavier"
    }
    bias_filler {
      type: "constant"
    }
  }
}
layer {
  name: "conv1_p"
  type: "Convolution"
  bottom: "data_p"
  top: "conv1_p"
  param {
    name: "conv1_w"
    lr_mult: 1
  }
  param {
    name: "conv1_b"
    lr_mult: 2
  }
  convolution_param {
    num_output: 20
    kernel_size: 5
    stride: 1
    weight_filler {
      type: "xavier"
    }
    bias_filler {
      type: "constant"
    }
  }
}
layer {
  name: "pool1_p"
  type: "Pooling"
  bottom: "conv1_p"
  top: "pool1_p"
  pooling_param {
    pool: MAX
    kernel_size: 2
    stride: 2
  }
}
layer {
  name: "conv2_p"
  type: "Convolution"
  bottom: "pool1_p"
  top: "conv2_p"
  param {
    name: "conv2_w"
    lr_mult: 1
  }
  param {
    name: "conv2_b"
    lr_mult: 2
  }
  convolution_param {
    num_output: 50
    kernel_size: 5
    stride: 1
    weight_filler {
      type: "xavier"
    }
    bias_filler {
      type: "constant"
    }
  }
}
layer {
  name: "pool2_p"
  type: "Pooling"
  bottom: "conv2_p"
  top: "pool2_p"
  pooling_param {
    pool: MAX
    kernel_size: 2
    stride: 2
  }
}
layer {
  name: "ip1_p"
  type: "InnerProduct"
  bottom: "pool2_p"
  top: "ip1_p"
  param {
    name: "ip1_w"
    lr_mult: 1
  }
  param {
    name: "ip1_b"
    lr_mult: 2
  }
  inner_product_param {
    num_output: 500
    weight_filler {
      type: "xavier"
    }
    bias_filler {
      type: "constant"
    }
  }
}
layer {
  name: "relu1_p"
  type: "ReLU"
  bottom: "ip1_p"
  top: "ip1_p"
}
layer {
  name: "ip2_p"
  type: "InnerProduct"
  bottom: "ip1_p"
  top: "ip2_p"
  param {
    name: "ip2_w"
    lr_mult: 1
  }
  param {
    name: "ip2_b"
    lr_mult: 2
  }
  inner_product_param {
    num_output: 10
    weight_filler {
      type: "xavier"
    }
    bias_filler {
      type: "constant"
    }
  }
}
layer {
  name: "feat_p"
  type: "InnerProduct"
  bottom: "ip2_p"
  top: "feat_p"
  param {
    name: "feat_w"
    lr_mult: 1
  }
  param {
    name: "feat_b"
    lr_mult: 2
  }
  inner_product_param {
    num_output: 2
    weight_filler {
      type: "xavier"
    }
    bias_filler {
      type: "constant"
    }
  }
}
layer {
  name: "loss"
  type: "ContrastiveLoss"
  bottom: "feat"
  bottom: "feat_p"
  bottom: "sim"
  top: "loss"
  contrastive_loss_param {
    margin: 1
  }
}
I0626 00:34:12.089323 1970144000 layer_factory.hpp:74] Creating layer pair_data
I0626 00:34:12.089332 1970144000 net.cpp:90] Creating Layer pair_data
I0626 00:34:12.089337 1970144000 net.cpp:368] pair_data -> pair_data
I0626 00:34:12.089346 1970144000 net.cpp:368] pair_data -> sim
I0626 00:34:12.089354 1970144000 net.cpp:120] Setting up pair_data
I0626 00:34:12.112679 1970144000 db.cpp:20] Opened leveldb src/siamese_network_bw/data/siamese_network_validation_leveldb
I0626 00:34:12.113056 1970144000 data_layer.cpp:52] output data size: 100,2,28,28
I0626 00:34:12.113170 1970144000 net.cpp:127] Top shape: 100 2 28 28 (156800)
I0626 00:34:12.113190 1970144000 net.cpp:127] Top shape: 100 (100)
I0626 00:34:12.113204 1970144000 layer_factory.hpp:74] Creating layer slice_pair
I0626 00:34:12.113224 1970144000 net.cpp:90] Creating Layer slice_pair
I0626 00:34:12.113234 1970144000 net.cpp:410] slice_pair <- pair_data
I0626 00:34:12.113260 1970144000 net.cpp:368] slice_pair -> data
I0626 00:34:12.113281 1970144000 net.cpp:368] slice_pair -> data_p
I0626 00:34:12.113293 1970144000 net.cpp:120] Setting up slice_pair
I0626 00:34:12.113308 1970144000 net.cpp:127] Top shape: 100 1 28 28 (78400)
I0626 00:34:12.113332 1970144000 net.cpp:127] Top shape: 100 1 28 28 (78400)
I0626 00:34:12.113339 1970144000 layer_factory.hpp:74] Creating layer conv1
I0626 00:34:12.113356 1970144000 net.cpp:90] Creating Layer conv1
I0626 00:34:12.113361 1970144000 net.cpp:410] conv1 <- data
I0626 00:34:12.113369 1970144000 net.cpp:368] conv1 -> conv1
I0626 00:34:12.113380 1970144000 net.cpp:120] Setting up conv1
I0626 00:34:12.113785 1970144000 net.cpp:127] Top shape: 100 20 24 24 (1152000)
I0626 00:34:12.113804 1970144000 layer_factory.hpp:74] Creating layer pool1
I0626 00:34:12.113814 1970144000 net.cpp:90] Creating Layer pool1
I0626 00:34:12.113827 1970144000 net.cpp:410] pool1 <- conv1
I0626 00:34:12.113876 1970144000 net.cpp:368] pool1 -> pool1
I0626 00:34:12.113903 1970144000 net.cpp:120] Setting up pool1
I0626 00:34:12.113999 1970144000 net.cpp:127] Top shape: 100 20 12 12 (288000)
I0626 00:34:12.114014 1970144000 layer_factory.hpp:74] Creating layer conv2
I0626 00:34:12.114030 1970144000 net.cpp:90] Creating Layer conv2
I0626 00:34:12.114040 1970144000 net.cpp:410] conv2 <- pool1
I0626 00:34:12.114058 1970144000 net.cpp:368] conv2 -> conv2
I0626 00:34:12.114071 1970144000 net.cpp:120] Setting up conv2
I0626 00:34:12.115080 1970144000 net.cpp:127] Top shape: 100 50 8 8 (320000)
I0626 00:34:12.115106 1970144000 layer_factory.hpp:74] Creating layer pool2
I0626 00:34:12.115121 1970144000 net.cpp:90] Creating Layer pool2
I0626 00:34:12.115130 1970144000 net.cpp:410] pool2 <- conv2
I0626 00:34:12.115138 1970144000 net.cpp:368] pool2 -> pool2
I0626 00:34:12.115176 1970144000 net.cpp:120] Setting up pool2
I0626 00:34:12.115334 1970144000 net.cpp:127] Top shape: 100 50 4 4 (80000)
I0626 00:34:12.115347 1970144000 layer_factory.hpp:74] Creating layer ip1
I0626 00:34:12.115358 1970144000 net.cpp:90] Creating Layer ip1
I0626 00:34:12.115365 1970144000 net.cpp:410] ip1 <- pool2
I0626 00:34:12.115381 1970144000 net.cpp:368] ip1 -> ip1
I0626 00:34:12.115392 1970144000 net.cpp:120] Setting up ip1
I0626 00:34:12.118898 1970144000 net.cpp:127] Top shape: 100 500 (50000)
I0626 00:34:12.118921 1970144000 layer_factory.hpp:74] Creating layer relu1
I0626 00:34:12.118930 1970144000 net.cpp:90] Creating Layer relu1
I0626 00:34:12.118935 1970144000 net.cpp:410] relu1 <- ip1
I0626 00:34:12.118943 1970144000 net.cpp:357] relu1 -> ip1 (in-place)
I0626 00:34:12.118952 1970144000 net.cpp:120] Setting up relu1
I0626 00:34:12.119015 1970144000 net.cpp:127] Top shape: 100 500 (50000)
I0626 00:34:12.119024 1970144000 layer_factory.hpp:74] Creating layer ip2
I0626 00:34:12.119034 1970144000 net.cpp:90] Creating Layer ip2
I0626 00:34:12.119038 1970144000 net.cpp:410] ip2 <- ip1
I0626 00:34:12.119045 1970144000 net.cpp:368] ip2 -> ip2
I0626 00:34:12.119053 1970144000 net.cpp:120] Setting up ip2
I0626 00:34:12.119125 1970144000 net.cpp:127] Top shape: 100 10 (1000)
I0626 00:34:12.119133 1970144000 layer_factory.hpp:74] Creating layer feat
I0626 00:34:12.119144 1970144000 net.cpp:90] Creating Layer feat
I0626 00:34:12.119148 1970144000 net.cpp:410] feat <- ip2
I0626 00:34:12.119155 1970144000 net.cpp:368] feat -> feat
I0626 00:34:12.119164 1970144000 net.cpp:120] Setting up feat
I0626 00:34:12.119176 1970144000 net.cpp:127] Top shape: 100 2 (200)
I0626 00:34:12.119186 1970144000 layer_factory.hpp:74] Creating layer conv1_p
I0626 00:34:12.119204 1970144000 net.cpp:90] Creating Layer conv1_p
I0626 00:34:12.119210 1970144000 net.cpp:410] conv1_p <- data_p
I0626 00:34:12.119220 1970144000 net.cpp:368] conv1_p -> conv1_p
I0626 00:34:12.119246 1970144000 net.cpp:120] Setting up conv1_p
I0626 00:34:12.119670 1970144000 net.cpp:127] Top shape: 100 20 24 24 (1152000)
I0626 00:34:12.119712 1970144000 net.cpp:459] Sharing parameters 'conv1_w' owned by layer 'conv1', param index 0
I0626 00:34:12.119721 1970144000 net.cpp:459] Sharing parameters 'conv1_b' owned by layer 'conv1', param index 1
I0626 00:34:12.119727 1970144000 layer_factory.hpp:74] Creating layer pool1_p
I0626 00:34:12.119735 1970144000 net.cpp:90] Creating Layer pool1_p
I0626 00:34:12.119740 1970144000 net.cpp:410] pool1_p <- conv1_p
I0626 00:34:12.119746 1970144000 net.cpp:368] pool1_p -> pool1_p
I0626 00:34:12.119755 1970144000 net.cpp:120] Setting up pool1_p
I0626 00:34:12.119807 1970144000 net.cpp:127] Top shape: 100 20 12 12 (288000)
I0626 00:34:12.119814 1970144000 layer_factory.hpp:74] Creating layer conv2_p
I0626 00:34:12.119824 1970144000 net.cpp:90] Creating Layer conv2_p
I0626 00:34:12.119828 1970144000 net.cpp:410] conv2_p <- pool1_p
I0626 00:34:12.119835 1970144000 net.cpp:368] conv2_p -> conv2_p
I0626 00:34:12.119843 1970144000 net.cpp:120] Setting up conv2_p
I0626 00:34:12.120342 1970144000 net.cpp:127] Top shape: 100 50 8 8 (320000)
I0626 00:34:12.120353 1970144000 net.cpp:459] Sharing parameters 'conv2_w' owned by layer 'conv2', param index 0
I0626 00:34:12.120360 1970144000 net.cpp:459] Sharing parameters 'conv2_b' owned by layer 'conv2', param index 1
I0626 00:34:12.120365 1970144000 layer_factory.hpp:74] Creating layer pool2_p
I0626 00:34:12.120375 1970144000 net.cpp:90] Creating Layer pool2_p
I0626 00:34:12.120379 1970144000 net.cpp:410] pool2_p <- conv2_p
I0626 00:34:12.120386 1970144000 net.cpp:368] pool2_p -> pool2_p
I0626 00:34:12.120393 1970144000 net.cpp:120] Setting up pool2_p
I0626 00:34:12.120442 1970144000 net.cpp:127] Top shape: 100 50 4 4 (80000)
I0626 00:34:12.120450 1970144000 layer_factory.hpp:74] Creating layer ip1_p
I0626 00:34:12.120457 1970144000 net.cpp:90] Creating Layer ip1_p
I0626 00:34:12.120461 1970144000 net.cpp:410] ip1_p <- pool2_p
I0626 00:34:12.120467 1970144000 net.cpp:368] ip1_p -> ip1_p
I0626 00:34:12.120493 1970144000 net.cpp:120] Setting up ip1_p
I0626 00:34:12.123775 1970144000 net.cpp:127] Top shape: 100 500 (50000)
I0626 00:34:12.123792 1970144000 net.cpp:459] Sharing parameters 'ip1_w' owned by layer 'ip1', param index 0
I0626 00:34:12.123800 1970144000 net.cpp:459] Sharing parameters 'ip1_b' owned by layer 'ip1', param index 1
I0626 00:34:12.123805 1970144000 layer_factory.hpp:74] Creating layer relu1_p
I0626 00:34:12.123816 1970144000 net.cpp:90] Creating Layer relu1_p
I0626 00:34:12.123821 1970144000 net.cpp:410] relu1_p <- ip1_p
I0626 00:34:12.123827 1970144000 net.cpp:357] relu1_p -> ip1_p (in-place)
I0626 00:34:12.123833 1970144000 net.cpp:120] Setting up relu1_p
I0626 00:34:12.124048 1970144000 net.cpp:127] Top shape: 100 500 (50000)
I0626 00:34:12.124058 1970144000 layer_factory.hpp:74] Creating layer ip2_p
I0626 00:34:12.124069 1970144000 net.cpp:90] Creating Layer ip2_p
I0626 00:34:12.124073 1970144000 net.cpp:410] ip2_p <- ip1_p
I0626 00:34:12.124079 1970144000 net.cpp:368] ip2_p -> ip2_p
I0626 00:34:12.124089 1970144000 net.cpp:120] Setting up ip2_p
I0626 00:34:12.124135 1970144000 net.cpp:127] Top shape: 100 10 (1000)
I0626 00:34:12.124142 1970144000 net.cpp:459] Sharing parameters 'ip2_w' owned by layer 'ip2', param index 0
I0626 00:34:12.124148 1970144000 net.cpp:459] Sharing parameters 'ip2_b' owned by layer 'ip2', param index 1
I0626 00:34:12.124152 1970144000 layer_factory.hpp:74] Creating layer feat_p
I0626 00:34:12.124158 1970144000 net.cpp:90] Creating Layer feat_p
I0626 00:34:12.124162 1970144000 net.cpp:410] feat_p <- ip2_p
I0626 00:34:12.124169 1970144000 net.cpp:368] feat_p -> feat_p
I0626 00:34:12.124176 1970144000 net.cpp:120] Setting up feat_p
I0626 00:34:12.124184 1970144000 net.cpp:127] Top shape: 100 2 (200)
I0626 00:34:12.124189 1970144000 net.cpp:459] Sharing parameters 'feat_w' owned by layer 'feat', param index 0
I0626 00:34:12.124194 1970144000 net.cpp:459] Sharing parameters 'feat_b' owned by layer 'feat', param index 1
I0626 00:34:12.124198 1970144000 layer_factory.hpp:74] Creating layer loss
I0626 00:34:12.124204 1970144000 net.cpp:90] Creating Layer loss
I0626 00:34:12.124208 1970144000 net.cpp:410] loss <- feat
…
