…
I0612 01:43:01.915240 2094273280 solver.cpp:70] Creating training net from net file: src/siamese_network_bw/model/siamese_train_validate.prototxt
I0612 01:43:01.917160 2094273280 net.cpp:287] The NetState phase (0) differed from the phase (1) specified by a rule in layer pair_data
I0612 01:43:01.917201 2094273280 net.cpp:42] Initializing net from parameters: 
name: "siamese_train_validate"
state {
  phase: TRAIN
}
layer {
  name: "pair_data"
  type: "Data"
  top: "pair_data"
  top: "sim"
  include {
    phase: TRAIN
  }
  transform_param {
    scale: 0.00392156
  }
  data_param {
    source: "src/siamese_network_bw/data/siamese_network_train_leveldb"
    batch_size: 64
  }
}
layer {
  name: "slice_pair"
  type: "Slice"
  bottom: "pair_data"
  top: "data"
  top: "data_p"
  slice_param {
    slice_dim: 1
    slice_point: 1
  }
}
layer {
  name: "conv1"
  type: "Convolution"
  bottom: "data"
  top: "conv1"
  param {
    name: "conv1_w"
    lr_mult: 1
  }
  param {
    name: "conv1_b"
    lr_mult: 2
  }
  convolution_param {
    num_output: 20
    kernel_size: 5
    stride: 1
    weight_filler {
      type: "xavier"
    }
    bias_filler {
      type: "constant"
    }
  }
}
layer {
  name: "pool1"
  type: "Pooling"
  bottom: "conv1"
  top: "pool1"
  pooling_param {
    pool: MAX
    kernel_size: 2
    stride: 2
  }
}
layer {
  name: "conv2"
  type: "Convolution"
  bottom: "pool1"
  top: "conv2"
  param {
    name: "conv2_w"
    lr_mult: 1
  }
  param {
    name: "conv2_b"
    lr_mult: 2
  }
  convolution_param {
    num_output: 50
    kernel_size: 5
    stride: 1
    weight_filler {
      type: "xavier"
    }
    bias_filler {
      type: "constant"
    }
  }
}
layer {
  name: "pool2"
  type: "Pooling"
  bottom: "conv2"
  top: "pool2"
  pooling_param {
    pool: MAX
    kernel_size: 2
    stride: 2
  }
}
layer {
  name: "ip1"
  type: "InnerProduct"
  bottom: "pool2"
  top: "ip1"
  param {
    name: "ip1_w"
    lr_mult: 1
  }
  param {
    name: "ip1_b"
    lr_mult: 2
  }
  inner_product_param {
    num_output: 500
    weight_filler {
      type: "xavier"
    }
    bias_filler {
      type: "constant"
    }
  }
}
layer {
  name: "relu1"
  type: "ReLU"
  bottom: "ip1"
  top: "ip1"
}
layer {
  name: "ip2"
  type: "InnerProduct"
  bottom: "ip1"
  top: "ip2"
  param {
    name: "ip2_w"
    lr_mult: 1
  }
  param {
    name: "ip2_b"
    lr_mult: 2
  }
  inner_product_param {
    num_output: 10
    weight_filler {
      type: "xavier"
    }
    bias_filler {
      type: "constant"
    }
  }
}
layer {
  name: "feat"
  type: "InnerProduct"
  bottom: "ip2"
  top: "feat"
  param {
    name: "feat_w"
    lr_mult: 1
  }
  param {
    name: "feat_b"
    lr_mult: 2
  }
  inner_product_param {
    num_output: 2
    weight_filler {
      type: "xavier"
    }
    bias_filler {
      type: "constant"
    }
  }
}
layer {
  name: "conv1_p"
  type: "Convolution"
  bottom: "data_p"
  top: "conv1_p"
  param {
    name: "conv1_w"
    lr_mult: 1
  }
  param {
    name: "conv1_b"
    lr_mult: 2
  }
  convolution_param {
    num_output: 20
    kernel_size: 5
    stride: 1
    weight_filler {
      type: "xavier"
    }
    bias_filler {
      type: "constant"
    }
  }
}
layer {
  name: "pool1_p"
  type: "Pooling"
  bottom: "conv1_p"
  top: "pool1_p"
  pooling_param {
    pool: MAX
    kernel_size: 2
    stride: 2
  }
}
layer {
  name: "conv2_p"
  type: "Convolution"
  bottom: "pool1_p"
  top: "conv2_p"
  param {
    name: "conv2_w"
    lr_mult: 1
  }
  param {
    name: "conv2_b"
    lr_mult: 2
  }
  convolution_param {
    num_output: 50
    kernel_size: 5
    stride: 1
    weight_filler {
      type: "xavier"
    }
    bias_filler {
      type: "constant"
    }
  }
}
layer {
  name: "pool2_p"
  type: "Pooling"
  bottom: "conv2_p"
  top: "pool2_p"
  pooling_param {
    pool: MAX
    kernel_size: 2
    stride: 2
  }
}
layer {
  name: "ip1_p"
  type: "InnerProduct"
  bottom: "pool2_p"
  top: "ip1_p"
  param {
    name: "ip1_w"
    lr_mult: 1
  }
  param {
    name: "ip1_b"
    lr_mult: 2
  }
  inner_product_param {
    num_output: 500
    weight_filler {
      type: "xavier"
    }
    bias_filler {
      type: "constant"
    }
  }
}
layer {
  name: "relu1_p"
  type: "ReLU"
  bottom: "ip1_p"
  top: "ip1_p"
}
layer {
  name: "ip2_p"
  type: "InnerProduct"
  bottom: "ip1_p"
  top: "ip2_p"
  param {
    name: "ip2_w"
    lr_mult: 1
  }
  param {
    name: "ip2_b"
    lr_mult: 2
  }
  inner_product_param {
    num_output: 10
    weight_filler {
      type: "xavier"
    }
    bias_filler {
      type: "constant"
    }
  }
}
layer {
  name: "feat_p"
  type: "InnerProduct"
  bottom: "ip2_p"
  top: "feat_p"
  param {
    name: "feat_w"
    lr_mult: 1
  }
  param {
    name: "feat_b"
    lr_mult: 2
  }
  inner_product_param {
    num_output: 2
    weight_filler {
      type: "xavier"
    }
    bias_filler {
      type: "constant"
    }
  }
}
layer {
  name: "loss"
  type: "ContrastiveLoss"
  bottom: "feat"
  bottom: "feat_p"
  bottom: "sim"
  top: "loss"
  contrastive_loss_param {
    margin: 1
  }
}
I0612 01:43:01.917603 2094273280 layer_factory.hpp:74] Creating layer pair_data
I0612 01:43:01.917846 2094273280 net.cpp:90] Creating Layer pair_data
I0612 01:43:01.917870 2094273280 net.cpp:368] pair_data -> pair_data
I0612 01:43:01.918105 2094273280 net.cpp:368] pair_data -> sim
I0612 01:43:01.918126 2094273280 net.cpp:120] Setting up pair_data
I0612 01:43:01.926995 2094273280 db.cpp:20] Opened leveldb src/siamese_network_bw/data/siamese_network_train_leveldb
I0612 01:43:01.929610 2094273280 data_layer.cpp:52] output data size: 64,2,62,47
I0612 01:43:01.930636 2094273280 net.cpp:127] Top shape: 64 2 62 47 (372992)
I0612 01:43:01.930663 2094273280 net.cpp:127] Top shape: 64 (64)
I0612 01:43:01.930671 2094273280 layer_factory.hpp:74] Creating layer slice_pair
I0612 01:43:01.930685 2094273280 net.cpp:90] Creating Layer slice_pair
I0612 01:43:01.930691 2094273280 net.cpp:410] slice_pair <- pair_data
I0612 01:43:01.930696 2094273280 net.cpp:368] slice_pair -> data
I0612 01:43:01.930706 2094273280 net.cpp:368] slice_pair -> data_p
I0612 01:43:01.930711 2094273280 net.cpp:120] Setting up slice_pair
I0612 01:43:01.930721 2094273280 net.cpp:127] Top shape: 64 1 62 47 (186496)
I0612 01:43:01.930727 2094273280 net.cpp:127] Top shape: 64 1 62 47 (186496)
I0612 01:43:01.930730 2094273280 layer_factory.hpp:74] Creating layer conv1
I0612 01:43:01.930738 2094273280 net.cpp:90] Creating Layer conv1
I0612 01:43:01.930755 2094273280 net.cpp:410] conv1 <- data
I0612 01:43:01.930771 2094273280 net.cpp:368] conv1 -> conv1
I0612 01:43:01.930780 2094273280 net.cpp:120] Setting up conv1
I0612 01:43:02.044752 2094273280 net.cpp:127] Top shape: 64 20 58 43 (3192320)
I0612 01:43:02.044783 2094273280 layer_factory.hpp:74] Creating layer pool1
I0612 01:43:02.044796 2094273280 net.cpp:90] Creating Layer pool1
I0612 01:43:02.044800 2094273280 net.cpp:410] pool1 <- conv1
I0612 01:43:02.044807 2094273280 net.cpp:368] pool1 -> pool1
I0612 01:43:02.044814 2094273280 net.cpp:120] Setting up pool1
I0612 01:43:02.045285 2094273280 net.cpp:127] Top shape: 64 20 29 22 (816640)
I0612 01:43:02.045308 2094273280 layer_factory.hpp:74] Creating layer conv2
I0612 01:43:02.045330 2094273280 net.cpp:90] Creating Layer conv2
I0612 01:43:02.045333 2094273280 net.cpp:410] conv2 <- pool1
I0612 01:43:02.045341 2094273280 net.cpp:368] conv2 -> conv2
I0612 01:43:02.045349 2094273280 net.cpp:120] Setting up conv2
I0612 01:43:02.045941 2094273280 net.cpp:127] Top shape: 64 50 25 18 (1440000)
I0612 01:43:02.045970 2094273280 layer_factory.hpp:74] Creating layer pool2
I0612 01:43:02.045990 2094273280 net.cpp:90] Creating Layer pool2
I0612 01:43:02.045995 2094273280 net.cpp:410] pool2 <- conv2
I0612 01:43:02.046020 2094273280 net.cpp:368] pool2 -> pool2
I0612 01:43:02.046027 2094273280 net.cpp:120] Setting up pool2
I0612 01:43:02.046072 2094273280 net.cpp:127] Top shape: 64 50 13 9 (374400)
I0612 01:43:02.046079 2094273280 layer_factory.hpp:74] Creating layer ip1
I0612 01:43:02.046087 2094273280 net.cpp:90] Creating Layer ip1
I0612 01:43:02.046090 2094273280 net.cpp:410] ip1 <- pool2
I0612 01:43:02.046097 2094273280 net.cpp:368] ip1 -> ip1
I0612 01:43:02.046104 2094273280 net.cpp:120] Setting up ip1
I0612 01:43:02.070317 2094273280 net.cpp:127] Top shape: 64 500 (32000)
I0612 01:43:02.070349 2094273280 layer_factory.hpp:74] Creating layer relu1
I0612 01:43:02.070366 2094273280 net.cpp:90] Creating Layer relu1
I0612 01:43:02.070370 2094273280 net.cpp:410] relu1 <- ip1
I0612 01:43:02.070376 2094273280 net.cpp:357] relu1 -> ip1 (in-place)
I0612 01:43:02.070386 2094273280 net.cpp:120] Setting up relu1
I0612 01:43:02.070464 2094273280 net.cpp:127] Top shape: 64 500 (32000)
I0612 01:43:02.070472 2094273280 layer_factory.hpp:74] Creating layer ip2
I0612 01:43:02.070508 2094273280 net.cpp:90] Creating Layer ip2
I0612 01:43:02.070528 2094273280 net.cpp:410] ip2 <- ip1
I0612 01:43:02.070556 2094273280 net.cpp:368] ip2 -> ip2
I0612 01:43:02.070579 2094273280 net.cpp:120] Setting up ip2
I0612 01:43:02.070631 2094273280 net.cpp:127] Top shape: 64 10 (640)
I0612 01:43:02.070638 2094273280 layer_factory.hpp:74] Creating layer feat
I0612 01:43:02.070647 2094273280 net.cpp:90] Creating Layer feat
I0612 01:43:02.070652 2094273280 net.cpp:410] feat <- ip2
I0612 01:43:02.070657 2094273280 net.cpp:368] feat -> feat
I0612 01:43:02.070663 2094273280 net.cpp:120] Setting up feat
I0612 01:43:02.070672 2094273280 net.cpp:127] Top shape: 64 2 (128)
I0612 01:43:02.070684 2094273280 layer_factory.hpp:74] Creating layer conv1_p
I0612 01:43:02.070693 2094273280 net.cpp:90] Creating Layer conv1_p
I0612 01:43:02.070695 2094273280 net.cpp:410] conv1_p <- data_p
I0612 01:43:02.070703 2094273280 net.cpp:368] conv1_p -> conv1_p
I0612 01:43:02.070709 2094273280 net.cpp:120] Setting up conv1_p
I0612 01:43:02.070988 2094273280 net.cpp:127] Top shape: 64 20 58 43 (3192320)
I0612 01:43:02.070998 2094273280 net.cpp:459] Sharing parameters 'conv1_w' owned by layer 'conv1', param index 0
I0612 01:43:02.071013 2094273280 net.cpp:459] Sharing parameters 'conv1_b' owned by layer 'conv1', param index 1
I0612 01:43:02.071019 2094273280 layer_factory.hpp:74] Creating layer pool1_p
I0612 01:43:02.071027 2094273280 net.cpp:90] Creating Layer pool1_p
I0612 01:43:02.071032 2094273280 net.cpp:410] pool1_p <- conv1_p
I0612 01:43:02.071043 2094273280 net.cpp:368] pool1_p -> pool1_p
I0612 01:43:02.071049 2094273280 net.cpp:120] Setting up pool1_p
I0612 01:43:02.071212 2094273280 net.cpp:127] Top shape: 64 20 29 22 (816640)
I0612 01:43:02.071223 2094273280 layer_factory.hpp:74] Creating layer conv2_p
I0612 01:43:02.071231 2094273280 net.cpp:90] Creating Layer conv2_p
I0612 01:43:02.071235 2094273280 net.cpp:410] conv2_p <- pool1_p
I0612 01:43:02.071241 2094273280 net.cpp:368] conv2_p -> conv2_p
I0612 01:43:02.071265 2094273280 net.cpp:120] Setting up conv2_p
I0612 01:43:02.071683 2094273280 net.cpp:127] Top shape: 64 50 25 18 (1440000)
I0612 01:43:02.071694 2094273280 net.cpp:459] Sharing parameters 'conv2_w' owned by layer 'conv2', param index 0
I0612 01:43:02.071702 2094273280 net.cpp:459] Sharing parameters 'conv2_b' owned by layer 'conv2', param index 1
I0612 01:43:02.071707 2094273280 layer_factory.hpp:74] Creating layer pool2_p
I0612 01:43:02.071714 2094273280 net.cpp:90] Creating Layer pool2_p
I0612 01:43:02.071718 2094273280 net.cpp:410] pool2_p <- conv2_p
I0612 01:43:02.071723 2094273280 net.cpp:368] pool2_p -> pool2_p
I0612 01:43:02.071729 2094273280 net.cpp:120] Setting up pool2_p
I0612 01:43:02.071774 2094273280 net.cpp:127] Top shape: 64 50 13 9 (374400)
I0612 01:43:02.071779 2094273280 layer_factory.hpp:74] Creating layer ip1_p
I0612 01:43:02.071786 2094273280 net.cpp:90] Creating Layer ip1_p
I0612 01:43:02.071790 2094273280 net.cpp:410] ip1_p <- pool2_p
I0612 01:43:02.071818 2094273280 net.cpp:368] ip1_p -> ip1_p
I0612 01:43:02.071825 2094273280 net.cpp:120] Setting up ip1_p
I0612 01:43:02.096896 2094273280 net.cpp:127] Top shape: 64 500 (32000)
I0612 01:43:02.096925 2094273280 net.cpp:459] Sharing parameters 'ip1_w' owned by layer 'ip1', param index 0
I0612 01:43:02.097726 2094273280 net.cpp:459] Sharing parameters 'ip1_b' owned by layer 'ip1', param index 1
I0612 01:43:02.097734 2094273280 layer_factory.hpp:74] Creating layer relu1_p
I0612 01:43:02.097744 2094273280 net.cpp:90] Creating Layer relu1_p
I0612 01:43:02.097748 2094273280 net.cpp:410] relu1_p <- ip1_p
I0612 01:43:02.097754 2094273280 net.cpp:357] relu1_p -> ip1_p (in-place)
I0612 01:43:02.097760 2094273280 net.cpp:120] Setting up relu1_p
I0612 01:43:02.097841 2094273280 net.cpp:127] Top shape: 64 500 (32000)
I0612 01:43:02.097848 2094273280 layer_factory.hpp:74] Creating layer ip2_p
I0612 01:43:02.097858 2094273280 net.cpp:90] Creating Layer ip2_p
I0612 01:43:02.097863 2094273280 net.cpp:410] ip2_p <- ip1_p
I0612 01:43:02.097872 2094273280 net.cpp:368] ip2_p -> ip2_p
I0612 01:43:02.097885 2094273280 net.cpp:120] Setting up ip2_p
I0612 01:43:02.097934 2094273280 net.cpp:127] Top shape: 64 10 (640)
I0612 01:43:02.097944 2094273280 net.cpp:459] Sharing parameters 'ip2_w' owned by layer 'ip2', param index 0
I0612 01:43:02.097949 2094273280 net.cpp:459] Sharing parameters 'ip2_b' owned by layer 'ip2', param index 1
I0612 01:43:02.097954 2094273280 layer_factory.hpp:74] Creating layer feat_p
I0612 01:43:02.097960 2094273280 net.cpp:90] Creating Layer feat_p
I0612 01:43:02.097964 2094273280 net.cpp:410] feat_p <- ip2_p
I0612 01:43:02.097970 2094273280 net.cpp:368] feat_p -> feat_p
I0612 01:43:02.097976 2094273280 net.cpp:120] Setting up feat_p
I0612 01:43:02.097985 2094273280 net.cpp:127] Top shape: 64 2 (128)
I0612 01:43:02.097993 2094273280 net.cpp:459] Sharing parameters 'feat_w' owned by layer 'feat', param index 0
I0612 01:43:02.098000 2094273280 net.cpp:459] Sharing parameters 'feat_b' owned by layer 'feat', param index 1
I0612 01:43:02.098017 2094273280 layer_factory.hpp:74] Creating layer loss
I0612 01:43:02.098038 2094273280 net.cpp:90] Creating Layer loss
I0612 01:43:02.098043 2094273280 net.cpp:410] loss <- feat
…
I0612 01:43:02.098565 2094273280 solver.cpp:154] Creating test net (#0) specified by net file: src/siamese_network_bw/model/siamese_train_validate.prototxt
I0612 01:43:02.098604 2094273280 net.cpp:287] The NetState phase (1) differed from the phase (0) specified by a rule in layer pair_data
I0612 01:43:02.098621 2094273280 net.cpp:42] Initializing net from parameters: 
name: "siamese_train_validate"
state {
  phase: TEST
}
layer {
  name: "pair_data"
  type: "Data"
  top: "pair_data"
  top: "sim"
  include {
    phase: TEST
  }
  transform_param {
    scale: 0.00392156
  }
  data_param {
    source: "src/siamese_network_bw/data/siamese_network_validation_leveldb"
    batch_size: 100
  }
}
layer {
  name: "slice_pair"
  type: "Slice"
  bottom: "pair_data"
  top: "data"
  top: "data_p"
  slice_param {
    slice_dim: 1
    slice_point: 1
  }
}
layer {
  name: "conv1"
  type: "Convolution"
  bottom: "data"
  top: "conv1"
  param {
    name: "conv1_w"
    lr_mult: 1
  }
  param {
    name: "conv1_b"
    lr_mult: 2
  }
  convolution_param {
    num_output: 20
    kernel_size: 5
    stride: 1
    weight_filler {
      type: "xavier"
    }
    bias_filler {
      type: "constant"
    }
  }
}
layer {
  name: "pool1"
  type: "Pooling"
  bottom: "conv1"
  top: "pool1"
  pooling_param {
    pool: MAX
    kernel_size: 2
    stride: 2
  }
}
layer {
  name: "conv2"
  type: "Convolution"
  bottom: "pool1"
  top: "conv2"
  param {
    name: "conv2_w"
    lr_mult: 1
  }
  param {
    name: "conv2_b"
    lr_mult: 2
  }
  convolution_param {
    num_output: 50
    kernel_size: 5
    stride: 1
    weight_filler {
      type: "xavier"
    }
    bias_filler {
      type: "constant"
    }
  }
}
layer {
  name: "pool2"
  type: "Pooling"
  bottom: "conv2"
  top: "pool2"
  pooling_param {
    pool: MAX
    kernel_size: 2
    stride: 2
  }
}
layer {
  name: "ip1"
  type: "InnerProduct"
  bottom: "pool2"
  top: "ip1"
  param {
    name: "ip1_w"
    lr_mult: 1
  }
  param {
    name: "ip1_b"
    lr_mult: 2
  }
  inner_product_param {
    num_output: 500
    weight_filler {
      type: "xavier"
    }
    bias_filler {
      type: "constant"
    }
  }
}
layer {
  name: "relu1"
  type: "ReLU"
  bottom: "ip1"
  top: "ip1"
}
layer {
  name: "ip2"
  type: "InnerProduct"
  bottom: "ip1"
  top: "ip2"
  param {
    name: "ip2_w"
    lr_mult: 1
  }
  param {
    name: "ip2_b"
    lr_mult: 2
  }
  inner_product_param {
    num_output: 10
    weight_filler {
      type: "xavier"
    }
    bias_filler {
      type: "constant"
    }
  }
}
layer {
  name: "feat"
  type: "InnerProduct"
  bottom: "ip2"
  top: "feat"
  param {
    name: "feat_w"
    lr_mult: 1
  }
  param {
    name: "feat_b"
    lr_mult: 2
  }
  inner_product_param {
    num_output: 2
    weight_filler {
      type: "xavier"
    }
    bias_filler {
      type: "constant"
    }
  }
}
layer {
  name: "conv1_p"
  type: "Convolution"
  bottom: "data_p"
  top: "conv1_p"
  param {
    name: "conv1_w"
    lr_mult: 1
  }
  param {
    name: "conv1_b"
    lr_mult: 2
  }
  convolution_param {
    num_output: 20
    kernel_size: 5
    stride: 1
    weight_filler {
      type: "xavier"
    }
    bias_filler {
      type: "constant"
    }
  }
}
layer {
  name: "pool1_p"
  type: "Pooling"
  bottom: "conv1_p"
  top: "pool1_p"
  pooling_param {
    pool: MAX
    kernel_size: 2
    stride: 2
  }
}
layer {
  name: "conv2_p"
  type: "Convolution"
  bottom: "pool1_p"
  top: "conv2_p"
  param {
    name: "conv2_w"
    lr_mult: 1
  }
  param {
    name: "conv2_b"
    lr_mult: 2
  }
  convolution_param {
    num_output: 50
    kernel_size: 5
    stride: 1
    weight_filler {
      type: "xavier"
    }
    bias_filler {
      type: "constant"
    }
  }
}
layer {
  name: "pool2_p"
  type: "Pooling"
  bottom: "conv2_p"
  top: "pool2_p"
  pooling_param {
    pool: MAX
    kernel_size: 2
    stride: 2
  }
}
layer {
  name: "ip1_p"
  type: "InnerProduct"
  bottom: "pool2_p"
  top: "ip1_p"
  param {
    name: "ip1_w"
    lr_mult: 1
  }
  param {
    name: "ip1_b"
    lr_mult: 2
  }
  inner_product_param {
    num_output: 500
    weight_filler {
      type: "xavier"
    }
    bias_filler {
      type: "constant"
    }
  }
}
layer {
  name: "relu1_p"
  type: "ReLU"
  bottom: "ip1_p"
  top: "ip1_p"
}
layer {
  name: "ip2_p"
  type: "InnerProduct"
  bottom: "ip1_p"
  top: "ip2_p"
  param {
    name: "ip2_w"
    lr_mult: 1
  }
  param {
    name: "ip2_b"
    lr_mult: 2
  }
  inner_product_param {
    num_output: 10
    weight_filler {
      type: "xavier"
    }
    bias_filler {
      type: "constant"
    }
  }
}
layer {
  name: "feat_p"
  type: "InnerProduct"
  bottom: "ip2_p"
  top: "feat_p"
  param {
    name: "feat_w"
    lr_mult: 1
  }
  param {
    name: "feat_b"
    lr_mult: 2
  }
  inner_product_param {
    num_output: 2
    weight_filler {
      type: "xavier"
    }
    bias_filler {
      type: "constant"
    }
  }
}
layer {
  name: "loss"
  type: "ContrastiveLoss"
  bottom: "feat"
  bottom: "feat_p"
  bottom: "sim"
  top: "loss"
  contrastive_loss_param {
    margin: 1
  }
}
I0612 01:43:02.098858 2094273280 layer_factory.hpp:74] Creating layer pair_data
I0612 01:43:02.098868 2094273280 net.cpp:90] Creating Layer pair_data
I0612 01:43:02.098873 2094273280 net.cpp:368] pair_data -> pair_data
I0612 01:43:02.098881 2094273280 net.cpp:368] pair_data -> sim
I0612 01:43:02.098911 2094273280 net.cpp:120] Setting up pair_data
I0612 01:43:02.104332 2094273280 db.cpp:20] Opened leveldb src/siamese_network_bw/data/siamese_network_validation_leveldb
I0612 01:43:02.106073 2094273280 data_layer.cpp:52] output data size: 100,2,62,47
I0612 01:43:02.106956 2094273280 net.cpp:127] Top shape: 100 2 62 47 (582800)
I0612 01:43:02.106968 2094273280 net.cpp:127] Top shape: 100 (100)
I0612 01:43:02.106976 2094273280 layer_factory.hpp:74] Creating layer slice_pair
I0612 01:43:02.106987 2094273280 net.cpp:90] Creating Layer slice_pair
I0612 01:43:02.106992 2094273280 net.cpp:410] slice_pair <- pair_data
I0612 01:43:02.106998 2094273280 net.cpp:368] slice_pair -> data
I0612 01:43:02.107008 2094273280 net.cpp:368] slice_pair -> data_p
I0612 01:43:02.107017 2094273280 net.cpp:120] Setting up slice_pair
I0612 01:43:02.107024 2094273280 net.cpp:127] Top shape: 100 1 62 47 (291400)
I0612 01:43:02.107029 2094273280 net.cpp:127] Top shape: 100 1 62 47 (291400)
I0612 01:43:02.107033 2094273280 layer_factory.hpp:74] Creating layer conv1
I0612 01:43:02.107065 2094273280 net.cpp:90] Creating Layer conv1
I0612 01:43:02.107080 2094273280 net.cpp:410] conv1 <- data
I0612 01:43:02.107089 2094273280 net.cpp:368] conv1 -> conv1
I0612 01:43:02.107096 2094273280 net.cpp:120] Setting up conv1
I0612 01:43:02.107553 2094273280 net.cpp:127] Top shape: 100 20 58 43 (4988000)
I0612 01:43:02.107570 2094273280 layer_factory.hpp:74] Creating layer pool1
I0612 01:43:02.107583 2094273280 net.cpp:90] Creating Layer pool1
I0612 01:43:02.107590 2094273280 net.cpp:410] pool1 <- conv1
I0612 01:43:02.107599 2094273280 net.cpp:368] pool1 -> pool1
I0612 01:43:02.107615 2094273280 net.cpp:120] Setting up pool1
I0612 01:43:02.107744 2094273280 net.cpp:127] Top shape: 100 20 29 22 (1276000)
I0612 01:43:02.107753 2094273280 layer_factory.hpp:74] Creating layer conv2
I0612 01:43:02.107763 2094273280 net.cpp:90] Creating Layer conv2
I0612 01:43:02.107766 2094273280 net.cpp:410] conv2 <- pool1
I0612 01:43:02.107772 2094273280 net.cpp:368] conv2 -> conv2
I0612 01:43:02.107779 2094273280 net.cpp:120] Setting up conv2
I0612 01:43:02.108381 2094273280 net.cpp:127] Top shape: 100 50 25 18 (2250000)
I0612 01:43:02.108399 2094273280 layer_factory.hpp:74] Creating layer pool2
I0612 01:43:02.108407 2094273280 net.cpp:90] Creating Layer pool2
I0612 01:43:02.108410 2094273280 net.cpp:410] pool2 <- conv2
I0612 01:43:02.108435 2094273280 net.cpp:368] pool2 -> pool2
I0612 01:43:02.108443 2094273280 net.cpp:120] Setting up pool2
I0612 01:43:02.108590 2094273280 net.cpp:127] Top shape: 100 50 13 9 (585000)
I0612 01:43:02.108609 2094273280 layer_factory.hpp:74] Creating layer ip1
I0612 01:43:02.108618 2094273280 net.cpp:90] Creating Layer ip1
I0612 01:43:02.108623 2094273280 net.cpp:410] ip1 <- pool2
I0612 01:43:02.108631 2094273280 net.cpp:368] ip1 -> ip1
I0612 01:43:02.108639 2094273280 net.cpp:120] Setting up ip1
I0612 01:43:02.129703 2094273280 net.cpp:127] Top shape: 100 500 (50000)
I0612 01:43:02.129745 2094273280 layer_factory.hpp:74] Creating layer relu1
I0612 01:43:02.129755 2094273280 net.cpp:90] Creating Layer relu1
I0612 01:43:02.129760 2094273280 net.cpp:410] relu1 <- ip1
I0612 01:43:02.129767 2094273280 net.cpp:357] relu1 -> ip1 (in-place)
I0612 01:43:02.129775 2094273280 net.cpp:120] Setting up relu1
I0612 01:43:02.129878 2094273280 net.cpp:127] Top shape: 100 500 (50000)
I0612 01:43:02.129885 2094273280 layer_factory.hpp:74] Creating layer ip2
I0612 01:43:02.129916 2094273280 net.cpp:90] Creating Layer ip2
I0612 01:43:02.129950 2094273280 net.cpp:410] ip2 <- ip1
I0612 01:43:02.129966 2094273280 net.cpp:368] ip2 -> ip2
I0612 01:43:02.129974 2094273280 net.cpp:120] Setting up ip2
I0612 01:43:02.130022 2094273280 net.cpp:127] Top shape: 100 10 (1000)
I0612 01:43:02.130028 2094273280 layer_factory.hpp:74] Creating layer feat
I0612 01:43:02.130036 2094273280 net.cpp:90] Creating Layer feat
I0612 01:43:02.130039 2094273280 net.cpp:410] feat <- ip2
I0612 01:43:02.130046 2094273280 net.cpp:368] feat -> feat
I0612 01:43:02.130056 2094273280 net.cpp:120] Setting up feat
I0612 01:43:02.130064 2094273280 net.cpp:127] Top shape: 100 2 (200)
I0612 01:43:02.130071 2094273280 layer_factory.hpp:74] Creating layer conv1_p
I0612 01:43:02.130079 2094273280 net.cpp:90] Creating Layer conv1_p
I0612 01:43:02.130087 2094273280 net.cpp:410] conv1_p <- data_p
I0612 01:43:02.130098 2094273280 net.cpp:368] conv1_p -> conv1_p
I0612 01:43:02.130108 2094273280 net.cpp:120] Setting up conv1_p
I0612 01:43:02.130442 2094273280 net.cpp:127] Top shape: 100 20 58 43 (4988000)
I0612 01:43:02.130455 2094273280 net.cpp:459] Sharing parameters 'conv1_w' owned by layer 'conv1', param index 0
I0612 01:43:02.130462 2094273280 net.cpp:459] Sharing parameters 'conv1_b' owned by layer 'conv1', param index 1
I0612 01:43:02.130467 2094273280 layer_factory.hpp:74] Creating layer pool1_p
I0612 01:43:02.130476 2094273280 net.cpp:90] Creating Layer pool1_p
I0612 01:43:02.130481 2094273280 net.cpp:410] pool1_p <- conv1_p
I0612 01:43:02.130486 2094273280 net.cpp:368] pool1_p -> pool1_p
I0612 01:43:02.130493 2094273280 net.cpp:120] Setting up pool1_p
I0612 01:43:02.130537 2094273280 net.cpp:127] Top shape: 100 20 29 22 (1276000)
I0612 01:43:02.130543 2094273280 layer_factory.hpp:74] Creating layer conv2_p
I0612 01:43:02.130549 2094273280 net.cpp:90] Creating Layer conv2_p
I0612 01:43:02.130553 2094273280 net.cpp:410] conv2_p <- pool1_p
I0612 01:43:02.130560 2094273280 net.cpp:368] conv2_p -> conv2_p
I0612 01:43:02.130568 2094273280 net.cpp:120] Setting up conv2_p
I0612 01:43:02.131047 2094273280 net.cpp:127] Top shape: 100 50 25 18 (2250000)
I0612 01:43:02.131059 2094273280 net.cpp:459] Sharing parameters 'conv2_w' owned by layer 'conv2', param index 0
I0612 01:43:02.131065 2094273280 net.cpp:459] Sharing parameters 'conv2_b' owned by layer 'conv2', param index 1
I0612 01:43:02.131422 2094273280 layer_factory.hpp:74] Creating layer pool2_p
I0612 01:43:02.131436 2094273280 net.cpp:90] Creating Layer pool2_p
I0612 01:43:02.131440 2094273280 net.cpp:410] pool2_p <- conv2_p
I0612 01:43:02.131448 2094273280 net.cpp:368] pool2_p -> pool2_p
I0612 01:43:02.131459 2094273280 net.cpp:120] Setting up pool2_p
I0612 01:43:02.131516 2094273280 net.cpp:127] Top shape: 100 50 13 9 (585000)
I0612 01:43:02.131525 2094273280 layer_factory.hpp:74] Creating layer ip1_p
I0612 01:43:02.131531 2094273280 net.cpp:90] Creating Layer ip1_p
I0612 01:43:02.131536 2094273280 net.cpp:410] ip1_p <- pool2_p
I0612 01:43:02.131595 2094273280 net.cpp:368] ip1_p -> ip1_p
I0612 01:43:02.131616 2094273280 net.cpp:120] Setting up ip1_p
I0612 01:43:02.154937 2094273280 net.cpp:127] Top shape: 100 500 (50000)
I0612 01:43:02.154978 2094273280 net.cpp:459] Sharing parameters 'ip1_w' owned by layer 'ip1', param index 0
I0612 01:43:02.155822 2094273280 net.cpp:459] Sharing parameters 'ip1_b' owned by layer 'ip1', param index 1
I0612 01:43:02.155844 2094273280 layer_factory.hpp:74] Creating layer relu1_p
I0612 01:43:02.155855 2094273280 net.cpp:90] Creating Layer relu1_p
I0612 01:43:02.155860 2094273280 net.cpp:410] relu1_p <- ip1_p
I0612 01:43:02.155866 2094273280 net.cpp:357] relu1_p -> ip1_p (in-place)
I0612 01:43:02.155874 2094273280 net.cpp:120] Setting up relu1_p
I0612 01:43:02.156085 2094273280 net.cpp:127] Top shape: 100 500 (50000)
I0612 01:43:02.156095 2094273280 layer_factory.hpp:74] Creating layer ip2_p
I0612 01:43:02.156106 2094273280 net.cpp:90] Creating Layer ip2_p
I0612 01:43:02.156111 2094273280 net.cpp:410] ip2_p <- ip1_p
I0612 01:43:02.156121 2094273280 net.cpp:368] ip2_p -> ip2_p
I0612 01:43:02.156129 2094273280 net.cpp:120] Setting up ip2_p
I0612 01:43:02.156180 2094273280 net.cpp:127] Top shape: 100 10 (1000)
I0612 01:43:02.156190 2094273280 net.cpp:459] Sharing parameters 'ip2_w' owned by layer 'ip2', param index 0
I0612 01:43:02.156196 2094273280 net.cpp:459] Sharing parameters 'ip2_b' owned by layer 'ip2', param index 1
I0612 01:43:02.156201 2094273280 layer_factory.hpp:74] Creating layer feat_p
I0612 01:43:02.156208 2094273280 net.cpp:90] Creating Layer feat_p
I0612 01:43:02.156211 2094273280 net.cpp:410] feat_p <- ip2_p
I0612 01:43:02.156218 2094273280 net.cpp:368] feat_p -> feat_p
I0612 01:43:02.156224 2094273280 net.cpp:120] Setting up feat_p
I0612 01:43:02.156232 2094273280 net.cpp:127] Top shape: 100 2 (200)
I0612 01:43:02.156239 2094273280 net.cpp:459] Sharing parameters 'feat_w' owned by layer 'feat', param index 0
I0612 01:43:02.156244 2094273280 net.cpp:459] Sharing parameters 'feat_b' owned by layer 'feat', param index 1
I0612 01:43:02.156247 2094273280 layer_factory.hpp:74] Creating layer loss
I0612 01:43:02.156255 2094273280 net.cpp:90] Creating Layer loss
I0612 01:43:02.156260 2094273280 net.cpp:410] loss <- feat
…
