…
I0610 02:09:46.363348 1956823808 solver.cpp:70] Creating training net from net file: src/siamese_network_bw/model/siamese_train_validate.prototxt
I0610 02:09:46.363735 1956823808 net.cpp:287] The NetState phase (0) differed from the phase (1) specified by a rule in layer pair_data
I0610 02:09:46.363768 1956823808 net.cpp:42] Initializing net from parameters: 
name: "siamese_train_validate"
state {
  phase: TRAIN
}
layer {
  name: "pair_data"
  type: "Data"
  top: "pair_data"
  top: "sim"
  include {
    phase: TRAIN
  }
  transform_param {
    scale: 1
  }
  data_param {
    source: "src/siamese_network_bw/data/siamese_network_train_leveldb"
    batch_size: 64
  }
}
layer {
  name: "slice_pair"
  type: "Slice"
  bottom: "pair_data"
  top: "data"
  top: "data_p"
  slice_param {
    slice_dim: 1
    slice_point: 1
  }
}
layer {
  name: "conv1"
  type: "Convolution"
  bottom: "data"
  top: "conv1"
  param {
    name: "conv1_w"
    lr_mult: 1
  }
  param {
    name: "conv1_b"
    lr_mult: 2
  }
  convolution_param {
    num_output: 20
    kernel_size: 5
    stride: 1
    weight_filler {
      type: "xavier"
    }
    bias_filler {
      type: "constant"
    }
  }
}
layer {
  name: "pool1"
  type: "Pooling"
  bottom: "conv1"
  top: "pool1"
  pooling_param {
    pool: MAX
    kernel_size: 2
    stride: 2
  }
}
layer {
  name: "conv2"
  type: "Convolution"
  bottom: "pool1"
  top: "conv2"
  param {
    name: "conv2_w"
    lr_mult: 1
  }
  param {
    name: "conv2_b"
    lr_mult: 2
  }
  convolution_param {
    num_output: 50
    kernel_size: 5
    stride: 1
    weight_filler {
      type: "xavier"
    }
    bias_filler {
      type: "constant"
    }
  }
}
layer {
  name: "pool2"
  type: "Pooling"
  bottom: "conv2"
  top: "pool2"
  pooling_param {
    pool: MAX
    kernel_size: 2
    stride: 2
  }
}
layer {
  name: "ip1"
  type: "InnerProduct"
  bottom: "pool2"
  top: "ip1"
  param {
    name: "ip1_w"
    lr_mult: 1
  }
  param {
    name: "ip1_b"
    lr_mult: 2
  }
  inner_product_param {
    num_output: 500
    weight_filler {
      type: "xavier"
    }
    bias_filler {
      type: "constant"
    }
  }
}
layer {
  name: "relu1"
  type: "ReLU"
  bottom: "ip1"
  top: "ip1"
}
layer {
  name: "ip2"
  type: "InnerProduct"
  bottom: "ip1"
  top: "ip2"
  param {
    name: "ip2_w"
    lr_mult: 1
  }
  param {
    name: "ip2_b"
    lr_mult: 2
  }
  inner_product_param {
    num_output: 10
    weight_filler {
      type: "xavier"
    }
    bias_filler {
      type: "constant"
    }
  }
}
layer {
  name: "feat"
  type: "InnerProduct"
  bottom: "ip2"
  top: "feat"
  param {
    name: "feat_w"
    lr_mult: 1
  }
  param {
    name: "feat_b"
    lr_mult: 2
  }
  inner_product_param {
    num_output: 2
    weight_filler {
      type: "xavier"
    }
    bias_filler {
      type: "constant"
    }
  }
}
layer {
  name: "conv1_p"
  type: "Convolution"
  bottom: "data_p"
  top: "conv1_p"
  param {
    name: "conv1_w"
    lr_mult: 1
  }
  param {
    name: "conv1_b"
    lr_mult: 2
  }
  convolution_param {
    num_output: 20
    kernel_size: 5
    stride: 1
    weight_filler {
      type: "xavier"
    }
    bias_filler {
      type: "constant"
    }
  }
}
layer {
  name: "pool1_p"
  type: "Pooling"
  bottom: "conv1_p"
  top: "pool1_p"
  pooling_param {
    pool: MAX
    kernel_size: 2
    stride: 2
  }
}
layer {
  name: "conv2_p"
  type: "Convolution"
  bottom: "pool1_p"
  top: "conv2_p"
  param {
    name: "conv2_w"
    lr_mult: 1
  }
  param {
    name: "conv2_b"
    lr_mult: 2
  }
  convolution_param {
    num_output: 50
    kernel_size: 5
    stride: 1
    weight_filler {
      type: "xavier"
    }
    bias_filler {
      type: "constant"
    }
  }
}
layer {
  name: "pool2_p"
  type: "Pooling"
  bottom: "conv2_p"
  top: "pool2_p"
  pooling_param {
    pool: MAX
    kernel_size: 2
    stride: 2
  }
}
layer {
  name: "ip1_p"
  type: "InnerProduct"
  bottom: "pool2_p"
  top: "ip1_p"
  param {
    name: "ip1_w"
    lr_mult: 1
  }
  param {
    name: "ip1_b"
    lr_mult: 2
  }
  inner_product_param {
    num_output: 500
    weight_filler {
      type: "xavier"
    }
    bias_filler {
      type: "constant"
    }
  }
}
layer {
  name: "relu1_p"
  type: "ReLU"
  bottom: "ip1_p"
  top: "ip1_p"
}
layer {
  name: "ip2_p"
  type: "InnerProduct"
  bottom: "ip1_p"
  top: "ip2_p"
  param {
    name: "ip2_w"
    lr_mult: 1
  }
  param {
    name: "ip2_b"
    lr_mult: 2
  }
  inner_product_param {
    num_output: 10
    weight_filler {
      type: "xavier"
    }
    bias_filler {
      type: "constant"
    }
  }
}
layer {
  name: "feat_p"
  type: "InnerProduct"
  bottom: "ip2_p"
  top: "feat_p"
  param {
    name: "feat_w"
    lr_mult: 1
  }
  param {
    name: "feat_b"
    lr_mult: 2
  }
  inner_product_param {
    num_output: 2
    weight_filler {
      type: "xavier"
    }
    bias_filler {
      type: "constant"
    }
  }
}
layer {
  name: "loss"
  type: "ContrastiveLoss"
  bottom: "feat"
  bottom: "feat_p"
  bottom: "sim"
  top: "loss"
  contrastive_loss_param {
    margin: 1
  }
}
I0610 02:09:46.364054 1956823808 layer_factory.hpp:74] Creating layer pair_data
I0610 02:09:46.364073 1956823808 net.cpp:90] Creating Layer pair_data
I0610 02:09:46.364078 1956823808 net.cpp:368] pair_data -> pair_data
I0610 02:09:46.364096 1956823808 net.cpp:368] pair_data -> sim
I0610 02:09:46.364104 1956823808 net.cpp:120] Setting up pair_data
I0610 02:09:46.365566 1956823808 db.cpp:20] Opened leveldb src/siamese_network_bw/data/siamese_network_train_leveldb
I0610 02:09:46.365941 1956823808 data_layer.cpp:52] output data size: 64,2,62,47
I0610 02:09:46.366652 1956823808 net.cpp:127] Top shape: 64 2 62 47 (372992)
I0610 02:09:46.366672 1956823808 net.cpp:127] Top shape: 64 (64)
I0610 02:09:46.366704 1956823808 layer_factory.hpp:74] Creating layer slice_pair
I0610 02:09:46.366716 1956823808 net.cpp:90] Creating Layer slice_pair
I0610 02:09:46.366721 1956823808 net.cpp:410] slice_pair <- pair_data
I0610 02:09:46.366727 1956823808 net.cpp:368] slice_pair -> data
I0610 02:09:46.366735 1956823808 net.cpp:368] slice_pair -> data_p
I0610 02:09:46.366741 1956823808 net.cpp:120] Setting up slice_pair
I0610 02:09:46.366751 1956823808 net.cpp:127] Top shape: 64 1 62 47 (186496)
I0610 02:09:46.366756 1956823808 net.cpp:127] Top shape: 64 1 62 47 (186496)
I0610 02:09:46.366765 1956823808 layer_factory.hpp:74] Creating layer conv1
I0610 02:09:46.366775 1956823808 net.cpp:90] Creating Layer conv1
I0610 02:09:46.366777 1956823808 net.cpp:410] conv1 <- data
I0610 02:09:46.366787 1956823808 net.cpp:368] conv1 -> conv1
I0610 02:09:46.366796 1956823808 net.cpp:120] Setting up conv1
I0610 02:09:46.418609 1956823808 net.cpp:127] Top shape: 64 20 58 43 (3192320)
I0610 02:09:46.418651 1956823808 layer_factory.hpp:74] Creating layer pool1
I0610 02:09:46.418673 1956823808 net.cpp:90] Creating Layer pool1
I0610 02:09:46.418678 1956823808 net.cpp:410] pool1 <- conv1
I0610 02:09:46.418684 1956823808 net.cpp:368] pool1 -> pool1
I0610 02:09:46.418692 1956823808 net.cpp:120] Setting up pool1
I0610 02:09:46.418843 1956823808 net.cpp:127] Top shape: 64 20 29 22 (816640)
I0610 02:09:46.418853 1956823808 layer_factory.hpp:74] Creating layer conv2
I0610 02:09:46.418862 1956823808 net.cpp:90] Creating Layer conv2
I0610 02:09:46.418866 1956823808 net.cpp:410] conv2 <- pool1
I0610 02:09:46.418879 1956823808 net.cpp:368] conv2 -> conv2
I0610 02:09:46.418885 1956823808 net.cpp:120] Setting up conv2
I0610 02:09:46.419301 1956823808 net.cpp:127] Top shape: 64 50 25 18 (1440000)
I0610 02:09:46.419316 1956823808 layer_factory.hpp:74] Creating layer pool2
I0610 02:09:46.419322 1956823808 net.cpp:90] Creating Layer pool2
I0610 02:09:46.419325 1956823808 net.cpp:410] pool2 <- conv2
I0610 02:09:46.419358 1956823808 net.cpp:368] pool2 -> pool2
I0610 02:09:46.419365 1956823808 net.cpp:120] Setting up pool2
I0610 02:09:46.419422 1956823808 net.cpp:127] Top shape: 64 50 13 9 (374400)
I0610 02:09:46.419432 1956823808 layer_factory.hpp:74] Creating layer ip1
I0610 02:09:46.419442 1956823808 net.cpp:90] Creating Layer ip1
I0610 02:09:46.419446 1956823808 net.cpp:410] ip1 <- pool2
I0610 02:09:46.419455 1956823808 net.cpp:368] ip1 -> ip1
I0610 02:09:46.419462 1956823808 net.cpp:120] Setting up ip1
I0610 02:09:46.442381 1956823808 net.cpp:127] Top shape: 64 500 (32000)
I0610 02:09:46.442425 1956823808 layer_factory.hpp:74] Creating layer relu1
I0610 02:09:46.442534 1956823808 net.cpp:90] Creating Layer relu1
I0610 02:09:46.442545 1956823808 net.cpp:410] relu1 <- ip1
I0610 02:09:46.442553 1956823808 net.cpp:357] relu1 -> ip1 (in-place)
I0610 02:09:46.442560 1956823808 net.cpp:120] Setting up relu1
I0610 02:09:46.442658 1956823808 net.cpp:127] Top shape: 64 500 (32000)
I0610 02:09:46.442667 1956823808 layer_factory.hpp:74] Creating layer ip2
I0610 02:09:46.442678 1956823808 net.cpp:90] Creating Layer ip2
I0610 02:09:46.442682 1956823808 net.cpp:410] ip2 <- ip1
I0610 02:09:46.442688 1956823808 net.cpp:368] ip2 -> ip2
I0610 02:09:46.442697 1956823808 net.cpp:120] Setting up ip2
I0610 02:09:46.442749 1956823808 net.cpp:127] Top shape: 64 10 (640)
I0610 02:09:46.442754 1956823808 layer_factory.hpp:74] Creating layer feat
I0610 02:09:46.442764 1956823808 net.cpp:90] Creating Layer feat
I0610 02:09:46.442766 1956823808 net.cpp:410] feat <- ip2
I0610 02:09:46.442772 1956823808 net.cpp:368] feat -> feat
I0610 02:09:46.442778 1956823808 net.cpp:120] Setting up feat
I0610 02:09:46.442802 1956823808 net.cpp:127] Top shape: 64 2 (128)
I0610 02:09:46.442821 1956823808 layer_factory.hpp:74] Creating layer conv1_p
I0610 02:09:46.442838 1956823808 net.cpp:90] Creating Layer conv1_p
I0610 02:09:46.442843 1956823808 net.cpp:410] conv1_p <- data_p
I0610 02:09:46.442854 1956823808 net.cpp:368] conv1_p -> conv1_p
I0610 02:09:46.442862 1956823808 net.cpp:120] Setting up conv1_p
I0610 02:09:46.443159 1956823808 net.cpp:127] Top shape: 64 20 58 43 (3192320)
I0610 02:09:46.443171 1956823808 net.cpp:459] Sharing parameters 'conv1_w' owned by layer 'conv1', param index 0
I0610 02:09:46.443183 1956823808 net.cpp:459] Sharing parameters 'conv1_b' owned by layer 'conv1', param index 1
I0610 02:09:46.443188 1956823808 layer_factory.hpp:74] Creating layer pool1_p
I0610 02:09:46.443195 1956823808 net.cpp:90] Creating Layer pool1_p
I0610 02:09:46.443199 1956823808 net.cpp:410] pool1_p <- conv1_p
I0610 02:09:46.443204 1956823808 net.cpp:368] pool1_p -> pool1_p
I0610 02:09:46.443210 1956823808 net.cpp:120] Setting up pool1_p
I0610 02:09:46.443310 1956823808 net.cpp:127] Top shape: 64 20 29 22 (816640)
I0610 02:09:46.443318 1956823808 layer_factory.hpp:74] Creating layer conv2_p
I0610 02:09:46.443325 1956823808 net.cpp:90] Creating Layer conv2_p
I0610 02:09:46.443330 1956823808 net.cpp:410] conv2_p <- pool1_p
I0610 02:09:46.443337 1956823808 net.cpp:368] conv2_p -> conv2_p
I0610 02:09:46.443344 1956823808 net.cpp:120] Setting up conv2_p
I0610 02:09:46.443747 1956823808 net.cpp:127] Top shape: 64 50 25 18 (1440000)
I0610 02:09:46.443756 1956823808 net.cpp:459] Sharing parameters 'conv2_w' owned by layer 'conv2', param index 0
I0610 02:09:46.443763 1956823808 net.cpp:459] Sharing parameters 'conv2_b' owned by layer 'conv2', param index 1
I0610 02:09:46.443768 1956823808 layer_factory.hpp:74] Creating layer pool2_p
I0610 02:09:46.443773 1956823808 net.cpp:90] Creating Layer pool2_p
I0610 02:09:46.443776 1956823808 net.cpp:410] pool2_p <- conv2_p
I0610 02:09:46.443781 1956823808 net.cpp:368] pool2_p -> pool2_p
I0610 02:09:46.443788 1956823808 net.cpp:120] Setting up pool2_p
I0610 02:09:46.443830 1956823808 net.cpp:127] Top shape: 64 50 13 9 (374400)
I0610 02:09:46.443835 1956823808 layer_factory.hpp:74] Creating layer ip1_p
I0610 02:09:46.443843 1956823808 net.cpp:90] Creating Layer ip1_p
I0610 02:09:46.443847 1956823808 net.cpp:410] ip1_p <- pool2_p
I0610 02:09:46.443879 1956823808 net.cpp:368] ip1_p -> ip1_p
I0610 02:09:46.443886 1956823808 net.cpp:120] Setting up ip1_p
I0610 02:09:46.468214 1956823808 net.cpp:127] Top shape: 64 500 (32000)
I0610 02:09:46.468245 1956823808 net.cpp:459] Sharing parameters 'ip1_w' owned by layer 'ip1', param index 0
I0610 02:09:46.469521 1956823808 net.cpp:459] Sharing parameters 'ip1_b' owned by layer 'ip1', param index 1
I0610 02:09:46.469543 1956823808 layer_factory.hpp:74] Creating layer relu1_p
I0610 02:09:46.469581 1956823808 net.cpp:90] Creating Layer relu1_p
I0610 02:09:46.469599 1956823808 net.cpp:410] relu1_p <- ip1_p
I0610 02:09:46.469609 1956823808 net.cpp:357] relu1_p -> ip1_p (in-place)
I0610 02:09:46.469630 1956823808 net.cpp:120] Setting up relu1_p
I0610 02:09:46.469719 1956823808 net.cpp:127] Top shape: 64 500 (32000)
I0610 02:09:46.469728 1956823808 layer_factory.hpp:74] Creating layer ip2_p
I0610 02:09:46.469741 1956823808 net.cpp:90] Creating Layer ip2_p
I0610 02:09:46.469749 1956823808 net.cpp:410] ip2_p <- ip1_p
I0610 02:09:46.469781 1956823808 net.cpp:368] ip2_p -> ip2_p
I0610 02:09:46.469802 1956823808 net.cpp:120] Setting up ip2_p
I0610 02:09:46.469895 1956823808 net.cpp:127] Top shape: 64 10 (640)
I0610 02:09:46.469916 1956823808 net.cpp:459] Sharing parameters 'ip2_w' owned by layer 'ip2', param index 0
I0610 02:09:46.469925 1956823808 net.cpp:459] Sharing parameters 'ip2_b' owned by layer 'ip2', param index 1
I0610 02:09:46.469930 1956823808 layer_factory.hpp:74] Creating layer feat_p
I0610 02:09:46.469964 1956823808 net.cpp:90] Creating Layer feat_p
I0610 02:09:46.469970 1956823808 net.cpp:410] feat_p <- ip2_p
I0610 02:09:46.469980 1956823808 net.cpp:368] feat_p -> feat_p
I0610 02:09:46.469991 1956823808 net.cpp:120] Setting up feat_p
I0610 02:09:46.470007 1956823808 net.cpp:127] Top shape: 64 2 (128)
I0610 02:09:46.470026 1956823808 net.cpp:459] Sharing parameters 'feat_w' owned by layer 'feat', param index 0
I0610 02:09:46.470034 1956823808 net.cpp:459] Sharing parameters 'feat_b' owned by layer 'feat', param index 1
I0610 02:09:46.470039 1956823808 layer_factory.hpp:74] Creating layer loss
I0610 02:09:46.470051 1956823808 net.cpp:90] Creating Layer loss
I0610 02:09:46.470054 1956823808 net.cpp:410] loss <- feat
…
I0610 02:09:46.470796 1956823808 solver.cpp:154] Creating test net (#0) specified by net file: src/siamese_network_bw/model/siamese_train_validate.prototxt
I0610 02:09:46.470902 1956823808 net.cpp:287] The NetState phase (1) differed from the phase (0) specified by a rule in layer pair_data
I0610 02:09:46.470944 1956823808 net.cpp:42] Initializing net from parameters: 
name: "siamese_train_validate"
state {
  phase: TEST
}
layer {
  name: "pair_data"
  type: "Data"
  top: "pair_data"
  top: "sim"
  include {
    phase: TEST
  }
  transform_param {
    scale: 1
  }
  data_param {
    source: "src/siamese_network_bw/data/siamese_network_validation_leveldb"
    batch_size: 100
  }
}
layer {
  name: "slice_pair"
  type: "Slice"
  bottom: "pair_data"
  top: "data"
  top: "data_p"
  slice_param {
    slice_dim: 1
    slice_point: 1
  }
}
layer {
  name: "conv1"
  type: "Convolution"
  bottom: "data"
  top: "conv1"
  param {
    name: "conv1_w"
    lr_mult: 1
  }
  param {
    name: "conv1_b"
    lr_mult: 2
  }
  convolution_param {
    num_output: 20
    kernel_size: 5
    stride: 1
    weight_filler {
      type: "xavier"
    }
    bias_filler {
      type: "constant"
    }
  }
}
layer {
  name: "pool1"
  type: "Pooling"
  bottom: "conv1"
  top: "pool1"
  pooling_param {
    pool: MAX
    kernel_size: 2
    stride: 2
  }
}
layer {
  name: "conv2"
  type: "Convolution"
  bottom: "pool1"
  top: "conv2"
  param {
    name: "conv2_w"
    lr_mult: 1
  }
  param {
    name: "conv2_b"
    lr_mult: 2
  }
  convolution_param {
    num_output: 50
    kernel_size: 5
    stride: 1
    weight_filler {
      type: "xavier"
    }
    bias_filler {
      type: "constant"
    }
  }
}
layer {
  name: "pool2"
  type: "Pooling"
  bottom: "conv2"
  top: "pool2"
  pooling_param {
    pool: MAX
    kernel_size: 2
    stride: 2
  }
}
layer {
  name: "ip1"
  type: "InnerProduct"
  bottom: "pool2"
  top: "ip1"
  param {
    name: "ip1_w"
    lr_mult: 1
  }
  param {
    name: "ip1_b"
    lr_mult: 2
  }
  inner_product_param {
    num_output: 500
    weight_filler {
      type: "xavier"
    }
    bias_filler {
      type: "constant"
    }
  }
}
layer {
  name: "relu1"
  type: "ReLU"
  bottom: "ip1"
  top: "ip1"
}
layer {
  name: "ip2"
  type: "InnerProduct"
  bottom: "ip1"
  top: "ip2"
  param {
    name: "ip2_w"
    lr_mult: 1
  }
  param {
    name: "ip2_b"
    lr_mult: 2
  }
  inner_product_param {
    num_output: 10
    weight_filler {
      type: "xavier"
    }
    bias_filler {
      type: "constant"
    }
  }
}
layer {
  name: "feat"
  type: "InnerProduct"
  bottom: "ip2"
  top: "feat"
  param {
    name: "feat_w"
    lr_mult: 1
  }
  param {
    name: "feat_b"
    lr_mult: 2
  }
  inner_product_param {
    num_output: 2
    weight_filler {
      type: "xavier"
    }
    bias_filler {
      type: "constant"
    }
  }
}
layer {
  name: "conv1_p"
  type: "Convolution"
  bottom: "data_p"
  top: "conv1_p"
  param {
    name: "conv1_w"
    lr_mult: 1
  }
  param {
    name: "conv1_b"
    lr_mult: 2
  }
  convolution_param {
    num_output: 20
    kernel_size: 5
    stride: 1
    weight_filler {
      type: "xavier"
    }
    bias_filler {
      type: "constant"
    }
  }
}
layer {
  name: "pool1_p"
  type: "Pooling"
  bottom: "conv1_p"
  top: "pool1_p"
  pooling_param {
    pool: MAX
    kernel_size: 2
    stride: 2
  }
}
layer {
  name: "conv2_p"
  type: "Convolution"
  bottom: "pool1_p"
  top: "conv2_p"
  param {
    name: "conv2_w"
    lr_mult: 1
  }
  param {
    name: "conv2_b"
    lr_mult: 2
  }
  convolution_param {
    num_output: 50
    kernel_size: 5
    stride: 1
    weight_filler {
      type: "xavier"
    }
    bias_filler {
      type: "constant"
    }
  }
}
layer {
  name: "pool2_p"
  type: "Pooling"
  bottom: "conv2_p"
  top: "pool2_p"
  pooling_param {
    pool: MAX
    kernel_size: 2
    stride: 2
  }
}
layer {
  name: "ip1_p"
  type: "InnerProduct"
  bottom: "pool2_p"
  top: "ip1_p"
  param {
    name: "ip1_w"
    lr_mult: 1
  }
  param {
    name: "ip1_b"
    lr_mult: 2
  }
  inner_product_param {
    num_output: 500
    weight_filler {
      type: "xavier"
    }
    bias_filler {
      type: "constant"
    }
  }
}
layer {
  name: "relu1_p"
  type: "ReLU"
  bottom: "ip1_p"
  top: "ip1_p"
}
layer {
  name: "ip2_p"
  type: "InnerProduct"
  bottom: "ip1_p"
  top: "ip2_p"
  param {
    name: "ip2_w"
    lr_mult: 1
  }
  param {
    name: "ip2_b"
    lr_mult: 2
  }
  inner_product_param {
    num_output: 10
    weight_filler {
      type: "xavier"
    }
    bias_filler {
      type: "constant"
    }
  }
}
layer {
  name: "feat_p"
  type: "InnerProduct"
  bottom: "ip2_p"
  top: "feat_p"
  param {
    name: "feat_w"
    lr_mult: 1
  }
  param {
    name: "feat_b"
    lr_mult: 2
  }
  inner_product_param {
    num_output: 2
    weight_filler {
      type: "xavier"
    }
    bias_filler {
      type: "constant"
    }
  }
}
layer {
  name: "loss"
  type: "ContrastiveLoss"
  bottom: "feat"
  bottom: "feat_p"
  bottom: "sim"
  top: "loss"
  contrastive_loss_param {
    margin: 1
  }
}
I0610 02:09:46.471451 1956823808 layer_factory.hpp:74] Creating layer pair_data
I0610 02:09:46.471469 1956823808 net.cpp:90] Creating Layer pair_data
I0610 02:09:46.471477 1956823808 net.cpp:368] pair_data -> pair_data
I0610 02:09:46.471489 1956823808 net.cpp:368] pair_data -> sim
I0610 02:09:46.471518 1956823808 net.cpp:120] Setting up pair_data
I0610 02:09:46.473096 1956823808 db.cpp:20] Opened leveldb src/siamese_network_bw/data/siamese_network_validation_leveldb
I0610 02:09:46.473366 1956823808 data_layer.cpp:52] output data size: 100,2,62,47
I0610 02:09:46.474697 1956823808 net.cpp:127] Top shape: 100 2 62 47 (582800)
I0610 02:09:46.474717 1956823808 net.cpp:127] Top shape: 100 (100)
I0610 02:09:46.474726 1956823808 layer_factory.hpp:74] Creating layer slice_pair
I0610 02:09:46.474740 1956823808 net.cpp:90] Creating Layer slice_pair
I0610 02:09:46.474746 1956823808 net.cpp:410] slice_pair <- pair_data
I0610 02:09:46.474756 1956823808 net.cpp:368] slice_pair -> data
I0610 02:09:46.474771 1956823808 net.cpp:368] slice_pair -> data_p
I0610 02:09:46.474781 1956823808 net.cpp:120] Setting up slice_pair
I0610 02:09:46.474838 1956823808 net.cpp:127] Top shape: 100 1 62 47 (291400)
I0610 02:09:46.474856 1956823808 net.cpp:127] Top shape: 100 1 62 47 (291400)
I0610 02:09:46.474866 1956823808 layer_factory.hpp:74] Creating layer conv1
I0610 02:09:46.474880 1956823808 net.cpp:90] Creating Layer conv1
I0610 02:09:46.474900 1956823808 net.cpp:410] conv1 <- data
I0610 02:09:46.474913 1956823808 net.cpp:368] conv1 -> conv1
I0610 02:09:46.474943 1956823808 net.cpp:120] Setting up conv1
I0610 02:09:46.475322 1956823808 net.cpp:127] Top shape: 100 20 58 43 (4988000)
I0610 02:09:46.475340 1956823808 layer_factory.hpp:74] Creating layer pool1
I0610 02:09:46.475353 1956823808 net.cpp:90] Creating Layer pool1
I0610 02:09:46.475358 1956823808 net.cpp:410] pool1 <- conv1
I0610 02:09:46.475366 1956823808 net.cpp:368] pool1 -> pool1
I0610 02:09:46.475376 1956823808 net.cpp:120] Setting up pool1
I0610 02:09:46.475456 1956823808 net.cpp:127] Top shape: 100 20 29 22 (1276000)
I0610 02:09:46.475472 1956823808 layer_factory.hpp:74] Creating layer conv2
I0610 02:09:46.475492 1956823808 net.cpp:90] Creating Layer conv2
I0610 02:09:46.475498 1956823808 net.cpp:410] conv2 <- pool1
I0610 02:09:46.475509 1956823808 net.cpp:368] conv2 -> conv2
I0610 02:09:46.475560 1956823808 net.cpp:120] Setting up conv2
I0610 02:09:46.476343 1956823808 net.cpp:127] Top shape: 100 50 25 18 (2250000)
I0610 02:09:46.476363 1956823808 layer_factory.hpp:74] Creating layer pool2
I0610 02:09:46.476375 1956823808 net.cpp:90] Creating Layer pool2
I0610 02:09:46.476384 1956823808 net.cpp:410] pool2 <- conv2
I0610 02:09:46.476392 1956823808 net.cpp:368] pool2 -> pool2
I0610 02:09:46.476418 1956823808 net.cpp:120] Setting up pool2
I0610 02:09:46.476570 1956823808 net.cpp:127] Top shape: 100 50 13 9 (585000)
I0610 02:09:46.476591 1956823808 layer_factory.hpp:74] Creating layer ip1
I0610 02:09:46.476604 1956823808 net.cpp:90] Creating Layer ip1
I0610 02:09:46.476611 1956823808 net.cpp:410] ip1 <- pool2
I0610 02:09:46.476621 1956823808 net.cpp:368] ip1 -> ip1
I0610 02:09:46.476639 1956823808 net.cpp:120] Setting up ip1
I0610 02:09:46.499136 1956823808 net.cpp:127] Top shape: 100 500 (50000)
I0610 02:09:46.499168 1956823808 layer_factory.hpp:74] Creating layer relu1
I0610 02:09:46.499178 1956823808 net.cpp:90] Creating Layer relu1
I0610 02:09:46.499182 1956823808 net.cpp:410] relu1 <- ip1
I0610 02:09:46.499188 1956823808 net.cpp:357] relu1 -> ip1 (in-place)
I0610 02:09:46.499264 1956823808 net.cpp:120] Setting up relu1
I0610 02:09:46.499366 1956823808 net.cpp:127] Top shape: 100 500 (50000)
I0610 02:09:46.499378 1956823808 layer_factory.hpp:74] Creating layer ip2
I0610 02:09:46.499394 1956823808 net.cpp:90] Creating Layer ip2
I0610 02:09:46.499402 1956823808 net.cpp:410] ip2 <- ip1
I0610 02:09:46.499411 1956823808 net.cpp:368] ip2 -> ip2
I0610 02:09:46.499423 1956823808 net.cpp:120] Setting up ip2
I0610 02:09:46.499502 1956823808 net.cpp:127] Top shape: 100 10 (1000)
I0610 02:09:46.499538 1956823808 layer_factory.hpp:74] Creating layer feat
I0610 02:09:46.499562 1956823808 net.cpp:90] Creating Layer feat
I0610 02:09:46.499572 1956823808 net.cpp:410] feat <- ip2
I0610 02:09:46.499583 1956823808 net.cpp:368] feat -> feat
I0610 02:09:46.499618 1956823808 net.cpp:120] Setting up feat
I0610 02:09:46.499653 1956823808 net.cpp:127] Top shape: 100 2 (200)
I0610 02:09:46.499667 1956823808 layer_factory.hpp:74] Creating layer conv1_p
I0610 02:09:46.499692 1956823808 net.cpp:90] Creating Layer conv1_p
I0610 02:09:46.499732 1956823808 net.cpp:410] conv1_p <- data_p
I0610 02:09:46.499758 1956823808 net.cpp:368] conv1_p -> conv1_p
I0610 02:09:46.499785 1956823808 net.cpp:120] Setting up conv1_p
I0610 02:09:46.500155 1956823808 net.cpp:127] Top shape: 100 20 58 43 (4988000)
I0610 02:09:46.500169 1956823808 net.cpp:459] Sharing parameters 'conv1_w' owned by layer 'conv1', param index 0
I0610 02:09:46.500174 1956823808 net.cpp:459] Sharing parameters 'conv1_b' owned by layer 'conv1', param index 1
I0610 02:09:46.500180 1956823808 layer_factory.hpp:74] Creating layer pool1_p
I0610 02:09:46.500186 1956823808 net.cpp:90] Creating Layer pool1_p
I0610 02:09:46.500190 1956823808 net.cpp:410] pool1_p <- conv1_p
I0610 02:09:46.500195 1956823808 net.cpp:368] pool1_p -> pool1_p
I0610 02:09:46.500201 1956823808 net.cpp:120] Setting up pool1_p
I0610 02:09:46.500246 1956823808 net.cpp:127] Top shape: 100 20 29 22 (1276000)
I0610 02:09:46.500252 1956823808 layer_factory.hpp:74] Creating layer conv2_p
I0610 02:09:46.500259 1956823808 net.cpp:90] Creating Layer conv2_p
I0610 02:09:46.500263 1956823808 net.cpp:410] conv2_p <- pool1_p
I0610 02:09:46.500268 1956823808 net.cpp:368] conv2_p -> conv2_p
I0610 02:09:46.500275 1956823808 net.cpp:120] Setting up conv2_p
I0610 02:09:46.500725 1956823808 net.cpp:127] Top shape: 100 50 25 18 (2250000)
I0610 02:09:46.500736 1956823808 net.cpp:459] Sharing parameters 'conv2_w' owned by layer 'conv2', param index 0
I0610 02:09:46.500756 1956823808 net.cpp:459] Sharing parameters 'conv2_b' owned by layer 'conv2', param index 1
I0610 02:09:46.500769 1956823808 layer_factory.hpp:74] Creating layer pool2_p
I0610 02:09:46.500777 1956823808 net.cpp:90] Creating Layer pool2_p
I0610 02:09:46.500782 1956823808 net.cpp:410] pool2_p <- conv2_p
I0610 02:09:46.500787 1956823808 net.cpp:368] pool2_p -> pool2_p
I0610 02:09:46.500797 1956823808 net.cpp:120] Setting up pool2_p
I0610 02:09:46.500854 1956823808 net.cpp:127] Top shape: 100 50 13 9 (585000)
I0610 02:09:46.500861 1956823808 layer_factory.hpp:74] Creating layer ip1_p
I0610 02:09:46.500869 1956823808 net.cpp:90] Creating Layer ip1_p
I0610 02:09:46.500872 1956823808 net.cpp:410] ip1_p <- pool2_p
I0610 02:09:46.500879 1956823808 net.cpp:368] ip1_p -> ip1_p
I0610 02:09:46.500908 1956823808 net.cpp:120] Setting up ip1_p
I0610 02:09:46.524936 1956823808 net.cpp:127] Top shape: 100 500 (50000)
I0610 02:09:46.524966 1956823808 net.cpp:459] Sharing parameters 'ip1_w' owned by layer 'ip1', param index 0
I0610 02:09:46.526084 1956823808 net.cpp:459] Sharing parameters 'ip1_b' owned by layer 'ip1', param index 1
I0610 02:09:46.526094 1956823808 layer_factory.hpp:74] Creating layer relu1_p
I0610 02:09:46.526106 1956823808 net.cpp:90] Creating Layer relu1_p
I0610 02:09:46.526111 1956823808 net.cpp:410] relu1_p <- ip1_p
I0610 02:09:46.526126 1956823808 net.cpp:357] relu1_p -> ip1_p (in-place)
I0610 02:09:46.526134 1956823808 net.cpp:120] Setting up relu1_p
I0610 02:09:46.526334 1956823808 net.cpp:127] Top shape: 100 500 (50000)
I0610 02:09:46.526343 1956823808 layer_factory.hpp:74] Creating layer ip2_p
I0610 02:09:46.526360 1956823808 net.cpp:90] Creating Layer ip2_p
I0610 02:09:46.526381 1956823808 net.cpp:410] ip2_p <- ip1_p
I0610 02:09:46.526398 1956823808 net.cpp:368] ip2_p -> ip2_p
I0610 02:09:46.526414 1956823808 net.cpp:120] Setting up ip2_p
I0610 02:09:46.526465 1956823808 net.cpp:127] Top shape: 100 10 (1000)
I0610 02:09:46.526474 1956823808 net.cpp:459] Sharing parameters 'ip2_w' owned by layer 'ip2', param index 0
I0610 02:09:46.526480 1956823808 net.cpp:459] Sharing parameters 'ip2_b' owned by layer 'ip2', param index 1
I0610 02:09:46.526485 1956823808 layer_factory.hpp:74] Creating layer feat_p
I0610 02:09:46.526494 1956823808 net.cpp:90] Creating Layer feat_p
I0610 02:09:46.526497 1956823808 net.cpp:410] feat_p <- ip2_p
I0610 02:09:46.526505 1956823808 net.cpp:368] feat_p -> feat_p
I0610 02:09:46.526511 1956823808 net.cpp:120] Setting up feat_p
I0610 02:09:46.526520 1956823808 net.cpp:127] Top shape: 100 2 (200)
I0610 02:09:46.526525 1956823808 net.cpp:459] Sharing parameters 'feat_w' owned by layer 'feat', param index 0
I0610 02:09:46.526530 1956823808 net.cpp:459] Sharing parameters 'feat_b' owned by layer 'feat', param index 1
I0610 02:09:46.526535 1956823808 layer_factory.hpp:74] Creating layer loss
I0610 02:09:46.526563 1956823808 net.cpp:90] Creating Layer loss
I0610 02:09:46.526573 1956823808 net.cpp:410] loss <- feat
…
