…
I0610 12:25:53.713413 2094273280 solver.cpp:70] Creating training net from net file: src/siamese_network_bw/model/siamese_train_validate.prototxt
I0610 12:25:53.713733 2094273280 net.cpp:287] The NetState phase (0) differed from the phase (1) specified by a rule in layer pair_data
I0610 12:25:53.713775 2094273280 net.cpp:42] Initializing net from parameters: 
name: "siamese_train_validate"
state {
  phase: TRAIN
}
layer {
  name: "pair_data"
  type: "Data"
  top: "pair_data"
  top: "sim"
  include {
    phase: TRAIN
  }
  transform_param {
    scale: 1
  }
  data_param {
    source: "src/siamese_network_bw/data/siamese_network_train_leveldb"
    batch_size: 64
  }
}
layer {
  name: "slice_pair"
  type: "Slice"
  bottom: "pair_data"
  top: "data"
  top: "data_p"
  slice_param {
    slice_dim: 1
    slice_point: 1
  }
}
layer {
  name: "conv1"
  type: "Convolution"
  bottom: "data"
  top: "conv1"
  param {
    name: "conv1_w"
    lr_mult: 1
  }
  param {
    name: "conv1_b"
    lr_mult: 2
  }
  convolution_param {
    num_output: 20
    kernel_size: 5
    stride: 1
    weight_filler {
      type: "xavier"
    }
    bias_filler {
      type: "constant"
    }
  }
}
layer {
  name: "pool1"
  type: "Pooling"
  bottom: "conv1"
  top: "pool1"
  pooling_param {
    pool: MAX
    kernel_size: 2
    stride: 2
  }
}
layer {
  name: "conv2"
  type: "Convolution"
  bottom: "pool1"
  top: "conv2"
  param {
    name: "conv2_w"
    lr_mult: 1
  }
  param {
    name: "conv2_b"
    lr_mult: 2
  }
  convolution_param {
    num_output: 50
    kernel_size: 5
    stride: 1
    weight_filler {
      type: "xavier"
    }
    bias_filler {
      type: "constant"
    }
  }
}
layer {
  name: "pool2"
  type: "Pooling"
  bottom: "conv2"
  top: "pool2"
  pooling_param {
    pool: MAX
    kernel_size: 2
    stride: 2
  }
}
layer {
  name: "ip1"
  type: "InnerProduct"
  bottom: "pool2"
  top: "ip1"
  param {
    name: "ip1_w"
    lr_mult: 1
  }
  param {
    name: "ip1_b"
    lr_mult: 2
  }
  inner_product_param {
    num_output: 500
    weight_filler {
      type: "xavier"
    }
    bias_filler {
      type: "constant"
    }
  }
}
layer {
  name: "relu1"
  type: "ReLU"
  bottom: "ip1"
  top: "ip1"
}
layer {
  name: "ip2"
  type: "InnerProduct"
  bottom: "ip1"
  top: "ip2"
  param {
    name: "ip2_w"
    lr_mult: 1
  }
  param {
    name: "ip2_b"
    lr_mult: 2
  }
  inner_product_param {
    num_output: 10
    weight_filler {
      type: "xavier"
    }
    bias_filler {
      type: "constant"
    }
  }
}
layer {
  name: "feat"
  type: "InnerProduct"
  bottom: "ip2"
  top: "feat"
  param {
    name: "feat_w"
    lr_mult: 1
  }
  param {
    name: "feat_b"
    lr_mult: 2
  }
  inner_product_param {
    num_output: 2
    weight_filler {
      type: "xavier"
    }
    bias_filler {
      type: "constant"
    }
  }
}
layer {
  name: "conv1_p"
  type: "Convolution"
  bottom: "data_p"
  top: "conv1_p"
  param {
    name: "conv1_w"
    lr_mult: 1
  }
  param {
    name: "conv1_b"
    lr_mult: 2
  }
  convolution_param {
    num_output: 20
    kernel_size: 5
    stride: 1
    weight_filler {
      type: "xavier"
    }
    bias_filler {
      type: "constant"
    }
  }
}
layer {
  name: "pool1_p"
  type: "Pooling"
  bottom: "conv1_p"
  top: "pool1_p"
  pooling_param {
    pool: MAX
    kernel_size: 2
    stride: 2
  }
}
layer {
  name: "conv2_p"
  type: "Convolution"
  bottom: "pool1_p"
  top: "conv2_p"
  param {
    name: "conv2_w"
    lr_mult: 1
  }
  param {
    name: "conv2_b"
    lr_mult: 2
  }
  convolution_param {
    num_output: 50
    kernel_size: 5
    stride: 1
    weight_filler {
      type: "xavier"
    }
    bias_filler {
      type: "constant"
    }
  }
}
layer {
  name: "pool2_p"
  type: "Pooling"
  bottom: "conv2_p"
  top: "pool2_p"
  pooling_param {
    pool: MAX
    kernel_size: 2
    stride: 2
  }
}
layer {
  name: "ip1_p"
  type: "InnerProduct"
  bottom: "pool2_p"
  top: "ip1_p"
  param {
    name: "ip1_w"
    lr_mult: 1
  }
  param {
    name: "ip1_b"
    lr_mult: 2
  }
  inner_product_param {
    num_output: 500
    weight_filler {
      type: "xavier"
    }
    bias_filler {
      type: "constant"
    }
  }
}
layer {
  name: "relu1_p"
  type: "ReLU"
  bottom: "ip1_p"
  top: "ip1_p"
}
layer {
  name: "ip2_p"
  type: "InnerProduct"
  bottom: "ip1_p"
  top: "ip2_p"
  param {
    name: "ip2_w"
    lr_mult: 1
  }
  param {
    name: "ip2_b"
    lr_mult: 2
  }
  inner_product_param {
    num_output: 10
    weight_filler {
      type: "xavier"
    }
    bias_filler {
      type: "constant"
    }
  }
}
layer {
  name: "feat_p"
  type: "InnerProduct"
  bottom: "ip2_p"
  top: "feat_p"
  param {
    name: "feat_w"
    lr_mult: 1
  }
  param {
    name: "feat_b"
    lr_mult: 2
  }
  inner_product_param {
    num_output: 2
    weight_filler {
      type: "xavier"
    }
    bias_filler {
      type: "constant"
    }
  }
}
layer {
  name: "loss"
  type: "ContrastiveLoss"
  bottom: "feat"
  bottom: "feat_p"
  bottom: "sim"
  top: "loss"
  contrastive_loss_param {
    margin: 1
  }
}
I0610 12:25:53.714077 2094273280 layer_factory.hpp:74] Creating layer pair_data
I0610 12:25:53.714094 2094273280 net.cpp:90] Creating Layer pair_data
I0610 12:25:53.714102 2094273280 net.cpp:368] pair_data -> pair_data
I0610 12:25:53.714118 2094273280 net.cpp:368] pair_data -> sim
I0610 12:25:53.714125 2094273280 net.cpp:120] Setting up pair_data
I0610 12:25:53.715986 2094273280 db.cpp:20] Opened leveldb src/siamese_network_bw/data/siamese_network_train_leveldb
I0610 12:25:53.716311 2094273280 data_layer.cpp:52] output data size: 64,2,62,47
I0610 12:25:53.716966 2094273280 net.cpp:127] Top shape: 64 2 62 47 (372992)
I0610 12:25:53.716984 2094273280 net.cpp:127] Top shape: 64 (64)
I0610 12:25:53.716990 2094273280 layer_factory.hpp:74] Creating layer slice_pair
I0610 12:25:53.717000 2094273280 net.cpp:90] Creating Layer slice_pair
I0610 12:25:53.717010 2094273280 net.cpp:410] slice_pair <- pair_data
I0610 12:25:53.717018 2094273280 net.cpp:368] slice_pair -> data
I0610 12:25:53.717028 2094273280 net.cpp:368] slice_pair -> data_p
I0610 12:25:53.717038 2094273280 net.cpp:120] Setting up slice_pair
I0610 12:25:53.717051 2094273280 net.cpp:127] Top shape: 64 1 62 47 (186496)
I0610 12:25:53.717056 2094273280 net.cpp:127] Top shape: 64 1 62 47 (186496)
I0610 12:25:53.717061 2094273280 layer_factory.hpp:74] Creating layer conv1
I0610 12:25:53.717067 2094273280 net.cpp:90] Creating Layer conv1
I0610 12:25:53.717072 2094273280 net.cpp:410] conv1 <- data
I0610 12:25:53.717080 2094273280 net.cpp:368] conv1 -> conv1
I0610 12:25:53.717093 2094273280 net.cpp:120] Setting up conv1
I0610 12:25:53.770131 2094273280 net.cpp:127] Top shape: 64 20 58 43 (3192320)
I0610 12:25:53.770162 2094273280 layer_factory.hpp:74] Creating layer pool1
I0610 12:25:53.770174 2094273280 net.cpp:90] Creating Layer pool1
I0610 12:25:53.770179 2094273280 net.cpp:410] pool1 <- conv1
I0610 12:25:53.770185 2094273280 net.cpp:368] pool1 -> pool1
I0610 12:25:53.770192 2094273280 net.cpp:120] Setting up pool1
I0610 12:25:53.770321 2094273280 net.cpp:127] Top shape: 64 20 29 22 (816640)
I0610 12:25:53.770331 2094273280 layer_factory.hpp:74] Creating layer conv2
I0610 12:25:53.770340 2094273280 net.cpp:90] Creating Layer conv2
I0610 12:25:53.770345 2094273280 net.cpp:410] conv2 <- pool1
I0610 12:25:53.770351 2094273280 net.cpp:368] conv2 -> conv2
I0610 12:25:53.770359 2094273280 net.cpp:120] Setting up conv2
I0610 12:25:53.770791 2094273280 net.cpp:127] Top shape: 64 50 25 18 (1440000)
I0610 12:25:53.770803 2094273280 layer_factory.hpp:74] Creating layer pool2
I0610 12:25:53.770810 2094273280 net.cpp:90] Creating Layer pool2
I0610 12:25:53.770815 2094273280 net.cpp:410] pool2 <- conv2
I0610 12:25:53.770841 2094273280 net.cpp:368] pool2 -> pool2
I0610 12:25:53.770848 2094273280 net.cpp:120] Setting up pool2
I0610 12:25:53.770895 2094273280 net.cpp:127] Top shape: 64 50 13 9 (374400)
I0610 12:25:53.770900 2094273280 layer_factory.hpp:74] Creating layer ip1
I0610 12:25:53.770911 2094273280 net.cpp:90] Creating Layer ip1
I0610 12:25:53.770915 2094273280 net.cpp:410] ip1 <- pool2
I0610 12:25:53.770920 2094273280 net.cpp:368] ip1 -> ip1
I0610 12:25:53.770930 2094273280 net.cpp:120] Setting up ip1
I0610 12:25:53.794165 2094273280 net.cpp:127] Top shape: 64 500 (32000)
I0610 12:25:53.794212 2094273280 layer_factory.hpp:74] Creating layer relu1
I0610 12:25:53.794234 2094273280 net.cpp:90] Creating Layer relu1
I0610 12:25:53.794246 2094273280 net.cpp:410] relu1 <- ip1
I0610 12:25:53.794262 2094273280 net.cpp:357] relu1 -> ip1 (in-place)
I0610 12:25:53.794271 2094273280 net.cpp:120] Setting up relu1
I0610 12:25:53.794376 2094273280 net.cpp:127] Top shape: 64 500 (32000)
I0610 12:25:53.794386 2094273280 layer_factory.hpp:74] Creating layer ip2
I0610 12:25:53.794399 2094273280 net.cpp:90] Creating Layer ip2
I0610 12:25:53.794406 2094273280 net.cpp:410] ip2 <- ip1
I0610 12:25:53.794416 2094273280 net.cpp:368] ip2 -> ip2
I0610 12:25:53.794428 2094273280 net.cpp:120] Setting up ip2
I0610 12:25:53.794512 2094273280 net.cpp:127] Top shape: 64 10 (640)
I0610 12:25:53.794522 2094273280 layer_factory.hpp:74] Creating layer feat
I0610 12:25:53.794534 2094273280 net.cpp:90] Creating Layer feat
I0610 12:25:53.794541 2094273280 net.cpp:410] feat <- ip2
I0610 12:25:53.794550 2094273280 net.cpp:368] feat -> feat
I0610 12:25:53.794561 2094273280 net.cpp:120] Setting up feat
I0610 12:25:53.794576 2094273280 net.cpp:127] Top shape: 64 2 (128)
I0610 12:25:53.794586 2094273280 layer_factory.hpp:74] Creating layer conv1_p
I0610 12:25:53.794595 2094273280 net.cpp:90] Creating Layer conv1_p
I0610 12:25:53.794600 2094273280 net.cpp:410] conv1_p <- data_p
I0610 12:25:53.794616 2094273280 net.cpp:368] conv1_p -> conv1_p
I0610 12:25:53.794627 2094273280 net.cpp:120] Setting up conv1_p
I0610 12:25:53.795115 2094273280 net.cpp:127] Top shape: 64 20 58 43 (3192320)
I0610 12:25:53.795136 2094273280 net.cpp:459] Sharing parameters 'conv1_w' owned by layer 'conv1', param index 0
I0610 12:25:53.795150 2094273280 net.cpp:459] Sharing parameters 'conv1_b' owned by layer 'conv1', param index 1
I0610 12:25:53.795156 2094273280 layer_factory.hpp:74] Creating layer pool1_p
I0610 12:25:53.795171 2094273280 net.cpp:90] Creating Layer pool1_p
I0610 12:25:53.795179 2094273280 net.cpp:410] pool1_p <- conv1_p
I0610 12:25:53.795188 2094273280 net.cpp:368] pool1_p -> pool1_p
I0610 12:25:53.795199 2094273280 net.cpp:120] Setting up pool1_p
I0610 12:25:53.795367 2094273280 net.cpp:127] Top shape: 64 20 29 22 (816640)
I0610 12:25:53.795382 2094273280 layer_factory.hpp:74] Creating layer conv2_p
I0610 12:25:53.795397 2094273280 net.cpp:90] Creating Layer conv2_p
I0610 12:25:53.795404 2094273280 net.cpp:410] conv2_p <- pool1_p
I0610 12:25:53.795414 2094273280 net.cpp:368] conv2_p -> conv2_p
I0610 12:25:53.795439 2094273280 net.cpp:120] Setting up conv2_p
I0610 12:25:53.796141 2094273280 net.cpp:127] Top shape: 64 50 25 18 (1440000)
I0610 12:25:53.796157 2094273280 net.cpp:459] Sharing parameters 'conv2_w' owned by layer 'conv2', param index 0
I0610 12:25:53.796166 2094273280 net.cpp:459] Sharing parameters 'conv2_b' owned by layer 'conv2', param index 1
I0610 12:25:53.796171 2094273280 layer_factory.hpp:74] Creating layer pool2_p
I0610 12:25:53.796180 2094273280 net.cpp:90] Creating Layer pool2_p
I0610 12:25:53.796185 2094273280 net.cpp:410] pool2_p <- conv2_p
I0610 12:25:53.796190 2094273280 net.cpp:368] pool2_p -> pool2_p
I0610 12:25:53.796195 2094273280 net.cpp:120] Setting up pool2_p
I0610 12:25:53.796259 2094273280 net.cpp:127] Top shape: 64 50 13 9 (374400)
I0610 12:25:53.796269 2094273280 layer_factory.hpp:74] Creating layer ip1_p
I0610 12:25:53.796288 2094273280 net.cpp:90] Creating Layer ip1_p
I0610 12:25:53.796301 2094273280 net.cpp:410] ip1_p <- pool2_p
I0610 12:25:53.796355 2094273280 net.cpp:368] ip1_p -> ip1_p
I0610 12:25:53.796368 2094273280 net.cpp:120] Setting up ip1_p
I0610 12:25:53.821153 2094273280 net.cpp:127] Top shape: 64 500 (32000)
I0610 12:25:53.821184 2094273280 net.cpp:459] Sharing parameters 'ip1_w' owned by layer 'ip1', param index 0
I0610 12:25:53.822206 2094273280 net.cpp:459] Sharing parameters 'ip1_b' owned by layer 'ip1', param index 1
I0610 12:25:53.822219 2094273280 layer_factory.hpp:74] Creating layer relu1_p
I0610 12:25:53.822233 2094273280 net.cpp:90] Creating Layer relu1_p
I0610 12:25:53.822240 2094273280 net.cpp:410] relu1_p <- ip1_p
I0610 12:25:53.822247 2094273280 net.cpp:357] relu1_p -> ip1_p (in-place)
I0610 12:25:53.822254 2094273280 net.cpp:120] Setting up relu1_p
I0610 12:25:53.822437 2094273280 net.cpp:127] Top shape: 64 500 (32000)
I0610 12:25:53.822451 2094273280 layer_factory.hpp:74] Creating layer ip2_p
I0610 12:25:53.822485 2094273280 net.cpp:90] Creating Layer ip2_p
I0610 12:25:53.822496 2094273280 net.cpp:410] ip2_p <- ip1_p
I0610 12:25:53.822504 2094273280 net.cpp:368] ip2_p -> ip2_p
I0610 12:25:53.822513 2094273280 net.cpp:120] Setting up ip2_p
I0610 12:25:53.822582 2094273280 net.cpp:127] Top shape: 64 10 (640)
I0610 12:25:53.822595 2094273280 net.cpp:459] Sharing parameters 'ip2_w' owned by layer 'ip2', param index 0
I0610 12:25:53.822604 2094273280 net.cpp:459] Sharing parameters 'ip2_b' owned by layer 'ip2', param index 1
I0610 12:25:53.822619 2094273280 layer_factory.hpp:74] Creating layer feat_p
I0610 12:25:53.822630 2094273280 net.cpp:90] Creating Layer feat_p
I0610 12:25:53.822635 2094273280 net.cpp:410] feat_p <- ip2_p
I0610 12:25:53.822664 2094273280 net.cpp:368] feat_p -> feat_p
I0610 12:25:53.822680 2094273280 net.cpp:120] Setting up feat_p
I0610 12:25:53.822697 2094273280 net.cpp:127] Top shape: 64 2 (128)
I0610 12:25:53.822708 2094273280 net.cpp:459] Sharing parameters 'feat_w' owned by layer 'feat', param index 0
I0610 12:25:53.822716 2094273280 net.cpp:459] Sharing parameters 'feat_b' owned by layer 'feat', param index 1
I0610 12:25:53.822736 2094273280 layer_factory.hpp:74] Creating layer loss
I0610 12:25:53.822758 2094273280 net.cpp:90] Creating Layer loss
I0610 12:25:53.822778 2094273280 net.cpp:410] loss <- feat
…
I0610 12:25:53.823464 2094273280 solver.cpp:154] Creating test net (#0) specified by net file: src/siamese_network_bw/model/siamese_train_validate.prototxt
I0610 12:25:53.823500 2094273280 net.cpp:287] The NetState phase (1) differed from the phase (0) specified by a rule in layer pair_data
I0610 12:25:53.823523 2094273280 net.cpp:42] Initializing net from parameters: 
name: "siamese_train_validate"
state {
  phase: TEST
}
layer {
  name: "pair_data"
  type: "Data"
  top: "pair_data"
  top: "sim"
  include {
    phase: TEST
  }
  transform_param {
    scale: 1
  }
  data_param {
    source: "src/siamese_network_bw/data/siamese_network_validation_leveldb"
    batch_size: 100
  }
}
layer {
  name: "slice_pair"
  type: "Slice"
  bottom: "pair_data"
  top: "data"
  top: "data_p"
  slice_param {
    slice_dim: 1
    slice_point: 1
  }
}
layer {
  name: "conv1"
  type: "Convolution"
  bottom: "data"
  top: "conv1"
  param {
    name: "conv1_w"
    lr_mult: 1
  }
  param {
    name: "conv1_b"
    lr_mult: 2
  }
  convolution_param {
    num_output: 20
    kernel_size: 5
    stride: 1
    weight_filler {
      type: "xavier"
    }
    bias_filler {
      type: "constant"
    }
  }
}
layer {
  name: "pool1"
  type: "Pooling"
  bottom: "conv1"
  top: "pool1"
  pooling_param {
    pool: MAX
    kernel_size: 2
    stride: 2
  }
}
layer {
  name: "conv2"
  type: "Convolution"
  bottom: "pool1"
  top: "conv2"
  param {
    name: "conv2_w"
    lr_mult: 1
  }
  param {
    name: "conv2_b"
    lr_mult: 2
  }
  convolution_param {
    num_output: 50
    kernel_size: 5
    stride: 1
    weight_filler {
      type: "xavier"
    }
    bias_filler {
      type: "constant"
    }
  }
}
layer {
  name: "pool2"
  type: "Pooling"
  bottom: "conv2"
  top: "pool2"
  pooling_param {
    pool: MAX
    kernel_size: 2
    stride: 2
  }
}
layer {
  name: "ip1"
  type: "InnerProduct"
  bottom: "pool2"
  top: "ip1"
  param {
    name: "ip1_w"
    lr_mult: 1
  }
  param {
    name: "ip1_b"
    lr_mult: 2
  }
  inner_product_param {
    num_output: 500
    weight_filler {
      type: "xavier"
    }
    bias_filler {
      type: "constant"
    }
  }
}
layer {
  name: "relu1"
  type: "ReLU"
  bottom: "ip1"
  top: "ip1"
}
layer {
  name: "ip2"
  type: "InnerProduct"
  bottom: "ip1"
  top: "ip2"
  param {
    name: "ip2_w"
    lr_mult: 1
  }
  param {
    name: "ip2_b"
    lr_mult: 2
  }
  inner_product_param {
    num_output: 10
    weight_filler {
      type: "xavier"
    }
    bias_filler {
      type: "constant"
    }
  }
}
layer {
  name: "feat"
  type: "InnerProduct"
  bottom: "ip2"
  top: "feat"
  param {
    name: "feat_w"
    lr_mult: 1
  }
  param {
    name: "feat_b"
    lr_mult: 2
  }
  inner_product_param {
    num_output: 2
    weight_filler {
      type: "xavier"
    }
    bias_filler {
      type: "constant"
    }
  }
}
layer {
  name: "conv1_p"
  type: "Convolution"
  bottom: "data_p"
  top: "conv1_p"
  param {
    name: "conv1_w"
    lr_mult: 1
  }
  param {
    name: "conv1_b"
    lr_mult: 2
  }
  convolution_param {
    num_output: 20
    kernel_size: 5
    stride: 1
    weight_filler {
      type: "xavier"
    }
    bias_filler {
      type: "constant"
    }
  }
}
layer {
  name: "pool1_p"
  type: "Pooling"
  bottom: "conv1_p"
  top: "pool1_p"
  pooling_param {
    pool: MAX
    kernel_size: 2
    stride: 2
  }
}
layer {
  name: "conv2_p"
  type: "Convolution"
  bottom: "pool1_p"
  top: "conv2_p"
  param {
    name: "conv2_w"
    lr_mult: 1
  }
  param {
    name: "conv2_b"
    lr_mult: 2
  }
  convolution_param {
    num_output: 50
    kernel_size: 5
    stride: 1
    weight_filler {
      type: "xavier"
    }
    bias_filler {
      type: "constant"
    }
  }
}
layer {
  name: "pool2_p"
  type: "Pooling"
  bottom: "conv2_p"
  top: "pool2_p"
  pooling_param {
    pool: MAX
    kernel_size: 2
    stride: 2
  }
}
layer {
  name: "ip1_p"
  type: "InnerProduct"
  bottom: "pool2_p"
  top: "ip1_p"
  param {
    name: "ip1_w"
    lr_mult: 1
  }
  param {
    name: "ip1_b"
    lr_mult: 2
  }
  inner_product_param {
    num_output: 500
    weight_filler {
      type: "xavier"
    }
    bias_filler {
      type: "constant"
    }
  }
}
layer {
  name: "relu1_p"
  type: "ReLU"
  bottom: "ip1_p"
  top: "ip1_p"
}
layer {
  name: "ip2_p"
  type: "InnerProduct"
  bottom: "ip1_p"
  top: "ip2_p"
  param {
    name: "ip2_w"
    lr_mult: 1
  }
  param {
    name: "ip2_b"
    lr_mult: 2
  }
  inner_product_param {
    num_output: 10
    weight_filler {
      type: "xavier"
    }
    bias_filler {
      type: "constant"
    }
  }
}
layer {
  name: "feat_p"
  type: "InnerProduct"
  bottom: "ip2_p"
  top: "feat_p"
  param {
    name: "feat_w"
    lr_mult: 1
  }
  param {
    name: "feat_b"
    lr_mult: 2
  }
  inner_product_param {
    num_output: 2
    weight_filler {
      type: "xavier"
    }
    bias_filler {
      type: "constant"
    }
  }
}
layer {
  name: "loss"
  type: "ContrastiveLoss"
  bottom: "feat"
  bottom: "feat_p"
  bottom: "sim"
  top: "loss"
  contrastive_loss_param {
    margin: 1
  }
}
I0610 12:25:53.823878 2094273280 layer_factory.hpp:74] Creating layer pair_data
I0610 12:25:53.823894 2094273280 net.cpp:90] Creating Layer pair_data
I0610 12:25:53.823901 2094273280 net.cpp:368] pair_data -> pair_data
I0610 12:25:53.823933 2094273280 net.cpp:368] pair_data -> sim
I0610 12:25:53.823958 2094273280 net.cpp:120] Setting up pair_data
I0610 12:25:53.826547 2094273280 db.cpp:20] Opened leveldb src/siamese_network_bw/data/siamese_network_validation_leveldb
I0610 12:25:53.826915 2094273280 data_layer.cpp:52] output data size: 100,2,62,47
I0610 12:25:53.828137 2094273280 net.cpp:127] Top shape: 100 2 62 47 (582800)
I0610 12:25:53.828166 2094273280 net.cpp:127] Top shape: 100 (100)
I0610 12:25:53.828178 2094273280 layer_factory.hpp:74] Creating layer slice_pair
I0610 12:25:53.828203 2094273280 net.cpp:90] Creating Layer slice_pair
I0610 12:25:53.828214 2094273280 net.cpp:410] slice_pair <- pair_data
I0610 12:25:53.828225 2094273280 net.cpp:368] slice_pair -> data
I0610 12:25:53.828241 2094273280 net.cpp:368] slice_pair -> data_p
I0610 12:25:53.828253 2094273280 net.cpp:120] Setting up slice_pair
I0610 12:25:53.828263 2094273280 net.cpp:127] Top shape: 100 1 62 47 (291400)
I0610 12:25:53.828271 2094273280 net.cpp:127] Top shape: 100 1 62 47 (291400)
I0610 12:25:53.828281 2094273280 layer_factory.hpp:74] Creating layer conv1
I0610 12:25:53.828294 2094273280 net.cpp:90] Creating Layer conv1
I0610 12:25:53.828301 2094273280 net.cpp:410] conv1 <- data
I0610 12:25:53.828315 2094273280 net.cpp:368] conv1 -> conv1
I0610 12:25:53.828326 2094273280 net.cpp:120] Setting up conv1
I0610 12:25:53.828701 2094273280 net.cpp:127] Top shape: 100 20 58 43 (4988000)
I0610 12:25:53.828717 2094273280 layer_factory.hpp:74] Creating layer pool1
I0610 12:25:53.828729 2094273280 net.cpp:90] Creating Layer pool1
I0610 12:25:53.828737 2094273280 net.cpp:410] pool1 <- conv1
I0610 12:25:53.828759 2094273280 net.cpp:368] pool1 -> pool1
I0610 12:25:53.828768 2094273280 net.cpp:120] Setting up pool1
I0610 12:25:53.828822 2094273280 net.cpp:127] Top shape: 100 20 29 22 (1276000)
I0610 12:25:53.828830 2094273280 layer_factory.hpp:74] Creating layer conv2
I0610 12:25:53.828840 2094273280 net.cpp:90] Creating Layer conv2
I0610 12:25:53.828845 2094273280 net.cpp:410] conv2 <- pool1
I0610 12:25:53.828873 2094273280 net.cpp:368] conv2 -> conv2
I0610 12:25:53.828887 2094273280 net.cpp:120] Setting up conv2
I0610 12:25:53.829620 2094273280 net.cpp:127] Top shape: 100 50 25 18 (2250000)
I0610 12:25:53.829663 2094273280 layer_factory.hpp:74] Creating layer pool2
I0610 12:25:53.829710 2094273280 net.cpp:90] Creating Layer pool2
I0610 12:25:53.829720 2094273280 net.cpp:410] pool2 <- conv2
I0610 12:25:53.829730 2094273280 net.cpp:368] pool2 -> pool2
I0610 12:25:53.829763 2094273280 net.cpp:120] Setting up pool2
I0610 12:25:53.829943 2094273280 net.cpp:127] Top shape: 100 50 13 9 (585000)
I0610 12:25:53.829957 2094273280 layer_factory.hpp:74] Creating layer ip1
I0610 12:25:53.829967 2094273280 net.cpp:90] Creating Layer ip1
I0610 12:25:53.829970 2094273280 net.cpp:410] ip1 <- pool2
I0610 12:25:53.829977 2094273280 net.cpp:368] ip1 -> ip1
I0610 12:25:53.830024 2094273280 net.cpp:120] Setting up ip1
I0610 12:25:53.857836 2094273280 net.cpp:127] Top shape: 100 500 (50000)
I0610 12:25:53.857870 2094273280 layer_factory.hpp:74] Creating layer relu1
I0610 12:25:53.857882 2094273280 net.cpp:90] Creating Layer relu1
I0610 12:25:53.857892 2094273280 net.cpp:410] relu1 <- ip1
I0610 12:25:53.857902 2094273280 net.cpp:357] relu1 -> ip1 (in-place)
I0610 12:25:53.857913 2094273280 net.cpp:120] Setting up relu1
I0610 12:25:53.858014 2094273280 net.cpp:127] Top shape: 100 500 (50000)
I0610 12:25:53.858027 2094273280 layer_factory.hpp:74] Creating layer ip2
I0610 12:25:53.858044 2094273280 net.cpp:90] Creating Layer ip2
I0610 12:25:53.858078 2094273280 net.cpp:410] ip2 <- ip1
I0610 12:25:53.858103 2094273280 net.cpp:368] ip2 -> ip2
I0610 12:25:53.858117 2094273280 net.cpp:120] Setting up ip2
I0610 12:25:53.858202 2094273280 net.cpp:127] Top shape: 100 10 (1000)
I0610 12:25:53.858237 2094273280 layer_factory.hpp:74] Creating layer feat
I0610 12:25:53.858250 2094273280 net.cpp:90] Creating Layer feat
I0610 12:25:53.858258 2094273280 net.cpp:410] feat <- ip2
I0610 12:25:53.858275 2094273280 net.cpp:368] feat -> feat
I0610 12:25:53.858289 2094273280 net.cpp:120] Setting up feat
I0610 12:25:53.858305 2094273280 net.cpp:127] Top shape: 100 2 (200)
I0610 12:25:53.858319 2094273280 layer_factory.hpp:74] Creating layer conv1_p
I0610 12:25:53.858335 2094273280 net.cpp:90] Creating Layer conv1_p
I0610 12:25:53.858417 2094273280 net.cpp:410] conv1_p <- data_p
I0610 12:25:53.858431 2094273280 net.cpp:368] conv1_p -> conv1_p
I0610 12:25:53.858444 2094273280 net.cpp:120] Setting up conv1_p
I0610 12:25:53.858803 2094273280 net.cpp:127] Top shape: 100 20 58 43 (4988000)
I0610 12:25:53.858820 2094273280 net.cpp:459] Sharing parameters 'conv1_w' owned by layer 'conv1', param index 0
I0610 12:25:53.858831 2094273280 net.cpp:459] Sharing parameters 'conv1_b' owned by layer 'conv1', param index 1
I0610 12:25:53.858839 2094273280 layer_factory.hpp:74] Creating layer pool1_p
I0610 12:25:53.858850 2094273280 net.cpp:90] Creating Layer pool1_p
I0610 12:25:53.858857 2094273280 net.cpp:410] pool1_p <- conv1_p
I0610 12:25:53.858866 2094273280 net.cpp:368] pool1_p -> pool1_p
I0610 12:25:53.858881 2094273280 net.cpp:120] Setting up pool1_p
I0610 12:25:53.858943 2094273280 net.cpp:127] Top shape: 100 20 29 22 (1276000)
I0610 12:25:53.858953 2094273280 layer_factory.hpp:74] Creating layer conv2_p
I0610 12:25:53.858981 2094273280 net.cpp:90] Creating Layer conv2_p
I0610 12:25:53.858991 2094273280 net.cpp:410] conv2_p <- pool1_p
I0610 12:25:53.859000 2094273280 net.cpp:368] conv2_p -> conv2_p
I0610 12:25:53.859009 2094273280 net.cpp:120] Setting up conv2_p
I0610 12:25:53.859482 2094273280 net.cpp:127] Top shape: 100 50 25 18 (2250000)
I0610 12:25:53.859498 2094273280 net.cpp:459] Sharing parameters 'conv2_w' owned by layer 'conv2', param index 0
I0610 12:25:53.859508 2094273280 net.cpp:459] Sharing parameters 'conv2_b' owned by layer 'conv2', param index 1
I0610 12:25:53.859519 2094273280 layer_factory.hpp:74] Creating layer pool2_p
I0610 12:25:53.859536 2094273280 net.cpp:90] Creating Layer pool2_p
I0610 12:25:53.859544 2094273280 net.cpp:410] pool2_p <- conv2_p
I0610 12:25:53.859554 2094273280 net.cpp:368] pool2_p -> pool2_p
I0610 12:25:53.859560 2094273280 net.cpp:120] Setting up pool2_p
I0610 12:25:53.859611 2094273280 net.cpp:127] Top shape: 100 50 13 9 (585000)
I0610 12:25:53.859618 2094273280 layer_factory.hpp:74] Creating layer ip1_p
I0610 12:25:53.859640 2094273280 net.cpp:90] Creating Layer ip1_p
I0610 12:25:53.859736 2094273280 net.cpp:410] ip1_p <- pool2_p
I0610 12:25:53.859760 2094273280 net.cpp:368] ip1_p -> ip1_p
I0610 12:25:53.860116 2094273280 net.cpp:120] Setting up ip1_p
I0610 12:25:53.885861 2094273280 net.cpp:127] Top shape: 100 500 (50000)
I0610 12:25:53.885890 2094273280 net.cpp:459] Sharing parameters 'ip1_w' owned by layer 'ip1', param index 0
I0610 12:25:53.886860 2094273280 net.cpp:459] Sharing parameters 'ip1_b' owned by layer 'ip1', param index 1
I0610 12:25:53.886878 2094273280 layer_factory.hpp:74] Creating layer relu1_p
I0610 12:25:53.886886 2094273280 net.cpp:90] Creating Layer relu1_p
I0610 12:25:53.886891 2094273280 net.cpp:410] relu1_p <- ip1_p
I0610 12:25:53.886898 2094273280 net.cpp:357] relu1_p -> ip1_p (in-place)
I0610 12:25:53.886905 2094273280 net.cpp:120] Setting up relu1_p
I0610 12:25:53.887094 2094273280 net.cpp:127] Top shape: 100 500 (50000)
I0610 12:25:53.887104 2094273280 layer_factory.hpp:74] Creating layer ip2_p
I0610 12:25:53.887114 2094273280 net.cpp:90] Creating Layer ip2_p
I0610 12:25:53.887117 2094273280 net.cpp:410] ip2_p <- ip1_p
I0610 12:25:53.887125 2094273280 net.cpp:368] ip2_p -> ip2_p
I0610 12:25:53.887133 2094273280 net.cpp:120] Setting up ip2_p
I0610 12:25:53.887184 2094273280 net.cpp:127] Top shape: 100 10 (1000)
I0610 12:25:53.887192 2094273280 net.cpp:459] Sharing parameters 'ip2_w' owned by layer 'ip2', param index 0
I0610 12:25:53.887197 2094273280 net.cpp:459] Sharing parameters 'ip2_b' owned by layer 'ip2', param index 1
I0610 12:25:53.887202 2094273280 layer_factory.hpp:74] Creating layer feat_p
I0610 12:25:53.887209 2094273280 net.cpp:90] Creating Layer feat_p
I0610 12:25:53.887213 2094273280 net.cpp:410] feat_p <- ip2_p
I0610 12:25:53.887219 2094273280 net.cpp:368] feat_p -> feat_p
I0610 12:25:53.887225 2094273280 net.cpp:120] Setting up feat_p
I0610 12:25:53.887254 2094273280 net.cpp:127] Top shape: 100 2 (200)
I0610 12:25:53.887266 2094273280 net.cpp:459] Sharing parameters 'feat_w' owned by layer 'feat', param index 0
I0610 12:25:53.887272 2094273280 net.cpp:459] Sharing parameters 'feat_b' owned by layer 'feat', param index 1
I0610 12:25:53.887276 2094273280 layer_factory.hpp:74] Creating layer loss
I0610 12:25:53.887284 2094273280 net.cpp:90] Creating Layer loss
I0610 12:25:53.887289 2094273280 net.cpp:410] loss <- feat
…
