…
I0630 19:36:03.512720 1970144000 solver.cpp:70] Creating training net from net file: src/siamese_network_bw/model/siamese_train_validate.prototxt
I0630 19:36:03.513097 1970144000 net.cpp:287] The NetState phase (0) differed from the phase (1) specified by a rule in layer pair_data
I0630 19:36:03.513147 1970144000 net.cpp:42] Initializing net from parameters: 
name: "siamese_train_validate"
state {
  phase: TRAIN
}
layer {
  name: "pair_data"
  type: "Data"
  top: "pair_data"
  top: "sim"
  include {
    phase: TRAIN
  }
  transform_param {
    scale: 0.00390625
  }
  data_param {
    source: "src/siamese_network_bw/data/siamese_network_train_leveldb"
    batch_size: 64
  }
}
layer {
  name: "slice_pair"
  type: "Slice"
  bottom: "pair_data"
  top: "data"
  top: "data_p"
  slice_param {
    slice_dim: 1
    slice_point: 1
  }
}
layer {
  name: "conv1"
  type: "Convolution"
  bottom: "data"
  top: "conv1"
  param {
    name: "conv1_w"
    lr_mult: 1
  }
  param {
    name: "conv1_b"
    lr_mult: 2
  }
  convolution_param {
    num_output: 32
    kernel_size: 3
    stride: 1
    weight_filler {
      type: "xavier"
    }
    bias_filler {
      type: "constant"
    }
  }
}
layer {
  name: "pool1"
  type: "Pooling"
  bottom: "conv1"
  top: "pool1"
  pooling_param {
    pool: MAX
    kernel_size: 2
    stride: 2
  }
}
layer {
  name: "conv2"
  type: "Convolution"
  bottom: "pool1"
  top: "conv2"
  param {
    name: "conv2_w"
    lr_mult: 1
  }
  param {
    name: "conv2_b"
    lr_mult: 2
  }
  convolution_param {
    num_output: 64
    kernel_size: 2
    stride: 1
    weight_filler {
      type: "xavier"
    }
    bias_filler {
      type: "constant"
    }
  }
}
layer {
  name: "pool2"
  type: "Pooling"
  bottom: "conv2"
  top: "pool2"
  pooling_param {
    pool: MAX
    kernel_size: 2
    stride: 2
  }
}
layer {
  name: "conv3"
  type: "Convolution"
  bottom: "pool2"
  top: "conv3"
  param {
    name: "conv3_w"
    lr_mult: 1
  }
  param {
    name: "conv3_b"
    lr_mult: 2
  }
  convolution_param {
    num_output: 128
    kernel_size: 2
    stride: 1
    weight_filler {
      type: "xavier"
    }
    bias_filler {
      type: "constant"
    }
  }
}
layer {
  name: "pool3"
  type: "Pooling"
  bottom: "conv3"
  top: "pool3"
  pooling_param {
    pool: MAX
    kernel_size: 2
    stride: 2
  }
}
layer {
  name: "ip1"
  type: "InnerProduct"
  bottom: "pool3"
  top: "ip1"
  param {
    name: "ip1_w"
    lr_mult: 1
  }
  param {
    name: "ip1_b"
    lr_mult: 2
  }
  inner_product_param {
    num_output: 500
    weight_filler {
      type: "xavier"
    }
    bias_filler {
      type: "constant"
    }
  }
}
layer {
  name: "relu1"
  type: "ReLU"
  bottom: "ip1"
  top: "ip1"
}
layer {
  name: "ip2"
  type: "InnerProduct"
  bottom: "ip1"
  top: "ip2"
  param {
    name: "ip2_w"
    lr_mult: 1
  }
  param {
    name: "ip2_b"
    lr_mult: 2
  }
  inner_product_param {
    num_output: 500
    weight_filler {
      type: "xavier"
    }
    bias_filler {
      type: "constant"
    }
  }
}
layer {
  name: "relu2"
  type: "ReLU"
  bottom: "ip2"
  top: "ip2"
}
layer {
  name: "feat"
  type: "InnerProduct"
  bottom: "ip2"
  top: "feat"
  param {
    name: "feat_w"
    lr_mult: 1
  }
  param {
    name: "feat_b"
    lr_mult: 2
  }
  inner_product_param {
    num_output: 2
    weight_filler {
      type: "xavier"
    }
    bias_filler {
      type: "constant"
    }
  }
}
layer {
  name: "conv1_p"
  type: "Convolution"
  bottom: "data_p"
  top: "conv1_p"
  param {
    name: "conv1_w"
    lr_mult: 1
  }
  param {
    name: "conv1_b"
    lr_mult: 2
  }
  convolution_param {
    num_output: 32
    kernel_size: 3
    stride: 1
    weight_filler {
      type: "xavier"
    }
    bias_filler {
      type: "constant"
    }
  }
}
layer {
  name: "pool1_p"
  type: "Pooling"
  bottom: "conv1_p"
  top: "pool1_p"
  pooling_param {
    pool: MAX
    kernel_size: 2
    stride: 2
  }
}
layer {
  name: "conv2_p"
  type: "Convolution"
  bottom: "pool1_p"
  top: "conv2_p"
  param {
    name: "conv2_w"
    lr_mult: 1
  }
  param {
    name: "conv2_b"
    lr_mult: 2
  }
  convolution_param {
    num_output: 64
    kernel_size: 2
    stride: 1
    weight_filler {
      type: "xavier"
    }
    bias_filler {
      type: "constant"
    }
  }
}
layer {
  name: "pool2_p"
  type: "Pooling"
  bottom: "conv2_p"
  top: "pool2_p"
  pooling_param {
    pool: MAX
    kernel_size: 2
    stride: 2
  }
}
layer {
  name: "conv3_p"
  type: "Convolution"
  bottom: "pool2_p"
  top: "conv3_p"
  param {
    name: "conv3_w"
    lr_mult: 1
  }
  param {
    name: "conv3_b"
    lr_mult: 2
  }
  convolution_param {
    num_output: 128
    kernel_size: 2
    stride: 1
    weight_filler {
      type: "xavier"
    }
    bias_filler {
      type: "constant"
    }
  }
}
layer {
  name: "pool3_p"
  type: "Pooling"
  bottom: "conv3_p"
  top: "pool3_p"
  pooling_param {
    pool: MAX
    kernel_size: 2
    stride: 2
  }
}
layer {
  name: "ip1_p"
  type: "InnerProduct"
  bottom: "pool3_p"
  top: "ip1_p"
  param {
    name: "ip1_w"
    lr_mult: 1
  }
  param {
    name: "ip1_b"
    lr_mult: 2
  }
  inner_product_param {
    num_output: 500
    weight_filler {
      type: "xavier"
    }
    bias_filler {
      type: "constant"
    }
  }
}
layer {
  name: "relu1_p"
  type: "ReLU"
  bottom: "ip1_p"
  top: "ip1_p"
}
layer {
  name: "ip2_p"
  type: "InnerProduct"
  bottom: "ip1_p"
  top: "ip2_p"
  param {
    name: "ip2_w"
    lr_mult: 1
  }
  param {
    name: "ip2_b"
    lr_mult: 2
  }
  inner_product_param {
    num_output: 500
    weight_filler {
      type: "xavier"
    }
    bias_filler {
      type: "constant"
    }
  }
}
layer {
  name: "relu2_p"
  type: "ReLU"
  bottom: "ip2_p"
  top: "ip2_p"
}
layer {
  name: "feat_p"
  type: "InnerProduct"
  bottom: "ip2_p"
  top: "feat_p"
  param {
    name: "feat_w"
    lr_mult: 1
  }
  param {
    name: "feat_b"
    lr_mult: 2
  }
  inner_product_param {
    num_output: 2
    weight_filler {
      type: "xavier"
    }
    bias_filler {
      type: "constant"
    }
  }
}
layer {
  name: "loss"
  type: "ContrastiveLoss"
  bottom: "feat"
  bottom: "feat_p"
  bottom: "sim"
  top: "loss"
  contrastive_loss_param {
    margin: 2
  }
}
I0630 19:36:03.513463 1970144000 layer_factory.hpp:74] Creating layer pair_data
I0630 19:36:03.513481 1970144000 net.cpp:90] Creating Layer pair_data
I0630 19:36:03.513490 1970144000 net.cpp:368] pair_data -> pair_data
I0630 19:36:03.513509 1970144000 net.cpp:368] pair_data -> sim
I0630 19:36:03.513515 1970144000 net.cpp:120] Setting up pair_data
I0630 19:36:03.520598 1970144000 db.cpp:20] Opened leveldb src/siamese_network_bw/data/siamese_network_train_leveldb
I0630 19:36:03.522425 1970144000 data_layer.cpp:52] output data size: 64,2,62,47
I0630 19:36:03.523108 1970144000 net.cpp:127] Top shape: 64 2 62 47 (372992)
I0630 19:36:03.523128 1970144000 net.cpp:127] Top shape: 64 (64)
I0630 19:36:03.523135 1970144000 layer_factory.hpp:74] Creating layer slice_pair
I0630 19:36:03.523146 1970144000 net.cpp:90] Creating Layer slice_pair
I0630 19:36:03.523151 1970144000 net.cpp:410] slice_pair <- pair_data
I0630 19:36:03.523159 1970144000 net.cpp:368] slice_pair -> data
I0630 19:36:03.523167 1970144000 net.cpp:368] slice_pair -> data_p
I0630 19:36:03.523176 1970144000 net.cpp:120] Setting up slice_pair
I0630 19:36:03.523185 1970144000 net.cpp:127] Top shape: 64 1 62 47 (186496)
I0630 19:36:03.523190 1970144000 net.cpp:127] Top shape: 64 1 62 47 (186496)
I0630 19:36:03.523195 1970144000 layer_factory.hpp:74] Creating layer conv1
I0630 19:36:03.523207 1970144000 net.cpp:90] Creating Layer conv1
I0630 19:36:03.523214 1970144000 net.cpp:410] conv1 <- data
I0630 19:36:03.523224 1970144000 net.cpp:368] conv1 -> conv1
I0630 19:36:03.523279 1970144000 net.cpp:120] Setting up conv1
I0630 19:36:03.642441 1970144000 net.cpp:127] Top shape: 64 32 60 45 (5529600)
I0630 19:36:03.642472 1970144000 layer_factory.hpp:74] Creating layer pool1
I0630 19:36:03.642484 1970144000 net.cpp:90] Creating Layer pool1
I0630 19:36:03.642489 1970144000 net.cpp:410] pool1 <- conv1
I0630 19:36:03.642495 1970144000 net.cpp:368] pool1 -> pool1
I0630 19:36:03.642503 1970144000 net.cpp:120] Setting up pool1
I0630 19:36:03.642642 1970144000 net.cpp:127] Top shape: 64 32 30 23 (1413120)
I0630 19:36:03.642652 1970144000 layer_factory.hpp:74] Creating layer conv2
I0630 19:36:03.642662 1970144000 net.cpp:90] Creating Layer conv2
I0630 19:36:03.642665 1970144000 net.cpp:410] conv2 <- pool1
I0630 19:36:03.642671 1970144000 net.cpp:368] conv2 -> conv2
I0630 19:36:03.642680 1970144000 net.cpp:120] Setting up conv2
I0630 19:36:03.643141 1970144000 net.cpp:127] Top shape: 64 64 29 22 (2613248)
I0630 19:36:03.643156 1970144000 layer_factory.hpp:74] Creating layer pool2
I0630 19:36:03.643165 1970144000 net.cpp:90] Creating Layer pool2
I0630 19:36:03.643188 1970144000 net.cpp:410] pool2 <- conv2
I0630 19:36:03.643209 1970144000 net.cpp:368] pool2 -> pool2
I0630 19:36:03.643218 1970144000 net.cpp:120] Setting up pool2
I0630 19:36:03.643296 1970144000 net.cpp:127] Top shape: 64 64 15 11 (675840)
I0630 19:36:03.643317 1970144000 layer_factory.hpp:74] Creating layer conv3
I0630 19:36:03.643349 1970144000 net.cpp:90] Creating Layer conv3
I0630 19:36:03.643360 1970144000 net.cpp:410] conv3 <- pool2
I0630 19:36:03.643371 1970144000 net.cpp:368] conv3 -> conv3
I0630 19:36:03.643383 1970144000 net.cpp:120] Setting up conv3
I0630 19:36:03.643936 1970144000 net.cpp:127] Top shape: 64 128 14 10 (1146880)
I0630 19:36:03.643952 1970144000 layer_factory.hpp:74] Creating layer pool3
I0630 19:36:03.643961 1970144000 net.cpp:90] Creating Layer pool3
I0630 19:36:03.643966 1970144000 net.cpp:410] pool3 <- conv3
I0630 19:36:03.643972 1970144000 net.cpp:368] pool3 -> pool3
I0630 19:36:03.643978 1970144000 net.cpp:120] Setting up pool3
I0630 19:36:03.644022 1970144000 net.cpp:127] Top shape: 64 128 7 5 (286720)
I0630 19:36:03.644028 1970144000 layer_factory.hpp:74] Creating layer ip1
I0630 19:36:03.644037 1970144000 net.cpp:90] Creating Layer ip1
I0630 19:36:03.644059 1970144000 net.cpp:410] ip1 <- pool3
I0630 19:36:03.644089 1970144000 net.cpp:368] ip1 -> ip1
I0630 19:36:03.644120 1970144000 net.cpp:120] Setting up ip1
I0630 19:36:03.665568 1970144000 net.cpp:127] Top shape: 64 500 (32000)
I0630 19:36:03.665601 1970144000 layer_factory.hpp:74] Creating layer relu1
I0630 19:36:03.665617 1970144000 net.cpp:90] Creating Layer relu1
I0630 19:36:03.665622 1970144000 net.cpp:410] relu1 <- ip1
I0630 19:36:03.665650 1970144000 net.cpp:357] relu1 -> ip1 (in-place)
I0630 19:36:03.665665 1970144000 net.cpp:120] Setting up relu1
I0630 19:36:03.665863 1970144000 net.cpp:127] Top shape: 64 500 (32000)
I0630 19:36:03.665874 1970144000 layer_factory.hpp:74] Creating layer ip2
I0630 19:36:03.665886 1970144000 net.cpp:90] Creating Layer ip2
I0630 19:36:03.665894 1970144000 net.cpp:410] ip2 <- ip1
I0630 19:36:03.665906 1970144000 net.cpp:368] ip2 -> ip2
I0630 19:36:03.665918 1970144000 net.cpp:120] Setting up ip2
I0630 19:36:03.668548 1970144000 net.cpp:127] Top shape: 64 500 (32000)
I0630 19:36:03.668575 1970144000 layer_factory.hpp:74] Creating layer relu2
I0630 19:36:03.668587 1970144000 net.cpp:90] Creating Layer relu2
I0630 19:36:03.668596 1970144000 net.cpp:410] relu2 <- ip2
I0630 19:36:03.668606 1970144000 net.cpp:357] relu2 -> ip2 (in-place)
I0630 19:36:03.668617 1970144000 net.cpp:120] Setting up relu2
I0630 19:36:03.668702 1970144000 net.cpp:127] Top shape: 64 500 (32000)
I0630 19:36:03.668715 1970144000 layer_factory.hpp:74] Creating layer feat
I0630 19:36:03.668725 1970144000 net.cpp:90] Creating Layer feat
I0630 19:36:03.668731 1970144000 net.cpp:410] feat <- ip2
I0630 19:36:03.668737 1970144000 net.cpp:368] feat -> feat
I0630 19:36:03.668750 1970144000 net.cpp:120] Setting up feat
I0630 19:36:03.668784 1970144000 net.cpp:127] Top shape: 64 2 (128)
I0630 19:36:03.668828 1970144000 layer_factory.hpp:74] Creating layer conv1_p
I0630 19:36:03.668843 1970144000 net.cpp:90] Creating Layer conv1_p
I0630 19:36:03.668851 1970144000 net.cpp:410] conv1_p <- data_p
I0630 19:36:03.668861 1970144000 net.cpp:368] conv1_p -> conv1_p
I0630 19:36:03.668874 1970144000 net.cpp:120] Setting up conv1_p
I0630 19:36:03.669313 1970144000 net.cpp:127] Top shape: 64 32 60 45 (5529600)
I0630 19:36:03.669342 1970144000 net.cpp:459] Sharing parameters 'conv1_w' owned by layer 'conv1', param index 0
I0630 19:36:03.669384 1970144000 net.cpp:459] Sharing parameters 'conv1_b' owned by layer 'conv1', param index 1
I0630 19:36:03.669396 1970144000 layer_factory.hpp:74] Creating layer pool1_p
I0630 19:36:03.669419 1970144000 net.cpp:90] Creating Layer pool1_p
I0630 19:36:03.669431 1970144000 net.cpp:410] pool1_p <- conv1_p
I0630 19:36:03.669456 1970144000 net.cpp:368] pool1_p -> pool1_p
I0630 19:36:03.669472 1970144000 net.cpp:120] Setting up pool1_p
I0630 19:36:03.669566 1970144000 net.cpp:127] Top shape: 64 32 30 23 (1413120)
I0630 19:36:03.669582 1970144000 layer_factory.hpp:74] Creating layer conv2_p
I0630 19:36:03.669595 1970144000 net.cpp:90] Creating Layer conv2_p
I0630 19:36:03.669601 1970144000 net.cpp:410] conv2_p <- pool1_p
I0630 19:36:03.669611 1970144000 net.cpp:368] conv2_p -> conv2_p
I0630 19:36:03.669623 1970144000 net.cpp:120] Setting up conv2_p
I0630 19:36:03.670423 1970144000 net.cpp:127] Top shape: 64 64 29 22 (2613248)
I0630 19:36:03.670452 1970144000 net.cpp:459] Sharing parameters 'conv2_w' owned by layer 'conv2', param index 0
I0630 19:36:03.670470 1970144000 net.cpp:459] Sharing parameters 'conv2_b' owned by layer 'conv2', param index 1
I0630 19:36:03.670480 1970144000 layer_factory.hpp:74] Creating layer pool2_p
I0630 19:36:03.670493 1970144000 net.cpp:90] Creating Layer pool2_p
I0630 19:36:03.670500 1970144000 net.cpp:410] pool2_p <- conv2_p
I0630 19:36:03.670510 1970144000 net.cpp:368] pool2_p -> pool2_p
I0630 19:36:03.670522 1970144000 net.cpp:120] Setting up pool2_p
I0630 19:36:03.670603 1970144000 net.cpp:127] Top shape: 64 64 15 11 (675840)
I0630 19:36:03.670626 1970144000 layer_factory.hpp:74] Creating layer conv3_p
I0630 19:36:03.670644 1970144000 net.cpp:90] Creating Layer conv3_p
I0630 19:36:03.670652 1970144000 net.cpp:410] conv3_p <- pool2_p
I0630 19:36:03.670670 1970144000 net.cpp:368] conv3_p -> conv3_p
I0630 19:36:03.670696 1970144000 net.cpp:120] Setting up conv3_p
I0630 19:36:03.671589 1970144000 net.cpp:127] Top shape: 64 128 14 10 (1146880)
I0630 19:36:03.671627 1970144000 net.cpp:459] Sharing parameters 'conv3_w' owned by layer 'conv3', param index 0
I0630 19:36:03.671649 1970144000 net.cpp:459] Sharing parameters 'conv3_b' owned by layer 'conv3', param index 1
I0630 19:36:03.671663 1970144000 layer_factory.hpp:74] Creating layer pool3_p
I0630 19:36:03.671677 1970144000 net.cpp:90] Creating Layer pool3_p
I0630 19:36:03.671685 1970144000 net.cpp:410] pool3_p <- conv3_p
I0630 19:36:03.671695 1970144000 net.cpp:368] pool3_p -> pool3_p
I0630 19:36:03.671707 1970144000 net.cpp:120] Setting up pool3_p
I0630 19:36:03.672013 1970144000 net.cpp:127] Top shape: 64 128 7 5 (286720)
I0630 19:36:03.672030 1970144000 layer_factory.hpp:74] Creating layer ip1_p
I0630 19:36:03.672050 1970144000 net.cpp:90] Creating Layer ip1_p
I0630 19:36:03.672058 1970144000 net.cpp:410] ip1_p <- pool3_p
I0630 19:36:03.672073 1970144000 net.cpp:368] ip1_p -> ip1_p
I0630 19:36:03.672101 1970144000 net.cpp:120] Setting up ip1_p
I0630 19:36:03.694131 1970144000 net.cpp:127] Top shape: 64 500 (32000)
I0630 19:36:03.694161 1970144000 net.cpp:459] Sharing parameters 'ip1_w' owned by layer 'ip1', param index 0
I0630 19:36:03.694176 1970144000 net.cpp:459] Sharing parameters 'ip1_b' owned by layer 'ip1', param index 1
I0630 19:36:03.694182 1970144000 layer_factory.hpp:74] Creating layer relu1_p
I0630 19:36:03.694191 1970144000 net.cpp:90] Creating Layer relu1_p
I0630 19:36:03.694211 1970144000 net.cpp:410] relu1_p <- ip1_p
I0630 19:36:03.694227 1970144000 net.cpp:357] relu1_p -> ip1_p (in-place)
I0630 19:36:03.694260 1970144000 net.cpp:120] Setting up relu1_p
I0630 19:36:03.694411 1970144000 net.cpp:127] Top shape: 64 500 (32000)
I0630 19:36:03.694428 1970144000 layer_factory.hpp:74] Creating layer ip2_p
I0630 19:36:03.694447 1970144000 net.cpp:90] Creating Layer ip2_p
I0630 19:36:03.694460 1970144000 net.cpp:410] ip2_p <- ip1_p
I0630 19:36:03.694473 1970144000 net.cpp:368] ip2_p -> ip2_p
I0630 19:36:03.694484 1970144000 net.cpp:120] Setting up ip2_p
I0630 19:36:03.697187 1970144000 net.cpp:127] Top shape: 64 500 (32000)
I0630 19:36:03.697207 1970144000 net.cpp:459] Sharing parameters 'ip2_w' owned by layer 'ip2', param index 0
I0630 19:36:03.697331 1970144000 net.cpp:459] Sharing parameters 'ip2_b' owned by layer 'ip2', param index 1
I0630 19:36:03.697343 1970144000 layer_factory.hpp:74] Creating layer relu2_p
I0630 19:36:03.697356 1970144000 net.cpp:90] Creating Layer relu2_p
I0630 19:36:03.697365 1970144000 net.cpp:410] relu2_p <- ip2_p
I0630 19:36:03.697374 1970144000 net.cpp:357] relu2_p -> ip2_p (in-place)
I0630 19:36:03.697386 1970144000 net.cpp:120] Setting up relu2_p
I0630 19:36:03.697475 1970144000 net.cpp:127] Top shape: 64 500 (32000)
I0630 19:36:03.697489 1970144000 layer_factory.hpp:74] Creating layer feat_p
I0630 19:36:03.697516 1970144000 net.cpp:90] Creating Layer feat_p
I0630 19:36:03.697531 1970144000 net.cpp:410] feat_p <- ip2_p
I0630 19:36:03.697546 1970144000 net.cpp:368] feat_p -> feat_p
I0630 19:36:03.697571 1970144000 net.cpp:120] Setting up feat_p
I0630 19:36:03.697624 1970144000 net.cpp:127] Top shape: 64 2 (128)
I0630 19:36:03.697652 1970144000 net.cpp:459] Sharing parameters 'feat_w' owned by layer 'feat', param index 0
I0630 19:36:03.697664 1970144000 net.cpp:459] Sharing parameters 'feat_b' owned by layer 'feat', param index 1
I0630 19:36:03.697674 1970144000 layer_factory.hpp:74] Creating layer loss
I0630 19:36:03.697705 1970144000 net.cpp:90] Creating Layer loss
I0630 19:36:03.697715 1970144000 net.cpp:410] loss <- feat
…
I0630 19:36:03.698997 1970144000 solver.cpp:154] Creating test net (#0) specified by net file: src/siamese_network_bw/model/siamese_train_validate.prototxt
I0630 19:36:03.699082 1970144000 net.cpp:287] The NetState phase (1) differed from the phase (0) specified by a rule in layer pair_data
I0630 19:36:03.699129 1970144000 net.cpp:42] Initializing net from parameters: 
name: "siamese_train_validate"
state {
  phase: TEST
}
layer {
  name: "pair_data"
  type: "Data"
  top: "pair_data"
  top: "sim"
  include {
    phase: TEST
  }
  transform_param {
    scale: 0.00390625
  }
  data_param {
    source: "src/siamese_network_bw/data/siamese_network_validation_leveldb"
    batch_size: 100
  }
}
layer {
  name: "slice_pair"
  type: "Slice"
  bottom: "pair_data"
  top: "data"
  top: "data_p"
  slice_param {
    slice_dim: 1
    slice_point: 1
  }
}
layer {
  name: "conv1"
  type: "Convolution"
  bottom: "data"
  top: "conv1"
  param {
    name: "conv1_w"
    lr_mult: 1
  }
  param {
    name: "conv1_b"
    lr_mult: 2
  }
  convolution_param {
    num_output: 32
    kernel_size: 3
    stride: 1
    weight_filler {
      type: "xavier"
    }
    bias_filler {
      type: "constant"
    }
  }
}
layer {
  name: "pool1"
  type: "Pooling"
  bottom: "conv1"
  top: "pool1"
  pooling_param {
    pool: MAX
    kernel_size: 2
    stride: 2
  }
}
layer {
  name: "conv2"
  type: "Convolution"
  bottom: "pool1"
  top: "conv2"
  param {
    name: "conv2_w"
    lr_mult: 1
  }
  param {
    name: "conv2_b"
    lr_mult: 2
  }
  convolution_param {
    num_output: 64
    kernel_size: 2
    stride: 1
    weight_filler {
      type: "xavier"
    }
    bias_filler {
      type: "constant"
    }
  }
}
layer {
  name: "pool2"
  type: "Pooling"
  bottom: "conv2"
  top: "pool2"
  pooling_param {
    pool: MAX
    kernel_size: 2
    stride: 2
  }
}
layer {
  name: "conv3"
  type: "Convolution"
  bottom: "pool2"
  top: "conv3"
  param {
    name: "conv3_w"
    lr_mult: 1
  }
  param {
    name: "conv3_b"
    lr_mult: 2
  }
  convolution_param {
    num_output: 128
    kernel_size: 2
    stride: 1
    weight_filler {
      type: "xavier"
    }
    bias_filler {
      type: "constant"
    }
  }
}
layer {
  name: "pool3"
  type: "Pooling"
  bottom: "conv3"
  top: "pool3"
  pooling_param {
    pool: MAX
    kernel_size: 2
    stride: 2
  }
}
layer {
  name: "ip1"
  type: "InnerProduct"
  bottom: "pool3"
  top: "ip1"
  param {
    name: "ip1_w"
    lr_mult: 1
  }
  param {
    name: "ip1_b"
    lr_mult: 2
  }
  inner_product_param {
    num_output: 500
    weight_filler {
      type: "xavier"
    }
    bias_filler {
      type: "constant"
    }
  }
}
layer {
  name: "relu1"
  type: "ReLU"
  bottom: "ip1"
  top: "ip1"
}
layer {
  name: "ip2"
  type: "InnerProduct"
  bottom: "ip1"
  top: "ip2"
  param {
    name: "ip2_w"
    lr_mult: 1
  }
  param {
    name: "ip2_b"
    lr_mult: 2
  }
  inner_product_param {
    num_output: 500
    weight_filler {
      type: "xavier"
    }
    bias_filler {
      type: "constant"
    }
  }
}
layer {
  name: "relu2"
  type: "ReLU"
  bottom: "ip2"
  top: "ip2"
}
layer {
  name: "feat"
  type: "InnerProduct"
  bottom: "ip2"
  top: "feat"
  param {
    name: "feat_w"
    lr_mult: 1
  }
  param {
    name: "feat_b"
    lr_mult: 2
  }
  inner_product_param {
    num_output: 2
    weight_filler {
      type: "xavier"
    }
    bias_filler {
      type: "constant"
    }
  }
}
layer {
  name: "conv1_p"
  type: "Convolution"
  bottom: "data_p"
  top: "conv1_p"
  param {
    name: "conv1_w"
    lr_mult: 1
  }
  param {
    name: "conv1_b"
    lr_mult: 2
  }
  convolution_param {
    num_output: 32
    kernel_size: 3
    stride: 1
    weight_filler {
      type: "xavier"
    }
    bias_filler {
      type: "constant"
    }
  }
}
layer {
  name: "pool1_p"
  type: "Pooling"
  bottom: "conv1_p"
  top: "pool1_p"
  pooling_param {
    pool: MAX
    kernel_size: 2
    stride: 2
  }
}
layer {
  name: "conv2_p"
  type: "Convolution"
  bottom: "pool1_p"
  top: "conv2_p"
  param {
    name: "conv2_w"
    lr_mult: 1
  }
  param {
    name: "conv2_b"
    lr_mult: 2
  }
  convolution_param {
    num_output: 64
    kernel_size: 2
    stride: 1
    weight_filler {
      type: "xavier"
    }
    bias_filler {
      type: "constant"
    }
  }
}
layer {
  name: "pool2_p"
  type: "Pooling"
  bottom: "conv2_p"
  top: "pool2_p"
  pooling_param {
    pool: MAX
    kernel_size: 2
    stride: 2
  }
}
layer {
  name: "conv3_p"
  type: "Convolution"
  bottom: "pool2_p"
  top: "conv3_p"
  param {
    name: "conv3_w"
    lr_mult: 1
  }
  param {
    name: "conv3_b"
    lr_mult: 2
  }
  convolution_param {
    num_output: 128
    kernel_size: 2
    stride: 1
    weight_filler {
      type: "xavier"
    }
    bias_filler {
      type: "constant"
    }
  }
}
layer {
  name: "pool3_p"
  type: "Pooling"
  bottom: "conv3_p"
  top: "pool3_p"
  pooling_param {
    pool: MAX
    kernel_size: 2
    stride: 2
  }
}
layer {
  name: "ip1_p"
  type: "InnerProduct"
  bottom: "pool3_p"
  top: "ip1_p"
  param {
    name: "ip1_w"
    lr_mult: 1
  }
  param {
    name: "ip1_b"
    lr_mult: 2
  }
  inner_product_param {
    num_output: 500
    weight_filler {
      type: "xavier"
    }
    bias_filler {
      type: "constant"
    }
  }
}
layer {
  name: "relu1_p"
  type: "ReLU"
  bottom: "ip1_p"
  top: "ip1_p"
}
layer {
  name: "ip2_p"
  type: "InnerProduct"
  bottom: "ip1_p"
  top: "ip2_p"
  param {
    name: "ip2_w"
    lr_mult: 1
  }
  param {
    name: "ip2_b"
    lr_mult: 2
  }
  inner_product_param {
    num_output: 500
    weight_filler {
      type: "xavier"
    }
    bias_filler {
      type: "constant"
    }
  }
}
layer {
  name: "relu2_p"
  type: "ReLU"
  bottom: "ip2_p"
  top: "ip2_p"
}
layer {
  name: "feat_p"
  type: "InnerProduct"
  bottom: "ip2_p"
  top: "feat_p"
  param {
    name: "feat_w"
    lr_mult: 1
  }
  param {
    name: "feat_b"
    lr_mult: 2
  }
  inner_product_param {
    num_output: 2
    weight_filler {
      type: "xavier"
    }
    bias_filler {
      type: "constant"
    }
  }
}
layer {
  name: "loss"
  type: "ContrastiveLoss"
  bottom: "feat"
  bottom: "feat_p"
  bottom: "sim"
  top: "loss"
  contrastive_loss_param {
    margin: 2
  }
}
I0630 19:36:03.699694 1970144000 layer_factory.hpp:74] Creating layer pair_data
I0630 19:36:03.699707 1970144000 net.cpp:90] Creating Layer pair_data
I0630 19:36:03.699712 1970144000 net.cpp:368] pair_data -> pair_data
I0630 19:36:03.699725 1970144000 net.cpp:368] pair_data -> sim
I0630 19:36:03.699748 1970144000 net.cpp:120] Setting up pair_data
I0630 19:36:03.704004 1970144000 db.cpp:20] Opened leveldb src/siamese_network_bw/data/siamese_network_validation_leveldb
I0630 19:36:03.705503 1970144000 data_layer.cpp:52] output data size: 100,2,62,47
I0630 19:36:03.706856 1970144000 net.cpp:127] Top shape: 100 2 62 47 (582800)
I0630 19:36:03.706876 1970144000 net.cpp:127] Top shape: 100 (100)
I0630 19:36:03.706887 1970144000 layer_factory.hpp:74] Creating layer slice_pair
I0630 19:36:03.706907 1970144000 net.cpp:90] Creating Layer slice_pair
I0630 19:36:03.706914 1970144000 net.cpp:410] slice_pair <- pair_data
I0630 19:36:03.706943 1970144000 net.cpp:368] slice_pair -> data
I0630 19:36:03.706957 1970144000 net.cpp:368] slice_pair -> data_p
I0630 19:36:03.706970 1970144000 net.cpp:120] Setting up slice_pair
I0630 19:36:03.706977 1970144000 net.cpp:127] Top shape: 100 1 62 47 (291400)
I0630 19:36:03.706985 1970144000 net.cpp:127] Top shape: 100 1 62 47 (291400)
I0630 19:36:03.706993 1970144000 layer_factory.hpp:74] Creating layer conv1
I0630 19:36:03.707026 1970144000 net.cpp:90] Creating Layer conv1
I0630 19:36:03.707031 1970144000 net.cpp:410] conv1 <- data
I0630 19:36:03.707038 1970144000 net.cpp:368] conv1 -> conv1
I0630 19:36:03.707047 1970144000 net.cpp:120] Setting up conv1
I0630 19:36:03.707506 1970144000 net.cpp:127] Top shape: 100 32 60 45 (8640000)
I0630 19:36:03.707540 1970144000 layer_factory.hpp:74] Creating layer pool1
I0630 19:36:03.707554 1970144000 net.cpp:90] Creating Layer pool1
I0630 19:36:03.707562 1970144000 net.cpp:410] pool1 <- conv1
I0630 19:36:03.707572 1970144000 net.cpp:368] pool1 -> pool1
I0630 19:36:03.707583 1970144000 net.cpp:120] Setting up pool1
I0630 19:36:03.707679 1970144000 net.cpp:127] Top shape: 100 32 30 23 (2208000)
I0630 19:36:03.707695 1970144000 layer_factory.hpp:74] Creating layer conv2
I0630 19:36:03.707708 1970144000 net.cpp:90] Creating Layer conv2
I0630 19:36:03.707715 1970144000 net.cpp:410] conv2 <- pool1
I0630 19:36:03.707726 1970144000 net.cpp:368] conv2 -> conv2
I0630 19:36:03.707739 1970144000 net.cpp:120] Setting up conv2
I0630 19:36:03.708163 1970144000 net.cpp:127] Top shape: 100 64 29 22 (4083200)
I0630 19:36:03.708183 1970144000 layer_factory.hpp:74] Creating layer pool2
I0630 19:36:03.708194 1970144000 net.cpp:90] Creating Layer pool2
I0630 19:36:03.708201 1970144000 net.cpp:410] pool2 <- conv2
I0630 19:36:03.708211 1970144000 net.cpp:368] pool2 -> pool2
I0630 19:36:03.708230 1970144000 net.cpp:120] Setting up pool2
I0630 19:36:03.708359 1970144000 net.cpp:127] Top shape: 100 64 15 11 (1056000)
I0630 19:36:03.708370 1970144000 layer_factory.hpp:74] Creating layer conv3
I0630 19:36:03.708391 1970144000 net.cpp:90] Creating Layer conv3
I0630 19:36:03.708401 1970144000 net.cpp:410] conv3 <- pool2
I0630 19:36:03.708428 1970144000 net.cpp:368] conv3 -> conv3
I0630 19:36:03.708451 1970144000 net.cpp:120] Setting up conv3
I0630 19:36:03.709280 1970144000 net.cpp:127] Top shape: 100 128 14 10 (1792000)
I0630 19:36:03.709336 1970144000 layer_factory.hpp:74] Creating layer pool3
I0630 19:36:03.709352 1970144000 net.cpp:90] Creating Layer pool3
I0630 19:36:03.709372 1970144000 net.cpp:410] pool3 <- conv3
I0630 19:36:03.709384 1970144000 net.cpp:368] pool3 -> pool3
I0630 19:36:03.709396 1970144000 net.cpp:120] Setting up pool3
I0630 19:36:03.709470 1970144000 net.cpp:127] Top shape: 100 128 7 5 (448000)
I0630 19:36:03.709483 1970144000 layer_factory.hpp:74] Creating layer ip1
I0630 19:36:03.709506 1970144000 net.cpp:90] Creating Layer ip1
I0630 19:36:03.709537 1970144000 net.cpp:410] ip1 <- pool3
I0630 19:36:03.709555 1970144000 net.cpp:368] ip1 -> ip1
I0630 19:36:03.709580 1970144000 net.cpp:120] Setting up ip1
I0630 19:36:03.729554 1970144000 net.cpp:127] Top shape: 100 500 (50000)
I0630 19:36:03.729593 1970144000 layer_factory.hpp:74] Creating layer relu1
I0630 19:36:03.729624 1970144000 net.cpp:90] Creating Layer relu1
I0630 19:36:03.729648 1970144000 net.cpp:410] relu1 <- ip1
I0630 19:36:03.729671 1970144000 net.cpp:357] relu1 -> ip1 (in-place)
I0630 19:36:03.729682 1970144000 net.cpp:120] Setting up relu1
I0630 19:36:03.729811 1970144000 net.cpp:127] Top shape: 100 500 (50000)
I0630 19:36:03.729827 1970144000 layer_factory.hpp:74] Creating layer ip2
I0630 19:36:03.729841 1970144000 net.cpp:90] Creating Layer ip2
I0630 19:36:03.729850 1970144000 net.cpp:410] ip2 <- ip1
I0630 19:36:03.729866 1970144000 net.cpp:368] ip2 -> ip2
I0630 19:36:03.729889 1970144000 net.cpp:120] Setting up ip2
I0630 19:36:03.731938 1970144000 net.cpp:127] Top shape: 100 500 (50000)
I0630 19:36:03.731961 1970144000 layer_factory.hpp:74] Creating layer relu2
I0630 19:36:03.731969 1970144000 net.cpp:90] Creating Layer relu2
I0630 19:36:03.731973 1970144000 net.cpp:410] relu2 <- ip2
I0630 19:36:03.731986 1970144000 net.cpp:357] relu2 -> ip2 (in-place)
I0630 19:36:03.732003 1970144000 net.cpp:120] Setting up relu2
I0630 19:36:03.732095 1970144000 net.cpp:127] Top shape: 100 500 (50000)
I0630 19:36:03.732105 1970144000 layer_factory.hpp:74] Creating layer feat
I0630 19:36:03.732147 1970144000 net.cpp:90] Creating Layer feat
I0630 19:36:03.732161 1970144000 net.cpp:410] feat <- ip2
I0630 19:36:03.732172 1970144000 net.cpp:368] feat -> feat
I0630 19:36:03.732184 1970144000 net.cpp:120] Setting up feat
I0630 19:36:03.732209 1970144000 net.cpp:127] Top shape: 100 2 (200)
I0630 19:36:03.732218 1970144000 layer_factory.hpp:74] Creating layer conv1_p
I0630 19:36:03.732226 1970144000 net.cpp:90] Creating Layer conv1_p
I0630 19:36:03.732265 1970144000 net.cpp:410] conv1_p <- data_p
I0630 19:36:03.732285 1970144000 net.cpp:368] conv1_p -> conv1_p
I0630 19:36:03.732295 1970144000 net.cpp:120] Setting up conv1_p
I0630 19:36:03.732738 1970144000 net.cpp:127] Top shape: 100 32 60 45 (8640000)
I0630 19:36:03.732753 1970144000 net.cpp:459] Sharing parameters 'conv1_w' owned by layer 'conv1', param index 0
I0630 19:36:03.732759 1970144000 net.cpp:459] Sharing parameters 'conv1_b' owned by layer 'conv1', param index 1
I0630 19:36:03.732782 1970144000 layer_factory.hpp:74] Creating layer pool1_p
I0630 19:36:03.732805 1970144000 net.cpp:90] Creating Layer pool1_p
I0630 19:36:03.732812 1970144000 net.cpp:410] pool1_p <- conv1_p
I0630 19:36:03.732822 1970144000 net.cpp:368] pool1_p -> pool1_p
I0630 19:36:03.732832 1970144000 net.cpp:120] Setting up pool1_p
I0630 19:36:03.733036 1970144000 net.cpp:127] Top shape: 100 32 30 23 (2208000)
I0630 19:36:03.733052 1970144000 layer_factory.hpp:74] Creating layer conv2_p
I0630 19:36:03.733067 1970144000 net.cpp:90] Creating Layer conv2_p
I0630 19:36:03.733073 1970144000 net.cpp:410] conv2_p <- pool1_p
I0630 19:36:03.733083 1970144000 net.cpp:368] conv2_p -> conv2_p
I0630 19:36:03.733101 1970144000 net.cpp:120] Setting up conv2_p
I0630 19:36:03.733546 1970144000 net.cpp:127] Top shape: 100 64 29 22 (4083200)
I0630 19:36:03.733562 1970144000 net.cpp:459] Sharing parameters 'conv2_w' owned by layer 'conv2', param index 0
I0630 19:36:03.733571 1970144000 net.cpp:459] Sharing parameters 'conv2_b' owned by layer 'conv2', param index 1
I0630 19:36:03.733593 1970144000 layer_factory.hpp:74] Creating layer pool2_p
I0630 19:36:03.733623 1970144000 net.cpp:90] Creating Layer pool2_p
I0630 19:36:03.733633 1970144000 net.cpp:410] pool2_p <- conv2_p
I0630 19:36:03.733641 1970144000 net.cpp:368] pool2_p -> pool2_p
I0630 19:36:03.733650 1970144000 net.cpp:120] Setting up pool2_p
I0630 19:36:03.733708 1970144000 net.cpp:127] Top shape: 100 64 15 11 (1056000)
I0630 19:36:03.733716 1970144000 layer_factory.hpp:74] Creating layer conv3_p
I0630 19:36:03.733724 1970144000 net.cpp:90] Creating Layer conv3_p
I0630 19:36:03.733739 1970144000 net.cpp:410] conv3_p <- pool2_p
I0630 19:36:03.733757 1970144000 net.cpp:368] conv3_p -> conv3_p
I0630 19:36:03.733770 1970144000 net.cpp:120] Setting up conv3_p
I0630 19:36:03.734562 1970144000 net.cpp:127] Top shape: 100 128 14 10 (1792000)
I0630 19:36:03.734585 1970144000 net.cpp:459] Sharing parameters 'conv3_w' owned by layer 'conv3', param index 0
I0630 19:36:03.734597 1970144000 net.cpp:459] Sharing parameters 'conv3_b' owned by layer 'conv3', param index 1
I0630 19:36:03.734606 1970144000 layer_factory.hpp:74] Creating layer pool3_p
I0630 19:36:03.734616 1970144000 net.cpp:90] Creating Layer pool3_p
I0630 19:36:03.734630 1970144000 net.cpp:410] pool3_p <- conv3_p
I0630 19:36:03.734640 1970144000 net.cpp:368] pool3_p -> pool3_p
I0630 19:36:03.734652 1970144000 net.cpp:120] Setting up pool3_p
I0630 19:36:03.734730 1970144000 net.cpp:127] Top shape: 100 128 7 5 (448000)
I0630 19:36:03.734743 1970144000 layer_factory.hpp:74] Creating layer ip1_p
I0630 19:36:03.734757 1970144000 net.cpp:90] Creating Layer ip1_p
I0630 19:36:03.734766 1970144000 net.cpp:410] ip1_p <- pool3_p
I0630 19:36:03.734776 1970144000 net.cpp:368] ip1_p -> ip1_p
I0630 19:36:03.734788 1970144000 net.cpp:120] Setting up ip1_p
I0630 19:36:03.755059 1970144000 net.cpp:127] Top shape: 100 500 (50000)
I0630 19:36:03.755079 1970144000 net.cpp:459] Sharing parameters 'ip1_w' owned by layer 'ip1', param index 0
I0630 19:36:03.755098 1970144000 net.cpp:459] Sharing parameters 'ip1_b' owned by layer 'ip1', param index 1
I0630 19:36:03.755128 1970144000 layer_factory.hpp:74] Creating layer relu1_p
I0630 19:36:03.755138 1970144000 net.cpp:90] Creating Layer relu1_p
I0630 19:36:03.755143 1970144000 net.cpp:410] relu1_p <- ip1_p
I0630 19:36:03.755148 1970144000 net.cpp:357] relu1_p -> ip1_p (in-place)
I0630 19:36:03.755156 1970144000 net.cpp:120] Setting up relu1_p
I0630 19:36:03.755362 1970144000 net.cpp:127] Top shape: 100 500 (50000)
I0630 19:36:03.755378 1970144000 layer_factory.hpp:74] Creating layer ip2_p
I0630 19:36:03.755394 1970144000 net.cpp:90] Creating Layer ip2_p
I0630 19:36:03.755401 1970144000 net.cpp:410] ip2_p <- ip1_p
I0630 19:36:03.755409 1970144000 net.cpp:368] ip2_p -> ip2_p
I0630 19:36:03.755430 1970144000 net.cpp:120] Setting up ip2_p
I0630 19:36:03.757519 1970144000 net.cpp:127] Top shape: 100 500 (50000)
I0630 19:36:03.757545 1970144000 net.cpp:459] Sharing parameters 'ip2_w' owned by layer 'ip2', param index 0
I0630 19:36:03.757628 1970144000 net.cpp:459] Sharing parameters 'ip2_b' owned by layer 'ip2', param index 1
I0630 19:36:03.757635 1970144000 layer_factory.hpp:74] Creating layer relu2_p
I0630 19:36:03.757680 1970144000 net.cpp:90] Creating Layer relu2_p
I0630 19:36:03.757694 1970144000 net.cpp:410] relu2_p <- ip2_p
I0630 19:36:03.757705 1970144000 net.cpp:357] relu2_p -> ip2_p (in-place)
I0630 19:36:03.757726 1970144000 net.cpp:120] Setting up relu2_p
I0630 19:36:03.757791 1970144000 net.cpp:127] Top shape: 100 500 (50000)
I0630 19:36:03.757798 1970144000 layer_factory.hpp:74] Creating layer feat_p
I0630 19:36:03.757807 1970144000 net.cpp:90] Creating Layer feat_p
I0630 19:36:03.757810 1970144000 net.cpp:410] feat_p <- ip2_p
I0630 19:36:03.757818 1970144000 net.cpp:368] feat_p -> feat_p
I0630 19:36:03.757827 1970144000 net.cpp:120] Setting up feat_p
I0630 19:36:03.757848 1970144000 net.cpp:127] Top shape: 100 2 (200)
I0630 19:36:03.757853 1970144000 net.cpp:459] Sharing parameters 'feat_w' owned by layer 'feat', param index 0
I0630 19:36:03.757858 1970144000 net.cpp:459] Sharing parameters 'feat_b' owned by layer 'feat', param index 1
I0630 19:36:03.757863 1970144000 layer_factory.hpp:74] Creating layer loss
I0630 19:36:03.757869 1970144000 net.cpp:90] Creating Layer loss
I0630 19:36:03.757872 1970144000 net.cpp:410] loss <- feat
…
