…
I0629 01:46:53.943356 1970144000 solver.cpp:70] Creating training net from net file: src/siamese_network_bw/model/siamese_train_validate.prototxt
I0629 01:46:53.943737 1970144000 net.cpp:287] The NetState phase (0) differed from the phase (1) specified by a rule in layer pair_data
I0629 01:46:53.943766 1970144000 net.cpp:42] Initializing net from parameters: 
name: "siamese_train_validate"
state {
  phase: TRAIN
}
layer {
  name: "pair_data"
  type: "Data"
  top: "pair_data"
  top: "sim"
  include {
    phase: TRAIN
  }
  transform_param {
    scale: 0.00390625
  }
  data_param {
    source: "src/siamese_network_bw/data/siamese_network_train_leveldb"
    batch_size: 64
  }
}
layer {
  name: "slice_pair"
  type: "Slice"
  bottom: "pair_data"
  top: "data"
  top: "data_p"
  slice_param {
    slice_dim: 1
    slice_point: 1
  }
}
layer {
  name: "conv1"
  type: "Convolution"
  bottom: "data"
  top: "conv1"
  param {
    name: "conv1_w"
    lr_mult: 1
  }
  param {
    name: "conv1_b"
    lr_mult: 2
  }
  convolution_param {
    num_output: 32
    kernel_size: 3
    stride: 1
    weight_filler {
      type: "xavier"
    }
    bias_filler {
      type: "constant"
    }
  }
}
layer {
  name: "pool1"
  type: "Pooling"
  bottom: "conv1"
  top: "pool1"
  pooling_param {
    pool: MAX
    kernel_size: 2
    stride: 2
  }
}
layer {
  name: "conv2"
  type: "Convolution"
  bottom: "pool1"
  top: "conv2"
  param {
    name: "conv2_w"
    lr_mult: 1
  }
  param {
    name: "conv2_b"
    lr_mult: 2
  }
  convolution_param {
    num_output: 64
    kernel_size: 2
    stride: 1
    weight_filler {
      type: "xavier"
    }
    bias_filler {
      type: "constant"
    }
  }
}
layer {
  name: "pool2"
  type: "Pooling"
  bottom: "conv2"
  top: "pool2"
  pooling_param {
    pool: MAX
    kernel_size: 2
    stride: 2
  }
}
layer {
  name: "conv3"
  type: "Convolution"
  bottom: "pool2"
  top: "conv3"
  param {
    name: "conv3_w"
    lr_mult: 1
  }
  param {
    name: "conv3_b"
    lr_mult: 2
  }
  convolution_param {
    num_output: 128
    kernel_size: 2
    stride: 1
    weight_filler {
      type: "xavier"
    }
    bias_filler {
      type: "constant"
    }
  }
}
layer {
  name: "pool3"
  type: "Pooling"
  bottom: "conv3"
  top: "pool3"
  pooling_param {
    pool: MAX
    kernel_size: 2
    stride: 2
  }
}
layer {
  name: "ip1"
  type: "InnerProduct"
  bottom: "pool3"
  top: "ip1"
  param {
    name: "ip1_w"
    lr_mult: 1
  }
  param {
    name: "ip1_b"
    lr_mult: 2
  }
  inner_product_param {
    num_output: 500
    weight_filler {
      type: "xavier"
    }
    bias_filler {
      type: "constant"
    }
  }
}
layer {
  name: "relu1"
  type: "ReLU"
  bottom: "ip1"
  top: "ip1"
}
layer {
  name: "ip2"
  type: "InnerProduct"
  bottom: "ip1"
  top: "ip2"
  param {
    name: "ip2_w"
    lr_mult: 1
  }
  param {
    name: "ip2_b"
    lr_mult: 2
  }
  inner_product_param {
    num_output: 500
    weight_filler {
      type: "xavier"
    }
    bias_filler {
      type: "constant"
    }
  }
}
layer {
  name: "relu2"
  type: "ReLU"
  bottom: "ip2"
  top: "ip2"
}
layer {
  name: "feat"
  type: "InnerProduct"
  bottom: "ip2"
  top: "feat"
  param {
    name: "feat_w"
    lr_mult: 1
  }
  param {
    name: "feat_b"
    lr_mult: 2
  }
  inner_product_param {
    num_output: 2
    weight_filler {
      type: "xavier"
    }
    bias_filler {
      type: "constant"
    }
  }
}
layer {
  name: "conv1_p"
  type: "Convolution"
  bottom: "data_p"
  top: "conv1_p"
  param {
    name: "conv1_w"
    lr_mult: 1
  }
  param {
    name: "conv1_b"
    lr_mult: 2
  }
  convolution_param {
    num_output: 32
    kernel_size: 3
    stride: 1
    weight_filler {
      type: "xavier"
    }
    bias_filler {
      type: "constant"
    }
  }
}
layer {
  name: "pool1_p"
  type: "Pooling"
  bottom: "conv1_p"
  top: "pool1_p"
  pooling_param {
    pool: MAX
    kernel_size: 2
    stride: 2
  }
}
layer {
  name: "conv2_p"
  type: "Convolution"
  bottom: "pool1_p"
  top: "conv2_p"
  param {
    name: "conv2_w"
    lr_mult: 1
  }
  param {
    name: "conv2_b"
    lr_mult: 2
  }
  convolution_param {
    num_output: 64
    kernel_size: 2
    stride: 1
    weight_filler {
      type: "xavier"
    }
    bias_filler {
      type: "constant"
    }
  }
}
layer {
  name: "pool2_p"
  type: "Pooling"
  bottom: "conv2_p"
  top: "pool2_p"
  pooling_param {
    pool: MAX
    kernel_size: 2
    stride: 2
  }
}
layer {
  name: "conv3_p"
  type: "Convolution"
  bottom: "pool2_p"
  top: "conv3_p"
  param {
    name: "conv3_w"
    lr_mult: 1
  }
  param {
    name: "conv3_b"
    lr_mult: 2
  }
  convolution_param {
    num_output: 128
    kernel_size: 2
    stride: 1
    weight_filler {
      type: "xavier"
    }
    bias_filler {
      type: "constant"
    }
  }
}
layer {
  name: "pool3_p"
  type: "Pooling"
  bottom: "conv3_p"
  top: "pool3_p"
  pooling_param {
    pool: MAX
    kernel_size: 2
    stride: 2
  }
}
layer {
  name: "ip1_p"
  type: "InnerProduct"
  bottom: "pool3_p"
  top: "ip1_p"
  param {
    name: "ip1_w"
    lr_mult: 1
  }
  param {
    name: "ip1_b"
    lr_mult: 2
  }
  inner_product_param {
    num_output: 500
    weight_filler {
      type: "xavier"
    }
    bias_filler {
      type: "constant"
    }
  }
}
layer {
  name: "relu1_p"
  type: "ReLU"
  bottom: "ip1_p"
  top: "ip1_p"
}
layer {
  name: "ip2_p"
  type: "InnerProduct"
  bottom: "ip1_p"
  top: "ip2_p"
  param {
    name: "ip2_w"
    lr_mult: 1
  }
  param {
    name: "ip2_b"
    lr_mult: 2
  }
  inner_product_param {
    num_output: 500
    weight_filler {
      type: "xavier"
    }
    bias_filler {
      type: "constant"
    }
  }
}
layer {
  name: "relu2_p"
  type: "ReLU"
  bottom: "ip2_p"
  top: "ip2_p"
}
layer {
  name: "feat_p"
  type: "InnerProduct"
  bottom: "ip2_p"
  top: "feat_p"
  param {
    name: "feat_w"
    lr_mult: 1
  }
  param {
    name: "feat_b"
    lr_mult: 2
  }
  inner_product_param {
    num_output: 2
    weight_filler {
      type: "xavier"
    }
    bias_filler {
      type: "constant"
    }
  }
}
layer {
  name: "loss"
  type: "ContrastiveLoss"
  bottom: "feat"
  bottom: "feat_p"
  bottom: "sim"
  top: "loss"
  contrastive_loss_param {
    margin: 1
  }
}
I0629 01:46:53.944059 1970144000 layer_factory.hpp:74] Creating layer pair_data
I0629 01:46:53.944077 1970144000 net.cpp:90] Creating Layer pair_data
I0629 01:46:53.944087 1970144000 net.cpp:368] pair_data -> pair_data
I0629 01:46:53.944105 1970144000 net.cpp:368] pair_data -> sim
I0629 01:46:53.944113 1970144000 net.cpp:120] Setting up pair_data
I0629 01:46:53.952075 1970144000 db.cpp:20] Opened leveldb src/siamese_network_bw/data/siamese_network_train_leveldb
I0629 01:46:53.952723 1970144000 data_layer.cpp:52] output data size: 64,2,62,47
I0629 01:46:53.953351 1970144000 net.cpp:127] Top shape: 64 2 62 47 (372992)
I0629 01:46:53.953371 1970144000 net.cpp:127] Top shape: 64 (64)
I0629 01:46:53.953377 1970144000 layer_factory.hpp:74] Creating layer slice_pair
I0629 01:46:53.953389 1970144000 net.cpp:90] Creating Layer slice_pair
I0629 01:46:53.953394 1970144000 net.cpp:410] slice_pair <- pair_data
I0629 01:46:53.953400 1970144000 net.cpp:368] slice_pair -> data
I0629 01:46:53.953413 1970144000 net.cpp:368] slice_pair -> data_p
I0629 01:46:53.953461 1970144000 net.cpp:120] Setting up slice_pair
I0629 01:46:53.953486 1970144000 net.cpp:127] Top shape: 64 1 62 47 (186496)
I0629 01:46:53.953497 1970144000 net.cpp:127] Top shape: 64 1 62 47 (186496)
I0629 01:46:53.953507 1970144000 layer_factory.hpp:74] Creating layer conv1
I0629 01:46:53.953523 1970144000 net.cpp:90] Creating Layer conv1
I0629 01:46:53.953537 1970144000 net.cpp:410] conv1 <- data
I0629 01:46:53.953552 1970144000 net.cpp:368] conv1 -> conv1
I0629 01:46:53.953588 1970144000 net.cpp:120] Setting up conv1
I0629 01:46:54.015367 1970144000 net.cpp:127] Top shape: 64 32 60 45 (5529600)
I0629 01:46:54.015408 1970144000 layer_factory.hpp:74] Creating layer pool1
I0629 01:46:54.015426 1970144000 net.cpp:90] Creating Layer pool1
I0629 01:46:54.015434 1970144000 net.cpp:410] pool1 <- conv1
I0629 01:46:54.015445 1970144000 net.cpp:368] pool1 -> pool1
I0629 01:46:54.015457 1970144000 net.cpp:120] Setting up pool1
I0629 01:46:54.015662 1970144000 net.cpp:127] Top shape: 64 32 30 23 (1413120)
I0629 01:46:54.015678 1970144000 layer_factory.hpp:74] Creating layer conv2
I0629 01:46:54.015692 1970144000 net.cpp:90] Creating Layer conv2
I0629 01:46:54.015699 1970144000 net.cpp:410] conv2 <- pool1
I0629 01:46:54.015712 1970144000 net.cpp:368] conv2 -> conv2
I0629 01:46:54.015732 1970144000 net.cpp:120] Setting up conv2
I0629 01:46:54.016209 1970144000 net.cpp:127] Top shape: 64 64 29 22 (2613248)
I0629 01:46:54.016237 1970144000 layer_factory.hpp:74] Creating layer pool2
I0629 01:46:54.016252 1970144000 net.cpp:90] Creating Layer pool2
I0629 01:46:54.016261 1970144000 net.cpp:410] pool2 <- conv2
I0629 01:46:54.016271 1970144000 net.cpp:368] pool2 -> pool2
I0629 01:46:54.016283 1970144000 net.cpp:120] Setting up pool2
I0629 01:46:54.016355 1970144000 net.cpp:127] Top shape: 64 64 15 11 (675840)
I0629 01:46:54.016382 1970144000 layer_factory.hpp:74] Creating layer conv3
I0629 01:46:54.016397 1970144000 net.cpp:90] Creating Layer conv3
I0629 01:46:54.016405 1970144000 net.cpp:410] conv3 <- pool2
I0629 01:46:54.016417 1970144000 net.cpp:368] conv3 -> conv3
I0629 01:46:54.016429 1970144000 net.cpp:120] Setting up conv3
I0629 01:46:54.017343 1970144000 net.cpp:127] Top shape: 64 128 14 10 (1146880)
I0629 01:46:54.017369 1970144000 layer_factory.hpp:74] Creating layer pool3
I0629 01:46:54.017381 1970144000 net.cpp:90] Creating Layer pool3
I0629 01:46:54.017388 1970144000 net.cpp:410] pool3 <- conv3
I0629 01:46:54.017400 1970144000 net.cpp:368] pool3 -> pool3
I0629 01:46:54.017410 1970144000 net.cpp:120] Setting up pool3
I0629 01:46:54.017485 1970144000 net.cpp:127] Top shape: 64 128 7 5 (286720)
I0629 01:46:54.017498 1970144000 layer_factory.hpp:74] Creating layer ip1
I0629 01:46:54.017510 1970144000 net.cpp:90] Creating Layer ip1
I0629 01:46:54.017518 1970144000 net.cpp:410] ip1 <- pool3
I0629 01:46:54.017529 1970144000 net.cpp:368] ip1 -> ip1
I0629 01:46:54.017540 1970144000 net.cpp:120] Setting up ip1
I0629 01:46:54.036770 1970144000 net.cpp:127] Top shape: 64 500 (32000)
I0629 01:46:54.036795 1970144000 layer_factory.hpp:74] Creating layer relu1
I0629 01:46:54.036808 1970144000 net.cpp:90] Creating Layer relu1
I0629 01:46:54.036815 1970144000 net.cpp:410] relu1 <- ip1
I0629 01:46:54.036823 1970144000 net.cpp:357] relu1 -> ip1 (in-place)
I0629 01:46:54.036830 1970144000 net.cpp:120] Setting up relu1
I0629 01:46:54.036998 1970144000 net.cpp:127] Top shape: 64 500 (32000)
I0629 01:46:54.037009 1970144000 layer_factory.hpp:74] Creating layer ip2
I0629 01:46:54.037019 1970144000 net.cpp:90] Creating Layer ip2
I0629 01:46:54.037025 1970144000 net.cpp:410] ip2 <- ip1
I0629 01:46:54.037037 1970144000 net.cpp:368] ip2 -> ip2
I0629 01:46:54.037050 1970144000 net.cpp:120] Setting up ip2
I0629 01:46:54.038903 1970144000 net.cpp:127] Top shape: 64 500 (32000)
I0629 01:46:54.038931 1970144000 layer_factory.hpp:74] Creating layer relu2
I0629 01:46:54.038944 1970144000 net.cpp:90] Creating Layer relu2
I0629 01:46:54.038952 1970144000 net.cpp:410] relu2 <- ip2
I0629 01:46:54.038962 1970144000 net.cpp:357] relu2 -> ip2 (in-place)
I0629 01:46:54.038974 1970144000 net.cpp:120] Setting up relu2
I0629 01:46:54.039063 1970144000 net.cpp:127] Top shape: 64 500 (32000)
I0629 01:46:54.039083 1970144000 layer_factory.hpp:74] Creating layer feat
I0629 01:46:54.039095 1970144000 net.cpp:90] Creating Layer feat
I0629 01:46:54.039101 1970144000 net.cpp:410] feat <- ip2
I0629 01:46:54.039114 1970144000 net.cpp:368] feat -> feat
I0629 01:46:54.039124 1970144000 net.cpp:120] Setting up feat
I0629 01:46:54.039145 1970144000 net.cpp:127] Top shape: 64 2 (128)
I0629 01:46:54.039173 1970144000 layer_factory.hpp:74] Creating layer conv1_p
I0629 01:46:54.039181 1970144000 net.cpp:90] Creating Layer conv1_p
I0629 01:46:54.039186 1970144000 net.cpp:410] conv1_p <- data_p
I0629 01:46:54.039196 1970144000 net.cpp:368] conv1_p -> conv1_p
I0629 01:46:54.039211 1970144000 net.cpp:120] Setting up conv1_p
I0629 01:46:54.039616 1970144000 net.cpp:127] Top shape: 64 32 60 45 (5529600)
I0629 01:46:54.039630 1970144000 net.cpp:459] Sharing parameters 'conv1_w' owned by layer 'conv1', param index 0
I0629 01:46:54.039685 1970144000 net.cpp:459] Sharing parameters 'conv1_b' owned by layer 'conv1', param index 1
I0629 01:46:54.039733 1970144000 layer_factory.hpp:74] Creating layer pool1_p
I0629 01:46:54.039755 1970144000 net.cpp:90] Creating Layer pool1_p
I0629 01:46:54.039765 1970144000 net.cpp:410] pool1_p <- conv1_p
I0629 01:46:54.039774 1970144000 net.cpp:368] pool1_p -> pool1_p
I0629 01:46:54.039810 1970144000 net.cpp:120] Setting up pool1_p
I0629 01:46:54.039896 1970144000 net.cpp:127] Top shape: 64 32 30 23 (1413120)
I0629 01:46:54.039908 1970144000 layer_factory.hpp:74] Creating layer conv2_p
I0629 01:46:54.039916 1970144000 net.cpp:90] Creating Layer conv2_p
I0629 01:46:54.039921 1970144000 net.cpp:410] conv2_p <- pool1_p
I0629 01:46:54.039927 1970144000 net.cpp:368] conv2_p -> conv2_p
I0629 01:46:54.039937 1970144000 net.cpp:120] Setting up conv2_p
I0629 01:46:54.040208 1970144000 net.cpp:127] Top shape: 64 64 29 22 (2613248)
I0629 01:46:54.040220 1970144000 net.cpp:459] Sharing parameters 'conv2_w' owned by layer 'conv2', param index 0
I0629 01:46:54.040226 1970144000 net.cpp:459] Sharing parameters 'conv2_b' owned by layer 'conv2', param index 1
I0629 01:46:54.040231 1970144000 layer_factory.hpp:74] Creating layer pool2_p
I0629 01:46:54.040241 1970144000 net.cpp:90] Creating Layer pool2_p
I0629 01:46:54.040246 1970144000 net.cpp:410] pool2_p <- conv2_p
I0629 01:46:54.040251 1970144000 net.cpp:368] pool2_p -> pool2_p
I0629 01:46:54.040273 1970144000 net.cpp:120] Setting up pool2_p
I0629 01:46:54.040355 1970144000 net.cpp:127] Top shape: 64 64 15 11 (675840)
I0629 01:46:54.040369 1970144000 layer_factory.hpp:74] Creating layer conv3_p
I0629 01:46:54.040385 1970144000 net.cpp:90] Creating Layer conv3_p
I0629 01:46:54.040391 1970144000 net.cpp:410] conv3_p <- pool2_p
I0629 01:46:54.040427 1970144000 net.cpp:368] conv3_p -> conv3_p
I0629 01:46:54.040485 1970144000 net.cpp:120] Setting up conv3_p
I0629 01:46:54.041287 1970144000 net.cpp:127] Top shape: 64 128 14 10 (1146880)
I0629 01:46:54.041306 1970144000 net.cpp:459] Sharing parameters 'conv3_w' owned by layer 'conv3', param index 0
I0629 01:46:54.041331 1970144000 net.cpp:459] Sharing parameters 'conv3_b' owned by layer 'conv3', param index 1
I0629 01:46:54.041342 1970144000 layer_factory.hpp:74] Creating layer pool3_p
I0629 01:46:54.041352 1970144000 net.cpp:90] Creating Layer pool3_p
I0629 01:46:54.041359 1970144000 net.cpp:410] pool3_p <- conv3_p
I0629 01:46:54.041381 1970144000 net.cpp:368] pool3_p -> pool3_p
I0629 01:46:54.041393 1970144000 net.cpp:120] Setting up pool3_p
I0629 01:46:54.041545 1970144000 net.cpp:127] Top shape: 64 128 7 5 (286720)
I0629 01:46:54.041560 1970144000 layer_factory.hpp:74] Creating layer ip1_p
I0629 01:46:54.041573 1970144000 net.cpp:90] Creating Layer ip1_p
I0629 01:46:54.041580 1970144000 net.cpp:410] ip1_p <- pool3_p
I0629 01:46:54.041618 1970144000 net.cpp:368] ip1_p -> ip1_p
I0629 01:46:54.041632 1970144000 net.cpp:120] Setting up ip1_p
I0629 01:46:54.060956 1970144000 net.cpp:127] Top shape: 64 500 (32000)
I0629 01:46:54.060976 1970144000 net.cpp:459] Sharing parameters 'ip1_w' owned by layer 'ip1', param index 0
I0629 01:46:54.061583 1970144000 net.cpp:459] Sharing parameters 'ip1_b' owned by layer 'ip1', param index 1
I0629 01:46:54.061592 1970144000 layer_factory.hpp:74] Creating layer relu1_p
I0629 01:46:54.061601 1970144000 net.cpp:90] Creating Layer relu1_p
I0629 01:46:54.061607 1970144000 net.cpp:410] relu1_p <- ip1_p
I0629 01:46:54.061614 1970144000 net.cpp:357] relu1_p -> ip1_p (in-place)
I0629 01:46:54.061645 1970144000 net.cpp:120] Setting up relu1_p
I0629 01:46:54.061712 1970144000 net.cpp:127] Top shape: 64 500 (32000)
I0629 01:46:54.061718 1970144000 layer_factory.hpp:74] Creating layer ip2_p
I0629 01:46:54.061728 1970144000 net.cpp:90] Creating Layer ip2_p
I0629 01:46:54.061733 1970144000 net.cpp:410] ip2_p <- ip1_p
I0629 01:46:54.061739 1970144000 net.cpp:368] ip2_p -> ip2_p
I0629 01:46:54.061748 1970144000 net.cpp:120] Setting up ip2_p
I0629 01:46:54.063798 1970144000 net.cpp:127] Top shape: 64 500 (32000)
I0629 01:46:54.063809 1970144000 net.cpp:459] Sharing parameters 'ip2_w' owned by layer 'ip2', param index 0
I0629 01:46:54.063817 1970144000 net.cpp:459] Sharing parameters 'ip2_b' owned by layer 'ip2', param index 1
I0629 01:46:54.063822 1970144000 layer_factory.hpp:74] Creating layer relu2_p
I0629 01:46:54.063829 1970144000 net.cpp:90] Creating Layer relu2_p
I0629 01:46:54.063833 1970144000 net.cpp:410] relu2_p <- ip2_p
I0629 01:46:54.063839 1970144000 net.cpp:357] relu2_p -> ip2_p (in-place)
I0629 01:46:54.063845 1970144000 net.cpp:120] Setting up relu2_p
I0629 01:46:54.063900 1970144000 net.cpp:127] Top shape: 64 500 (32000)
I0629 01:46:54.063907 1970144000 layer_factory.hpp:74] Creating layer feat_p
I0629 01:46:54.063917 1970144000 net.cpp:90] Creating Layer feat_p
I0629 01:46:54.063921 1970144000 net.cpp:410] feat_p <- ip2_p
I0629 01:46:54.063928 1970144000 net.cpp:368] feat_p -> feat_p
I0629 01:46:54.064386 1970144000 net.cpp:120] Setting up feat_p
I0629 01:46:54.064409 1970144000 net.cpp:127] Top shape: 64 2 (128)
I0629 01:46:54.064416 1970144000 net.cpp:459] Sharing parameters 'feat_w' owned by layer 'feat', param index 0
I0629 01:46:54.064422 1970144000 net.cpp:459] Sharing parameters 'feat_b' owned by layer 'feat', param index 1
I0629 01:46:54.064427 1970144000 layer_factory.hpp:74] Creating layer loss
I0629 01:46:54.064442 1970144000 net.cpp:90] Creating Layer loss
I0629 01:46:54.064447 1970144000 net.cpp:410] loss <- feat
…
I0629 01:46:54.065037 1970144000 solver.cpp:154] Creating test net (#0) specified by net file: src/siamese_network_bw/model/siamese_train_validate.prototxt
I0629 01:46:54.065085 1970144000 net.cpp:287] The NetState phase (1) differed from the phase (0) specified by a rule in layer pair_data
I0629 01:46:54.065114 1970144000 net.cpp:42] Initializing net from parameters: 
name: "siamese_train_validate"
state {
  phase: TEST
}
layer {
  name: "pair_data"
  type: "Data"
  top: "pair_data"
  top: "sim"
  include {
    phase: TEST
  }
  transform_param {
    scale: 0.00390625
  }
  data_param {
    source: "src/siamese_network_bw/data/siamese_network_validation_leveldb"
    batch_size: 100
  }
}
layer {
  name: "slice_pair"
  type: "Slice"
  bottom: "pair_data"
  top: "data"
  top: "data_p"
  slice_param {
    slice_dim: 1
    slice_point: 1
  }
}
layer {
  name: "conv1"
  type: "Convolution"
  bottom: "data"
  top: "conv1"
  param {
    name: "conv1_w"
    lr_mult: 1
  }
  param {
    name: "conv1_b"
    lr_mult: 2
  }
  convolution_param {
    num_output: 32
    kernel_size: 3
    stride: 1
    weight_filler {
      type: "xavier"
    }
    bias_filler {
      type: "constant"
    }
  }
}
layer {
  name: "pool1"
  type: "Pooling"
  bottom: "conv1"
  top: "pool1"
  pooling_param {
    pool: MAX
    kernel_size: 2
    stride: 2
  }
}
layer {
  name: "conv2"
  type: "Convolution"
  bottom: "pool1"
  top: "conv2"
  param {
    name: "conv2_w"
    lr_mult: 1
  }
  param {
    name: "conv2_b"
    lr_mult: 2
  }
  convolution_param {
    num_output: 64
    kernel_size: 2
    stride: 1
    weight_filler {
      type: "xavier"
    }
    bias_filler {
      type: "constant"
    }
  }
}
layer {
  name: "pool2"
  type: "Pooling"
  bottom: "conv2"
  top: "pool2"
  pooling_param {
    pool: MAX
    kernel_size: 2
    stride: 2
  }
}
layer {
  name: "conv3"
  type: "Convolution"
  bottom: "pool2"
  top: "conv3"
  param {
    name: "conv3_w"
    lr_mult: 1
  }
  param {
    name: "conv3_b"
    lr_mult: 2
  }
  convolution_param {
    num_output: 128
    kernel_size: 2
    stride: 1
    weight_filler {
      type: "xavier"
    }
    bias_filler {
      type: "constant"
    }
  }
}
layer {
  name: "pool3"
  type: "Pooling"
  bottom: "conv3"
  top: "pool3"
  pooling_param {
    pool: MAX
    kernel_size: 2
    stride: 2
  }
}
layer {
  name: "ip1"
  type: "InnerProduct"
  bottom: "pool3"
  top: "ip1"
  param {
    name: "ip1_w"
    lr_mult: 1
  }
  param {
    name: "ip1_b"
    lr_mult: 2
  }
  inner_product_param {
    num_output: 500
    weight_filler {
      type: "xavier"
    }
    bias_filler {
      type: "constant"
    }
  }
}
layer {
  name: "relu1"
  type: "ReLU"
  bottom: "ip1"
  top: "ip1"
}
layer {
  name: "ip2"
  type: "InnerProduct"
  bottom: "ip1"
  top: "ip2"
  param {
    name: "ip2_w"
    lr_mult: 1
  }
  param {
    name: "ip2_b"
    lr_mult: 2
  }
  inner_product_param {
    num_output: 500
    weight_filler {
      type: "xavier"
    }
    bias_filler {
      type: "constant"
    }
  }
}
layer {
  name: "relu2"
  type: "ReLU"
  bottom: "ip2"
  top: "ip2"
}
layer {
  name: "feat"
  type: "InnerProduct"
  bottom: "ip2"
  top: "feat"
  param {
    name: "feat_w"
    lr_mult: 1
  }
  param {
    name: "feat_b"
    lr_mult: 2
  }
  inner_product_param {
    num_output: 2
    weight_filler {
      type: "xavier"
    }
    bias_filler {
      type: "constant"
    }
  }
}
layer {
  name: "conv1_p"
  type: "Convolution"
  bottom: "data_p"
  top: "conv1_p"
  param {
    name: "conv1_w"
    lr_mult: 1
  }
  param {
    name: "conv1_b"
    lr_mult: 2
  }
  convolution_param {
    num_output: 32
    kernel_size: 3
    stride: 1
    weight_filler {
      type: "xavier"
    }
    bias_filler {
      type: "constant"
    }
  }
}
layer {
  name: "pool1_p"
  type: "Pooling"
  bottom: "conv1_p"
  top: "pool1_p"
  pooling_param {
    pool: MAX
    kernel_size: 2
    stride: 2
  }
}
layer {
  name: "conv2_p"
  type: "Convolution"
  bottom: "pool1_p"
  top: "conv2_p"
  param {
    name: "conv2_w"
    lr_mult: 1
  }
  param {
    name: "conv2_b"
    lr_mult: 2
  }
  convolution_param {
    num_output: 64
    kernel_size: 2
    stride: 1
    weight_filler {
      type: "xavier"
    }
    bias_filler {
      type: "constant"
    }
  }
}
layer {
  name: "pool2_p"
  type: "Pooling"
  bottom: "conv2_p"
  top: "pool2_p"
  pooling_param {
    pool: MAX
    kernel_size: 2
    stride: 2
  }
}
layer {
  name: "conv3_p"
  type: "Convolution"
  bottom: "pool2_p"
  top: "conv3_p"
  param {
    name: "conv3_w"
    lr_mult: 1
  }
  param {
    name: "conv3_b"
    lr_mult: 2
  }
  convolution_param {
    num_output: 128
    kernel_size: 2
    stride: 1
    weight_filler {
      type: "xavier"
    }
    bias_filler {
      type: "constant"
    }
  }
}
layer {
  name: "pool3_p"
  type: "Pooling"
  bottom: "conv3_p"
  top: "pool3_p"
  pooling_param {
    pool: MAX
    kernel_size: 2
    stride: 2
  }
}
layer {
  name: "ip1_p"
  type: "InnerProduct"
  bottom: "pool3_p"
  top: "ip1_p"
  param {
    name: "ip1_w"
    lr_mult: 1
  }
  param {
    name: "ip1_b"
    lr_mult: 2
  }
  inner_product_param {
    num_output: 500
    weight_filler {
      type: "xavier"
    }
    bias_filler {
      type: "constant"
    }
  }
}
layer {
  name: "relu1_p"
  type: "ReLU"
  bottom: "ip1_p"
  top: "ip1_p"
}
layer {
  name: "ip2_p"
  type: "InnerProduct"
  bottom: "ip1_p"
  top: "ip2_p"
  param {
    name: "ip2_w"
    lr_mult: 1
  }
  param {
    name: "ip2_b"
    lr_mult: 2
  }
  inner_product_param {
    num_output: 500
    weight_filler {
      type: "xavier"
    }
    bias_filler {
      type: "constant"
    }
  }
}
layer {
  name: "relu2_p"
  type: "ReLU"
  bottom: "ip2_p"
  top: "ip2_p"
}
layer {
  name: "feat_p"
  type: "InnerProduct"
  bottom: "ip2_p"
  top: "feat_p"
  param {
    name: "feat_w"
    lr_mult: 1
  }
  param {
    name: "feat_b"
    lr_mult: 2
  }
  inner_product_param {
    num_output: 2
    weight_filler {
      type: "xavier"
    }
    bias_filler {
      type: "constant"
    }
  }
}
layer {
  name: "loss"
  type: "ContrastiveLoss"
  bottom: "feat"
  bottom: "feat_p"
  bottom: "sim"
  top: "loss"
  contrastive_loss_param {
    margin: 1
  }
}
I0629 01:46:54.065409 1970144000 layer_factory.hpp:74] Creating layer pair_data
I0629 01:46:54.065419 1970144000 net.cpp:90] Creating Layer pair_data
I0629 01:46:54.065425 1970144000 net.cpp:368] pair_data -> pair_data
I0629 01:46:54.065434 1970144000 net.cpp:368] pair_data -> sim
I0629 01:46:54.065443 1970144000 net.cpp:120] Setting up pair_data
I0629 01:46:54.067350 1970144000 db.cpp:20] Opened leveldb src/siamese_network_bw/data/siamese_network_validation_leveldb
I0629 01:46:54.068009 1970144000 data_layer.cpp:52] output data size: 100,2,62,47
I0629 01:46:54.069051 1970144000 net.cpp:127] Top shape: 100 2 62 47 (582800)
I0629 01:46:54.069063 1970144000 net.cpp:127] Top shape: 100 (100)
I0629 01:46:54.069069 1970144000 layer_factory.hpp:74] Creating layer slice_pair
I0629 01:46:54.069082 1970144000 net.cpp:90] Creating Layer slice_pair
I0629 01:46:54.069090 1970144000 net.cpp:410] slice_pair <- pair_data
I0629 01:46:54.069102 1970144000 net.cpp:368] slice_pair -> data
I0629 01:46:54.069116 1970144000 net.cpp:368] slice_pair -> data_p
I0629 01:46:54.069128 1970144000 net.cpp:120] Setting up slice_pair
I0629 01:46:54.069149 1970144000 net.cpp:127] Top shape: 100 1 62 47 (291400)
I0629 01:46:54.069190 1970144000 net.cpp:127] Top shape: 100 1 62 47 (291400)
I0629 01:46:54.069246 1970144000 layer_factory.hpp:74] Creating layer conv1
I0629 01:46:54.069285 1970144000 net.cpp:90] Creating Layer conv1
I0629 01:46:54.069293 1970144000 net.cpp:410] conv1 <- data
I0629 01:46:54.069305 1970144000 net.cpp:368] conv1 -> conv1
I0629 01:46:54.069314 1970144000 net.cpp:120] Setting up conv1
I0629 01:46:54.069574 1970144000 net.cpp:127] Top shape: 100 32 60 45 (8640000)
I0629 01:46:54.069586 1970144000 layer_factory.hpp:74] Creating layer pool1
I0629 01:46:54.069596 1970144000 net.cpp:90] Creating Layer pool1
I0629 01:46:54.069600 1970144000 net.cpp:410] pool1 <- conv1
I0629 01:46:54.069630 1970144000 net.cpp:368] pool1 -> pool1
I0629 01:46:54.069674 1970144000 net.cpp:120] Setting up pool1
I0629 01:46:54.069742 1970144000 net.cpp:127] Top shape: 100 32 30 23 (2208000)
I0629 01:46:54.069756 1970144000 layer_factory.hpp:74] Creating layer conv2
I0629 01:46:54.069767 1970144000 net.cpp:90] Creating Layer conv2
I0629 01:46:54.069775 1970144000 net.cpp:410] conv2 <- pool1
I0629 01:46:54.069785 1970144000 net.cpp:368] conv2 -> conv2
I0629 01:46:54.069795 1970144000 net.cpp:120] Setting up conv2
I0629 01:46:54.070235 1970144000 net.cpp:127] Top shape: 100 64 29 22 (4083200)
I0629 01:46:54.070255 1970144000 layer_factory.hpp:74] Creating layer pool2
I0629 01:46:54.070277 1970144000 net.cpp:90] Creating Layer pool2
I0629 01:46:54.070296 1970144000 net.cpp:410] pool2 <- conv2
I0629 01:46:54.070308 1970144000 net.cpp:368] pool2 -> pool2
I0629 01:46:54.070320 1970144000 net.cpp:120] Setting up pool2
I0629 01:46:54.070474 1970144000 net.cpp:127] Top shape: 100 64 15 11 (1056000)
I0629 01:46:54.070488 1970144000 layer_factory.hpp:74] Creating layer conv3
I0629 01:46:54.070499 1970144000 net.cpp:90] Creating Layer conv3
I0629 01:46:54.070507 1970144000 net.cpp:410] conv3 <- pool2
I0629 01:46:54.070518 1970144000 net.cpp:368] conv3 -> conv3
I0629 01:46:54.070530 1970144000 net.cpp:120] Setting up conv3
I0629 01:46:54.071244 1970144000 net.cpp:127] Top shape: 100 128 14 10 (1792000)
I0629 01:46:54.071265 1970144000 layer_factory.hpp:74] Creating layer pool3
I0629 01:46:54.071276 1970144000 net.cpp:90] Creating Layer pool3
I0629 01:46:54.071285 1970144000 net.cpp:410] pool3 <- conv3
I0629 01:46:54.071297 1970144000 net.cpp:368] pool3 -> pool3
I0629 01:46:54.071308 1970144000 net.cpp:120] Setting up pool3
I0629 01:46:54.071382 1970144000 net.cpp:127] Top shape: 100 128 7 5 (448000)
I0629 01:46:54.071409 1970144000 layer_factory.hpp:74] Creating layer ip1
I0629 01:46:54.071431 1970144000 net.cpp:90] Creating Layer ip1
I0629 01:46:54.071440 1970144000 net.cpp:410] ip1 <- pool3
I0629 01:46:54.071451 1970144000 net.cpp:368] ip1 -> ip1
I0629 01:46:54.071465 1970144000 net.cpp:120] Setting up ip1
I0629 01:46:54.088608 1970144000 net.cpp:127] Top shape: 100 500 (50000)
I0629 01:46:54.088654 1970144000 layer_factory.hpp:74] Creating layer relu1
I0629 01:46:54.088768 1970144000 net.cpp:90] Creating Layer relu1
I0629 01:46:54.088780 1970144000 net.cpp:410] relu1 <- ip1
I0629 01:46:54.088789 1970144000 net.cpp:357] relu1 -> ip1 (in-place)
I0629 01:46:54.088799 1970144000 net.cpp:120] Setting up relu1
I0629 01:46:54.088903 1970144000 net.cpp:127] Top shape: 100 500 (50000)
I0629 01:46:54.088917 1970144000 layer_factory.hpp:74] Creating layer ip2
I0629 01:46:54.088932 1970144000 net.cpp:90] Creating Layer ip2
I0629 01:46:54.088939 1970144000 net.cpp:410] ip2 <- ip1
I0629 01:46:54.088953 1970144000 net.cpp:368] ip2 -> ip2
I0629 01:46:54.088964 1970144000 net.cpp:120] Setting up ip2
I0629 01:46:54.090811 1970144000 net.cpp:127] Top shape: 100 500 (50000)
I0629 01:46:54.090839 1970144000 layer_factory.hpp:74] Creating layer relu2
I0629 01:46:54.090848 1970144000 net.cpp:90] Creating Layer relu2
I0629 01:46:54.090853 1970144000 net.cpp:410] relu2 <- ip2
I0629 01:46:54.090859 1970144000 net.cpp:357] relu2 -> ip2 (in-place)
I0629 01:46:54.090867 1970144000 net.cpp:120] Setting up relu2
I0629 01:46:54.090925 1970144000 net.cpp:127] Top shape: 100 500 (50000)
I0629 01:46:54.090931 1970144000 layer_factory.hpp:74] Creating layer feat
I0629 01:46:54.090972 1970144000 net.cpp:90] Creating Layer feat
I0629 01:46:54.090978 1970144000 net.cpp:410] feat <- ip2
I0629 01:46:54.090989 1970144000 net.cpp:368] feat -> feat
I0629 01:46:54.091002 1970144000 net.cpp:120] Setting up feat
I0629 01:46:54.091049 1970144000 net.cpp:127] Top shape: 100 2 (200)
I0629 01:46:54.091075 1970144000 layer_factory.hpp:74] Creating layer conv1_p
I0629 01:46:54.091089 1970144000 net.cpp:90] Creating Layer conv1_p
I0629 01:46:54.091095 1970144000 net.cpp:410] conv1_p <- data_p
I0629 01:46:54.091106 1970144000 net.cpp:368] conv1_p -> conv1_p
I0629 01:46:54.091120 1970144000 net.cpp:120] Setting up conv1_p
I0629 01:46:54.091547 1970144000 net.cpp:127] Top shape: 100 32 60 45 (8640000)
I0629 01:46:54.091560 1970144000 net.cpp:459] Sharing parameters 'conv1_w' owned by layer 'conv1', param index 0
I0629 01:46:54.091568 1970144000 net.cpp:459] Sharing parameters 'conv1_b' owned by layer 'conv1', param index 1
I0629 01:46:54.091573 1970144000 layer_factory.hpp:74] Creating layer pool1_p
I0629 01:46:54.091581 1970144000 net.cpp:90] Creating Layer pool1_p
I0629 01:46:54.091585 1970144000 net.cpp:410] pool1_p <- conv1_p
I0629 01:46:54.091591 1970144000 net.cpp:368] pool1_p -> pool1_p
I0629 01:46:54.091598 1970144000 net.cpp:120] Setting up pool1_p
I0629 01:46:54.091737 1970144000 net.cpp:127] Top shape: 100 32 30 23 (2208000)
I0629 01:46:54.091747 1970144000 layer_factory.hpp:74] Creating layer conv2_p
I0629 01:46:54.091754 1970144000 net.cpp:90] Creating Layer conv2_p
I0629 01:46:54.091759 1970144000 net.cpp:410] conv2_p <- pool1_p
I0629 01:46:54.091765 1970144000 net.cpp:368] conv2_p -> conv2_p
I0629 01:46:54.091773 1970144000 net.cpp:120] Setting up conv2_p
I0629 01:46:54.092049 1970144000 net.cpp:127] Top shape: 100 64 29 22 (4083200)
I0629 01:46:54.092059 1970144000 net.cpp:459] Sharing parameters 'conv2_w' owned by layer 'conv2', param index 0
I0629 01:46:54.092066 1970144000 net.cpp:459] Sharing parameters 'conv2_b' owned by layer 'conv2', param index 1
I0629 01:46:54.092072 1970144000 layer_factory.hpp:74] Creating layer pool2_p
I0629 01:46:54.092079 1970144000 net.cpp:90] Creating Layer pool2_p
I0629 01:46:54.092084 1970144000 net.cpp:410] pool2_p <- conv2_p
I0629 01:46:54.092089 1970144000 net.cpp:368] pool2_p -> pool2_p
I0629 01:46:54.092099 1970144000 net.cpp:120] Setting up pool2_p
I0629 01:46:54.092144 1970144000 net.cpp:127] Top shape: 100 64 15 11 (1056000)
I0629 01:46:54.092149 1970144000 layer_factory.hpp:74] Creating layer conv3_p
I0629 01:46:54.092164 1970144000 net.cpp:90] Creating Layer conv3_p
I0629 01:46:54.092171 1970144000 net.cpp:410] conv3_p <- pool2_p
I0629 01:46:54.092180 1970144000 net.cpp:368] conv3_p -> conv3_p
I0629 01:46:54.092187 1970144000 net.cpp:120] Setting up conv3_p
I0629 01:46:54.092614 1970144000 net.cpp:127] Top shape: 100 128 14 10 (1792000)
I0629 01:46:54.092628 1970144000 net.cpp:459] Sharing parameters 'conv3_w' owned by layer 'conv3', param index 0
I0629 01:46:54.092636 1970144000 net.cpp:459] Sharing parameters 'conv3_b' owned by layer 'conv3', param index 1
I0629 01:46:54.092643 1970144000 layer_factory.hpp:74] Creating layer pool3_p
I0629 01:46:54.092651 1970144000 net.cpp:90] Creating Layer pool3_p
I0629 01:46:54.092655 1970144000 net.cpp:410] pool3_p <- conv3_p
I0629 01:46:54.092660 1970144000 net.cpp:368] pool3_p -> pool3_p
I0629 01:46:54.092690 1970144000 net.cpp:120] Setting up pool3_p
I0629 01:46:54.092790 1970144000 net.cpp:127] Top shape: 100 128 7 5 (448000)
I0629 01:46:54.092828 1970144000 layer_factory.hpp:74] Creating layer ip1_p
I0629 01:46:54.092840 1970144000 net.cpp:90] Creating Layer ip1_p
I0629 01:46:54.092846 1970144000 net.cpp:410] ip1_p <- pool3_p
I0629 01:46:54.092859 1970144000 net.cpp:368] ip1_p -> ip1_p
I0629 01:46:54.092869 1970144000 net.cpp:120] Setting up ip1_p
I0629 01:46:54.111276 1970144000 net.cpp:127] Top shape: 100 500 (50000)
I0629 01:46:54.111302 1970144000 net.cpp:459] Sharing parameters 'ip1_w' owned by layer 'ip1', param index 0
I0629 01:46:54.111313 1970144000 net.cpp:459] Sharing parameters 'ip1_b' owned by layer 'ip1', param index 1
I0629 01:46:54.111352 1970144000 layer_factory.hpp:74] Creating layer relu1_p
I0629 01:46:54.111364 1970144000 net.cpp:90] Creating Layer relu1_p
I0629 01:46:54.111369 1970144000 net.cpp:410] relu1_p <- ip1_p
I0629 01:46:54.111377 1970144000 net.cpp:357] relu1_p -> ip1_p (in-place)
I0629 01:46:54.111385 1970144000 net.cpp:120] Setting up relu1_p
I0629 01:46:54.111553 1970144000 net.cpp:127] Top shape: 100 500 (50000)
I0629 01:46:54.111564 1970144000 layer_factory.hpp:74] Creating layer ip2_p
I0629 01:46:54.111574 1970144000 net.cpp:90] Creating Layer ip2_p
I0629 01:46:54.111579 1970144000 net.cpp:410] ip2_p <- ip1_p
I0629 01:46:54.111587 1970144000 net.cpp:368] ip2_p -> ip2_p
I0629 01:46:54.111596 1970144000 net.cpp:120] Setting up ip2_p
I0629 01:46:54.113703 1970144000 net.cpp:127] Top shape: 100 500 (50000)
I0629 01:46:54.113713 1970144000 net.cpp:459] Sharing parameters 'ip2_w' owned by layer 'ip2', param index 0
I0629 01:46:54.113812 1970144000 net.cpp:459] Sharing parameters 'ip2_b' owned by layer 'ip2', param index 1
I0629 01:46:54.113873 1970144000 layer_factory.hpp:74] Creating layer relu2_p
I0629 01:46:54.113883 1970144000 net.cpp:90] Creating Layer relu2_p
I0629 01:46:54.113888 1970144000 net.cpp:410] relu2_p <- ip2_p
I0629 01:46:54.113893 1970144000 net.cpp:357] relu2_p -> ip2_p (in-place)
I0629 01:46:54.114114 1970144000 net.cpp:120] Setting up relu2_p
I0629 01:46:54.114176 1970144000 net.cpp:127] Top shape: 100 500 (50000)
I0629 01:46:54.114182 1970144000 layer_factory.hpp:74] Creating layer feat_p
I0629 01:46:54.114190 1970144000 net.cpp:90] Creating Layer feat_p
I0629 01:46:54.114195 1970144000 net.cpp:410] feat_p <- ip2_p
I0629 01:46:54.114202 1970144000 net.cpp:368] feat_p -> feat_p
I0629 01:46:54.114212 1970144000 net.cpp:120] Setting up feat_p
I0629 01:46:54.114231 1970144000 net.cpp:127] Top shape: 100 2 (200)
I0629 01:46:54.114238 1970144000 net.cpp:459] Sharing parameters 'feat_w' owned by layer 'feat', param index 0
I0629 01:46:54.114543 1970144000 net.cpp:459] Sharing parameters 'feat_b' owned by layer 'feat', param index 1
I0629 01:46:54.114552 1970144000 layer_factory.hpp:74] Creating layer loss
I0629 01:46:54.114560 1970144000 net.cpp:90] Creating Layer loss
I0629 01:46:54.114564 1970144000 net.cpp:410] loss <- feat
…
