…
I0610 18:59:22.224392 2094273280 solver.cpp:70] Creating training net from net file: src/siamese_network_bw/model/siamese_train_validate.prototxt
I0610 18:59:22.224738 2094273280 net.cpp:287] The NetState phase (0) differed from the phase (1) specified by a rule in layer pair_data
I0610 18:59:22.224781 2094273280 net.cpp:42] Initializing net from parameters: 
name: "siamese_train_validate"
state {
  phase: TRAIN
}
layer {
  name: "pair_data"
  type: "Data"
  top: "pair_data"
  top: "sim"
  include {
    phase: TRAIN
  }
  transform_param {
    scale: 0.00392156
  }
  data_param {
    source: "src/siamese_network_bw/data/siamese_network_train_leveldb"
    batch_size: 64
  }
}
layer {
  name: "slice_pair"
  type: "Slice"
  bottom: "pair_data"
  top: "data"
  top: "data_p"
  slice_param {
    slice_dim: 1
    slice_point: 1
  }
}
layer {
  name: "conv1"
  type: "Convolution"
  bottom: "data"
  top: "conv1"
  param {
    name: "conv1_w"
    lr_mult: 1
  }
  param {
    name: "conv1_b"
    lr_mult: 2
  }
  convolution_param {
    num_output: 20
    kernel_size: 5
    stride: 1
    weight_filler {
      type: "xavier"
    }
    bias_filler {
      type: "constant"
      value: 0.1
    }
  }
}
layer {
  name: "pool1"
  type: "Pooling"
  bottom: "conv1"
  top: "pool1"
  pooling_param {
    pool: MAX
    kernel_size: 2
    stride: 2
  }
}
layer {
  name: "conv2"
  type: "Convolution"
  bottom: "pool1"
  top: "conv2"
  param {
    name: "conv2_w"
    lr_mult: 1
  }
  param {
    name: "conv2_b"
    lr_mult: 2
  }
  convolution_param {
    num_output: 50
    kernel_size: 5
    stride: 1
    weight_filler {
      type: "xavier"
    }
    bias_filler {
      type: "constant"
      value: 0.1
    }
  }
}
layer {
  name: "pool2"
  type: "Pooling"
  bottom: "conv2"
  top: "pool2"
  pooling_param {
    pool: MAX
    kernel_size: 2
    stride: 2
  }
}
layer {
  name: "ip1"
  type: "InnerProduct"
  bottom: "pool2"
  top: "ip1"
  param {
    name: "ip1_w"
    lr_mult: 1
  }
  param {
    name: "ip1_b"
    lr_mult: 2
  }
  inner_product_param {
    num_output: 500
    weight_filler {
      type: "xavier"
    }
    bias_filler {
      type: "constant"
      value: 0.1
    }
  }
}
layer {
  name: "relu1"
  type: "ReLU"
  bottom: "ip1"
  top: "ip1"
}
layer {
  name: "ip2"
  type: "InnerProduct"
  bottom: "ip1"
  top: "ip2"
  param {
    name: "ip2_w"
    lr_mult: 1
  }
  param {
    name: "ip2_b"
    lr_mult: 2
  }
  inner_product_param {
    num_output: 10
    weight_filler {
      type: "xavier"
    }
    bias_filler {
      type: "constant"
      value: 0.1
    }
  }
}
layer {
  name: "feat"
  type: "InnerProduct"
  bottom: "ip2"
  top: "feat"
  param {
    name: "feat_w"
    lr_mult: 1
  }
  param {
    name: "feat_b"
    lr_mult: 2
  }
  inner_product_param {
    num_output: 2
    weight_filler {
      type: "xavier"
    }
    bias_filler {
      type: "constant"
      value: 0.1
    }
  }
}
layer {
  name: "conv1_p"
  type: "Convolution"
  bottom: "data_p"
  top: "conv1_p"
  param {
    name: "conv1_w"
    lr_mult: 1
  }
  param {
    name: "conv1_b"
    lr_mult: 2
  }
  convolution_param {
    num_output: 20
    kernel_size: 5
    stride: 1
    weight_filler {
      type: "xavier"
    }
    bias_filler {
      type: "constant"
      value: 0.1
    }
  }
}
layer {
  name: "pool1_p"
  type: "Pooling"
  bottom: "conv1_p"
  top: "pool1_p"
  pooling_param {
    pool: MAX
    kernel_size: 2
    stride: 2
  }
}
layer {
  name: "conv2_p"
  type: "Convolution"
  bottom: "pool1_p"
  top: "conv2_p"
  param {
    name: "conv2_w"
    lr_mult: 1
  }
  param {
    name: "conv2_b"
    lr_mult: 2
  }
  convolution_param {
    num_output: 50
    kernel_size: 5
    stride: 1
    weight_filler {
      type: "xavier"
    }
    bias_filler {
      type: "constant"
      value: 0.1
    }
  }
}
layer {
  name: "pool2_p"
  type: "Pooling"
  bottom: "conv2_p"
  top: "pool2_p"
  pooling_param {
    pool: MAX
    kernel_size: 2
    stride: 2
  }
}
layer {
  name: "ip1_p"
  type: "InnerProduct"
  bottom: "pool2_p"
  top: "ip1_p"
  param {
    name: "ip1_w"
    lr_mult: 1
  }
  param {
    name: "ip1_b"
    lr_mult: 2
  }
  inner_product_param {
    num_output: 500
    weight_filler {
      type: "xavier"
    }
    bias_filler {
      type: "constant"
      value: 0.1
    }
  }
}
layer {
  name: "relu1_p"
  type: "ReLU"
  bottom: "ip1_p"
  top: "ip1_p"
}
layer {
  name: "ip2_p"
  type: "InnerProduct"
  bottom: "ip1_p"
  top: "ip2_p"
  param {
    name: "ip2_w"
    lr_mult: 1
  }
  param {
    name: "ip2_b"
    lr_mult: 2
  }
  inner_product_param {
    num_output: 10
    weight_filler {
      type: "xavier"
    }
    bias_filler {
      type: "constant"
      value: 0.1
    }
  }
}
layer {
  name: "feat_p"
  type: "InnerProduct"
  bottom: "ip2_p"
  top: "feat_p"
  param {
    name: "feat_w"
    lr_mult: 1
  }
  param {
    name: "feat_b"
    lr_mult: 2
  }
  inner_product_param {
    num_output: 2
    weight_filler {
      type: "xavier"
    }
    bias_filler {
      type: "constant"
      value: 0.1
    }
  }
}
layer {
  name: "loss"
  type: "ContrastiveLoss"
  bottom: "feat"
  bottom: "feat_p"
  bottom: "sim"
  top: "loss"
  contrastive_loss_param {
    margin: 1
  }
}
I0610 18:59:22.225101 2094273280 layer_factory.hpp:74] Creating layer pair_data
I0610 18:59:22.225119 2094273280 net.cpp:90] Creating Layer pair_data
I0610 18:59:22.225126 2094273280 net.cpp:368] pair_data -> pair_data
I0610 18:59:22.225144 2094273280 net.cpp:368] pair_data -> sim
I0610 18:59:22.225153 2094273280 net.cpp:120] Setting up pair_data
I0610 18:59:22.231237 2094273280 db.cpp:20] Opened leveldb src/siamese_network_bw/data/siamese_network_train_leveldb
I0610 18:59:22.233706 2094273280 data_layer.cpp:52] output data size: 64,2,62,47
I0610 18:59:22.234377 2094273280 net.cpp:127] Top shape: 64 2 62 47 (372992)
I0610 18:59:22.234397 2094273280 net.cpp:127] Top shape: 64 (64)
I0610 18:59:22.234416 2094273280 layer_factory.hpp:74] Creating layer slice_pair
I0610 18:59:22.234428 2094273280 net.cpp:90] Creating Layer slice_pair
I0610 18:59:22.234433 2094273280 net.cpp:410] slice_pair <- pair_data
I0610 18:59:22.234439 2094273280 net.cpp:368] slice_pair -> data
I0610 18:59:22.234449 2094273280 net.cpp:368] slice_pair -> data_p
I0610 18:59:22.234455 2094273280 net.cpp:120] Setting up slice_pair
I0610 18:59:22.234463 2094273280 net.cpp:127] Top shape: 64 1 62 47 (186496)
I0610 18:59:22.234468 2094273280 net.cpp:127] Top shape: 64 1 62 47 (186496)
I0610 18:59:22.234472 2094273280 layer_factory.hpp:74] Creating layer conv1
I0610 18:59:22.234482 2094273280 net.cpp:90] Creating Layer conv1
I0610 18:59:22.234485 2094273280 net.cpp:410] conv1 <- data
I0610 18:59:22.234493 2094273280 net.cpp:368] conv1 -> conv1
I0610 18:59:22.234500 2094273280 net.cpp:120] Setting up conv1
I0610 18:59:22.292670 2094273280 net.cpp:127] Top shape: 64 20 58 43 (3192320)
I0610 18:59:22.292703 2094273280 layer_factory.hpp:74] Creating layer pool1
I0610 18:59:22.292716 2094273280 net.cpp:90] Creating Layer pool1
I0610 18:59:22.292719 2094273280 net.cpp:410] pool1 <- conv1
I0610 18:59:22.292726 2094273280 net.cpp:368] pool1 -> pool1
I0610 18:59:22.292734 2094273280 net.cpp:120] Setting up pool1
I0610 18:59:22.292891 2094273280 net.cpp:127] Top shape: 64 20 29 22 (816640)
I0610 18:59:22.292901 2094273280 layer_factory.hpp:74] Creating layer conv2
I0610 18:59:22.292911 2094273280 net.cpp:90] Creating Layer conv2
I0610 18:59:22.292922 2094273280 net.cpp:410] conv2 <- pool1
I0610 18:59:22.292928 2094273280 net.cpp:368] conv2 -> conv2
I0610 18:59:22.292937 2094273280 net.cpp:120] Setting up conv2
I0610 18:59:22.293365 2094273280 net.cpp:127] Top shape: 64 50 25 18 (1440000)
I0610 18:59:22.293377 2094273280 layer_factory.hpp:74] Creating layer pool2
I0610 18:59:22.293409 2094273280 net.cpp:90] Creating Layer pool2
I0610 18:59:22.293414 2094273280 net.cpp:410] pool2 <- conv2
I0610 18:59:22.293419 2094273280 net.cpp:368] pool2 -> pool2
I0610 18:59:22.293426 2094273280 net.cpp:120] Setting up pool2
I0610 18:59:22.293473 2094273280 net.cpp:127] Top shape: 64 50 13 9 (374400)
I0610 18:59:22.293479 2094273280 layer_factory.hpp:74] Creating layer ip1
I0610 18:59:22.293489 2094273280 net.cpp:90] Creating Layer ip1
I0610 18:59:22.293493 2094273280 net.cpp:410] ip1 <- pool2
I0610 18:59:22.293498 2094273280 net.cpp:368] ip1 -> ip1
I0610 18:59:22.293506 2094273280 net.cpp:120] Setting up ip1
I0610 18:59:22.316450 2094273280 net.cpp:127] Top shape: 64 500 (32000)
I0610 18:59:22.316489 2094273280 layer_factory.hpp:74] Creating layer relu1
I0610 18:59:22.316504 2094273280 net.cpp:90] Creating Layer relu1
I0610 18:59:22.316509 2094273280 net.cpp:410] relu1 <- ip1
I0610 18:59:22.316519 2094273280 net.cpp:357] relu1 -> ip1 (in-place)
I0610 18:59:22.316525 2094273280 net.cpp:120] Setting up relu1
I0610 18:59:22.316671 2094273280 net.cpp:127] Top shape: 64 500 (32000)
I0610 18:59:22.316684 2094273280 layer_factory.hpp:74] Creating layer ip2
I0610 18:59:22.316694 2094273280 net.cpp:90] Creating Layer ip2
I0610 18:59:22.316697 2094273280 net.cpp:410] ip2 <- ip1
I0610 18:59:22.316704 2094273280 net.cpp:368] ip2 -> ip2
I0610 18:59:22.316715 2094273280 net.cpp:120] Setting up ip2
I0610 18:59:22.316767 2094273280 net.cpp:127] Top shape: 64 10 (640)
I0610 18:59:22.316774 2094273280 layer_factory.hpp:74] Creating layer feat
I0610 18:59:22.316781 2094273280 net.cpp:90] Creating Layer feat
I0610 18:59:22.316784 2094273280 net.cpp:410] feat <- ip2
I0610 18:59:22.316789 2094273280 net.cpp:368] feat -> feat
I0610 18:59:22.316795 2094273280 net.cpp:120] Setting up feat
I0610 18:59:22.316803 2094273280 net.cpp:127] Top shape: 64 2 (128)
I0610 18:59:22.316809 2094273280 layer_factory.hpp:74] Creating layer conv1_p
I0610 18:59:22.316818 2094273280 net.cpp:90] Creating Layer conv1_p
I0610 18:59:22.316823 2094273280 net.cpp:410] conv1_p <- data_p
I0610 18:59:22.316828 2094273280 net.cpp:368] conv1_p -> conv1_p
I0610 18:59:22.316834 2094273280 net.cpp:120] Setting up conv1_p
I0610 18:59:22.317124 2094273280 net.cpp:127] Top shape: 64 20 58 43 (3192320)
I0610 18:59:22.317134 2094273280 net.cpp:459] Sharing parameters 'conv1_w' owned by layer 'conv1', param index 0
I0610 18:59:22.317147 2094273280 net.cpp:459] Sharing parameters 'conv1_b' owned by layer 'conv1', param index 1
I0610 18:59:22.317152 2094273280 layer_factory.hpp:74] Creating layer pool1_p
I0610 18:59:22.317159 2094273280 net.cpp:90] Creating Layer pool1_p
I0610 18:59:22.317163 2094273280 net.cpp:410] pool1_p <- conv1_p
I0610 18:59:22.317170 2094273280 net.cpp:368] pool1_p -> pool1_p
I0610 18:59:22.317176 2094273280 net.cpp:120] Setting up pool1_p
I0610 18:59:22.317278 2094273280 net.cpp:127] Top shape: 64 20 29 22 (816640)
I0610 18:59:22.317286 2094273280 layer_factory.hpp:74] Creating layer conv2_p
I0610 18:59:22.317294 2094273280 net.cpp:90] Creating Layer conv2_p
I0610 18:59:22.317298 2094273280 net.cpp:410] conv2_p <- pool1_p
I0610 18:59:22.317306 2094273280 net.cpp:368] conv2_p -> conv2_p
I0610 18:59:22.317312 2094273280 net.cpp:120] Setting up conv2_p
I0610 18:59:22.317750 2094273280 net.cpp:127] Top shape: 64 50 25 18 (1440000)
I0610 18:59:22.317761 2094273280 net.cpp:459] Sharing parameters 'conv2_w' owned by layer 'conv2', param index 0
I0610 18:59:22.317766 2094273280 net.cpp:459] Sharing parameters 'conv2_b' owned by layer 'conv2', param index 1
I0610 18:59:22.317771 2094273280 layer_factory.hpp:74] Creating layer pool2_p
I0610 18:59:22.317777 2094273280 net.cpp:90] Creating Layer pool2_p
I0610 18:59:22.317781 2094273280 net.cpp:410] pool2_p <- conv2_p
I0610 18:59:22.317816 2094273280 net.cpp:368] pool2_p -> pool2_p
I0610 18:59:22.317834 2094273280 net.cpp:120] Setting up pool2_p
I0610 18:59:22.317919 2094273280 net.cpp:127] Top shape: 64 50 13 9 (374400)
I0610 18:59:22.317940 2094273280 layer_factory.hpp:74] Creating layer ip1_p
I0610 18:59:22.317994 2094273280 net.cpp:90] Creating Layer ip1_p
I0610 18:59:22.318001 2094273280 net.cpp:410] ip1_p <- pool2_p
I0610 18:59:22.318012 2094273280 net.cpp:368] ip1_p -> ip1_p
I0610 18:59:22.318024 2094273280 net.cpp:120] Setting up ip1_p
I0610 18:59:22.342217 2094273280 net.cpp:127] Top shape: 64 500 (32000)
I0610 18:59:22.342244 2094273280 net.cpp:459] Sharing parameters 'ip1_w' owned by layer 'ip1', param index 0
I0610 18:59:22.343313 2094273280 net.cpp:459] Sharing parameters 'ip1_b' owned by layer 'ip1', param index 1
I0610 18:59:22.343327 2094273280 layer_factory.hpp:74] Creating layer relu1_p
I0610 18:59:22.343336 2094273280 net.cpp:90] Creating Layer relu1_p
I0610 18:59:22.343341 2094273280 net.cpp:410] relu1_p <- ip1_p
I0610 18:59:22.343351 2094273280 net.cpp:357] relu1_p -> ip1_p (in-place)
I0610 18:59:22.343361 2094273280 net.cpp:120] Setting up relu1_p
I0610 18:59:22.343466 2094273280 net.cpp:127] Top shape: 64 500 (32000)
I0610 18:59:22.343485 2094273280 layer_factory.hpp:74] Creating layer ip2_p
I0610 18:59:22.343497 2094273280 net.cpp:90] Creating Layer ip2_p
I0610 18:59:22.343503 2094273280 net.cpp:410] ip2_p <- ip1_p
I0610 18:59:22.343511 2094273280 net.cpp:368] ip2_p -> ip2_p
I0610 18:59:22.343520 2094273280 net.cpp:120] Setting up ip2_p
I0610 18:59:22.343586 2094273280 net.cpp:127] Top shape: 64 10 (640)
I0610 18:59:22.343600 2094273280 net.cpp:459] Sharing parameters 'ip2_w' owned by layer 'ip2', param index 0
I0610 18:59:22.343607 2094273280 net.cpp:459] Sharing parameters 'ip2_b' owned by layer 'ip2', param index 1
I0610 18:59:22.343611 2094273280 layer_factory.hpp:74] Creating layer feat_p
I0610 18:59:22.343618 2094273280 net.cpp:90] Creating Layer feat_p
I0610 18:59:22.343621 2094273280 net.cpp:410] feat_p <- ip2_p
I0610 18:59:22.343632 2094273280 net.cpp:368] feat_p -> feat_p
I0610 18:59:22.343639 2094273280 net.cpp:120] Setting up feat_p
I0610 18:59:22.343649 2094273280 net.cpp:127] Top shape: 64 2 (128)
I0610 18:59:22.343657 2094273280 net.cpp:459] Sharing parameters 'feat_w' owned by layer 'feat', param index 0
I0610 18:59:22.343667 2094273280 net.cpp:459] Sharing parameters 'feat_b' owned by layer 'feat', param index 1
I0610 18:59:22.343674 2094273280 layer_factory.hpp:74] Creating layer loss
I0610 18:59:22.343688 2094273280 net.cpp:90] Creating Layer loss
I0610 18:59:22.343694 2094273280 net.cpp:410] loss <- feat
…
I0610 18:59:22.344292 2094273280 solver.cpp:154] Creating test net (#0) specified by net file: src/siamese_network_bw/model/siamese_train_validate.prototxt
I0610 18:59:22.344341 2094273280 net.cpp:287] The NetState phase (1) differed from the phase (0) specified by a rule in layer pair_data
I0610 18:59:22.344357 2094273280 net.cpp:42] Initializing net from parameters: 
name: "siamese_train_validate"
state {
  phase: TEST
}
layer {
  name: "pair_data"
  type: "Data"
  top: "pair_data"
  top: "sim"
  include {
    phase: TEST
  }
  transform_param {
    scale: 0.00392156
  }
  data_param {
    source: "src/siamese_network_bw/data/siamese_network_validation_leveldb"
    batch_size: 100
  }
}
layer {
  name: "slice_pair"
  type: "Slice"
  bottom: "pair_data"
  top: "data"
  top: "data_p"
  slice_param {
    slice_dim: 1
    slice_point: 1
  }
}
layer {
  name: "conv1"
  type: "Convolution"
  bottom: "data"
  top: "conv1"
  param {
    name: "conv1_w"
    lr_mult: 1
  }
  param {
    name: "conv1_b"
    lr_mult: 2
  }
  convolution_param {
    num_output: 20
    kernel_size: 5
    stride: 1
    weight_filler {
      type: "xavier"
    }
    bias_filler {
      type: "constant"
      value: 0.1
    }
  }
}
layer {
  name: "pool1"
  type: "Pooling"
  bottom: "conv1"
  top: "pool1"
  pooling_param {
    pool: MAX
    kernel_size: 2
    stride: 2
  }
}
layer {
  name: "conv2"
  type: "Convolution"
  bottom: "pool1"
  top: "conv2"
  param {
    name: "conv2_w"
    lr_mult: 1
  }
  param {
    name: "conv2_b"
    lr_mult: 2
  }
  convolution_param {
    num_output: 50
    kernel_size: 5
    stride: 1
    weight_filler {
      type: "xavier"
    }
    bias_filler {
      type: "constant"
      value: 0.1
    }
  }
}
layer {
  name: "pool2"
  type: "Pooling"
  bottom: "conv2"
  top: "pool2"
  pooling_param {
    pool: MAX
    kernel_size: 2
    stride: 2
  }
}
layer {
  name: "ip1"
  type: "InnerProduct"
  bottom: "pool2"
  top: "ip1"
  param {
    name: "ip1_w"
    lr_mult: 1
  }
  param {
    name: "ip1_b"
    lr_mult: 2
  }
  inner_product_param {
    num_output: 500
    weight_filler {
      type: "xavier"
    }
    bias_filler {
      type: "constant"
      value: 0.1
    }
  }
}
layer {
  name: "relu1"
  type: "ReLU"
  bottom: "ip1"
  top: "ip1"
}
layer {
  name: "ip2"
  type: "InnerProduct"
  bottom: "ip1"
  top: "ip2"
  param {
    name: "ip2_w"
    lr_mult: 1
  }
  param {
    name: "ip2_b"
    lr_mult: 2
  }
  inner_product_param {
    num_output: 10
    weight_filler {
      type: "xavier"
    }
    bias_filler {
      type: "constant"
      value: 0.1
    }
  }
}
layer {
  name: "feat"
  type: "InnerProduct"
  bottom: "ip2"
  top: "feat"
  param {
    name: "feat_w"
    lr_mult: 1
  }
  param {
    name: "feat_b"
    lr_mult: 2
  }
  inner_product_param {
    num_output: 2
    weight_filler {
      type: "xavier"
    }
    bias_filler {
      type: "constant"
      value: 0.1
    }
  }
}
layer {
  name: "conv1_p"
  type: "Convolution"
  bottom: "data_p"
  top: "conv1_p"
  param {
    name: "conv1_w"
    lr_mult: 1
  }
  param {
    name: "conv1_b"
    lr_mult: 2
  }
  convolution_param {
    num_output: 20
    kernel_size: 5
    stride: 1
    weight_filler {
      type: "xavier"
    }
    bias_filler {
      type: "constant"
      value: 0.1
    }
  }
}
layer {
  name: "pool1_p"
  type: "Pooling"
  bottom: "conv1_p"
  top: "pool1_p"
  pooling_param {
    pool: MAX
    kernel_size: 2
    stride: 2
  }
}
layer {
  name: "conv2_p"
  type: "Convolution"
  bottom: "pool1_p"
  top: "conv2_p"
  param {
    name: "conv2_w"
    lr_mult: 1
  }
  param {
    name: "conv2_b"
    lr_mult: 2
  }
  convolution_param {
    num_output: 50
    kernel_size: 5
    stride: 1
    weight_filler {
      type: "xavier"
    }
    bias_filler {
      type: "constant"
      value: 0.1
    }
  }
}
layer {
  name: "pool2_p"
  type: "Pooling"
  bottom: "conv2_p"
  top: "pool2_p"
  pooling_param {
    pool: MAX
    kernel_size: 2
    stride: 2
  }
}
layer {
  name: "ip1_p"
  type: "InnerProduct"
  bottom: "pool2_p"
  top: "ip1_p"
  param {
    name: "ip1_w"
    lr_mult: 1
  }
  param {
    name: "ip1_b"
    lr_mult: 2
  }
  inner_product_param {
    num_output: 500
    weight_filler {
      type: "xavier"
    }
    bias_filler {
      type: "constant"
      value: 0.1
    }
  }
}
layer {
  name: "relu1_p"
  type: "ReLU"
  bottom: "ip1_p"
  top: "ip1_p"
}
layer {
  name: "ip2_p"
  type: "InnerProduct"
  bottom: "ip1_p"
  top: "ip2_p"
  param {
    name: "ip2_w"
    lr_mult: 1
  }
  param {
    name: "ip2_b"
    lr_mult: 2
  }
  inner_product_param {
    num_output: 10
    weight_filler {
      type: "xavier"
    }
    bias_filler {
      type: "constant"
      value: 0.1
    }
  }
}
layer {
  name: "feat_p"
  type: "InnerProduct"
  bottom: "ip2_p"
  top: "feat_p"
  param {
    name: "feat_w"
    lr_mult: 1
  }
  param {
    name: "feat_b"
    lr_mult: 2
  }
  inner_product_param {
    num_output: 2
    weight_filler {
      type: "xavier"
    }
    bias_filler {
      type: "constant"
      value: 0.1
    }
  }
}
layer {
  name: "loss"
  type: "ContrastiveLoss"
  bottom: "feat"
  bottom: "feat_p"
  bottom: "sim"
  top: "loss"
  contrastive_loss_param {
    margin: 1
  }
}
I0610 18:59:22.344635 2094273280 layer_factory.hpp:74] Creating layer pair_data
I0610 18:59:22.344648 2094273280 net.cpp:90] Creating Layer pair_data
I0610 18:59:22.344656 2094273280 net.cpp:368] pair_data -> pair_data
I0610 18:59:22.344666 2094273280 net.cpp:368] pair_data -> sim
I0610 18:59:22.344676 2094273280 net.cpp:120] Setting up pair_data
I0610 18:59:22.349833 2094273280 db.cpp:20] Opened leveldb src/siamese_network_bw/data/siamese_network_validation_leveldb
I0610 18:59:22.350373 2094273280 data_layer.cpp:52] output data size: 100,2,62,47
I0610 18:59:22.351384 2094273280 net.cpp:127] Top shape: 100 2 62 47 (582800)
I0610 18:59:22.351407 2094273280 net.cpp:127] Top shape: 100 (100)
I0610 18:59:22.351413 2094273280 layer_factory.hpp:74] Creating layer slice_pair
I0610 18:59:22.351426 2094273280 net.cpp:90] Creating Layer slice_pair
I0610 18:59:22.351431 2094273280 net.cpp:410] slice_pair <- pair_data
I0610 18:59:22.351438 2094273280 net.cpp:368] slice_pair -> data
I0610 18:59:22.351449 2094273280 net.cpp:368] slice_pair -> data_p
I0610 18:59:22.351454 2094273280 net.cpp:120] Setting up slice_pair
I0610 18:59:22.351462 2094273280 net.cpp:127] Top shape: 100 1 62 47 (291400)
I0610 18:59:22.351467 2094273280 net.cpp:127] Top shape: 100 1 62 47 (291400)
I0610 18:59:22.351472 2094273280 layer_factory.hpp:74] Creating layer conv1
I0610 18:59:22.351480 2094273280 net.cpp:90] Creating Layer conv1
I0610 18:59:22.351485 2094273280 net.cpp:410] conv1 <- data
I0610 18:59:22.351491 2094273280 net.cpp:368] conv1 -> conv1
I0610 18:59:22.351513 2094273280 net.cpp:120] Setting up conv1
I0610 18:59:22.351868 2094273280 net.cpp:127] Top shape: 100 20 58 43 (4988000)
I0610 18:59:22.351887 2094273280 layer_factory.hpp:74] Creating layer pool1
I0610 18:59:22.351900 2094273280 net.cpp:90] Creating Layer pool1
I0610 18:59:22.351907 2094273280 net.cpp:410] pool1 <- conv1
I0610 18:59:22.351917 2094273280 net.cpp:368] pool1 -> pool1
I0610 18:59:22.351924 2094273280 net.cpp:120] Setting up pool1
I0610 18:59:22.351976 2094273280 net.cpp:127] Top shape: 100 20 29 22 (1276000)
I0610 18:59:22.351989 2094273280 layer_factory.hpp:74] Creating layer conv2
I0610 18:59:22.351997 2094273280 net.cpp:90] Creating Layer conv2
I0610 18:59:22.352001 2094273280 net.cpp:410] conv2 <- pool1
I0610 18:59:22.352030 2094273280 net.cpp:368] conv2 -> conv2
I0610 18:59:22.352082 2094273280 net.cpp:120] Setting up conv2
I0610 18:59:22.352854 2094273280 net.cpp:127] Top shape: 100 50 25 18 (2250000)
I0610 18:59:22.352869 2094273280 layer_factory.hpp:74] Creating layer pool2
I0610 18:59:22.352877 2094273280 net.cpp:90] Creating Layer pool2
I0610 18:59:22.352881 2094273280 net.cpp:410] pool2 <- conv2
I0610 18:59:22.352887 2094273280 net.cpp:368] pool2 -> pool2
I0610 18:59:22.352893 2094273280 net.cpp:120] Setting up pool2
I0610 18:59:22.353029 2094273280 net.cpp:127] Top shape: 100 50 13 9 (585000)
I0610 18:59:22.353045 2094273280 layer_factory.hpp:74] Creating layer ip1
I0610 18:59:22.353070 2094273280 net.cpp:90] Creating Layer ip1
I0610 18:59:22.353083 2094273280 net.cpp:410] ip1 <- pool2
I0610 18:59:22.353102 2094273280 net.cpp:368] ip1 -> ip1
I0610 18:59:22.353116 2094273280 net.cpp:120] Setting up ip1
I0610 18:59:22.374933 2094273280 net.cpp:127] Top shape: 100 500 (50000)
I0610 18:59:22.374965 2094273280 layer_factory.hpp:74] Creating layer relu1
I0610 18:59:22.374979 2094273280 net.cpp:90] Creating Layer relu1
I0610 18:59:22.374984 2094273280 net.cpp:410] relu1 <- ip1
I0610 18:59:22.374989 2094273280 net.cpp:357] relu1 -> ip1 (in-place)
I0610 18:59:22.374996 2094273280 net.cpp:120] Setting up relu1
I0610 18:59:22.375075 2094273280 net.cpp:127] Top shape: 100 500 (50000)
I0610 18:59:22.375093 2094273280 layer_factory.hpp:74] Creating layer ip2
I0610 18:59:22.375103 2094273280 net.cpp:90] Creating Layer ip2
I0610 18:59:22.375108 2094273280 net.cpp:410] ip2 <- ip1
I0610 18:59:22.375116 2094273280 net.cpp:368] ip2 -> ip2
I0610 18:59:22.375128 2094273280 net.cpp:120] Setting up ip2
I0610 18:59:22.375188 2094273280 net.cpp:127] Top shape: 100 10 (1000)
I0610 18:59:22.375200 2094273280 layer_factory.hpp:74] Creating layer feat
I0610 18:59:22.375210 2094273280 net.cpp:90] Creating Layer feat
I0610 18:59:22.375216 2094273280 net.cpp:410] feat <- ip2
I0610 18:59:22.375224 2094273280 net.cpp:368] feat -> feat
I0610 18:59:22.375234 2094273280 net.cpp:120] Setting up feat
I0610 18:59:22.375243 2094273280 net.cpp:127] Top shape: 100 2 (200)
I0610 18:59:22.375253 2094273280 layer_factory.hpp:74] Creating layer conv1_p
I0610 18:59:22.375267 2094273280 net.cpp:90] Creating Layer conv1_p
I0610 18:59:22.375273 2094273280 net.cpp:410] conv1_p <- data_p
I0610 18:59:22.375284 2094273280 net.cpp:368] conv1_p -> conv1_p
I0610 18:59:22.375295 2094273280 net.cpp:120] Setting up conv1_p
I0610 18:59:22.375743 2094273280 net.cpp:127] Top shape: 100 20 58 43 (4988000)
I0610 18:59:22.375759 2094273280 net.cpp:459] Sharing parameters 'conv1_w' owned by layer 'conv1', param index 0
I0610 18:59:22.375769 2094273280 net.cpp:459] Sharing parameters 'conv1_b' owned by layer 'conv1', param index 1
I0610 18:59:22.375774 2094273280 layer_factory.hpp:74] Creating layer pool1_p
I0610 18:59:22.375785 2094273280 net.cpp:90] Creating Layer pool1_p
I0610 18:59:22.375794 2094273280 net.cpp:410] pool1_p <- conv1_p
I0610 18:59:22.375802 2094273280 net.cpp:368] pool1_p -> pool1_p
I0610 18:59:22.375808 2094273280 net.cpp:120] Setting up pool1_p
I0610 18:59:22.375901 2094273280 net.cpp:127] Top shape: 100 20 29 22 (1276000)
I0610 18:59:22.375915 2094273280 layer_factory.hpp:74] Creating layer conv2_p
I0610 18:59:22.375926 2094273280 net.cpp:90] Creating Layer conv2_p
I0610 18:59:22.375933 2094273280 net.cpp:410] conv2_p <- pool1_p
I0610 18:59:22.375943 2094273280 net.cpp:368] conv2_p -> conv2_p
I0610 18:59:22.375954 2094273280 net.cpp:120] Setting up conv2_p
I0610 18:59:22.376533 2094273280 net.cpp:127] Top shape: 100 50 25 18 (2250000)
I0610 18:59:22.376549 2094273280 net.cpp:459] Sharing parameters 'conv2_w' owned by layer 'conv2', param index 0
I0610 18:59:22.376560 2094273280 net.cpp:459] Sharing parameters 'conv2_b' owned by layer 'conv2', param index 1
I0610 18:59:22.376567 2094273280 layer_factory.hpp:74] Creating layer pool2_p
I0610 18:59:22.376576 2094273280 net.cpp:90] Creating Layer pool2_p
I0610 18:59:22.376584 2094273280 net.cpp:410] pool2_p <- conv2_p
I0610 18:59:22.376611 2094273280 net.cpp:368] pool2_p -> pool2_p
I0610 18:59:22.376657 2094273280 net.cpp:120] Setting up pool2_p
I0610 18:59:22.376756 2094273280 net.cpp:127] Top shape: 100 50 13 9 (585000)
I0610 18:59:22.376781 2094273280 layer_factory.hpp:74] Creating layer ip1_p
I0610 18:59:22.376795 2094273280 net.cpp:90] Creating Layer ip1_p
I0610 18:59:22.376798 2094273280 net.cpp:410] ip1_p <- pool2_p
I0610 18:59:22.376808 2094273280 net.cpp:368] ip1_p -> ip1_p
I0610 18:59:22.376824 2094273280 net.cpp:120] Setting up ip1_p
I0610 18:59:22.400825 2094273280 net.cpp:127] Top shape: 100 500 (50000)
I0610 18:59:22.400852 2094273280 net.cpp:459] Sharing parameters 'ip1_w' owned by layer 'ip1', param index 0
I0610 18:59:22.401861 2094273280 net.cpp:459] Sharing parameters 'ip1_b' owned by layer 'ip1', param index 1
I0610 18:59:22.401870 2094273280 layer_factory.hpp:74] Creating layer relu1_p
I0610 18:59:22.401878 2094273280 net.cpp:90] Creating Layer relu1_p
I0610 18:59:22.401882 2094273280 net.cpp:410] relu1_p <- ip1_p
I0610 18:59:22.401893 2094273280 net.cpp:357] relu1_p -> ip1_p (in-place)
I0610 18:59:22.401901 2094273280 net.cpp:120] Setting up relu1_p
I0610 18:59:22.402091 2094273280 net.cpp:127] Top shape: 100 500 (50000)
I0610 18:59:22.402101 2094273280 layer_factory.hpp:74] Creating layer ip2_p
I0610 18:59:22.402132 2094273280 net.cpp:90] Creating Layer ip2_p
I0610 18:59:22.402143 2094273280 net.cpp:410] ip2_p <- ip1_p
I0610 18:59:22.402155 2094273280 net.cpp:368] ip2_p -> ip2_p
I0610 18:59:22.402168 2094273280 net.cpp:120] Setting up ip2_p
I0610 18:59:22.402215 2094273280 net.cpp:127] Top shape: 100 10 (1000)
I0610 18:59:22.402223 2094273280 net.cpp:459] Sharing parameters 'ip2_w' owned by layer 'ip2', param index 0
I0610 18:59:22.402230 2094273280 net.cpp:459] Sharing parameters 'ip2_b' owned by layer 'ip2', param index 1
I0610 18:59:22.402233 2094273280 layer_factory.hpp:74] Creating layer feat_p
I0610 18:59:22.402240 2094273280 net.cpp:90] Creating Layer feat_p
I0610 18:59:22.402243 2094273280 net.cpp:410] feat_p <- ip2_p
I0610 18:59:22.402251 2094273280 net.cpp:368] feat_p -> feat_p
I0610 18:59:22.402257 2094273280 net.cpp:120] Setting up feat_p
I0610 18:59:22.402266 2094273280 net.cpp:127] Top shape: 100 2 (200)
I0610 18:59:22.402274 2094273280 net.cpp:459] Sharing parameters 'feat_w' owned by layer 'feat', param index 0
I0610 18:59:22.402279 2094273280 net.cpp:459] Sharing parameters 'feat_b' owned by layer 'feat', param index 1
I0610 18:59:22.402283 2094273280 layer_factory.hpp:74] Creating layer loss
I0610 18:59:22.402289 2094273280 net.cpp:90] Creating Layer loss
I0610 18:59:22.402293 2094273280 net.cpp:410] loss <- feat
…
