…
I0707 19:12:33.182883 1970144000 solver.cpp:70] Creating training net from net file: src/siamese_network_bw/model/siamese_train_validate.prototxt
I0707 19:12:33.184949 1970144000 net.cpp:287] The NetState phase (0) differed from the phase (1) specified by a rule in layer pair_data
I0707 19:12:33.184999 1970144000 net.cpp:42] Initializing net from parameters: 
name: "siamese_train_validate"
state {
  phase: TRAIN
}
layer {
  name: "pair_data"
  type: "Data"
  top: "pair_data"
  top: "sim"
  include {
    phase: TRAIN
  }
  transform_param {
    scale: 0.00390625
  }
  data_param {
    source: "src/siamese_network_bw/data/siamese_network_train_leveldb"
    batch_size: 64
  }
}
layer {
  name: "slice_pair"
  type: "Slice"
  bottom: "pair_data"
  top: "data"
  top: "data_p"
  slice_param {
    slice_dim: 1
    slice_point: 1
  }
}
layer {
  name: "conv1"
  type: "Convolution"
  bottom: "data"
  top: "conv1"
  param {
    name: "conv1_w"
    lr_mult: 1
  }
  param {
    name: "conv1_b"
    lr_mult: 2
  }
  convolution_param {
    num_output: 32
    kernel_size: 3
    stride: 1
    weight_filler {
      type: "xavier"
    }
    bias_filler {
      type: "constant"
    }
  }
}
layer {
  name: "pool1"
  type: "Pooling"
  bottom: "conv1"
  top: "pool1"
  pooling_param {
    pool: MAX
    kernel_size: 2
    stride: 2
  }
}
layer {
  name: "conv2"
  type: "Convolution"
  bottom: "pool1"
  top: "conv2"
  param {
    name: "conv2_w"
    lr_mult: 1
  }
  param {
    name: "conv2_b"
    lr_mult: 2
  }
  convolution_param {
    num_output: 64
    kernel_size: 2
    stride: 1
    weight_filler {
      type: "xavier"
    }
    bias_filler {
      type: "constant"
    }
  }
}
layer {
  name: "pool2"
  type: "Pooling"
  bottom: "conv2"
  top: "pool2"
  pooling_param {
    pool: MAX
    kernel_size: 2
    stride: 2
  }
}
layer {
  name: "conv3"
  type: "Convolution"
  bottom: "pool2"
  top: "conv3"
  param {
    name: "conv3_w"
    lr_mult: 1
  }
  param {
    name: "conv3_b"
    lr_mult: 2
  }
  convolution_param {
    num_output: 128
    kernel_size: 2
    stride: 1
    weight_filler {
      type: "xavier"
    }
    bias_filler {
      type: "constant"
    }
  }
}
layer {
  name: "pool3"
  type: "Pooling"
  bottom: "conv3"
  top: "pool3"
  pooling_param {
    pool: MAX
    kernel_size: 2
    stride: 2
  }
}
layer {
  name: "ip1"
  type: "InnerProduct"
  bottom: "pool3"
  top: "ip1"
  param {
    name: "ip1_w"
    lr_mult: 1
  }
  param {
    name: "ip1_b"
    lr_mult: 2
  }
  inner_product_param {
    num_output: 500
    weight_filler {
      type: "xavier"
    }
    bias_filler {
      type: "constant"
    }
  }
}
layer {
  name: "relu1"
  type: "ReLU"
  bottom: "ip1"
  top: "ip1"
}
layer {
  name: "ip2"
  type: "InnerProduct"
  bottom: "ip1"
  top: "ip2"
  param {
    name: "ip2_w"
    lr_mult: 1
  }
  param {
    name: "ip2_b"
    lr_mult: 2
  }
  inner_product_param {
    num_output: 500
    weight_filler {
      type: "xavier"
    }
    bias_filler {
      type: "constant"
    }
  }
}
layer {
  name: "relu2"
  type: "ReLU"
  bottom: "ip2"
  top: "ip2"
}
layer {
  name: "feat"
  type: "InnerProduct"
  bottom: "ip2"
  top: "feat"
  param {
    name: "feat_w"
    lr_mult: 1
  }
  param {
    name: "feat_b"
    lr_mult: 2
  }
  inner_product_param {
    num_output: 2
    weight_filler {
      type: "xavier"
    }
    bias_filler {
      type: "constant"
    }
  }
}
layer {
  name: "conv1_p"
  type: "Convolution"
  bottom: "data_p"
  top: "conv1_p"
  param {
    name: "conv1_w"
    lr_mult: 1
  }
  param {
    name: "conv1_b"
    lr_mult: 2
  }
  convolution_param {
    num_output: 32
    kernel_size: 3
    stride: 1
    weight_filler {
      type: "xavier"
    }
    bias_filler {
      type: "constant"
    }
  }
}
layer {
  name: "pool1_p"
  type: "Pooling"
  bottom: "conv1_p"
  top: "pool1_p"
  pooling_param {
    pool: MAX
    kernel_size: 2
    stride: 2
  }
}
layer {
  name: "conv2_p"
  type: "Convolution"
  bottom: "pool1_p"
  top: "conv2_p"
  param {
    name: "conv2_w"
    lr_mult: 1
  }
  param {
    name: "conv2_b"
    lr_mult: 2
  }
  convolution_param {
    num_output: 64
    kernel_size: 2
    stride: 1
    weight_filler {
      type: "xavier"
    }
    bias_filler {
      type: "constant"
    }
  }
}
layer {
  name: "pool2_p"
  type: "Pooling"
  bottom: "conv2_p"
  top: "pool2_p"
  pooling_param {
    pool: MAX
    kernel_size: 2
    stride: 2
  }
}
layer {
  name: "conv3_p"
  type: "Convolution"
  bottom: "pool2_p"
  top: "conv3_p"
  param {
    name: "conv3_w"
    lr_mult: 1
  }
  param {
    name: "conv3_b"
    lr_mult: 2
  }
  convolution_param {
    num_output: 128
    kernel_size: 2
    stride: 1
    weight_filler {
      type: "xavier"
    }
    bias_filler {
      type: "constant"
    }
  }
}
layer {
  name: "pool3_p"
  type: "Pooling"
  bottom: "conv3_p"
  top: "pool3_p"
  pooling_param {
    pool: MAX
    kernel_size: 2
    stride: 2
  }
}
layer {
  name: "ip1_p"
  type: "InnerProduct"
  bottom: "pool3_p"
  top: "ip1_p"
  param {
    name: "ip1_w"
    lr_mult: 1
  }
  param {
    name: "ip1_b"
    lr_mult: 2
  }
  inner_product_param {
    num_output: 500
    weight_filler {
      type: "xavier"
    }
    bias_filler {
      type: "constant"
    }
  }
}
layer {
  name: "relu1_p"
  type: "ReLU"
  bottom: "ip1_p"
  top: "ip1_p"
}
layer {
  name: "ip2_p"
  type: "InnerProduct"
  bottom: "ip1_p"
  top: "ip2_p"
  param {
    name: "ip2_w"
    lr_mult: 1
  }
  param {
    name: "ip2_b"
    lr_mult: 2
  }
  inner_product_param {
    num_output: 500
    weight_filler {
      type: "xavier"
    }
    bias_filler {
      type: "constant"
    }
  }
}
layer {
  name: "relu2_p"
  type: "ReLU"
  bottom: "ip2_p"
  top: "ip2_p"
}
layer {
  name: "feat_p"
  type: "InnerProduct"
  bottom: "ip2_p"
  top: "feat_p"
  param {
    name: "feat_w"
    lr_mult: 1
  }
  param {
    name: "feat_b"
    lr_mult: 2
  }
  inner_product_param {
    num_output: 2
    weight_filler {
      type: "xavier"
    }
    bias_filler {
      type: "constant"
    }
  }
}
layer {
  name: "loss"
  type: "ContrastiveLoss"
  bottom: "feat"
  bottom: "feat_p"
  bottom: "sim"
  top: "loss"
  contrastive_loss_param {
    margin: 1
  }
}
I0707 19:12:33.185387 1970144000 layer_factory.hpp:74] Creating layer pair_data
I0707 19:12:33.185621 1970144000 net.cpp:90] Creating Layer pair_data
I0707 19:12:33.185652 1970144000 net.cpp:368] pair_data -> pair_data
I0707 19:12:33.185683 1970144000 net.cpp:368] pair_data -> sim
I0707 19:12:33.185693 1970144000 net.cpp:120] Setting up pair_data
I0707 19:12:33.230291 1970144000 db.cpp:20] Opened leveldb src/siamese_network_bw/data/siamese_network_train_leveldb
I0707 19:12:33.230767 1970144000 data_layer.cpp:52] output data size: 64,2,62,47
I0707 19:12:33.231819 1970144000 net.cpp:127] Top shape: 64 2 62 47 (372992)
I0707 19:12:33.231848 1970144000 net.cpp:127] Top shape: 64 (64)
I0707 19:12:33.231856 1970144000 layer_factory.hpp:74] Creating layer slice_pair
I0707 19:12:33.231868 1970144000 net.cpp:90] Creating Layer slice_pair
I0707 19:12:33.231873 1970144000 net.cpp:410] slice_pair <- pair_data
I0707 19:12:33.231883 1970144000 net.cpp:368] slice_pair -> data
I0707 19:12:33.231891 1970144000 net.cpp:368] slice_pair -> data_p
I0707 19:12:33.231897 1970144000 net.cpp:120] Setting up slice_pair
I0707 19:12:33.231906 1970144000 net.cpp:127] Top shape: 64 1 62 47 (186496)
I0707 19:12:33.231911 1970144000 net.cpp:127] Top shape: 64 1 62 47 (186496)
I0707 19:12:33.231916 1970144000 layer_factory.hpp:74] Creating layer conv1
I0707 19:12:33.231925 1970144000 net.cpp:90] Creating Layer conv1
I0707 19:12:33.231930 1970144000 net.cpp:410] conv1 <- data
I0707 19:12:33.231935 1970144000 net.cpp:368] conv1 -> conv1
I0707 19:12:33.231959 1970144000 net.cpp:120] Setting up conv1
I0707 19:12:33.386661 1970144000 net.cpp:127] Top shape: 64 32 60 45 (5529600)
I0707 19:12:33.386711 1970144000 layer_factory.hpp:74] Creating layer pool1
I0707 19:12:33.386752 1970144000 net.cpp:90] Creating Layer pool1
I0707 19:12:33.386771 1970144000 net.cpp:410] pool1 <- conv1
I0707 19:12:33.386781 1970144000 net.cpp:368] pool1 -> pool1
I0707 19:12:33.386791 1970144000 net.cpp:120] Setting up pool1
I0707 19:12:33.387272 1970144000 net.cpp:127] Top shape: 64 32 30 23 (1413120)
I0707 19:12:33.387305 1970144000 layer_factory.hpp:74] Creating layer conv2
I0707 19:12:33.387325 1970144000 net.cpp:90] Creating Layer conv2
I0707 19:12:33.387341 1970144000 net.cpp:410] conv2 <- pool1
I0707 19:12:33.387351 1970144000 net.cpp:368] conv2 -> conv2
I0707 19:12:33.387362 1970144000 net.cpp:120] Setting up conv2
I0707 19:12:33.387778 1970144000 net.cpp:127] Top shape: 64 64 29 22 (2613248)
I0707 19:12:33.387797 1970144000 layer_factory.hpp:74] Creating layer pool2
I0707 19:12:33.387807 1970144000 net.cpp:90] Creating Layer pool2
I0707 19:12:33.387812 1970144000 net.cpp:410] pool2 <- conv2
I0707 19:12:33.387820 1970144000 net.cpp:368] pool2 -> pool2
I0707 19:12:33.387830 1970144000 net.cpp:120] Setting up pool2
I0707 19:12:33.387914 1970144000 net.cpp:127] Top shape: 64 64 15 11 (675840)
I0707 19:12:33.387924 1970144000 layer_factory.hpp:74] Creating layer conv3
I0707 19:12:33.387935 1970144000 net.cpp:90] Creating Layer conv3
I0707 19:12:33.387948 1970144000 net.cpp:410] conv3 <- pool2
I0707 19:12:33.387958 1970144000 net.cpp:368] conv3 -> conv3
I0707 19:12:33.387969 1970144000 net.cpp:120] Setting up conv3
I0707 19:12:33.388567 1970144000 net.cpp:127] Top shape: 64 128 14 10 (1146880)
I0707 19:12:33.388586 1970144000 layer_factory.hpp:74] Creating layer pool3
I0707 19:12:33.388594 1970144000 net.cpp:90] Creating Layer pool3
I0707 19:12:33.388599 1970144000 net.cpp:410] pool3 <- conv3
I0707 19:12:33.388607 1970144000 net.cpp:368] pool3 -> pool3
I0707 19:12:33.388615 1970144000 net.cpp:120] Setting up pool3
I0707 19:12:33.388675 1970144000 net.cpp:127] Top shape: 64 128 7 5 (286720)
I0707 19:12:33.388685 1970144000 layer_factory.hpp:74] Creating layer ip1
I0707 19:12:33.388697 1970144000 net.cpp:90] Creating Layer ip1
I0707 19:12:33.388703 1970144000 net.cpp:410] ip1 <- pool3
I0707 19:12:33.388711 1970144000 net.cpp:368] ip1 -> ip1
I0707 19:12:33.388721 1970144000 net.cpp:120] Setting up ip1
I0707 19:12:33.411257 1970144000 net.cpp:127] Top shape: 64 500 (32000)
I0707 19:12:33.411289 1970144000 layer_factory.hpp:74] Creating layer relu1
I0707 19:12:33.411303 1970144000 net.cpp:90] Creating Layer relu1
I0707 19:12:33.411308 1970144000 net.cpp:410] relu1 <- ip1
I0707 19:12:33.411312 1970144000 net.cpp:357] relu1 -> ip1 (in-place)
I0707 19:12:33.411322 1970144000 net.cpp:120] Setting up relu1
I0707 19:12:33.411499 1970144000 net.cpp:127] Top shape: 64 500 (32000)
I0707 19:12:33.411510 1970144000 layer_factory.hpp:74] Creating layer ip2
I0707 19:12:33.411517 1970144000 net.cpp:90] Creating Layer ip2
I0707 19:12:33.411521 1970144000 net.cpp:410] ip2 <- ip1
I0707 19:12:33.411527 1970144000 net.cpp:368] ip2 -> ip2
I0707 19:12:33.411535 1970144000 net.cpp:120] Setting up ip2
I0707 19:12:33.413537 1970144000 net.cpp:127] Top shape: 64 500 (32000)
I0707 19:12:33.413564 1970144000 layer_factory.hpp:74] Creating layer relu2
I0707 19:12:33.413652 1970144000 net.cpp:90] Creating Layer relu2
I0707 19:12:33.413664 1970144000 net.cpp:410] relu2 <- ip2
I0707 19:12:33.413671 1970144000 net.cpp:357] relu2 -> ip2 (in-place)
I0707 19:12:33.413683 1970144000 net.cpp:120] Setting up relu2
I0707 19:12:33.413741 1970144000 net.cpp:127] Top shape: 64 500 (32000)
I0707 19:12:33.413749 1970144000 layer_factory.hpp:74] Creating layer feat
I0707 19:12:33.413758 1970144000 net.cpp:90] Creating Layer feat
I0707 19:12:33.413763 1970144000 net.cpp:410] feat <- ip2
I0707 19:12:33.413769 1970144000 net.cpp:368] feat -> feat
I0707 19:12:33.413776 1970144000 net.cpp:120] Setting up feat
I0707 19:12:33.413796 1970144000 net.cpp:127] Top shape: 64 2 (128)
I0707 19:12:33.413825 1970144000 layer_factory.hpp:74] Creating layer conv1_p
I0707 19:12:33.413852 1970144000 net.cpp:90] Creating Layer conv1_p
I0707 19:12:33.413861 1970144000 net.cpp:410] conv1_p <- data_p
I0707 19:12:33.413869 1970144000 net.cpp:368] conv1_p -> conv1_p
I0707 19:12:33.413892 1970144000 net.cpp:120] Setting up conv1_p
I0707 19:12:33.414211 1970144000 net.cpp:127] Top shape: 64 32 60 45 (5529600)
I0707 19:12:33.414224 1970144000 net.cpp:459] Sharing parameters 'conv1_w' owned by layer 'conv1', param index 0
I0707 19:12:33.414239 1970144000 net.cpp:459] Sharing parameters 'conv1_b' owned by layer 'conv1', param index 1
I0707 19:12:33.414247 1970144000 layer_factory.hpp:74] Creating layer pool1_p
I0707 19:12:33.414255 1970144000 net.cpp:90] Creating Layer pool1_p
I0707 19:12:33.414263 1970144000 net.cpp:410] pool1_p <- conv1_p
I0707 19:12:33.414270 1970144000 net.cpp:368] pool1_p -> pool1_p
I0707 19:12:33.414278 1970144000 net.cpp:120] Setting up pool1_p
I0707 19:12:33.414336 1970144000 net.cpp:127] Top shape: 64 32 30 23 (1413120)
I0707 19:12:33.414345 1970144000 layer_factory.hpp:74] Creating layer conv2_p
I0707 19:12:33.414355 1970144000 net.cpp:90] Creating Layer conv2_p
I0707 19:12:33.414361 1970144000 net.cpp:410] conv2_p <- pool1_p
I0707 19:12:33.414369 1970144000 net.cpp:368] conv2_p -> conv2_p
I0707 19:12:33.414378 1970144000 net.cpp:120] Setting up conv2_p
I0707 19:12:33.414693 1970144000 net.cpp:127] Top shape: 64 64 29 22 (2613248)
I0707 19:12:33.414713 1970144000 net.cpp:459] Sharing parameters 'conv2_w' owned by layer 'conv2', param index 0
I0707 19:12:33.414719 1970144000 net.cpp:459] Sharing parameters 'conv2_b' owned by layer 'conv2', param index 1
I0707 19:12:33.414723 1970144000 layer_factory.hpp:74] Creating layer pool2_p
I0707 19:12:33.414732 1970144000 net.cpp:90] Creating Layer pool2_p
I0707 19:12:33.414739 1970144000 net.cpp:410] pool2_p <- conv2_p
I0707 19:12:33.414746 1970144000 net.cpp:368] pool2_p -> pool2_p
I0707 19:12:33.414754 1970144000 net.cpp:120] Setting up pool2_p
I0707 19:12:33.414809 1970144000 net.cpp:127] Top shape: 64 64 15 11 (675840)
I0707 19:12:33.414818 1970144000 layer_factory.hpp:74] Creating layer conv3_p
I0707 19:12:33.414826 1970144000 net.cpp:90] Creating Layer conv3_p
I0707 19:12:33.414831 1970144000 net.cpp:410] conv3_p <- pool2_p
I0707 19:12:33.414837 1970144000 net.cpp:368] conv3_p -> conv3_p
I0707 19:12:33.414845 1970144000 net.cpp:120] Setting up conv3_p
I0707 19:12:33.415351 1970144000 net.cpp:127] Top shape: 64 128 14 10 (1146880)
I0707 19:12:33.415369 1970144000 net.cpp:459] Sharing parameters 'conv3_w' owned by layer 'conv3', param index 0
I0707 19:12:33.415379 1970144000 net.cpp:459] Sharing parameters 'conv3_b' owned by layer 'conv3', param index 1
I0707 19:12:33.415384 1970144000 layer_factory.hpp:74] Creating layer pool3_p
I0707 19:12:33.415391 1970144000 net.cpp:90] Creating Layer pool3_p
I0707 19:12:33.415397 1970144000 net.cpp:410] pool3_p <- conv3_p
I0707 19:12:33.415406 1970144000 net.cpp:368] pool3_p -> pool3_p
I0707 19:12:33.415415 1970144000 net.cpp:120] Setting up pool3_p
I0707 19:12:33.415546 1970144000 net.cpp:127] Top shape: 64 128 7 5 (286720)
I0707 19:12:33.415559 1970144000 layer_factory.hpp:74] Creating layer ip1_p
I0707 19:12:33.415565 1970144000 net.cpp:90] Creating Layer ip1_p
I0707 19:12:33.415571 1970144000 net.cpp:410] ip1_p <- pool3_p
I0707 19:12:33.415581 1970144000 net.cpp:368] ip1_p -> ip1_p
I0707 19:12:33.415592 1970144000 net.cpp:120] Setting up ip1_p
I0707 19:12:33.435822 1970144000 net.cpp:127] Top shape: 64 500 (32000)
I0707 19:12:33.435850 1970144000 net.cpp:459] Sharing parameters 'ip1_w' owned by layer 'ip1', param index 0
I0707 19:12:33.435860 1970144000 net.cpp:459] Sharing parameters 'ip1_b' owned by layer 'ip1', param index 1
I0707 19:12:33.435866 1970144000 layer_factory.hpp:74] Creating layer relu1_p
I0707 19:12:33.435876 1970144000 net.cpp:90] Creating Layer relu1_p
I0707 19:12:33.435946 1970144000 net.cpp:410] relu1_p <- ip1_p
I0707 19:12:33.435959 1970144000 net.cpp:357] relu1_p -> ip1_p (in-place)
I0707 19:12:33.435997 1970144000 net.cpp:120] Setting up relu1_p
I0707 19:12:33.436077 1970144000 net.cpp:127] Top shape: 64 500 (32000)
I0707 19:12:33.436085 1970144000 layer_factory.hpp:74] Creating layer ip2_p
I0707 19:12:33.436095 1970144000 net.cpp:90] Creating Layer ip2_p
I0707 19:12:33.436100 1970144000 net.cpp:410] ip2_p <- ip1_p
I0707 19:12:33.436106 1970144000 net.cpp:368] ip2_p -> ip2_p
I0707 19:12:33.436115 1970144000 net.cpp:120] Setting up ip2_p
I0707 19:12:33.438177 1970144000 net.cpp:127] Top shape: 64 500 (32000)
I0707 19:12:33.438187 1970144000 net.cpp:459] Sharing parameters 'ip2_w' owned by layer 'ip2', param index 0
I0707 19:12:33.438236 1970144000 net.cpp:459] Sharing parameters 'ip2_b' owned by layer 'ip2', param index 1
I0707 19:12:33.438242 1970144000 layer_factory.hpp:74] Creating layer relu2_p
I0707 19:12:33.438248 1970144000 net.cpp:90] Creating Layer relu2_p
I0707 19:12:33.438252 1970144000 net.cpp:410] relu2_p <- ip2_p
I0707 19:12:33.438257 1970144000 net.cpp:357] relu2_p -> ip2_p (in-place)
I0707 19:12:33.438262 1970144000 net.cpp:120] Setting up relu2_p
I0707 19:12:33.438309 1970144000 net.cpp:127] Top shape: 64 500 (32000)
I0707 19:12:33.438315 1970144000 layer_factory.hpp:74] Creating layer feat_p
I0707 19:12:33.438324 1970144000 net.cpp:90] Creating Layer feat_p
I0707 19:12:33.438328 1970144000 net.cpp:410] feat_p <- ip2_p
I0707 19:12:33.438334 1970144000 net.cpp:368] feat_p -> feat_p
I0707 19:12:33.438341 1970144000 net.cpp:120] Setting up feat_p
I0707 19:12:33.438360 1970144000 net.cpp:127] Top shape: 64 2 (128)
I0707 19:12:33.438372 1970144000 net.cpp:459] Sharing parameters 'feat_w' owned by layer 'feat', param index 0
I0707 19:12:33.438379 1970144000 net.cpp:459] Sharing parameters 'feat_b' owned by layer 'feat', param index 1
I0707 19:12:33.438383 1970144000 layer_factory.hpp:74] Creating layer loss
I0707 19:12:33.438395 1970144000 net.cpp:90] Creating Layer loss
I0707 19:12:33.438398 1970144000 net.cpp:410] loss <- feat
…
I0707 19:12:33.438966 1970144000 solver.cpp:154] Creating test net (#0) specified by net file: src/siamese_network_bw/model/siamese_train_validate.prototxt
I0707 19:12:33.439003 1970144000 net.cpp:287] The NetState phase (1) differed from the phase (0) specified by a rule in layer pair_data
I0707 19:12:33.439021 1970144000 net.cpp:42] Initializing net from parameters: 
name: "siamese_train_validate"
state {
  phase: TEST
}
layer {
  name: "pair_data"
  type: "Data"
  top: "pair_data"
  top: "sim"
  include {
    phase: TEST
  }
  transform_param {
    scale: 0.00390625
  }
  data_param {
    source: "src/siamese_network_bw/data/siamese_network_validation_leveldb"
    batch_size: 100
  }
}
layer {
  name: "slice_pair"
  type: "Slice"
  bottom: "pair_data"
  top: "data"
  top: "data_p"
  slice_param {
    slice_dim: 1
    slice_point: 1
  }
}
layer {
  name: "conv1"
  type: "Convolution"
  bottom: "data"
  top: "conv1"
  param {
    name: "conv1_w"
    lr_mult: 1
  }
  param {
    name: "conv1_b"
    lr_mult: 2
  }
  convolution_param {
    num_output: 32
    kernel_size: 3
    stride: 1
    weight_filler {
      type: "xavier"
    }
    bias_filler {
      type: "constant"
    }
  }
}
layer {
  name: "pool1"
  type: "Pooling"
  bottom: "conv1"
  top: "pool1"
  pooling_param {
    pool: MAX
    kernel_size: 2
    stride: 2
  }
}
layer {
  name: "conv2"
  type: "Convolution"
  bottom: "pool1"
  top: "conv2"
  param {
    name: "conv2_w"
    lr_mult: 1
  }
  param {
    name: "conv2_b"
    lr_mult: 2
  }
  convolution_param {
    num_output: 64
    kernel_size: 2
    stride: 1
    weight_filler {
      type: "xavier"
    }
    bias_filler {
      type: "constant"
    }
  }
}
layer {
  name: "pool2"
  type: "Pooling"
  bottom: "conv2"
  top: "pool2"
  pooling_param {
    pool: MAX
    kernel_size: 2
    stride: 2
  }
}
layer {
  name: "conv3"
  type: "Convolution"
  bottom: "pool2"
  top: "conv3"
  param {
    name: "conv3_w"
    lr_mult: 1
  }
  param {
    name: "conv3_b"
    lr_mult: 2
  }
  convolution_param {
    num_output: 128
    kernel_size: 2
    stride: 1
    weight_filler {
      type: "xavier"
    }
    bias_filler {
      type: "constant"
    }
  }
}
layer {
  name: "pool3"
  type: "Pooling"
  bottom: "conv3"
  top: "pool3"
  pooling_param {
    pool: MAX
    kernel_size: 2
    stride: 2
  }
}
layer {
  name: "ip1"
  type: "InnerProduct"
  bottom: "pool3"
  top: "ip1"
  param {
    name: "ip1_w"
    lr_mult: 1
  }
  param {
    name: "ip1_b"
    lr_mult: 2
  }
  inner_product_param {
    num_output: 500
    weight_filler {
      type: "xavier"
    }
    bias_filler {
      type: "constant"
    }
  }
}
layer {
  name: "relu1"
  type: "ReLU"
  bottom: "ip1"
  top: "ip1"
}
layer {
  name: "ip2"
  type: "InnerProduct"
  bottom: "ip1"
  top: "ip2"
  param {
    name: "ip2_w"
    lr_mult: 1
  }
  param {
    name: "ip2_b"
    lr_mult: 2
  }
  inner_product_param {
    num_output: 500
    weight_filler {
      type: "xavier"
    }
    bias_filler {
      type: "constant"
    }
  }
}
layer {
  name: "relu2"
  type: "ReLU"
  bottom: "ip2"
  top: "ip2"
}
layer {
  name: "feat"
  type: "InnerProduct"
  bottom: "ip2"
  top: "feat"
  param {
    name: "feat_w"
    lr_mult: 1
  }
  param {
    name: "feat_b"
    lr_mult: 2
  }
  inner_product_param {
    num_output: 2
    weight_filler {
      type: "xavier"
    }
    bias_filler {
      type: "constant"
    }
  }
}
layer {
  name: "conv1_p"
  type: "Convolution"
  bottom: "data_p"
  top: "conv1_p"
  param {
    name: "conv1_w"
    lr_mult: 1
  }
  param {
    name: "conv1_b"
    lr_mult: 2
  }
  convolution_param {
    num_output: 32
    kernel_size: 3
    stride: 1
    weight_filler {
      type: "xavier"
    }
    bias_filler {
      type: "constant"
    }
  }
}
layer {
  name: "pool1_p"
  type: "Pooling"
  bottom: "conv1_p"
  top: "pool1_p"
  pooling_param {
    pool: MAX
    kernel_size: 2
    stride: 2
  }
}
layer {
  name: "conv2_p"
  type: "Convolution"
  bottom: "pool1_p"
  top: "conv2_p"
  param {
    name: "conv2_w"
    lr_mult: 1
  }
  param {
    name: "conv2_b"
    lr_mult: 2
  }
  convolution_param {
    num_output: 64
    kernel_size: 2
    stride: 1
    weight_filler {
      type: "xavier"
    }
    bias_filler {
      type: "constant"
    }
  }
}
layer {
  name: "pool2_p"
  type: "Pooling"
  bottom: "conv2_p"
  top: "pool2_p"
  pooling_param {
    pool: MAX
    kernel_size: 2
    stride: 2
  }
}
layer {
  name: "conv3_p"
  type: "Convolution"
  bottom: "pool2_p"
  top: "conv3_p"
  param {
    name: "conv3_w"
    lr_mult: 1
  }
  param {
    name: "conv3_b"
    lr_mult: 2
  }
  convolution_param {
    num_output: 128
    kernel_size: 2
    stride: 1
    weight_filler {
      type: "xavier"
    }
    bias_filler {
      type: "constant"
    }
  }
}
layer {
  name: "pool3_p"
  type: "Pooling"
  bottom: "conv3_p"
  top: "pool3_p"
  pooling_param {
    pool: MAX
    kernel_size: 2
    stride: 2
  }
}
layer {
  name: "ip1_p"
  type: "InnerProduct"
  bottom: "pool3_p"
  top: "ip1_p"
  param {
    name: "ip1_w"
    lr_mult: 1
  }
  param {
    name: "ip1_b"
    lr_mult: 2
  }
  inner_product_param {
    num_output: 500
    weight_filler {
      type: "xavier"
    }
    bias_filler {
      type: "constant"
    }
  }
}
layer {
  name: "relu1_p"
  type: "ReLU"
  bottom: "ip1_p"
  top: "ip1_p"
}
layer {
  name: "ip2_p"
  type: "InnerProduct"
  bottom: "ip1_p"
  top: "ip2_p"
  param {
    name: "ip2_w"
    lr_mult: 1
  }
  param {
    name: "ip2_b"
    lr_mult: 2
  }
  inner_product_param {
    num_output: 500
    weight_filler {
      type: "xavier"
    }
    bias_filler {
      type: "constant"
    }
  }
}
layer {
  name: "relu2_p"
  type: "ReLU"
  bottom: "ip2_p"
  top: "ip2_p"
}
layer {
  name: "feat_p"
  type: "InnerProduct"
  bottom: "ip2_p"
  top: "feat_p"
  param {
    name: "feat_w"
    lr_mult: 1
  }
  param {
    name: "feat_b"
    lr_mult: 2
  }
  inner_product_param {
    num_output: 2
    weight_filler {
      type: "xavier"
    }
    bias_filler {
      type: "constant"
    }
  }
}
layer {
  name: "loss"
  type: "ContrastiveLoss"
  bottom: "feat"
  bottom: "feat_p"
  bottom: "sim"
  top: "loss"
  contrastive_loss_param {
    margin: 1
  }
}
I0707 19:12:33.439329 1970144000 layer_factory.hpp:74] Creating layer pair_data
I0707 19:12:33.439339 1970144000 net.cpp:90] Creating Layer pair_data
I0707 19:12:33.439344 1970144000 net.cpp:368] pair_data -> pair_data
I0707 19:12:33.439353 1970144000 net.cpp:368] pair_data -> sim
I0707 19:12:33.439359 1970144000 net.cpp:120] Setting up pair_data
I0707 19:12:33.488104 1970144000 db.cpp:20] Opened leveldb src/siamese_network_bw/data/siamese_network_validation_leveldb
I0707 19:12:33.488529 1970144000 data_layer.cpp:52] output data size: 100,2,62,47
I0707 19:12:33.489344 1970144000 net.cpp:127] Top shape: 100 2 62 47 (582800)
I0707 19:12:33.489356 1970144000 net.cpp:127] Top shape: 100 (100)
I0707 19:12:33.489362 1970144000 layer_factory.hpp:74] Creating layer slice_pair
I0707 19:12:33.489382 1970144000 net.cpp:90] Creating Layer slice_pair
I0707 19:12:33.489387 1970144000 net.cpp:410] slice_pair <- pair_data
I0707 19:12:33.489393 1970144000 net.cpp:368] slice_pair -> data
I0707 19:12:33.489403 1970144000 net.cpp:368] slice_pair -> data_p
I0707 19:12:33.489408 1970144000 net.cpp:120] Setting up slice_pair
I0707 19:12:33.489415 1970144000 net.cpp:127] Top shape: 100 1 62 47 (291400)
I0707 19:12:33.489435 1970144000 net.cpp:127] Top shape: 100 1 62 47 (291400)
I0707 19:12:33.489447 1970144000 layer_factory.hpp:74] Creating layer conv1
I0707 19:12:33.489475 1970144000 net.cpp:90] Creating Layer conv1
I0707 19:12:33.489480 1970144000 net.cpp:410] conv1 <- data
I0707 19:12:33.489486 1970144000 net.cpp:368] conv1 -> conv1
I0707 19:12:33.489495 1970144000 net.cpp:120] Setting up conv1
I0707 19:12:33.489833 1970144000 net.cpp:127] Top shape: 100 32 60 45 (8640000)
I0707 19:12:33.489846 1970144000 layer_factory.hpp:74] Creating layer pool1
I0707 19:12:33.489853 1970144000 net.cpp:90] Creating Layer pool1
I0707 19:12:33.489857 1970144000 net.cpp:410] pool1 <- conv1
I0707 19:12:33.489864 1970144000 net.cpp:368] pool1 -> pool1
I0707 19:12:33.489871 1970144000 net.cpp:120] Setting up pool1
I0707 19:12:33.489917 1970144000 net.cpp:127] Top shape: 100 32 30 23 (2208000)
I0707 19:12:33.489923 1970144000 layer_factory.hpp:74] Creating layer conv2
I0707 19:12:33.489930 1970144000 net.cpp:90] Creating Layer conv2
I0707 19:12:33.489934 1970144000 net.cpp:410] conv2 <- pool1
I0707 19:12:33.489940 1970144000 net.cpp:368] conv2 -> conv2
I0707 19:12:33.489948 1970144000 net.cpp:120] Setting up conv2
I0707 19:12:33.490221 1970144000 net.cpp:127] Top shape: 100 64 29 22 (4083200)
I0707 19:12:33.490233 1970144000 layer_factory.hpp:74] Creating layer pool2
I0707 19:12:33.490239 1970144000 net.cpp:90] Creating Layer pool2
I0707 19:12:33.490242 1970144000 net.cpp:410] pool2 <- conv2
I0707 19:12:33.490247 1970144000 net.cpp:368] pool2 -> pool2
I0707 19:12:33.490253 1970144000 net.cpp:120] Setting up pool2
I0707 19:12:33.490355 1970144000 net.cpp:127] Top shape: 100 64 15 11 (1056000)
I0707 19:12:33.490363 1970144000 layer_factory.hpp:74] Creating layer conv3
I0707 19:12:33.490370 1970144000 net.cpp:90] Creating Layer conv3
I0707 19:12:33.490373 1970144000 net.cpp:410] conv3 <- pool2
I0707 19:12:33.490380 1970144000 net.cpp:368] conv3 -> conv3
I0707 19:12:33.490388 1970144000 net.cpp:120] Setting up conv3
I0707 19:12:33.490809 1970144000 net.cpp:127] Top shape: 100 128 14 10 (1792000)
I0707 19:12:33.490828 1970144000 layer_factory.hpp:74] Creating layer pool3
I0707 19:12:33.490833 1970144000 net.cpp:90] Creating Layer pool3
I0707 19:12:33.490836 1970144000 net.cpp:410] pool3 <- conv3
I0707 19:12:33.490844 1970144000 net.cpp:368] pool3 -> pool3
I0707 19:12:33.490849 1970144000 net.cpp:120] Setting up pool3
I0707 19:12:33.490891 1970144000 net.cpp:127] Top shape: 100 128 7 5 (448000)
I0707 19:12:33.490897 1970144000 layer_factory.hpp:74] Creating layer ip1
I0707 19:12:33.490906 1970144000 net.cpp:90] Creating Layer ip1
I0707 19:12:33.490911 1970144000 net.cpp:410] ip1 <- pool3
I0707 19:12:33.490916 1970144000 net.cpp:368] ip1 -> ip1
I0707 19:12:33.490923 1970144000 net.cpp:120] Setting up ip1
I0707 19:12:33.507282 1970144000 net.cpp:127] Top shape: 100 500 (50000)
I0707 19:12:33.507321 1970144000 layer_factory.hpp:74] Creating layer relu1
I0707 19:12:33.507333 1970144000 net.cpp:90] Creating Layer relu1
I0707 19:12:33.507338 1970144000 net.cpp:410] relu1 <- ip1
I0707 19:12:33.507344 1970144000 net.cpp:357] relu1 -> ip1 (in-place)
I0707 19:12:33.507352 1970144000 net.cpp:120] Setting up relu1
I0707 19:12:33.507431 1970144000 net.cpp:127] Top shape: 100 500 (50000)
I0707 19:12:33.507438 1970144000 layer_factory.hpp:74] Creating layer ip2
I0707 19:12:33.507446 1970144000 net.cpp:90] Creating Layer ip2
I0707 19:12:33.507449 1970144000 net.cpp:410] ip2 <- ip1
I0707 19:12:33.507457 1970144000 net.cpp:368] ip2 -> ip2
I0707 19:12:33.507465 1970144000 net.cpp:120] Setting up ip2
I0707 19:12:33.509276 1970144000 net.cpp:127] Top shape: 100 500 (50000)
I0707 19:12:33.509310 1970144000 layer_factory.hpp:74] Creating layer relu2
I0707 19:12:33.509325 1970144000 net.cpp:90] Creating Layer relu2
I0707 19:12:33.509330 1970144000 net.cpp:410] relu2 <- ip2
I0707 19:12:33.509340 1970144000 net.cpp:357] relu2 -> ip2 (in-place)
I0707 19:12:33.509348 1970144000 net.cpp:120] Setting up relu2
I0707 19:12:33.509407 1970144000 net.cpp:127] Top shape: 100 500 (50000)
I0707 19:12:33.509413 1970144000 layer_factory.hpp:74] Creating layer feat
I0707 19:12:33.509457 1970144000 net.cpp:90] Creating Layer feat
I0707 19:12:33.509464 1970144000 net.cpp:410] feat <- ip2
I0707 19:12:33.509469 1970144000 net.cpp:368] feat -> feat
I0707 19:12:33.509480 1970144000 net.cpp:120] Setting up feat
I0707 19:12:33.509515 1970144000 net.cpp:127] Top shape: 100 2 (200)
I0707 19:12:33.509522 1970144000 layer_factory.hpp:74] Creating layer conv1_p
I0707 19:12:33.509531 1970144000 net.cpp:90] Creating Layer conv1_p
I0707 19:12:33.509534 1970144000 net.cpp:410] conv1_p <- data_p
I0707 19:12:33.509542 1970144000 net.cpp:368] conv1_p -> conv1_p
I0707 19:12:33.509554 1970144000 net.cpp:120] Setting up conv1_p
I0707 19:12:33.509917 1970144000 net.cpp:127] Top shape: 100 32 60 45 (8640000)
I0707 19:12:33.509934 1970144000 net.cpp:459] Sharing parameters 'conv1_w' owned by layer 'conv1', param index 0
I0707 19:12:33.509955 1970144000 net.cpp:459] Sharing parameters 'conv1_b' owned by layer 'conv1', param index 1
I0707 19:12:33.509979 1970144000 layer_factory.hpp:74] Creating layer pool1_p
I0707 19:12:33.509999 1970144000 net.cpp:90] Creating Layer pool1_p
I0707 19:12:33.510007 1970144000 net.cpp:410] pool1_p <- conv1_p
I0707 19:12:33.510020 1970144000 net.cpp:368] pool1_p -> pool1_p
I0707 19:12:33.510031 1970144000 net.cpp:120] Setting up pool1_p
I0707 19:12:33.510191 1970144000 net.cpp:127] Top shape: 100 32 30 23 (2208000)
I0707 19:12:33.510203 1970144000 layer_factory.hpp:74] Creating layer conv2_p
I0707 19:12:33.510211 1970144000 net.cpp:90] Creating Layer conv2_p
I0707 19:12:33.510216 1970144000 net.cpp:410] conv2_p <- pool1_p
I0707 19:12:33.510224 1970144000 net.cpp:368] conv2_p -> conv2_p
I0707 19:12:33.510232 1970144000 net.cpp:120] Setting up conv2_p
I0707 19:12:33.510519 1970144000 net.cpp:127] Top shape: 100 64 29 22 (4083200)
I0707 19:12:33.510529 1970144000 net.cpp:459] Sharing parameters 'conv2_w' owned by layer 'conv2', param index 0
I0707 19:12:33.510535 1970144000 net.cpp:459] Sharing parameters 'conv2_b' owned by layer 'conv2', param index 1
I0707 19:12:33.510540 1970144000 layer_factory.hpp:74] Creating layer pool2_p
I0707 19:12:33.510547 1970144000 net.cpp:90] Creating Layer pool2_p
I0707 19:12:33.510551 1970144000 net.cpp:410] pool2_p <- conv2_p
I0707 19:12:33.510565 1970144000 net.cpp:368] pool2_p -> pool2_p
I0707 19:12:33.510574 1970144000 net.cpp:120] Setting up pool2_p
I0707 19:12:33.510649 1970144000 net.cpp:127] Top shape: 100 64 15 11 (1056000)
I0707 19:12:33.510656 1970144000 layer_factory.hpp:74] Creating layer conv3_p
I0707 19:12:33.510663 1970144000 net.cpp:90] Creating Layer conv3_p
I0707 19:12:33.510671 1970144000 net.cpp:410] conv3_p <- pool2_p
I0707 19:12:33.510678 1970144000 net.cpp:368] conv3_p -> conv3_p
I0707 19:12:33.510684 1970144000 net.cpp:120] Setting up conv3_p
I0707 19:12:33.511109 1970144000 net.cpp:127] Top shape: 100 128 14 10 (1792000)
I0707 19:12:33.511122 1970144000 net.cpp:459] Sharing parameters 'conv3_w' owned by layer 'conv3', param index 0
I0707 19:12:33.511131 1970144000 net.cpp:459] Sharing parameters 'conv3_b' owned by layer 'conv3', param index 1
I0707 19:12:33.511135 1970144000 layer_factory.hpp:74] Creating layer pool3_p
I0707 19:12:33.511142 1970144000 net.cpp:90] Creating Layer pool3_p
I0707 19:12:33.511147 1970144000 net.cpp:410] pool3_p <- conv3_p
I0707 19:12:33.511153 1970144000 net.cpp:368] pool3_p -> pool3_p
I0707 19:12:33.511160 1970144000 net.cpp:120] Setting up pool3_p
I0707 19:12:33.511204 1970144000 net.cpp:127] Top shape: 100 128 7 5 (448000)
I0707 19:12:33.511211 1970144000 layer_factory.hpp:74] Creating layer ip1_p
I0707 19:12:33.511217 1970144000 net.cpp:90] Creating Layer ip1_p
I0707 19:12:33.511221 1970144000 net.cpp:410] ip1_p <- pool3_p
I0707 19:12:33.511226 1970144000 net.cpp:368] ip1_p -> ip1_p
I0707 19:12:33.511234 1970144000 net.cpp:120] Setting up ip1_p
I0707 19:12:33.528704 1970144000 net.cpp:127] Top shape: 100 500 (50000)
I0707 19:12:33.528726 1970144000 net.cpp:459] Sharing parameters 'ip1_w' owned by layer 'ip1', param index 0
I0707 19:12:33.528736 1970144000 net.cpp:459] Sharing parameters 'ip1_b' owned by layer 'ip1', param index 1
I0707 19:12:33.528769 1970144000 layer_factory.hpp:74] Creating layer relu1_p
I0707 19:12:33.528779 1970144000 net.cpp:90] Creating Layer relu1_p
I0707 19:12:33.528782 1970144000 net.cpp:410] relu1_p <- ip1_p
I0707 19:12:33.528795 1970144000 net.cpp:357] relu1_p -> ip1_p (in-place)
I0707 19:12:33.528800 1970144000 net.cpp:120] Setting up relu1_p
I0707 19:12:33.529016 1970144000 net.cpp:127] Top shape: 100 500 (50000)
I0707 19:12:33.529026 1970144000 layer_factory.hpp:74] Creating layer ip2_p
I0707 19:12:33.529032 1970144000 net.cpp:90] Creating Layer ip2_p
I0707 19:12:33.529037 1970144000 net.cpp:410] ip2_p <- ip1_p
I0707 19:12:33.529055 1970144000 net.cpp:368] ip2_p -> ip2_p
I0707 19:12:33.529063 1970144000 net.cpp:120] Setting up ip2_p
I0707 19:12:33.531107 1970144000 net.cpp:127] Top shape: 100 500 (50000)
I0707 19:12:33.531121 1970144000 net.cpp:459] Sharing parameters 'ip2_w' owned by layer 'ip2', param index 0
I0707 19:12:33.531196 1970144000 net.cpp:459] Sharing parameters 'ip2_b' owned by layer 'ip2', param index 1
I0707 19:12:33.531205 1970144000 layer_factory.hpp:74] Creating layer relu2_p
I0707 19:12:33.531215 1970144000 net.cpp:90] Creating Layer relu2_p
I0707 19:12:33.531221 1970144000 net.cpp:410] relu2_p <- ip2_p
I0707 19:12:33.531229 1970144000 net.cpp:357] relu2_p -> ip2_p (in-place)
I0707 19:12:33.531239 1970144000 net.cpp:120] Setting up relu2_p
I0707 19:12:33.531294 1970144000 net.cpp:127] Top shape: 100 500 (50000)
I0707 19:12:33.531301 1970144000 layer_factory.hpp:74] Creating layer feat_p
I0707 19:12:33.531307 1970144000 net.cpp:90] Creating Layer feat_p
I0707 19:12:33.531311 1970144000 net.cpp:410] feat_p <- ip2_p
I0707 19:12:33.531318 1970144000 net.cpp:368] feat_p -> feat_p
I0707 19:12:33.531325 1970144000 net.cpp:120] Setting up feat_p
I0707 19:12:33.531342 1970144000 net.cpp:127] Top shape: 100 2 (200)
I0707 19:12:33.531347 1970144000 net.cpp:459] Sharing parameters 'feat_w' owned by layer 'feat', param index 0
I0707 19:12:33.531352 1970144000 net.cpp:459] Sharing parameters 'feat_b' owned by layer 'feat', param index 1
I0707 19:12:33.531358 1970144000 layer_factory.hpp:74] Creating layer loss
I0707 19:12:33.531363 1970144000 net.cpp:90] Creating Layer loss
I0707 19:12:33.531366 1970144000 net.cpp:410] loss <- feat
…
