…
I0708 10:12:19.138836 1970144000 solver.cpp:70] Creating training net from net file: src/siamese_network_bw/model/siamese_train_validate.prototxt
I0708 10:12:19.139469 1970144000 net.cpp:287] The NetState phase (0) differed from the phase (1) specified by a rule in layer pair_data
I0708 10:12:19.139499 1970144000 net.cpp:42] Initializing net from parameters: 
name: "siamese_train_validate"
state {
  phase: TRAIN
}
layer {
  name: "pair_data"
  type: "Data"
  top: "pair_data"
  top: "sim"
  include {
    phase: TRAIN
  }
  transform_param {
    scale: 0.00390625
  }
  data_param {
    source: "src/siamese_network_bw/data/siamese_network_train_leveldb"
    batch_size: 64
  }
}
layer {
  name: "slice_pair"
  type: "Slice"
  bottom: "pair_data"
  top: "data"
  top: "data_p"
  slice_param {
    slice_dim: 1
    slice_point: 1
  }
}
layer {
  name: "conv1"
  type: "Convolution"
  bottom: "data"
  top: "conv1"
  param {
    name: "conv1_w"
    lr_mult: 1
  }
  param {
    name: "conv1_b"
    lr_mult: 2
  }
  convolution_param {
    num_output: 32
    kernel_size: 3
    stride: 1
    weight_filler {
      type: "xavier"
    }
    bias_filler {
      type: "constant"
    }
  }
}
layer {
  name: "pool1"
  type: "Pooling"
  bottom: "conv1"
  top: "pool1"
  pooling_param {
    pool: MAX
    kernel_size: 2
    stride: 2
  }
}
layer {
  name: "conv2"
  type: "Convolution"
  bottom: "pool1"
  top: "conv2"
  param {
    name: "conv2_w"
    lr_mult: 1
  }
  param {
    name: "conv2_b"
    lr_mult: 2
  }
  convolution_param {
    num_output: 64
    kernel_size: 2
    stride: 1
    weight_filler {
      type: "xavier"
    }
    bias_filler {
      type: "constant"
    }
  }
}
layer {
  name: "pool2"
  type: "Pooling"
  bottom: "conv2"
  top: "pool2"
  pooling_param {
    pool: MAX
    kernel_size: 2
    stride: 2
  }
}
layer {
  name: "conv3"
  type: "Convolution"
  bottom: "pool2"
  top: "conv3"
  param {
    name: "conv3_w"
    lr_mult: 1
  }
  param {
    name: "conv3_b"
    lr_mult: 2
  }
  convolution_param {
    num_output: 128
    kernel_size: 2
    stride: 1
    weight_filler {
      type: "xavier"
    }
    bias_filler {
      type: "constant"
    }
  }
}
layer {
  name: "pool3"
  type: "Pooling"
  bottom: "conv3"
  top: "pool3"
  pooling_param {
    pool: MAX
    kernel_size: 2
    stride: 2
  }
}
layer {
  name: "ip1"
  type: "InnerProduct"
  bottom: "pool3"
  top: "ip1"
  param {
    name: "ip1_w"
    lr_mult: 1
  }
  param {
    name: "ip1_b"
    lr_mult: 2
  }
  inner_product_param {
    num_output: 500
    weight_filler {
      type: "xavier"
    }
    bias_filler {
      type: "constant"
    }
  }
}
layer {
  name: "relu1"
  type: "ReLU"
  bottom: "ip1"
  top: "ip1"
}
layer {
  name: "ip2"
  type: "InnerProduct"
  bottom: "ip1"
  top: "ip2"
  param {
    name: "ip2_w"
    lr_mult: 1
  }
  param {
    name: "ip2_b"
    lr_mult: 2
  }
  inner_product_param {
    num_output: 500
    weight_filler {
      type: "xavier"
    }
    bias_filler {
      type: "constant"
    }
  }
}
layer {
  name: "relu2"
  type: "ReLU"
  bottom: "ip2"
  top: "ip2"
}
layer {
  name: "feat"
  type: "InnerProduct"
  bottom: "ip2"
  top: "feat"
  param {
    name: "feat_w"
    lr_mult: 1
  }
  param {
    name: "feat_b"
    lr_mult: 2
  }
  inner_product_param {
    num_output: 2
    weight_filler {
      type: "xavier"
    }
    bias_filler {
      type: "constant"
    }
  }
}
layer {
  name: "conv1_p"
  type: "Convolution"
  bottom: "data_p"
  top: "conv1_p"
  param {
    name: "conv1_w"
    lr_mult: 1
  }
  param {
    name: "conv1_b"
    lr_mult: 2
  }
  convolution_param {
    num_output: 32
    kernel_size: 3
    stride: 1
    weight_filler {
      type: "xavier"
    }
    bias_filler {
      type: "constant"
    }
  }
}
layer {
  name: "pool1_p"
  type: "Pooling"
  bottom: "conv1_p"
  top: "pool1_p"
  pooling_param {
    pool: MAX
    kernel_size: 2
    stride: 2
  }
}
layer {
  name: "conv2_p"
  type: "Convolution"
  bottom: "pool1_p"
  top: "conv2_p"
  param {
    name: "conv2_w"
    lr_mult: 1
  }
  param {
    name: "conv2_b"
    lr_mult: 2
  }
  convolution_param {
    num_output: 64
    kernel_size: 2
    stride: 1
    weight_filler {
      type: "xavier"
    }
    bias_filler {
      type: "constant"
    }
  }
}
layer {
  name: "pool2_p"
  type: "Pooling"
  bottom: "conv2_p"
  top: "pool2_p"
  pooling_param {
    pool: MAX
    kernel_size: 2
    stride: 2
  }
}
layer {
  name: "conv3_p"
  type: "Convolution"
  bottom: "pool2_p"
  top: "conv3_p"
  param {
    name: "conv3_w"
    lr_mult: 1
  }
  param {
    name: "conv3_b"
    lr_mult: 2
  }
  convolution_param {
    num_output: 128
    kernel_size: 2
    stride: 1
    weight_filler {
      type: "xavier"
    }
    bias_filler {
      type: "constant"
    }
  }
}
layer {
  name: "pool3_p"
  type: "Pooling"
  bottom: "conv3_p"
  top: "pool3_p"
  pooling_param {
    pool: MAX
    kernel_size: 2
    stride: 2
  }
}
layer {
  name: "ip1_p"
  type: "InnerProduct"
  bottom: "pool3_p"
  top: "ip1_p"
  param {
    name: "ip1_w"
    lr_mult: 1
  }
  param {
    name: "ip1_b"
    lr_mult: 2
  }
  inner_product_param {
    num_output: 500
    weight_filler {
      type: "xavier"
    }
    bias_filler {
      type: "constant"
    }
  }
}
layer {
  name: "relu1_p"
  type: "ReLU"
  bottom: "ip1_p"
  top: "ip1_p"
}
layer {
  name: "ip2_p"
  type: "InnerProduct"
  bottom: "ip1_p"
  top: "ip2_p"
  param {
    name: "ip2_w"
    lr_mult: 1
  }
  param {
    name: "ip2_b"
    lr_mult: 2
  }
  inner_product_param {
    num_output: 500
    weight_filler {
      type: "xavier"
    }
    bias_filler {
      type: "constant"
    }
  }
}
layer {
  name: "relu2_p"
  type: "ReLU"
  bottom: "ip2_p"
  top: "ip2_p"
}
layer {
  name: "feat_p"
  type: "InnerProduct"
  bottom: "ip2_p"
  top: "feat_p"
  param {
    name: "feat_w"
    lr_mult: 1
  }
  param {
    name: "feat_b"
    lr_mult: 2
  }
  inner_product_param {
    num_output: 2
    weight_filler {
      type: "xavier"
    }
    bias_filler {
      type: "constant"
    }
  }
}
layer {
  name: "loss"
  type: "ContrastiveLoss"
  bottom: "feat"
  bottom: "feat_p"
  bottom: "sim"
  top: "loss"
  contrastive_loss_param {
    margin: 1
  }
}
I0708 10:12:19.139822 1970144000 layer_factory.hpp:74] Creating layer pair_data
I0708 10:12:19.139842 1970144000 net.cpp:90] Creating Layer pair_data
I0708 10:12:19.139848 1970144000 net.cpp:368] pair_data -> pair_data
I0708 10:12:19.139866 1970144000 net.cpp:368] pair_data -> sim
I0708 10:12:19.139874 1970144000 net.cpp:120] Setting up pair_data
I0708 10:12:19.145325 1970144000 db.cpp:20] Opened leveldb src/siamese_network_bw/data/siamese_network_train_leveldb
I0708 10:12:19.146654 1970144000 data_layer.cpp:52] output data size: 64,2,58,58
I0708 10:12:19.147482 1970144000 net.cpp:127] Top shape: 64 2 58 58 (430592)
I0708 10:12:19.147505 1970144000 net.cpp:127] Top shape: 64 (64)
I0708 10:12:19.147511 1970144000 layer_factory.hpp:74] Creating layer slice_pair
I0708 10:12:19.147523 1970144000 net.cpp:90] Creating Layer slice_pair
I0708 10:12:19.147528 1970144000 net.cpp:410] slice_pair <- pair_data
I0708 10:12:19.147536 1970144000 net.cpp:368] slice_pair -> data
I0708 10:12:19.147547 1970144000 net.cpp:368] slice_pair -> data_p
I0708 10:12:19.147554 1970144000 net.cpp:120] Setting up slice_pair
I0708 10:12:19.147563 1970144000 net.cpp:127] Top shape: 64 1 58 58 (215296)
I0708 10:12:19.147569 1970144000 net.cpp:127] Top shape: 64 1 58 58 (215296)
I0708 10:12:19.147575 1970144000 layer_factory.hpp:74] Creating layer conv1
I0708 10:12:19.147583 1970144000 net.cpp:90] Creating Layer conv1
I0708 10:12:19.147588 1970144000 net.cpp:410] conv1 <- data
I0708 10:12:19.147594 1970144000 net.cpp:368] conv1 -> conv1
I0708 10:12:19.147621 1970144000 net.cpp:120] Setting up conv1
I0708 10:12:19.206145 1970144000 net.cpp:127] Top shape: 64 32 56 56 (6422528)
I0708 10:12:19.206176 1970144000 layer_factory.hpp:74] Creating layer pool1
I0708 10:12:19.206188 1970144000 net.cpp:90] Creating Layer pool1
I0708 10:12:19.206193 1970144000 net.cpp:410] pool1 <- conv1
I0708 10:12:19.206203 1970144000 net.cpp:368] pool1 -> pool1
I0708 10:12:19.206212 1970144000 net.cpp:120] Setting up pool1
I0708 10:12:19.206374 1970144000 net.cpp:127] Top shape: 64 32 28 28 (1605632)
I0708 10:12:19.206385 1970144000 layer_factory.hpp:74] Creating layer conv2
I0708 10:12:19.206394 1970144000 net.cpp:90] Creating Layer conv2
I0708 10:12:19.206398 1970144000 net.cpp:410] conv2 <- pool1
I0708 10:12:19.206408 1970144000 net.cpp:368] conv2 -> conv2
I0708 10:12:19.206416 1970144000 net.cpp:120] Setting up conv2
I0708 10:12:19.206713 1970144000 net.cpp:127] Top shape: 64 64 27 27 (2985984)
I0708 10:12:19.206727 1970144000 layer_factory.hpp:74] Creating layer pool2
I0708 10:12:19.206737 1970144000 net.cpp:90] Creating Layer pool2
I0708 10:12:19.206740 1970144000 net.cpp:410] pool2 <- conv2
I0708 10:12:19.206746 1970144000 net.cpp:368] pool2 -> pool2
I0708 10:12:19.206753 1970144000 net.cpp:120] Setting up pool2
I0708 10:12:19.206802 1970144000 net.cpp:127] Top shape: 64 64 14 14 (802816)
I0708 10:12:19.206810 1970144000 layer_factory.hpp:74] Creating layer conv3
I0708 10:12:19.206816 1970144000 net.cpp:90] Creating Layer conv3
I0708 10:12:19.206820 1970144000 net.cpp:410] conv3 <- pool2
I0708 10:12:19.206826 1970144000 net.cpp:368] conv3 -> conv3
I0708 10:12:19.206836 1970144000 net.cpp:120] Setting up conv3
I0708 10:12:19.207286 1970144000 net.cpp:127] Top shape: 64 128 13 13 (1384448)
I0708 10:12:19.207299 1970144000 layer_factory.hpp:74] Creating layer pool3
I0708 10:12:19.207306 1970144000 net.cpp:90] Creating Layer pool3
I0708 10:12:19.207310 1970144000 net.cpp:410] pool3 <- conv3
I0708 10:12:19.207319 1970144000 net.cpp:368] pool3 -> pool3
I0708 10:12:19.207325 1970144000 net.cpp:120] Setting up pool3
I0708 10:12:19.207375 1970144000 net.cpp:127] Top shape: 64 128 7 7 (401408)
I0708 10:12:19.207381 1970144000 layer_factory.hpp:74] Creating layer ip1
I0708 10:12:19.207388 1970144000 net.cpp:90] Creating Layer ip1
I0708 10:12:19.207392 1970144000 net.cpp:410] ip1 <- pool3
I0708 10:12:19.207399 1970144000 net.cpp:368] ip1 -> ip1
I0708 10:12:19.207406 1970144000 net.cpp:120] Setting up ip1
I0708 10:12:19.232697 1970144000 net.cpp:127] Top shape: 64 500 (32000)
I0708 10:12:19.232724 1970144000 layer_factory.hpp:74] Creating layer relu1
I0708 10:12:19.232741 1970144000 net.cpp:90] Creating Layer relu1
I0708 10:12:19.232748 1970144000 net.cpp:410] relu1 <- ip1
I0708 10:12:19.232758 1970144000 net.cpp:357] relu1 -> ip1 (in-place)
I0708 10:12:19.232765 1970144000 net.cpp:120] Setting up relu1
I0708 10:12:19.233013 1970144000 net.cpp:127] Top shape: 64 500 (32000)
I0708 10:12:19.233028 1970144000 layer_factory.hpp:74] Creating layer ip2
I0708 10:12:19.233038 1970144000 net.cpp:90] Creating Layer ip2
I0708 10:12:19.233042 1970144000 net.cpp:410] ip2 <- ip1
I0708 10:12:19.233049 1970144000 net.cpp:368] ip2 -> ip2
I0708 10:12:19.233057 1970144000 net.cpp:120] Setting up ip2
I0708 10:12:19.234822 1970144000 net.cpp:127] Top shape: 64 500 (32000)
I0708 10:12:19.234843 1970144000 layer_factory.hpp:74] Creating layer relu2
I0708 10:12:19.234851 1970144000 net.cpp:90] Creating Layer relu2
I0708 10:12:19.234856 1970144000 net.cpp:410] relu2 <- ip2
I0708 10:12:19.234863 1970144000 net.cpp:357] relu2 -> ip2 (in-place)
I0708 10:12:19.234869 1970144000 net.cpp:120] Setting up relu2
I0708 10:12:19.234932 1970144000 net.cpp:127] Top shape: 64 500 (32000)
I0708 10:12:19.234941 1970144000 layer_factory.hpp:74] Creating layer feat
I0708 10:12:19.234951 1970144000 net.cpp:90] Creating Layer feat
I0708 10:12:19.234956 1970144000 net.cpp:410] feat <- ip2
I0708 10:12:19.234961 1970144000 net.cpp:368] feat -> feat
I0708 10:12:19.234969 1970144000 net.cpp:120] Setting up feat
I0708 10:12:19.234987 1970144000 net.cpp:127] Top shape: 64 2 (128)
I0708 10:12:19.235020 1970144000 layer_factory.hpp:74] Creating layer conv1_p
I0708 10:12:19.235029 1970144000 net.cpp:90] Creating Layer conv1_p
I0708 10:12:19.235034 1970144000 net.cpp:410] conv1_p <- data_p
I0708 10:12:19.235040 1970144000 net.cpp:368] conv1_p -> conv1_p
I0708 10:12:19.235047 1970144000 net.cpp:120] Setting up conv1_p
I0708 10:12:19.235427 1970144000 net.cpp:127] Top shape: 64 32 56 56 (6422528)
I0708 10:12:19.235446 1970144000 net.cpp:459] Sharing parameters 'conv1_w' owned by layer 'conv1', param index 0
I0708 10:12:19.235465 1970144000 net.cpp:459] Sharing parameters 'conv1_b' owned by layer 'conv1', param index 1
I0708 10:12:19.235471 1970144000 layer_factory.hpp:74] Creating layer pool1_p
I0708 10:12:19.235479 1970144000 net.cpp:90] Creating Layer pool1_p
I0708 10:12:19.235484 1970144000 net.cpp:410] pool1_p <- conv1_p
I0708 10:12:19.235489 1970144000 net.cpp:368] pool1_p -> pool1_p
I0708 10:12:19.235496 1970144000 net.cpp:120] Setting up pool1_p
I0708 10:12:19.235556 1970144000 net.cpp:127] Top shape: 64 32 28 28 (1605632)
I0708 10:12:19.235569 1970144000 layer_factory.hpp:74] Creating layer conv2_p
I0708 10:12:19.235576 1970144000 net.cpp:90] Creating Layer conv2_p
I0708 10:12:19.235581 1970144000 net.cpp:410] conv2_p <- pool1_p
I0708 10:12:19.235587 1970144000 net.cpp:368] conv2_p -> conv2_p
I0708 10:12:19.235595 1970144000 net.cpp:120] Setting up conv2_p
I0708 10:12:19.235963 1970144000 net.cpp:127] Top shape: 64 64 27 27 (2985984)
I0708 10:12:19.235975 1970144000 net.cpp:459] Sharing parameters 'conv2_w' owned by layer 'conv2', param index 0
I0708 10:12:19.235985 1970144000 net.cpp:459] Sharing parameters 'conv2_b' owned by layer 'conv2', param index 1
I0708 10:12:19.235992 1970144000 layer_factory.hpp:74] Creating layer pool2_p
I0708 10:12:19.236003 1970144000 net.cpp:90] Creating Layer pool2_p
I0708 10:12:19.236007 1970144000 net.cpp:410] pool2_p <- conv2_p
I0708 10:12:19.236013 1970144000 net.cpp:368] pool2_p -> pool2_p
I0708 10:12:19.236021 1970144000 net.cpp:120] Setting up pool2_p
I0708 10:12:19.236073 1970144000 net.cpp:127] Top shape: 64 64 14 14 (802816)
I0708 10:12:19.236080 1970144000 layer_factory.hpp:74] Creating layer conv3_p
I0708 10:12:19.236088 1970144000 net.cpp:90] Creating Layer conv3_p
I0708 10:12:19.236091 1970144000 net.cpp:410] conv3_p <- pool2_p
I0708 10:12:19.236098 1970144000 net.cpp:368] conv3_p -> conv3_p
I0708 10:12:19.236132 1970144000 net.cpp:120] Setting up conv3_p
I0708 10:12:19.236767 1970144000 net.cpp:127] Top shape: 64 128 13 13 (1384448)
I0708 10:12:19.236784 1970144000 net.cpp:459] Sharing parameters 'conv3_w' owned by layer 'conv3', param index 0
I0708 10:12:19.236796 1970144000 net.cpp:459] Sharing parameters 'conv3_b' owned by layer 'conv3', param index 1
I0708 10:12:19.236802 1970144000 layer_factory.hpp:74] Creating layer pool3_p
I0708 10:12:19.236809 1970144000 net.cpp:90] Creating Layer pool3_p
I0708 10:12:19.236814 1970144000 net.cpp:410] pool3_p <- conv3_p
I0708 10:12:19.236819 1970144000 net.cpp:368] pool3_p -> pool3_p
I0708 10:12:19.236829 1970144000 net.cpp:120] Setting up pool3_p
I0708 10:12:19.236953 1970144000 net.cpp:127] Top shape: 64 128 7 7 (401408)
I0708 10:12:19.236963 1970144000 layer_factory.hpp:74] Creating layer ip1_p
I0708 10:12:19.236974 1970144000 net.cpp:90] Creating Layer ip1_p
I0708 10:12:19.236981 1970144000 net.cpp:410] ip1_p <- pool3_p
I0708 10:12:19.236989 1970144000 net.cpp:368] ip1_p -> ip1_p
I0708 10:12:19.236995 1970144000 net.cpp:120] Setting up ip1_p
I0708 10:12:19.263284 1970144000 net.cpp:127] Top shape: 64 500 (32000)
I0708 10:12:19.263314 1970144000 net.cpp:459] Sharing parameters 'ip1_w' owned by layer 'ip1', param index 0
I0708 10:12:19.264612 1970144000 net.cpp:459] Sharing parameters 'ip1_b' owned by layer 'ip1', param index 1
I0708 10:12:19.264621 1970144000 layer_factory.hpp:74] Creating layer relu1_p
I0708 10:12:19.264641 1970144000 net.cpp:90] Creating Layer relu1_p
I0708 10:12:19.264646 1970144000 net.cpp:410] relu1_p <- ip1_p
I0708 10:12:19.264652 1970144000 net.cpp:357] relu1_p -> ip1_p (in-place)
I0708 10:12:19.264688 1970144000 net.cpp:120] Setting up relu1_p
I0708 10:12:19.264767 1970144000 net.cpp:127] Top shape: 64 500 (32000)
I0708 10:12:19.264775 1970144000 layer_factory.hpp:74] Creating layer ip2_p
I0708 10:12:19.264781 1970144000 net.cpp:90] Creating Layer ip2_p
I0708 10:12:19.264786 1970144000 net.cpp:410] ip2_p <- ip1_p
I0708 10:12:19.264793 1970144000 net.cpp:368] ip2_p -> ip2_p
I0708 10:12:19.264801 1970144000 net.cpp:120] Setting up ip2_p
I0708 10:12:19.266440 1970144000 net.cpp:127] Top shape: 64 500 (32000)
I0708 10:12:19.266448 1970144000 net.cpp:459] Sharing parameters 'ip2_w' owned by layer 'ip2', param index 0
I0708 10:12:19.266465 1970144000 net.cpp:459] Sharing parameters 'ip2_b' owned by layer 'ip2', param index 1
I0708 10:12:19.266469 1970144000 layer_factory.hpp:74] Creating layer relu2_p
I0708 10:12:19.266475 1970144000 net.cpp:90] Creating Layer relu2_p
I0708 10:12:19.266479 1970144000 net.cpp:410] relu2_p <- ip2_p
I0708 10:12:19.266484 1970144000 net.cpp:357] relu2_p -> ip2_p (in-place)
I0708 10:12:19.266489 1970144000 net.cpp:120] Setting up relu2_p
I0708 10:12:19.266535 1970144000 net.cpp:127] Top shape: 64 500 (32000)
I0708 10:12:19.266541 1970144000 layer_factory.hpp:74] Creating layer feat_p
I0708 10:12:19.266551 1970144000 net.cpp:90] Creating Layer feat_p
I0708 10:12:19.266554 1970144000 net.cpp:410] feat_p <- ip2_p
I0708 10:12:19.266559 1970144000 net.cpp:368] feat_p -> feat_p
I0708 10:12:19.266566 1970144000 net.cpp:120] Setting up feat_p
I0708 10:12:19.266582 1970144000 net.cpp:127] Top shape: 64 2 (128)
I0708 10:12:19.266587 1970144000 net.cpp:459] Sharing parameters 'feat_w' owned by layer 'feat', param index 0
I0708 10:12:19.266592 1970144000 net.cpp:459] Sharing parameters 'feat_b' owned by layer 'feat', param index 1
I0708 10:12:19.266597 1970144000 layer_factory.hpp:74] Creating layer loss
I0708 10:12:19.266607 1970144000 net.cpp:90] Creating Layer loss
I0708 10:12:19.266612 1970144000 net.cpp:410] loss <- feat
…
