…
I0811 13:58:18.880748 2099430144 solver.cpp:70] Creating training net from net file: src/siamese_network_bw/model/siamese_train_validate.prototxt
I0811 13:58:18.881170 2099430144 net.cpp:287] The NetState phase (0) differed from the phase (1) specified by a rule in layer pair_data
I0811 13:58:18.881202 2099430144 net.cpp:42] Initializing net from parameters: 
name: "siamese_train_validate"
state {
  phase: TRAIN
}
layer {
  name: "pair_data"
  type: "Data"
  top: "pair_data"
  top: "sim"
  include {
    phase: TRAIN
  }
  transform_param {
    scale: 0.00390625
  }
  data_param {
    source: "src/siamese_network_bw/data/siamese_network_train_leveldb"
    batch_size: 64
  }
}
layer {
  name: "slice_pair"
  type: "Slice"
  bottom: "pair_data"
  top: "data"
  top: "data_p"
  slice_param {
    slice_dim: 1
    slice_point: 1
  }
}
layer {
  name: "conv1"
  type: "Convolution"
  bottom: "data"
  top: "conv1"
  param {
    name: "conv1_w"
    lr_mult: 1
  }
  param {
    name: "conv1_b"
    lr_mult: 2
  }
  convolution_param {
    num_output: 32
    kernel_size: 3
    stride: 1
    weight_filler {
      type: "xavier"
    }
    bias_filler {
      type: "constant"
    }
  }
}
layer {
  name: "pool1"
  type: "Pooling"
  bottom: "conv1"
  top: "pool1"
  pooling_param {
    pool: MAX
    kernel_size: 2
    stride: 2
  }
}
layer {
  name: "conv2"
  type: "Convolution"
  bottom: "pool1"
  top: "conv2"
  param {
    name: "conv2_w"
    lr_mult: 1
  }
  param {
    name: "conv2_b"
    lr_mult: 2
  }
  convolution_param {
    num_output: 64
    kernel_size: 2
    stride: 1
    weight_filler {
      type: "xavier"
    }
    bias_filler {
      type: "constant"
    }
  }
}
layer {
  name: "pool2"
  type: "Pooling"
  bottom: "conv2"
  top: "pool2"
  pooling_param {
    pool: MAX
    kernel_size: 2
    stride: 2
  }
}
layer {
  name: "conv3"
  type: "Convolution"
  bottom: "pool2"
  top: "conv3"
  param {
    name: "conv3_w"
    lr_mult: 1
  }
  param {
    name: "conv3_b"
    lr_mult: 2
  }
  convolution_param {
    num_output: 128
    kernel_size: 2
    stride: 1
    weight_filler {
      type: "xavier"
    }
    bias_filler {
      type: "constant"
    }
  }
}
layer {
  name: "pool3"
  type: "Pooling"
  bottom: "conv3"
  top: "pool3"
  pooling_param {
    pool: MAX
    kernel_size: 2
    stride: 2
  }
}
layer {
  name: "ip1"
  type: "InnerProduct"
  bottom: "pool3"
  top: "ip1"
  param {
    name: "ip1_w"
    lr_mult: 1
  }
  param {
    name: "ip1_b"
    lr_mult: 2
  }
  inner_product_param {
    num_output: 500
    weight_filler {
      type: "xavier"
    }
    bias_filler {
      type: "constant"
    }
  }
}
layer {
  name: "relu1"
  type: "ReLU"
  bottom: "ip1"
  top: "ip1"
}
layer {
  name: "ip2"
  type: "InnerProduct"
  bottom: "ip1"
  top: "ip2"
  param {
    name: "ip2_w"
    lr_mult: 1
  }
  param {
    name: "ip2_b"
    lr_mult: 2
  }
  inner_product_param {
    num_output: 500
    weight_filler {
      type: "xavier"
    }
    bias_filler {
      type: "constant"
    }
  }
}
layer {
  name: "relu2"
  type: "ReLU"
  bottom: "ip2"
  top: "ip2"
}
layer {
  name: "feat"
  type: "InnerProduct"
  bottom: "ip2"
  top: "feat"
  param {
    name: "feat_w"
    lr_mult: 1
  }
  param {
    name: "feat_b"
    lr_mult: 2
  }
  inner_product_param {
    num_output: 2
    weight_filler {
      type: "xavier"
    }
    bias_filler {
      type: "constant"
    }
  }
}
layer {
  name: "conv1_p"
  type: "Convolution"
  bottom: "data_p"
  top: "conv1_p"
  param {
    name: "conv1_w"
    lr_mult: 1
  }
  param {
    name: "conv1_b"
    lr_mult: 2
  }
  convolution_param {
    num_output: 32
    kernel_size: 3
    stride: 1
    weight_filler {
      type: "xavier"
    }
    bias_filler {
      type: "constant"
    }
  }
}
layer {
  name: "pool1_p"
  type: "Pooling"
  bottom: "conv1_p"
  top: "pool1_p"
  pooling_param {
    pool: MAX
    kernel_size: 2
    stride: 2
  }
}
layer {
  name: "conv2_p"
  type: "Convolution"
  bottom: "pool1_p"
  top: "conv2_p"
  param {
    name: "conv2_w"
    lr_mult: 1
  }
  param {
    name: "conv2_b"
    lr_mult: 2
  }
  convolution_param {
    num_output: 64
    kernel_size: 2
    stride: 1
    weight_filler {
      type: "xavier"
    }
    bias_filler {
      type: "constant"
    }
  }
}
layer {
  name: "pool2_p"
  type: "Pooling"
  bottom: "conv2_p"
  top: "pool2_p"
  pooling_param {
    pool: MAX
    kernel_size: 2
    stride: 2
  }
}
layer {
  name: "conv3_p"
  type: "Convolution"
  bottom: "pool2_p"
  top: "conv3_p"
  param {
    name: "conv3_w"
    lr_mult: 1
  }
  param {
    name: "conv3_b"
    lr_mult: 2
  }
  convolution_param {
    num_output: 128
    kernel_size: 2
    stride: 1
    weight_filler {
      type: "xavier"
    }
    bias_filler {
      type: "constant"
    }
  }
}
layer {
  name: "pool3_p"
  type: "Pooling"
  bottom: "conv3_p"
  top: "pool3_p"
  pooling_param {
    pool: MAX
    kernel_size: 2
    stride: 2
  }
}
layer {
  name: "ip1_p"
  type: "InnerProduct"
  bottom: "pool3_p"
  top: "ip1_p"
  param {
    name: "ip1_w"
    lr_mult: 1
  }
  param {
    name: "ip1_b"
    lr_mult: 2
  }
  inner_product_param {
    num_output: 500
    weight_filler {
      type: "xavier"
    }
    bias_filler {
      type: "constant"
    }
  }
}
layer {
  name: "relu1_p"
  type: "ReLU"
  bottom: "ip1_p"
  top: "ip1_p"
}
layer {
  name: "ip2_p"
  type: "InnerProduct"
  bottom: "ip1_p"
  top: "ip2_p"
  param {
    name: "ip2_w"
    lr_mult: 1
  }
  param {
    name: "ip2_b"
    lr_mult: 2
  }
  inner_product_param {
    num_output: 500
    weight_filler {
      type: "xavier"
    }
    bias_filler {
      type: "constant"
    }
  }
}
layer {
  name: "relu2_p"
  type: "ReLU"
  bottom: "ip2_p"
  top: "ip2_p"
}
layer {
  name: "feat_p"
  type: "InnerProduct"
  bottom: "ip2_p"
  top: "feat_p"
  param {
    name: "feat_w"
    lr_mult: 1
  }
  param {
    name: "feat_b"
    lr_mult: 2
  }
  inner_product_param {
    num_output: 2
    weight_filler {
      type: "xavier"
    }
    bias_filler {
      type: "constant"
    }
  }
}
layer {
  name: "loss"
  type: "ContrastiveLoss"
  bottom: "feat"
  bottom: "feat_p"
  bottom: "sim"
  top: "loss"
  contrastive_loss_param {
    margin: 1
  }
}
I0811 13:58:18.881471 2099430144 layer_factory.hpp:74] Creating layer pair_data
I0811 13:58:18.881490 2099430144 net.cpp:90] Creating Layer pair_data
I0811 13:58:18.881497 2099430144 net.cpp:368] pair_data -> pair_data
I0811 13:58:18.881516 2099430144 net.cpp:368] pair_data -> sim
I0811 13:58:18.881522 2099430144 net.cpp:120] Setting up pair_data
I0811 13:58:18.882962 2099430144 db.cpp:20] Opened leveldb src/siamese_network_bw/data/siamese_network_train_leveldb
I0811 13:58:18.883389 2099430144 data_layer.cpp:52] output data size: 64,2,58,58
I0811 13:58:18.884205 2099430144 net.cpp:127] Top shape: 64 2 58 58 (430592)
I0811 13:58:18.884235 2099430144 net.cpp:127] Top shape: 64 (64)
I0811 13:58:18.884245 2099430144 layer_factory.hpp:74] Creating layer slice_pair
I0811 13:58:18.884264 2099430144 net.cpp:90] Creating Layer slice_pair
I0811 13:58:18.884273 2099430144 net.cpp:410] slice_pair <- pair_data
I0811 13:58:18.884282 2099430144 net.cpp:368] slice_pair -> data
I0811 13:58:18.884296 2099430144 net.cpp:368] slice_pair -> data_p
I0811 13:58:18.884302 2099430144 net.cpp:120] Setting up slice_pair
I0811 13:58:18.884311 2099430144 net.cpp:127] Top shape: 64 1 58 58 (215296)
I0811 13:58:18.884316 2099430144 net.cpp:127] Top shape: 64 1 58 58 (215296)
I0811 13:58:18.884322 2099430144 layer_factory.hpp:74] Creating layer conv1
I0811 13:58:18.884335 2099430144 net.cpp:90] Creating Layer conv1
I0811 13:58:18.884341 2099430144 net.cpp:410] conv1 <- data
I0811 13:58:18.884354 2099430144 net.cpp:368] conv1 -> conv1
I0811 13:58:18.884392 2099430144 net.cpp:120] Setting up conv1
I0811 13:58:18.951787 2099430144 net.cpp:127] Top shape: 64 32 56 56 (6422528)
I0811 13:58:18.951828 2099430144 layer_factory.hpp:74] Creating layer pool1
I0811 13:58:18.951843 2099430144 net.cpp:90] Creating Layer pool1
I0811 13:58:18.951848 2099430144 net.cpp:410] pool1 <- conv1
I0811 13:58:18.951853 2099430144 net.cpp:368] pool1 -> pool1
I0811 13:58:18.951860 2099430144 net.cpp:120] Setting up pool1
I0811 13:58:18.952039 2099430144 net.cpp:127] Top shape: 64 32 28 28 (1605632)
I0811 13:58:18.952054 2099430144 layer_factory.hpp:74] Creating layer conv2
I0811 13:58:18.952066 2099430144 net.cpp:90] Creating Layer conv2
I0811 13:58:18.952075 2099430144 net.cpp:410] conv2 <- pool1
I0811 13:58:18.952102 2099430144 net.cpp:368] conv2 -> conv2
I0811 13:58:18.952117 2099430144 net.cpp:120] Setting up conv2
I0811 13:58:18.952558 2099430144 net.cpp:127] Top shape: 64 64 27 27 (2985984)
I0811 13:58:18.952576 2099430144 layer_factory.hpp:74] Creating layer pool2
I0811 13:58:18.952584 2099430144 net.cpp:90] Creating Layer pool2
I0811 13:58:18.952589 2099430144 net.cpp:410] pool2 <- conv2
I0811 13:58:18.952594 2099430144 net.cpp:368] pool2 -> pool2
I0811 13:58:18.952607 2099430144 net.cpp:120] Setting up pool2
I0811 13:58:18.952659 2099430144 net.cpp:127] Top shape: 64 64 14 14 (802816)
I0811 13:58:18.952667 2099430144 layer_factory.hpp:74] Creating layer conv3
I0811 13:58:18.952677 2099430144 net.cpp:90] Creating Layer conv3
I0811 13:58:18.952682 2099430144 net.cpp:410] conv3 <- pool2
I0811 13:58:18.952687 2099430144 net.cpp:368] conv3 -> conv3
I0811 13:58:18.952694 2099430144 net.cpp:120] Setting up conv3
I0811 13:58:18.953152 2099430144 net.cpp:127] Top shape: 64 128 13 13 (1384448)
I0811 13:58:18.953171 2099430144 layer_factory.hpp:74] Creating layer pool3
I0811 13:58:18.953177 2099430144 net.cpp:90] Creating Layer pool3
I0811 13:58:18.953181 2099430144 net.cpp:410] pool3 <- conv3
I0811 13:58:18.953186 2099430144 net.cpp:368] pool3 -> pool3
I0811 13:58:18.953192 2099430144 net.cpp:120] Setting up pool3
I0811 13:58:18.953238 2099430144 net.cpp:127] Top shape: 64 128 7 7 (401408)
I0811 13:58:18.953245 2099430144 layer_factory.hpp:74] Creating layer ip1
I0811 13:58:18.953255 2099430144 net.cpp:90] Creating Layer ip1
I0811 13:58:18.953259 2099430144 net.cpp:410] ip1 <- pool3
I0811 13:58:18.953265 2099430144 net.cpp:368] ip1 -> ip1
I0811 13:58:18.953272 2099430144 net.cpp:120] Setting up ip1
I0811 13:58:18.979805 2099430144 net.cpp:127] Top shape: 64 500 (32000)
I0811 13:58:18.979836 2099430144 layer_factory.hpp:74] Creating layer relu1
I0811 13:58:18.979854 2099430144 net.cpp:90] Creating Layer relu1
I0811 13:58:18.979861 2099430144 net.cpp:410] relu1 <- ip1
I0811 13:58:18.979876 2099430144 net.cpp:357] relu1 -> ip1 (in-place)
I0811 13:58:18.979893 2099430144 net.cpp:120] Setting up relu1
I0811 13:58:18.980283 2099430144 net.cpp:127] Top shape: 64 500 (32000)
I0811 13:58:18.980324 2099430144 layer_factory.hpp:74] Creating layer ip2
I0811 13:58:18.980347 2099430144 net.cpp:90] Creating Layer ip2
I0811 13:58:18.980365 2099430144 net.cpp:410] ip2 <- ip1
I0811 13:58:18.980383 2099430144 net.cpp:368] ip2 -> ip2
I0811 13:58:18.980396 2099430144 net.cpp:120] Setting up ip2
I0811 13:58:18.982103 2099430144 net.cpp:127] Top shape: 64 500 (32000)
I0811 13:58:18.982132 2099430144 layer_factory.hpp:74] Creating layer relu2
I0811 13:58:18.982146 2099430144 net.cpp:90] Creating Layer relu2
I0811 13:58:18.982151 2099430144 net.cpp:410] relu2 <- ip2
I0811 13:58:18.982157 2099430144 net.cpp:357] relu2 -> ip2 (in-place)
I0811 13:58:18.982163 2099430144 net.cpp:120] Setting up relu2
I0811 13:58:18.982229 2099430144 net.cpp:127] Top shape: 64 500 (32000)
I0811 13:58:18.982235 2099430144 layer_factory.hpp:74] Creating layer feat
I0811 13:58:18.982245 2099430144 net.cpp:90] Creating Layer feat
I0811 13:58:18.982249 2099430144 net.cpp:410] feat <- ip2
I0811 13:58:18.982254 2099430144 net.cpp:368] feat -> feat
I0811 13:58:18.982270 2099430144 net.cpp:120] Setting up feat
I0811 13:58:18.982288 2099430144 net.cpp:127] Top shape: 64 2 (128)
I0811 13:58:18.982319 2099430144 layer_factory.hpp:74] Creating layer conv1_p
I0811 13:58:18.982326 2099430144 net.cpp:90] Creating Layer conv1_p
I0811 13:58:18.982354 2099430144 net.cpp:410] conv1_p <- data_p
I0811 13:58:18.982372 2099430144 net.cpp:368] conv1_p -> conv1_p
I0811 13:58:18.982381 2099430144 net.cpp:120] Setting up conv1_p
I0811 13:58:18.982889 2099430144 net.cpp:127] Top shape: 64 32 56 56 (6422528)
I0811 13:58:18.982923 2099430144 net.cpp:459] Sharing parameters 'conv1_w' owned by layer 'conv1', param index 0
I0811 13:58:18.982942 2099430144 net.cpp:459] Sharing parameters 'conv1_b' owned by layer 'conv1', param index 1
I0811 13:58:18.982954 2099430144 layer_factory.hpp:74] Creating layer pool1_p
I0811 13:58:18.982964 2099430144 net.cpp:90] Creating Layer pool1_p
I0811 13:58:18.982969 2099430144 net.cpp:410] pool1_p <- conv1_p
I0811 13:58:18.982975 2099430144 net.cpp:368] pool1_p -> pool1_p
I0811 13:58:18.982981 2099430144 net.cpp:120] Setting up pool1_p
I0811 13:58:18.983057 2099430144 net.cpp:127] Top shape: 64 32 28 28 (1605632)
I0811 13:58:18.983069 2099430144 layer_factory.hpp:74] Creating layer conv2_p
I0811 13:58:18.983078 2099430144 net.cpp:90] Creating Layer conv2_p
I0811 13:58:18.983081 2099430144 net.cpp:410] conv2_p <- pool1_p
I0811 13:58:18.983090 2099430144 net.cpp:368] conv2_p -> conv2_p
I0811 13:58:18.983098 2099430144 net.cpp:120] Setting up conv2_p
I0811 13:58:18.983587 2099430144 net.cpp:127] Top shape: 64 64 27 27 (2985984)
I0811 13:58:18.983600 2099430144 net.cpp:459] Sharing parameters 'conv2_w' owned by layer 'conv2', param index 0
I0811 13:58:18.983607 2099430144 net.cpp:459] Sharing parameters 'conv2_b' owned by layer 'conv2', param index 1
I0811 13:58:18.983611 2099430144 layer_factory.hpp:74] Creating layer pool2_p
I0811 13:58:18.983619 2099430144 net.cpp:90] Creating Layer pool2_p
I0811 13:58:18.983623 2099430144 net.cpp:410] pool2_p <- conv2_p
I0811 13:58:18.983629 2099430144 net.cpp:368] pool2_p -> pool2_p
I0811 13:58:18.983639 2099430144 net.cpp:120] Setting up pool2_p
I0811 13:58:18.983686 2099430144 net.cpp:127] Top shape: 64 64 14 14 (802816)
I0811 13:58:18.983693 2099430144 layer_factory.hpp:74] Creating layer conv3_p
I0811 13:58:18.983700 2099430144 net.cpp:90] Creating Layer conv3_p
I0811 13:58:18.983703 2099430144 net.cpp:410] conv3_p <- pool2_p
I0811 13:58:18.983710 2099430144 net.cpp:368] conv3_p -> conv3_p
I0811 13:58:18.983717 2099430144 net.cpp:120] Setting up conv3_p
I0811 13:58:18.984349 2099430144 net.cpp:127] Top shape: 64 128 13 13 (1384448)
I0811 13:58:18.984370 2099430144 net.cpp:459] Sharing parameters 'conv3_w' owned by layer 'conv3', param index 0
I0811 13:58:18.984380 2099430144 net.cpp:459] Sharing parameters 'conv3_b' owned by layer 'conv3', param index 1
I0811 13:58:18.984385 2099430144 layer_factory.hpp:74] Creating layer pool3_p
I0811 13:58:18.984392 2099430144 net.cpp:90] Creating Layer pool3_p
I0811 13:58:18.984398 2099430144 net.cpp:410] pool3_p <- conv3_p
I0811 13:58:18.984407 2099430144 net.cpp:368] pool3_p -> pool3_p
I0811 13:58:18.984416 2099430144 net.cpp:120] Setting up pool3_p
I0811 13:58:18.984637 2099430144 net.cpp:127] Top shape: 64 128 7 7 (401408)
I0811 13:58:18.984649 2099430144 layer_factory.hpp:74] Creating layer ip1_p
I0811 13:58:18.984658 2099430144 net.cpp:90] Creating Layer ip1_p
I0811 13:58:18.984663 2099430144 net.cpp:410] ip1_p <- pool3_p
I0811 13:58:18.984670 2099430144 net.cpp:368] ip1_p -> ip1_p
I0811 13:58:18.984678 2099430144 net.cpp:120] Setting up ip1_p
I0811 13:58:19.011679 2099430144 net.cpp:127] Top shape: 64 500 (32000)
I0811 13:58:19.011708 2099430144 net.cpp:459] Sharing parameters 'ip1_w' owned by layer 'ip1', param index 0
I0811 13:58:19.013144 2099430144 net.cpp:459] Sharing parameters 'ip1_b' owned by layer 'ip1', param index 1
I0811 13:58:19.013161 2099430144 layer_factory.hpp:74] Creating layer relu1_p
I0811 13:58:19.013171 2099430144 net.cpp:90] Creating Layer relu1_p
I0811 13:58:19.013176 2099430144 net.cpp:410] relu1_p <- ip1_p
I0811 13:58:19.013182 2099430144 net.cpp:357] relu1_p -> ip1_p (in-place)
I0811 13:58:19.013213 2099430144 net.cpp:120] Setting up relu1_p
I0811 13:58:19.013339 2099430144 net.cpp:127] Top shape: 64 500 (32000)
I0811 13:58:19.013357 2099430144 layer_factory.hpp:74] Creating layer ip2_p
I0811 13:58:19.013368 2099430144 net.cpp:90] Creating Layer ip2_p
I0811 13:58:19.013373 2099430144 net.cpp:410] ip2_p <- ip1_p
I0811 13:58:19.013382 2099430144 net.cpp:368] ip2_p -> ip2_p
I0811 13:58:19.013391 2099430144 net.cpp:120] Setting up ip2_p
I0811 13:58:19.015596 2099430144 net.cpp:127] Top shape: 64 500 (32000)
I0811 13:58:19.015612 2099430144 net.cpp:459] Sharing parameters 'ip2_w' owned by layer 'ip2', param index 0
I0811 13:58:19.015621 2099430144 net.cpp:459] Sharing parameters 'ip2_b' owned by layer 'ip2', param index 1
I0811 13:58:19.015626 2099430144 layer_factory.hpp:74] Creating layer relu2_p
I0811 13:58:19.015633 2099430144 net.cpp:90] Creating Layer relu2_p
I0811 13:58:19.015638 2099430144 net.cpp:410] relu2_p <- ip2_p
I0811 13:58:19.015646 2099430144 net.cpp:357] relu2_p -> ip2_p (in-place)
I0811 13:58:19.015652 2099430144 net.cpp:120] Setting up relu2_p
I0811 13:58:19.015709 2099430144 net.cpp:127] Top shape: 64 500 (32000)
I0811 13:58:19.015738 2099430144 layer_factory.hpp:74] Creating layer feat_p
I0811 13:58:19.015755 2099430144 net.cpp:90] Creating Layer feat_p
I0811 13:58:19.015763 2099430144 net.cpp:410] feat_p <- ip2_p
I0811 13:58:19.015774 2099430144 net.cpp:368] feat_p -> feat_p
I0811 13:58:19.015784 2099430144 net.cpp:120] Setting up feat_p
I0811 13:58:19.015821 2099430144 net.cpp:127] Top shape: 64 2 (128)
I0811 13:58:19.015835 2099430144 net.cpp:459] Sharing parameters 'feat_w' owned by layer 'feat', param index 0
I0811 13:58:19.015841 2099430144 net.cpp:459] Sharing parameters 'feat_b' owned by layer 'feat', param index 1
I0811 13:58:19.015848 2099430144 layer_factory.hpp:74] Creating layer loss
I0811 13:58:19.015863 2099430144 net.cpp:90] Creating Layer loss
I0811 13:58:19.015869 2099430144 net.cpp:410] loss <- feat
…
