…
I0627 12:18:53.350198 1970144000 solver.cpp:70] Creating training net from net file: src/siamese_network_bw/model/siamese_train_validate.prototxt
I0627 12:18:53.350631 1970144000 net.cpp:287] The NetState phase (0) differed from the phase (1) specified by a rule in layer pair_data
I0627 12:18:53.350672 1970144000 net.cpp:42] Initializing net from parameters: 
name: "siamese_train_validate"
state {
  phase: TRAIN
}
layer {
  name: "pair_data"
  type: "Data"
  top: "pair_data"
  top: "sim"
  include {
    phase: TRAIN
  }
  transform_param {
    scale: 0.00390625
  }
  data_param {
    source: "src/siamese_network_bw/data/siamese_network_train_leveldb"
    batch_size: 64
  }
}
layer {
  name: "slice_pair"
  type: "Slice"
  bottom: "pair_data"
  top: "data"
  top: "data_p"
  slice_param {
    slice_dim: 1
    slice_point: 1
  }
}
layer {
  name: "conv1"
  type: "Convolution"
  bottom: "data"
  top: "conv1"
  param {
    name: "conv1_w"
    lr_mult: 1
  }
  param {
    name: "conv1_b"
    lr_mult: 2
  }
  convolution_param {
    num_output: 20
    kernel_size: 5
    stride: 1
    weight_filler {
      type: "xavier"
    }
    bias_filler {
      type: "constant"
    }
  }
}
layer {
  name: "pool1"
  type: "Pooling"
  bottom: "conv1"
  top: "pool1"
  pooling_param {
    pool: MAX
    kernel_size: 2
    stride: 2
  }
}
layer {
  name: "conv2"
  type: "Convolution"
  bottom: "pool1"
  top: "conv2"
  param {
    name: "conv2_w"
    lr_mult: 1
  }
  param {
    name: "conv2_b"
    lr_mult: 2
  }
  convolution_param {
    num_output: 50
    kernel_size: 5
    stride: 1
    weight_filler {
      type: "xavier"
    }
    bias_filler {
      type: "constant"
    }
  }
}
layer {
  name: "pool2"
  type: "Pooling"
  bottom: "conv2"
  top: "pool2"
  pooling_param {
    pool: MAX
    kernel_size: 2
    stride: 2
  }
}
layer {
  name: "ip1"
  type: "InnerProduct"
  bottom: "pool2"
  top: "ip1"
  param {
    name: "ip1_w"
    lr_mult: 1
  }
  param {
    name: "ip1_b"
    lr_mult: 2
  }
  inner_product_param {
    num_output: 500
    weight_filler {
      type: "xavier"
    }
    bias_filler {
      type: "constant"
    }
  }
}
layer {
  name: "relu1"
  type: "ReLU"
  bottom: "ip1"
  top: "ip1"
}
layer {
  name: "ip2"
  type: "InnerProduct"
  bottom: "ip1"
  top: "ip2"
  param {
    name: "ip2_w"
    lr_mult: 1
  }
  param {
    name: "ip2_b"
    lr_mult: 2
  }
  inner_product_param {
    num_output: 10
    weight_filler {
      type: "xavier"
    }
    bias_filler {
      type: "constant"
    }
  }
}
layer {
  name: "feat"
  type: "InnerProduct"
  bottom: "ip2"
  top: "feat"
  param {
    name: "feat_w"
    lr_mult: 1
  }
  param {
    name: "feat_b"
    lr_mult: 2
  }
  inner_product_param {
    num_output: 2
    weight_filler {
      type: "xavier"
    }
    bias_filler {
      type: "constant"
    }
  }
}
layer {
  name: "conv1_p"
  type: "Convolution"
  bottom: "data_p"
  top: "conv1_p"
  param {
    name: "conv1_w"
    lr_mult: 1
  }
  param {
    name: "conv1_b"
    lr_mult: 2
  }
  convolution_param {
    num_output: 20
    kernel_size: 5
    stride: 1
    weight_filler {
      type: "xavier"
    }
    bias_filler {
      type: "constant"
    }
  }
}
layer {
  name: "pool1_p"
  type: "Pooling"
  bottom: "conv1_p"
  top: "pool1_p"
  pooling_param {
    pool: MAX
    kernel_size: 2
    stride: 2
  }
}
layer {
  name: "conv2_p"
  type: "Convolution"
  bottom: "pool1_p"
  top: "conv2_p"
  param {
    name: "conv2_w"
    lr_mult: 1
  }
  param {
    name: "conv2_b"
    lr_mult: 2
  }
  convolution_param {
    num_output: 50
    kernel_size: 5
    stride: 1
    weight_filler {
      type: "xavier"
    }
    bias_filler {
      type: "constant"
    }
  }
}
layer {
  name: "pool2_p"
  type: "Pooling"
  bottom: "conv2_p"
  top: "pool2_p"
  pooling_param {
    pool: MAX
    kernel_size: 2
    stride: 2
  }
}
layer {
  name: "ip1_p"
  type: "InnerProduct"
  bottom: "pool2_p"
  top: "ip1_p"
  param {
    name: "ip1_w"
    lr_mult: 1
  }
  param {
    name: "ip1_b"
    lr_mult: 2
  }
  inner_product_param {
    num_output: 500
    weight_filler {
      type: "xavier"
    }
    bias_filler {
      type: "constant"
    }
  }
}
layer {
  name: "relu1_p"
  type: "ReLU"
  bottom: "ip1_p"
  top: "ip1_p"
}
layer {
  name: "ip2_p"
  type: "InnerProduct"
  bottom: "ip1_p"
  top: "ip2_p"
  param {
    name: "ip2_w"
    lr_mult: 1
  }
  param {
    name: "ip2_b"
    lr_mult: 2
  }
  inner_product_param {
    num_output: 10
    weight_filler {
      type: "xavier"
    }
    bias_filler {
      type: "constant"
    }
  }
}
layer {
  name: "feat_p"
  type: "InnerProduct"
  bottom: "ip2_p"
  top: "feat_p"
  param {
    name: "feat_w"
    lr_mult: 1
  }
  param {
    name: "feat_b"
    lr_mult: 2
  }
  inner_product_param {
    num_output: 2
    weight_filler {
      type: "xavier"
    }
    bias_filler {
      type: "constant"
    }
  }
}
layer {
  name: "loss"
  type: "ContrastiveLoss"
  bottom: "feat"
  bottom: "feat_p"
  bottom: "sim"
  top: "loss"
  contrastive_loss_param {
    margin: 1
  }
}
I0627 12:18:53.350953 1970144000 layer_factory.hpp:74] Creating layer pair_data
I0627 12:18:53.350976 1970144000 net.cpp:90] Creating Layer pair_data
I0627 12:18:53.350983 1970144000 net.cpp:368] pair_data -> pair_data
I0627 12:18:53.351008 1970144000 net.cpp:368] pair_data -> sim
I0627 12:18:53.351022 1970144000 net.cpp:120] Setting up pair_data
I0627 12:18:53.360667 1970144000 db.cpp:20] Opened leveldb src/siamese_network_bw/data/siamese_network_train_leveldb
I0627 12:18:53.361529 1970144000 data_layer.cpp:52] output data size: 64,2,62,47
I0627 12:18:53.362339 1970144000 net.cpp:127] Top shape: 64 2 62 47 (372992)
I0627 12:18:53.362375 1970144000 net.cpp:127] Top shape: 64 (64)
I0627 12:18:53.362386 1970144000 layer_factory.hpp:74] Creating layer slice_pair
I0627 12:18:53.362407 1970144000 net.cpp:90] Creating Layer slice_pair
I0627 12:18:53.362414 1970144000 net.cpp:410] slice_pair <- pair_data
I0627 12:18:53.362434 1970144000 net.cpp:368] slice_pair -> data
I0627 12:18:53.362449 1970144000 net.cpp:368] slice_pair -> data_p
I0627 12:18:53.362459 1970144000 net.cpp:120] Setting up slice_pair
I0627 12:18:53.362473 1970144000 net.cpp:127] Top shape: 64 1 62 47 (186496)
I0627 12:18:53.362481 1970144000 net.cpp:127] Top shape: 64 1 62 47 (186496)
I0627 12:18:53.362490 1970144000 layer_factory.hpp:74] Creating layer conv1
I0627 12:18:53.362503 1970144000 net.cpp:90] Creating Layer conv1
I0627 12:18:53.362507 1970144000 net.cpp:410] conv1 <- data
I0627 12:18:53.362519 1970144000 net.cpp:368] conv1 -> conv1
I0627 12:18:53.362529 1970144000 net.cpp:120] Setting up conv1
I0627 12:18:53.441974 1970144000 net.cpp:127] Top shape: 64 20 58 43 (3192320)
I0627 12:18:53.442025 1970144000 layer_factory.hpp:74] Creating layer pool1
I0627 12:18:53.442049 1970144000 net.cpp:90] Creating Layer pool1
I0627 12:18:53.442057 1970144000 net.cpp:410] pool1 <- conv1
I0627 12:18:53.442070 1970144000 net.cpp:368] pool1 -> pool1
I0627 12:18:53.442081 1970144000 net.cpp:120] Setting up pool1
I0627 12:18:53.442384 1970144000 net.cpp:127] Top shape: 64 20 29 22 (816640)
I0627 12:18:53.442402 1970144000 layer_factory.hpp:74] Creating layer conv2
I0627 12:18:53.442421 1970144000 net.cpp:90] Creating Layer conv2
I0627 12:18:53.442428 1970144000 net.cpp:410] conv2 <- pool1
I0627 12:18:53.442440 1970144000 net.cpp:368] conv2 -> conv2
I0627 12:18:53.442455 1970144000 net.cpp:120] Setting up conv2
I0627 12:18:53.443202 1970144000 net.cpp:127] Top shape: 64 50 25 18 (1440000)
I0627 12:18:53.443227 1970144000 layer_factory.hpp:74] Creating layer pool2
I0627 12:18:53.443240 1970144000 net.cpp:90] Creating Layer pool2
I0627 12:18:53.443255 1970144000 net.cpp:410] pool2 <- conv2
I0627 12:18:53.443305 1970144000 net.cpp:368] pool2 -> pool2
I0627 12:18:53.443320 1970144000 net.cpp:120] Setting up pool2
I0627 12:18:53.443411 1970144000 net.cpp:127] Top shape: 64 50 13 9 (374400)
I0627 12:18:53.443430 1970144000 layer_factory.hpp:74] Creating layer ip1
I0627 12:18:53.443451 1970144000 net.cpp:90] Creating Layer ip1
I0627 12:18:53.443459 1970144000 net.cpp:410] ip1 <- pool2
I0627 12:18:53.443470 1970144000 net.cpp:368] ip1 -> ip1
I0627 12:18:53.443483 1970144000 net.cpp:120] Setting up ip1
I0627 12:18:53.472383 1970144000 net.cpp:127] Top shape: 64 500 (32000)
I0627 12:18:53.472404 1970144000 layer_factory.hpp:74] Creating layer relu1
I0627 12:18:53.472416 1970144000 net.cpp:90] Creating Layer relu1
I0627 12:18:53.472420 1970144000 net.cpp:410] relu1 <- ip1
I0627 12:18:53.472426 1970144000 net.cpp:357] relu1 -> ip1 (in-place)
I0627 12:18:53.472434 1970144000 net.cpp:120] Setting up relu1
I0627 12:18:53.472501 1970144000 net.cpp:127] Top shape: 64 500 (32000)
I0627 12:18:53.472509 1970144000 layer_factory.hpp:74] Creating layer ip2
I0627 12:18:53.472537 1970144000 net.cpp:90] Creating Layer ip2
I0627 12:18:53.472589 1970144000 net.cpp:410] ip2 <- ip1
I0627 12:18:53.472604 1970144000 net.cpp:368] ip2 -> ip2
I0627 12:18:53.472645 1970144000 net.cpp:120] Setting up ip2
I0627 12:18:53.472744 1970144000 net.cpp:127] Top shape: 64 10 (640)
I0627 12:18:53.472757 1970144000 layer_factory.hpp:74] Creating layer feat
I0627 12:18:53.472786 1970144000 net.cpp:90] Creating Layer feat
I0627 12:18:53.472796 1970144000 net.cpp:410] feat <- ip2
I0627 12:18:53.472807 1970144000 net.cpp:368] feat -> feat
I0627 12:18:53.472818 1970144000 net.cpp:120] Setting up feat
I0627 12:18:53.472836 1970144000 net.cpp:127] Top shape: 64 2 (128)
I0627 12:18:53.472843 1970144000 layer_factory.hpp:74] Creating layer conv1_p
I0627 12:18:53.472868 1970144000 net.cpp:90] Creating Layer conv1_p
I0627 12:18:53.472880 1970144000 net.cpp:410] conv1_p <- data_p
I0627 12:18:53.472890 1970144000 net.cpp:368] conv1_p -> conv1_p
I0627 12:18:53.472903 1970144000 net.cpp:120] Setting up conv1_p
I0627 12:18:53.473474 1970144000 net.cpp:127] Top shape: 64 20 58 43 (3192320)
I0627 12:18:53.473490 1970144000 net.cpp:459] Sharing parameters 'conv1_w' owned by layer 'conv1', param index 0
I0627 12:18:53.473521 1970144000 net.cpp:459] Sharing parameters 'conv1_b' owned by layer 'conv1', param index 1
I0627 12:18:53.473536 1970144000 layer_factory.hpp:74] Creating layer pool1_p
I0627 12:18:53.473547 1970144000 net.cpp:90] Creating Layer pool1_p
I0627 12:18:53.473551 1970144000 net.cpp:410] pool1_p <- conv1_p
I0627 12:18:53.473557 1970144000 net.cpp:368] pool1_p -> pool1_p
I0627 12:18:53.473575 1970144000 net.cpp:120] Setting up pool1_p
I0627 12:18:53.473805 1970144000 net.cpp:127] Top shape: 64 20 29 22 (816640)
I0627 12:18:53.473819 1970144000 layer_factory.hpp:74] Creating layer conv2_p
I0627 12:18:53.473831 1970144000 net.cpp:90] Creating Layer conv2_p
I0627 12:18:53.473839 1970144000 net.cpp:410] conv2_p <- pool1_p
I0627 12:18:53.473853 1970144000 net.cpp:368] conv2_p -> conv2_p
I0627 12:18:53.473883 1970144000 net.cpp:120] Setting up conv2_p
I0627 12:18:53.474653 1970144000 net.cpp:127] Top shape: 64 50 25 18 (1440000)
I0627 12:18:53.474666 1970144000 net.cpp:459] Sharing parameters 'conv2_w' owned by layer 'conv2', param index 0
I0627 12:18:53.474691 1970144000 net.cpp:459] Sharing parameters 'conv2_b' owned by layer 'conv2', param index 1
I0627 12:18:53.474709 1970144000 layer_factory.hpp:74] Creating layer pool2_p
I0627 12:18:53.474721 1970144000 net.cpp:90] Creating Layer pool2_p
I0627 12:18:53.474726 1970144000 net.cpp:410] pool2_p <- conv2_p
I0627 12:18:53.474733 1970144000 net.cpp:368] pool2_p -> pool2_p
I0627 12:18:53.474740 1970144000 net.cpp:120] Setting up pool2_p
I0627 12:18:53.474797 1970144000 net.cpp:127] Top shape: 64 50 13 9 (374400)
I0627 12:18:53.474809 1970144000 layer_factory.hpp:74] Creating layer ip1_p
I0627 12:18:53.474823 1970144000 net.cpp:90] Creating Layer ip1_p
I0627 12:18:53.474830 1970144000 net.cpp:410] ip1_p <- pool2_p
I0627 12:18:53.474870 1970144000 net.cpp:368] ip1_p -> ip1_p
I0627 12:18:53.474881 1970144000 net.cpp:120] Setting up ip1_p
I0627 12:18:53.501600 1970144000 net.cpp:127] Top shape: 64 500 (32000)
I0627 12:18:53.501634 1970144000 net.cpp:459] Sharing parameters 'ip1_w' owned by layer 'ip1', param index 0
I0627 12:18:53.502885 1970144000 net.cpp:459] Sharing parameters 'ip1_b' owned by layer 'ip1', param index 1
I0627 12:18:53.502902 1970144000 layer_factory.hpp:74] Creating layer relu1_p
I0627 12:18:53.502912 1970144000 net.cpp:90] Creating Layer relu1_p
I0627 12:18:53.502917 1970144000 net.cpp:410] relu1_p <- ip1_p
I0627 12:18:53.502923 1970144000 net.cpp:357] relu1_p -> ip1_p (in-place)
I0627 12:18:53.502930 1970144000 net.cpp:120] Setting up relu1_p
I0627 12:18:53.503012 1970144000 net.cpp:127] Top shape: 64 500 (32000)
I0627 12:18:53.503020 1970144000 layer_factory.hpp:74] Creating layer ip2_p
I0627 12:18:53.503032 1970144000 net.cpp:90] Creating Layer ip2_p
I0627 12:18:53.503036 1970144000 net.cpp:410] ip2_p <- ip1_p
I0627 12:18:53.503042 1970144000 net.cpp:368] ip2_p -> ip2_p
I0627 12:18:53.503052 1970144000 net.cpp:120] Setting up ip2_p
I0627 12:18:53.503108 1970144000 net.cpp:127] Top shape: 64 10 (640)
I0627 12:18:53.503115 1970144000 net.cpp:459] Sharing parameters 'ip2_w' owned by layer 'ip2', param index 0
I0627 12:18:53.503121 1970144000 net.cpp:459] Sharing parameters 'ip2_b' owned by layer 'ip2', param index 1
I0627 12:18:53.503125 1970144000 layer_factory.hpp:74] Creating layer feat_p
I0627 12:18:53.503132 1970144000 net.cpp:90] Creating Layer feat_p
I0627 12:18:53.503152 1970144000 net.cpp:410] feat_p <- ip2_p
I0627 12:18:53.503176 1970144000 net.cpp:368] feat_p -> feat_p
I0627 12:18:53.503185 1970144000 net.cpp:120] Setting up feat_p
I0627 12:18:53.503198 1970144000 net.cpp:127] Top shape: 64 2 (128)
I0627 12:18:53.503204 1970144000 net.cpp:459] Sharing parameters 'feat_w' owned by layer 'feat', param index 0
I0627 12:18:53.503209 1970144000 net.cpp:459] Sharing parameters 'feat_b' owned by layer 'feat', param index 1
I0627 12:18:53.503213 1970144000 layer_factory.hpp:74] Creating layer loss
I0627 12:18:53.503226 1970144000 net.cpp:90] Creating Layer loss
I0627 12:18:53.503231 1970144000 net.cpp:410] loss <- feat
…
I0627 12:18:53.503697 1970144000 solver.cpp:154] Creating test net (#0) specified by net file: src/siamese_network_bw/model/siamese_train_validate.prototxt
I0627 12:18:53.503729 1970144000 net.cpp:287] The NetState phase (1) differed from the phase (0) specified by a rule in layer pair_data
I0627 12:18:53.503744 1970144000 net.cpp:42] Initializing net from parameters: 
name: "siamese_train_validate"
state {
  phase: TEST
}
layer {
  name: "pair_data"
  type: "Data"
  top: "pair_data"
  top: "sim"
  include {
    phase: TEST
  }
  transform_param {
    scale: 0.00390625
  }
  data_param {
    source: "src/siamese_network_bw/data/siamese_network_validation_leveldb"
    batch_size: 100
  }
}
layer {
  name: "slice_pair"
  type: "Slice"
  bottom: "pair_data"
  top: "data"
  top: "data_p"
  slice_param {
    slice_dim: 1
    slice_point: 1
  }
}
layer {
  name: "conv1"
  type: "Convolution"
  bottom: "data"
  top: "conv1"
  param {
    name: "conv1_w"
    lr_mult: 1
  }
  param {
    name: "conv1_b"
    lr_mult: 2
  }
  convolution_param {
    num_output: 20
    kernel_size: 5
    stride: 1
    weight_filler {
      type: "xavier"
    }
    bias_filler {
      type: "constant"
    }
  }
}
layer {
  name: "pool1"
  type: "Pooling"
  bottom: "conv1"
  top: "pool1"
  pooling_param {
    pool: MAX
    kernel_size: 2
    stride: 2
  }
}
layer {
  name: "conv2"
  type: "Convolution"
  bottom: "pool1"
  top: "conv2"
  param {
    name: "conv2_w"
    lr_mult: 1
  }
  param {
    name: "conv2_b"
    lr_mult: 2
  }
  convolution_param {
    num_output: 50
    kernel_size: 5
    stride: 1
    weight_filler {
      type: "xavier"
    }
    bias_filler {
      type: "constant"
    }
  }
}
layer {
  name: "pool2"
  type: "Pooling"
  bottom: "conv2"
  top: "pool2"
  pooling_param {
    pool: MAX
    kernel_size: 2
    stride: 2
  }
}
layer {
  name: "ip1"
  type: "InnerProduct"
  bottom: "pool2"
  top: "ip1"
  param {
    name: "ip1_w"
    lr_mult: 1
  }
  param {
    name: "ip1_b"
    lr_mult: 2
  }
  inner_product_param {
    num_output: 500
    weight_filler {
      type: "xavier"
    }
    bias_filler {
      type: "constant"
    }
  }
}
layer {
  name: "relu1"
  type: "ReLU"
  bottom: "ip1"
  top: "ip1"
}
layer {
  name: "ip2"
  type: "InnerProduct"
  bottom: "ip1"
  top: "ip2"
  param {
    name: "ip2_w"
    lr_mult: 1
  }
  param {
    name: "ip2_b"
    lr_mult: 2
  }
  inner_product_param {
    num_output: 10
    weight_filler {
      type: "xavier"
    }
    bias_filler {
      type: "constant"
    }
  }
}
layer {
  name: "feat"
  type: "InnerProduct"
  bottom: "ip2"
  top: "feat"
  param {
    name: "feat_w"
    lr_mult: 1
  }
  param {
    name: "feat_b"
    lr_mult: 2
  }
  inner_product_param {
    num_output: 2
    weight_filler {
      type: "xavier"
    }
    bias_filler {
      type: "constant"
    }
  }
}
layer {
  name: "conv1_p"
  type: "Convolution"
  bottom: "data_p"
  top: "conv1_p"
  param {
    name: "conv1_w"
    lr_mult: 1
  }
  param {
    name: "conv1_b"
    lr_mult: 2
  }
  convolution_param {
    num_output: 20
    kernel_size: 5
    stride: 1
    weight_filler {
      type: "xavier"
    }
    bias_filler {
      type: "constant"
    }
  }
}
layer {
  name: "pool1_p"
  type: "Pooling"
  bottom: "conv1_p"
  top: "pool1_p"
  pooling_param {
    pool: MAX
    kernel_size: 2
    stride: 2
  }
}
layer {
  name: "conv2_p"
  type: "Convolution"
  bottom: "pool1_p"
  top: "conv2_p"
  param {
    name: "conv2_w"
    lr_mult: 1
  }
  param {
    name: "conv2_b"
    lr_mult: 2
  }
  convolution_param {
    num_output: 50
    kernel_size: 5
    stride: 1
    weight_filler {
      type: "xavier"
    }
    bias_filler {
      type: "constant"
    }
  }
}
layer {
  name: "pool2_p"
  type: "Pooling"
  bottom: "conv2_p"
  top: "pool2_p"
  pooling_param {
    pool: MAX
    kernel_size: 2
    stride: 2
  }
}
layer {
  name: "ip1_p"
  type: "InnerProduct"
  bottom: "pool2_p"
  top: "ip1_p"
  param {
    name: "ip1_w"
    lr_mult: 1
  }
  param {
    name: "ip1_b"
    lr_mult: 2
  }
  inner_product_param {
    num_output: 500
    weight_filler {
      type: "xavier"
    }
    bias_filler {
      type: "constant"
    }
  }
}
layer {
  name: "relu1_p"
  type: "ReLU"
  bottom: "ip1_p"
  top: "ip1_p"
}
layer {
  name: "ip2_p"
  type: "InnerProduct"
  bottom: "ip1_p"
  top: "ip2_p"
  param {
    name: "ip2_w"
    lr_mult: 1
  }
  param {
    name: "ip2_b"
    lr_mult: 2
  }
  inner_product_param {
    num_output: 10
    weight_filler {
      type: "xavier"
    }
    bias_filler {
      type: "constant"
    }
  }
}
layer {
  name: "feat_p"
  type: "InnerProduct"
  bottom: "ip2_p"
  top: "feat_p"
  param {
    name: "feat_w"
    lr_mult: 1
  }
  param {
    name: "feat_b"
    lr_mult: 2
  }
  inner_product_param {
    num_output: 2
    weight_filler {
      type: "xavier"
    }
    bias_filler {
      type: "constant"
    }
  }
}
layer {
  name: "loss"
  type: "ContrastiveLoss"
  bottom: "feat"
  bottom: "feat_p"
  bottom: "sim"
  top: "loss"
  contrastive_loss_param {
    margin: 1
  }
}
I0627 12:18:53.503955 1970144000 layer_factory.hpp:74] Creating layer pair_data
I0627 12:18:53.503964 1970144000 net.cpp:90] Creating Layer pair_data
I0627 12:18:53.503969 1970144000 net.cpp:368] pair_data -> pair_data
I0627 12:18:53.504010 1970144000 net.cpp:368] pair_data -> sim
I0627 12:18:53.504019 1970144000 net.cpp:120] Setting up pair_data
I0627 12:18:53.509126 1970144000 db.cpp:20] Opened leveldb src/siamese_network_bw/data/siamese_network_validation_leveldb
I0627 12:18:53.509809 1970144000 data_layer.cpp:52] output data size: 100,2,62,47
I0627 12:18:53.511123 1970144000 net.cpp:127] Top shape: 100 2 62 47 (582800)
I0627 12:18:53.511149 1970144000 net.cpp:127] Top shape: 100 (100)
I0627 12:18:53.511160 1970144000 layer_factory.hpp:74] Creating layer slice_pair
I0627 12:18:53.511174 1970144000 net.cpp:90] Creating Layer slice_pair
I0627 12:18:53.511183 1970144000 net.cpp:410] slice_pair <- pair_data
I0627 12:18:53.511193 1970144000 net.cpp:368] slice_pair -> data
I0627 12:18:53.511211 1970144000 net.cpp:368] slice_pair -> data_p
I0627 12:18:53.511220 1970144000 net.cpp:120] Setting up slice_pair
I0627 12:18:53.511231 1970144000 net.cpp:127] Top shape: 100 1 62 47 (291400)
I0627 12:18:53.511241 1970144000 net.cpp:127] Top shape: 100 1 62 47 (291400)
I0627 12:18:53.511250 1970144000 layer_factory.hpp:74] Creating layer conv1
I0627 12:18:53.511261 1970144000 net.cpp:90] Creating Layer conv1
I0627 12:18:53.511270 1970144000 net.cpp:410] conv1 <- data
I0627 12:18:53.511294 1970144000 net.cpp:368] conv1 -> conv1
I0627 12:18:53.511309 1970144000 net.cpp:120] Setting up conv1
I0627 12:18:53.511801 1970144000 net.cpp:127] Top shape: 100 20 58 43 (4988000)
I0627 12:18:53.511817 1970144000 layer_factory.hpp:74] Creating layer pool1
I0627 12:18:53.511834 1970144000 net.cpp:90] Creating Layer pool1
I0627 12:18:53.511842 1970144000 net.cpp:410] pool1 <- conv1
I0627 12:18:53.511857 1970144000 net.cpp:368] pool1 -> pool1
I0627 12:18:53.511869 1970144000 net.cpp:120] Setting up pool1
I0627 12:18:53.511946 1970144000 net.cpp:127] Top shape: 100 20 29 22 (1276000)
I0627 12:18:53.511960 1970144000 layer_factory.hpp:74] Creating layer conv2
I0627 12:18:53.511981 1970144000 net.cpp:90] Creating Layer conv2
I0627 12:18:53.511993 1970144000 net.cpp:410] conv2 <- pool1
I0627 12:18:53.512006 1970144000 net.cpp:368] conv2 -> conv2
I0627 12:18:53.512019 1970144000 net.cpp:120] Setting up conv2
I0627 12:18:53.512990 1970144000 net.cpp:127] Top shape: 100 50 25 18 (2250000)
I0627 12:18:53.513015 1970144000 layer_factory.hpp:74] Creating layer pool2
I0627 12:18:53.513027 1970144000 net.cpp:90] Creating Layer pool2
I0627 12:18:53.513036 1970144000 net.cpp:410] pool2 <- conv2
I0627 12:18:53.513082 1970144000 net.cpp:368] pool2 -> pool2
I0627 12:18:53.513093 1970144000 net.cpp:120] Setting up pool2
I0627 12:18:53.513296 1970144000 net.cpp:127] Top shape: 100 50 13 9 (585000)
I0627 12:18:53.513310 1970144000 layer_factory.hpp:74] Creating layer ip1
I0627 12:18:53.513334 1970144000 net.cpp:90] Creating Layer ip1
I0627 12:18:53.513344 1970144000 net.cpp:410] ip1 <- pool2
I0627 12:18:53.513353 1970144000 net.cpp:368] ip1 -> ip1
I0627 12:18:53.513367 1970144000 net.cpp:120] Setting up ip1
I0627 12:18:53.537111 1970144000 net.cpp:127] Top shape: 100 500 (50000)
I0627 12:18:53.537144 1970144000 layer_factory.hpp:74] Creating layer relu1
I0627 12:18:53.537168 1970144000 net.cpp:90] Creating Layer relu1
I0627 12:18:53.537175 1970144000 net.cpp:410] relu1 <- ip1
I0627 12:18:53.537183 1970144000 net.cpp:357] relu1 -> ip1 (in-place)
I0627 12:18:53.537189 1970144000 net.cpp:120] Setting up relu1
I0627 12:18:53.537300 1970144000 net.cpp:127] Top shape: 100 500 (50000)
I0627 12:18:53.537310 1970144000 layer_factory.hpp:74] Creating layer ip2
I0627 12:18:53.537320 1970144000 net.cpp:90] Creating Layer ip2
I0627 12:18:53.537324 1970144000 net.cpp:410] ip2 <- ip1
I0627 12:18:53.537333 1970144000 net.cpp:368] ip2 -> ip2
I0627 12:18:53.537341 1970144000 net.cpp:120] Setting up ip2
I0627 12:18:53.537389 1970144000 net.cpp:127] Top shape: 100 10 (1000)
I0627 12:18:53.537397 1970144000 layer_factory.hpp:74] Creating layer feat
I0627 12:18:53.537407 1970144000 net.cpp:90] Creating Layer feat
I0627 12:18:53.537415 1970144000 net.cpp:410] feat <- ip2
I0627 12:18:53.537425 1970144000 net.cpp:368] feat -> feat
I0627 12:18:53.537437 1970144000 net.cpp:120] Setting up feat
I0627 12:18:53.537447 1970144000 net.cpp:127] Top shape: 100 2 (200)
I0627 12:18:53.537456 1970144000 layer_factory.hpp:74] Creating layer conv1_p
I0627 12:18:53.537467 1970144000 net.cpp:90] Creating Layer conv1_p
I0627 12:18:53.537475 1970144000 net.cpp:410] conv1_p <- data_p
I0627 12:18:53.537487 1970144000 net.cpp:368] conv1_p -> conv1_p
I0627 12:18:53.537497 1970144000 net.cpp:120] Setting up conv1_p
I0627 12:18:53.537921 1970144000 net.cpp:127] Top shape: 100 20 58 43 (4988000)
I0627 12:18:53.537940 1970144000 net.cpp:459] Sharing parameters 'conv1_w' owned by layer 'conv1', param index 0
I0627 12:18:53.537950 1970144000 net.cpp:459] Sharing parameters 'conv1_b' owned by layer 'conv1', param index 1
I0627 12:18:53.537958 1970144000 layer_factory.hpp:74] Creating layer pool1_p
I0627 12:18:53.537969 1970144000 net.cpp:90] Creating Layer pool1_p
I0627 12:18:53.537977 1970144000 net.cpp:410] pool1_p <- conv1_p
I0627 12:18:53.537986 1970144000 net.cpp:368] pool1_p -> pool1_p
I0627 12:18:53.537997 1970144000 net.cpp:120] Setting up pool1_p
I0627 12:18:53.538069 1970144000 net.cpp:127] Top shape: 100 20 29 22 (1276000)
I0627 12:18:53.538080 1970144000 layer_factory.hpp:74] Creating layer conv2_p
I0627 12:18:53.538092 1970144000 net.cpp:90] Creating Layer conv2_p
I0627 12:18:53.538100 1970144000 net.cpp:410] conv2_p <- pool1_p
I0627 12:18:53.538108 1970144000 net.cpp:368] conv2_p -> conv2_p
I0627 12:18:53.538146 1970144000 net.cpp:120] Setting up conv2_p
I0627 12:18:53.538862 1970144000 net.cpp:127] Top shape: 100 50 25 18 (2250000)
I0627 12:18:53.538878 1970144000 net.cpp:459] Sharing parameters 'conv2_w' owned by layer 'conv2', param index 0
I0627 12:18:53.538885 1970144000 net.cpp:459] Sharing parameters 'conv2_b' owned by layer 'conv2', param index 1
I0627 12:18:53.538893 1970144000 layer_factory.hpp:74] Creating layer pool2_p
I0627 12:18:53.538904 1970144000 net.cpp:90] Creating Layer pool2_p
I0627 12:18:53.538911 1970144000 net.cpp:410] pool2_p <- conv2_p
I0627 12:18:53.538925 1970144000 net.cpp:368] pool2_p -> pool2_p
I0627 12:18:53.538959 1970144000 net.cpp:120] Setting up pool2_p
I0627 12:18:53.539046 1970144000 net.cpp:127] Top shape: 100 50 13 9 (585000)
I0627 12:18:53.539057 1970144000 layer_factory.hpp:74] Creating layer ip1_p
I0627 12:18:53.539069 1970144000 net.cpp:90] Creating Layer ip1_p
I0627 12:18:53.539077 1970144000 net.cpp:410] ip1_p <- pool2_p
I0627 12:18:53.539121 1970144000 net.cpp:368] ip1_p -> ip1_p
I0627 12:18:53.539134 1970144000 net.cpp:120] Setting up ip1_p
I0627 12:18:53.566467 1970144000 net.cpp:127] Top shape: 100 500 (50000)
I0627 12:18:53.566504 1970144000 net.cpp:459] Sharing parameters 'ip1_w' owned by layer 'ip1', param index 0
I0627 12:18:53.567705 1970144000 net.cpp:459] Sharing parameters 'ip1_b' owned by layer 'ip1', param index 1
I0627 12:18:53.567713 1970144000 layer_factory.hpp:74] Creating layer relu1_p
I0627 12:18:53.567736 1970144000 net.cpp:90] Creating Layer relu1_p
I0627 12:18:53.567741 1970144000 net.cpp:410] relu1_p <- ip1_p
I0627 12:18:53.567746 1970144000 net.cpp:357] relu1_p -> ip1_p (in-place)
I0627 12:18:53.567754 1970144000 net.cpp:120] Setting up relu1_p
I0627 12:18:53.567955 1970144000 net.cpp:127] Top shape: 100 500 (50000)
I0627 12:18:53.567965 1970144000 layer_factory.hpp:74] Creating layer ip2_p
I0627 12:18:53.567976 1970144000 net.cpp:90] Creating Layer ip2_p
I0627 12:18:53.567981 1970144000 net.cpp:410] ip2_p <- ip1_p
I0627 12:18:53.567986 1970144000 net.cpp:368] ip2_p -> ip2_p
I0627 12:18:53.567997 1970144000 net.cpp:120] Setting up ip2_p
I0627 12:18:53.568048 1970144000 net.cpp:127] Top shape: 100 10 (1000)
I0627 12:18:53.568055 1970144000 net.cpp:459] Sharing parameters 'ip2_w' owned by layer 'ip2', param index 0
I0627 12:18:53.568064 1970144000 net.cpp:459] Sharing parameters 'ip2_b' owned by layer 'ip2', param index 1
I0627 12:18:53.568071 1970144000 layer_factory.hpp:74] Creating layer feat_p
I0627 12:18:53.568081 1970144000 net.cpp:90] Creating Layer feat_p
I0627 12:18:53.568089 1970144000 net.cpp:410] feat_p <- ip2_p
I0627 12:18:53.568100 1970144000 net.cpp:368] feat_p -> feat_p
I0627 12:18:53.568109 1970144000 net.cpp:120] Setting up feat_p
I0627 12:18:53.568120 1970144000 net.cpp:127] Top shape: 100 2 (200)
I0627 12:18:53.568125 1970144000 net.cpp:459] Sharing parameters 'feat_w' owned by layer 'feat', param index 0
I0627 12:18:53.568130 1970144000 net.cpp:459] Sharing parameters 'feat_b' owned by layer 'feat', param index 1
I0627 12:18:53.568136 1970144000 layer_factory.hpp:74] Creating layer loss
I0627 12:18:53.568142 1970144000 net.cpp:90] Creating Layer loss
I0627 12:18:53.568146 1970144000 net.cpp:410] loss <- feat
…
