…
I0625 12:15:16.119922 1970144000 solver.cpp:70] Creating training net from net file: src/siamese_network_bw/model/siamese_train_validate.prototxt
I0625 12:15:16.120303 1970144000 net.cpp:287] The NetState phase (0) differed from the phase (1) specified by a rule in layer pair_data
I0625 12:15:16.120333 1970144000 net.cpp:42] Initializing net from parameters: 
name: "siamese_train_validate"
state {
  phase: TRAIN
}
layer {
  name: "pair_data"
  type: "Data"
  top: "pair_data"
  top: "sim"
  include {
    phase: TRAIN
  }
  transform_param {
    scale: 0.00392156
  }
  data_param {
    source: "src/siamese_network_bw/data/siamese_network_train_leveldb"
    batch_size: 64
  }
}
layer {
  name: "slice_pair"
  type: "Slice"
  bottom: "pair_data"
  top: "data"
  top: "data_p"
  slice_param {
    slice_dim: 1
    slice_point: 1
  }
}
layer {
  name: "conv1"
  type: "Convolution"
  bottom: "data"
  top: "conv1"
  param {
    name: "conv1_w"
    lr_mult: 1
  }
  param {
    name: "conv1_b"
    lr_mult: 2
  }
  convolution_param {
    num_output: 20
    kernel_size: 5
    stride: 1
    weight_filler {
      type: "xavier"
    }
    bias_filler {
      type: "constant"
    }
  }
}
layer {
  name: "pool1"
  type: "Pooling"
  bottom: "conv1"
  top: "pool1"
  pooling_param {
    pool: MAX
    kernel_size: 2
    stride: 2
  }
}
layer {
  name: "conv2"
  type: "Convolution"
  bottom: "pool1"
  top: "conv2"
  param {
    name: "conv2_w"
    lr_mult: 1
  }
  param {
    name: "conv2_b"
    lr_mult: 2
  }
  convolution_param {
    num_output: 50
    kernel_size: 5
    stride: 1
    weight_filler {
      type: "xavier"
    }
    bias_filler {
      type: "constant"
    }
  }
}
layer {
  name: "pool2"
  type: "Pooling"
  bottom: "conv2"
  top: "pool2"
  pooling_param {
    pool: MAX
    kernel_size: 2
    stride: 2
  }
}
layer {
  name: "ip1"
  type: "InnerProduct"
  bottom: "pool2"
  top: "ip1"
  param {
    name: "ip1_w"
    lr_mult: 1
  }
  param {
    name: "ip1_b"
    lr_mult: 2
  }
  inner_product_param {
    num_output: 500
    weight_filler {
      type: "xavier"
    }
    bias_filler {
      type: "constant"
    }
  }
}
layer {
  name: "relu1"
  type: "ReLU"
  bottom: "ip1"
  top: "ip1"
}
layer {
  name: "ip2"
  type: "InnerProduct"
  bottom: "ip1"
  top: "ip2"
  param {
    name: "ip2_w"
    lr_mult: 1
  }
  param {
    name: "ip2_b"
    lr_mult: 2
  }
  inner_product_param {
    num_output: 10
    weight_filler {
      type: "xavier"
    }
    bias_filler {
      type: "constant"
    }
  }
}
layer {
  name: "feat"
  type: "InnerProduct"
  bottom: "ip2"
  top: "feat"
  param {
    name: "feat_w"
    lr_mult: 1
  }
  param {
    name: "feat_b"
    lr_mult: 2
  }
  inner_product_param {
    num_output: 2
    weight_filler {
      type: "xavier"
    }
    bias_filler {
      type: "constant"
    }
  }
}
layer {
  name: "conv1_p"
  type: "Convolution"
  bottom: "data_p"
  top: "conv1_p"
  param {
    name: "conv1_w"
    lr_mult: 1
  }
  param {
    name: "conv1_b"
    lr_mult: 2
  }
  convolution_param {
    num_output: 20
    kernel_size: 5
    stride: 1
    weight_filler {
      type: "xavier"
    }
    bias_filler {
      type: "constant"
    }
  }
}
layer {
  name: "pool1_p"
  type: "Pooling"
  bottom: "conv1_p"
  top: "pool1_p"
  pooling_param {
    pool: MAX
    kernel_size: 2
    stride: 2
  }
}
layer {
  name: "conv2_p"
  type: "Convolution"
  bottom: "pool1_p"
  top: "conv2_p"
  param {
    name: "conv2_w"
    lr_mult: 1
  }
  param {
    name: "conv2_b"
    lr_mult: 2
  }
  convolution_param {
    num_output: 50
    kernel_size: 5
    stride: 1
    weight_filler {
      type: "xavier"
    }
    bias_filler {
      type: "constant"
    }
  }
}
layer {
  name: "pool2_p"
  type: "Pooling"
  bottom: "conv2_p"
  top: "pool2_p"
  pooling_param {
    pool: MAX
    kernel_size: 2
    stride: 2
  }
}
layer {
  name: "ip1_p"
  type: "InnerProduct"
  bottom: "pool2_p"
  top: "ip1_p"
  param {
    name: "ip1_w"
    lr_mult: 1
  }
  param {
    name: "ip1_b"
    lr_mult: 2
  }
  inner_product_param {
    num_output: 500
    weight_filler {
      type: "xavier"
    }
    bias_filler {
      type: "constant"
    }
  }
}
layer {
  name: "relu1_p"
  type: "ReLU"
  bottom: "ip1_p"
  top: "ip1_p"
}
layer {
  name: "ip2_p"
  type: "InnerProduct"
  bottom: "ip1_p"
  top: "ip2_p"
  param {
    name: "ip2_w"
    lr_mult: 1
  }
  param {
    name: "ip2_b"
    lr_mult: 2
  }
  inner_product_param {
    num_output: 10
    weight_filler {
      type: "xavier"
    }
    bias_filler {
      type: "constant"
    }
  }
}
layer {
  name: "feat_p"
  type: "InnerProduct"
  bottom: "ip2_p"
  top: "feat_p"
  param {
    name: "feat_w"
    lr_mult: 1
  }
  param {
    name: "feat_b"
    lr_mult: 2
  }
  inner_product_param {
    num_output: 2
    weight_filler {
      type: "xavier"
    }
    bias_filler {
      type: "constant"
    }
  }
}
layer {
  name: "loss"
  type: "ContrastiveLoss"
  bottom: "feat"
  bottom: "feat_p"
  bottom: "sim"
  top: "loss"
  contrastive_loss_param {
    margin: 1
  }
}
I0625 12:15:16.120609 1970144000 layer_factory.hpp:74] Creating layer pair_data
I0625 12:15:16.120630 1970144000 net.cpp:90] Creating Layer pair_data
I0625 12:15:16.120641 1970144000 net.cpp:368] pair_data -> pair_data
I0625 12:15:16.120703 1970144000 net.cpp:368] pair_data -> sim
I0625 12:15:16.120723 1970144000 net.cpp:120] Setting up pair_data
I0625 12:15:16.171545 1970144000 db.cpp:20] Opened leveldb src/siamese_network_bw/data/siamese_network_train_leveldb
I0625 12:15:16.171875 1970144000 data_layer.cpp:52] output data size: 64,2,62,47
I0625 12:15:16.172458 1970144000 net.cpp:127] Top shape: 64 2 62 47 (372992)
I0625 12:15:16.172479 1970144000 net.cpp:127] Top shape: 64 (64)
I0625 12:15:16.172485 1970144000 layer_factory.hpp:74] Creating layer slice_pair
I0625 12:15:16.172497 1970144000 net.cpp:90] Creating Layer slice_pair
I0625 12:15:16.172500 1970144000 net.cpp:410] slice_pair <- pair_data
I0625 12:15:16.172509 1970144000 net.cpp:368] slice_pair -> data
I0625 12:15:16.172518 1970144000 net.cpp:368] slice_pair -> data_p
I0625 12:15:16.172524 1970144000 net.cpp:120] Setting up slice_pair
I0625 12:15:16.172533 1970144000 net.cpp:127] Top shape: 64 1 62 47 (186496)
I0625 12:15:16.172538 1970144000 net.cpp:127] Top shape: 64 1 62 47 (186496)
I0625 12:15:16.172543 1970144000 layer_factory.hpp:74] Creating layer conv1
I0625 12:15:16.172550 1970144000 net.cpp:90] Creating Layer conv1
I0625 12:15:16.172557 1970144000 net.cpp:410] conv1 <- data
I0625 12:15:16.172566 1970144000 net.cpp:368] conv1 -> conv1
I0625 12:15:16.172581 1970144000 net.cpp:120] Setting up conv1
I0625 12:15:16.248438 1970144000 net.cpp:127] Top shape: 64 20 58 43 (3192320)
I0625 12:15:16.248469 1970144000 layer_factory.hpp:74] Creating layer pool1
I0625 12:15:16.248513 1970144000 net.cpp:90] Creating Layer pool1
I0625 12:15:16.248529 1970144000 net.cpp:410] pool1 <- conv1
I0625 12:15:16.248543 1970144000 net.cpp:368] pool1 -> pool1
I0625 12:15:16.248555 1970144000 net.cpp:120] Setting up pool1
I0625 12:15:16.248778 1970144000 net.cpp:127] Top shape: 64 20 29 22 (816640)
I0625 12:15:16.248792 1970144000 layer_factory.hpp:74] Creating layer conv2
I0625 12:15:16.248807 1970144000 net.cpp:90] Creating Layer conv2
I0625 12:15:16.248816 1970144000 net.cpp:410] conv2 <- pool1
I0625 12:15:16.248832 1970144000 net.cpp:368] conv2 -> conv2
I0625 12:15:16.248846 1970144000 net.cpp:120] Setting up conv2
I0625 12:15:16.249482 1970144000 net.cpp:127] Top shape: 64 50 25 18 (1440000)
I0625 12:15:16.249498 1970144000 layer_factory.hpp:74] Creating layer pool2
I0625 12:15:16.249508 1970144000 net.cpp:90] Creating Layer pool2
I0625 12:15:16.249513 1970144000 net.cpp:410] pool2 <- conv2
I0625 12:15:16.249538 1970144000 net.cpp:368] pool2 -> pool2
I0625 12:15:16.249547 1970144000 net.cpp:120] Setting up pool2
I0625 12:15:16.249594 1970144000 net.cpp:127] Top shape: 64 50 13 9 (374400)
I0625 12:15:16.249600 1970144000 layer_factory.hpp:74] Creating layer ip1
I0625 12:15:16.249608 1970144000 net.cpp:90] Creating Layer ip1
I0625 12:15:16.249611 1970144000 net.cpp:410] ip1 <- pool2
I0625 12:15:16.249619 1970144000 net.cpp:368] ip1 -> ip1
I0625 12:15:16.249626 1970144000 net.cpp:120] Setting up ip1
I0625 12:15:16.273718 1970144000 net.cpp:127] Top shape: 64 500 (32000)
I0625 12:15:16.273751 1970144000 layer_factory.hpp:74] Creating layer relu1
I0625 12:15:16.273772 1970144000 net.cpp:90] Creating Layer relu1
I0625 12:15:16.273792 1970144000 net.cpp:410] relu1 <- ip1
I0625 12:15:16.273813 1970144000 net.cpp:357] relu1 -> ip1 (in-place)
I0625 12:15:16.273823 1970144000 net.cpp:120] Setting up relu1
I0625 12:15:16.273905 1970144000 net.cpp:127] Top shape: 64 500 (32000)
I0625 12:15:16.273955 1970144000 layer_factory.hpp:74] Creating layer ip2
I0625 12:15:16.273977 1970144000 net.cpp:90] Creating Layer ip2
I0625 12:15:16.273984 1970144000 net.cpp:410] ip2 <- ip1
I0625 12:15:16.273994 1970144000 net.cpp:368] ip2 -> ip2
I0625 12:15:16.274008 1970144000 net.cpp:120] Setting up ip2
I0625 12:15:16.274087 1970144000 net.cpp:127] Top shape: 64 10 (640)
I0625 12:15:16.274099 1970144000 layer_factory.hpp:74] Creating layer feat
I0625 12:15:16.274112 1970144000 net.cpp:90] Creating Layer feat
I0625 12:15:16.274119 1970144000 net.cpp:410] feat <- ip2
I0625 12:15:16.274129 1970144000 net.cpp:368] feat -> feat
I0625 12:15:16.274140 1970144000 net.cpp:120] Setting up feat
I0625 12:15:16.274155 1970144000 net.cpp:127] Top shape: 64 2 (128)
I0625 12:15:16.274166 1970144000 layer_factory.hpp:74] Creating layer conv1_p
I0625 12:15:16.274179 1970144000 net.cpp:90] Creating Layer conv1_p
I0625 12:15:16.274186 1970144000 net.cpp:410] conv1_p <- data_p
I0625 12:15:16.274196 1970144000 net.cpp:368] conv1_p -> conv1_p
I0625 12:15:16.274206 1970144000 net.cpp:120] Setting up conv1_p
I0625 12:15:16.274629 1970144000 net.cpp:127] Top shape: 64 20 58 43 (3192320)
I0625 12:15:16.274647 1970144000 net.cpp:459] Sharing parameters 'conv1_w' owned by layer 'conv1', param index 0
I0625 12:15:16.274669 1970144000 net.cpp:459] Sharing parameters 'conv1_b' owned by layer 'conv1', param index 1
I0625 12:15:16.274679 1970144000 layer_factory.hpp:74] Creating layer pool1_p
I0625 12:15:16.274690 1970144000 net.cpp:90] Creating Layer pool1_p
I0625 12:15:16.274698 1970144000 net.cpp:410] pool1_p <- conv1_p
I0625 12:15:16.274709 1970144000 net.cpp:368] pool1_p -> pool1_p
I0625 12:15:16.274720 1970144000 net.cpp:120] Setting up pool1_p
I0625 12:15:16.274917 1970144000 net.cpp:127] Top shape: 64 20 29 22 (816640)
I0625 12:15:16.274935 1970144000 layer_factory.hpp:74] Creating layer conv2_p
I0625 12:15:16.274950 1970144000 net.cpp:90] Creating Layer conv2_p
I0625 12:15:16.274956 1970144000 net.cpp:410] conv2_p <- pool1_p
I0625 12:15:16.274966 1970144000 net.cpp:368] conv2_p -> conv2_p
I0625 12:15:16.274986 1970144000 net.cpp:120] Setting up conv2_p
I0625 12:15:16.275714 1970144000 net.cpp:127] Top shape: 64 50 25 18 (1440000)
I0625 12:15:16.275740 1970144000 net.cpp:459] Sharing parameters 'conv2_w' owned by layer 'conv2', param index 0
I0625 12:15:16.275758 1970144000 net.cpp:459] Sharing parameters 'conv2_b' owned by layer 'conv2', param index 1
I0625 12:15:16.275768 1970144000 layer_factory.hpp:74] Creating layer pool2_p
I0625 12:15:16.275779 1970144000 net.cpp:90] Creating Layer pool2_p
I0625 12:15:16.275785 1970144000 net.cpp:410] pool2_p <- conv2_p
I0625 12:15:16.275797 1970144000 net.cpp:368] pool2_p -> pool2_p
I0625 12:15:16.275809 1970144000 net.cpp:120] Setting up pool2_p
I0625 12:15:16.275876 1970144000 net.cpp:127] Top shape: 64 50 13 9 (374400)
I0625 12:15:16.275887 1970144000 layer_factory.hpp:74] Creating layer ip1_p
I0625 12:15:16.275898 1970144000 net.cpp:90] Creating Layer ip1_p
I0625 12:15:16.275907 1970144000 net.cpp:410] ip1_p <- pool2_p
I0625 12:15:16.275941 1970144000 net.cpp:368] ip1_p -> ip1_p
I0625 12:15:16.275950 1970144000 net.cpp:120] Setting up ip1_p
I0625 12:15:16.303083 1970144000 net.cpp:127] Top shape: 64 500 (32000)
I0625 12:15:16.303102 1970144000 net.cpp:459] Sharing parameters 'ip1_w' owned by layer 'ip1', param index 0
I0625 12:15:16.303781 1970144000 net.cpp:459] Sharing parameters 'ip1_b' owned by layer 'ip1', param index 1
I0625 12:15:16.303793 1970144000 layer_factory.hpp:74] Creating layer relu1_p
I0625 12:15:16.303804 1970144000 net.cpp:90] Creating Layer relu1_p
I0625 12:15:16.303812 1970144000 net.cpp:410] relu1_p <- ip1_p
I0625 12:15:16.303822 1970144000 net.cpp:357] relu1_p -> ip1_p (in-place)
I0625 12:15:16.303833 1970144000 net.cpp:120] Setting up relu1_p
I0625 12:15:16.303932 1970144000 net.cpp:127] Top shape: 64 500 (32000)
I0625 12:15:16.303946 1970144000 layer_factory.hpp:74] Creating layer ip2_p
I0625 12:15:16.303961 1970144000 net.cpp:90] Creating Layer ip2_p
I0625 12:15:16.303968 1970144000 net.cpp:410] ip2_p <- ip1_p
I0625 12:15:16.303987 1970144000 net.cpp:368] ip2_p -> ip2_p
I0625 12:15:16.304005 1970144000 net.cpp:120] Setting up ip2_p
I0625 12:15:16.304075 1970144000 net.cpp:127] Top shape: 64 10 (640)
I0625 12:15:16.304093 1970144000 net.cpp:459] Sharing parameters 'ip2_w' owned by layer 'ip2', param index 0
I0625 12:15:16.304111 1970144000 net.cpp:459] Sharing parameters 'ip2_b' owned by layer 'ip2', param index 1
I0625 12:15:16.304123 1970144000 layer_factory.hpp:74] Creating layer feat_p
I0625 12:15:16.304136 1970144000 net.cpp:90] Creating Layer feat_p
I0625 12:15:16.304163 1970144000 net.cpp:410] feat_p <- ip2_p
I0625 12:15:16.304204 1970144000 net.cpp:368] feat_p -> feat_p
I0625 12:15:16.304222 1970144000 net.cpp:120] Setting up feat_p
I0625 12:15:16.304255 1970144000 net.cpp:127] Top shape: 64 2 (128)
I0625 12:15:16.304271 1970144000 net.cpp:459] Sharing parameters 'feat_w' owned by layer 'feat', param index 0
I0625 12:15:16.304291 1970144000 net.cpp:459] Sharing parameters 'feat_b' owned by layer 'feat', param index 1
I0625 12:15:16.304302 1970144000 layer_factory.hpp:74] Creating layer loss
I0625 12:15:16.304317 1970144000 net.cpp:90] Creating Layer loss
I0625 12:15:16.304333 1970144000 net.cpp:410] loss <- feat
…
I0625 12:15:16.305239 1970144000 solver.cpp:154] Creating test net (#0) specified by net file: src/siamese_network_bw/model/siamese_train_validate.prototxt
I0625 12:15:16.305353 1970144000 net.cpp:287] The NetState phase (1) differed from the phase (0) specified by a rule in layer pair_data
I0625 12:15:16.305405 1970144000 net.cpp:42] Initializing net from parameters: 
name: "siamese_train_validate"
state {
  phase: TEST
}
layer {
  name: "pair_data"
  type: "Data"
  top: "pair_data"
  top: "sim"
  include {
    phase: TEST
  }
  transform_param {
    scale: 0.00392156
  }
  data_param {
    source: "src/siamese_network_bw/data/siamese_network_validation_leveldb"
    batch_size: 100
  }
}
layer {
  name: "slice_pair"
  type: "Slice"
  bottom: "pair_data"
  top: "data"
  top: "data_p"
  slice_param {
    slice_dim: 1
    slice_point: 1
  }
}
layer {
  name: "conv1"
  type: "Convolution"
  bottom: "data"
  top: "conv1"
  param {
    name: "conv1_w"
    lr_mult: 1
  }
  param {
    name: "conv1_b"
    lr_mult: 2
  }
  convolution_param {
    num_output: 20
    kernel_size: 5
    stride: 1
    weight_filler {
      type: "xavier"
    }
    bias_filler {
      type: "constant"
    }
  }
}
layer {
  name: "pool1"
  type: "Pooling"
  bottom: "conv1"
  top: "pool1"
  pooling_param {
    pool: MAX
    kernel_size: 2
    stride: 2
  }
}
layer {
  name: "conv2"
  type: "Convolution"
  bottom: "pool1"
  top: "conv2"
  param {
    name: "conv2_w"
    lr_mult: 1
  }
  param {
    name: "conv2_b"
    lr_mult: 2
  }
  convolution_param {
    num_output: 50
    kernel_size: 5
    stride: 1
    weight_filler {
      type: "xavier"
    }
    bias_filler {
      type: "constant"
    }
  }
}
layer {
  name: "pool2"
  type: "Pooling"
  bottom: "conv2"
  top: "pool2"
  pooling_param {
    pool: MAX
    kernel_size: 2
    stride: 2
  }
}
layer {
  name: "ip1"
  type: "InnerProduct"
  bottom: "pool2"
  top: "ip1"
  param {
    name: "ip1_w"
    lr_mult: 1
  }
  param {
    name: "ip1_b"
    lr_mult: 2
  }
  inner_product_param {
    num_output: 500
    weight_filler {
      type: "xavier"
    }
    bias_filler {
      type: "constant"
    }
  }
}
layer {
  name: "relu1"
  type: "ReLU"
  bottom: "ip1"
  top: "ip1"
}
layer {
  name: "ip2"
  type: "InnerProduct"
  bottom: "ip1"
  top: "ip2"
  param {
    name: "ip2_w"
    lr_mult: 1
  }
  param {
    name: "ip2_b"
    lr_mult: 2
  }
  inner_product_param {
    num_output: 10
    weight_filler {
      type: "xavier"
    }
    bias_filler {
      type: "constant"
    }
  }
}
layer {
  name: "feat"
  type: "InnerProduct"
  bottom: "ip2"
  top: "feat"
  param {
    name: "feat_w"
    lr_mult: 1
  }
  param {
    name: "feat_b"
    lr_mult: 2
  }
  inner_product_param {
    num_output: 2
    weight_filler {
      type: "xavier"
    }
    bias_filler {
      type: "constant"
    }
  }
}
layer {
  name: "conv1_p"
  type: "Convolution"
  bottom: "data_p"
  top: "conv1_p"
  param {
    name: "conv1_w"
    lr_mult: 1
  }
  param {
    name: "conv1_b"
    lr_mult: 2
  }
  convolution_param {
    num_output: 20
    kernel_size: 5
    stride: 1
    weight_filler {
      type: "xavier"
    }
    bias_filler {
      type: "constant"
    }
  }
}
layer {
  name: "pool1_p"
  type: "Pooling"
  bottom: "conv1_p"
  top: "pool1_p"
  pooling_param {
    pool: MAX
    kernel_size: 2
    stride: 2
  }
}
layer {
  name: "conv2_p"
  type: "Convolution"
  bottom: "pool1_p"
  top: "conv2_p"
  param {
    name: "conv2_w"
    lr_mult: 1
  }
  param {
    name: "conv2_b"
    lr_mult: 2
  }
  convolution_param {
    num_output: 50
    kernel_size: 5
    stride: 1
    weight_filler {
      type: "xavier"
    }
    bias_filler {
      type: "constant"
    }
  }
}
layer {
  name: "pool2_p"
  type: "Pooling"
  bottom: "conv2_p"
  top: "pool2_p"
  pooling_param {
    pool: MAX
    kernel_size: 2
    stride: 2
  }
}
layer {
  name: "ip1_p"
  type: "InnerProduct"
  bottom: "pool2_p"
  top: "ip1_p"
  param {
    name: "ip1_w"
    lr_mult: 1
  }
  param {
    name: "ip1_b"
    lr_mult: 2
  }
  inner_product_param {
    num_output: 500
    weight_filler {
      type: "xavier"
    }
    bias_filler {
      type: "constant"
    }
  }
}
layer {
  name: "relu1_p"
  type: "ReLU"
  bottom: "ip1_p"
  top: "ip1_p"
}
layer {
  name: "ip2_p"
  type: "InnerProduct"
  bottom: "ip1_p"
  top: "ip2_p"
  param {
    name: "ip2_w"
    lr_mult: 1
  }
  param {
    name: "ip2_b"
    lr_mult: 2
  }
  inner_product_param {
    num_output: 10
    weight_filler {
      type: "xavier"
    }
    bias_filler {
      type: "constant"
    }
  }
}
layer {
  name: "feat_p"
  type: "InnerProduct"
  bottom: "ip2_p"
  top: "feat_p"
  param {
    name: "feat_w"
    lr_mult: 1
  }
  param {
    name: "feat_b"
    lr_mult: 2
  }
  inner_product_param {
    num_output: 2
    weight_filler {
      type: "xavier"
    }
    bias_filler {
      type: "constant"
    }
  }
}
layer {
  name: "loss"
  type: "ContrastiveLoss"
  bottom: "feat"
  bottom: "feat_p"
  bottom: "sim"
  top: "loss"
  contrastive_loss_param {
    margin: 1
  }
}
I0625 12:15:16.305747 1970144000 layer_factory.hpp:74] Creating layer pair_data
I0625 12:15:16.305763 1970144000 net.cpp:90] Creating Layer pair_data
I0625 12:15:16.305830 1970144000 net.cpp:368] pair_data -> pair_data
I0625 12:15:16.305850 1970144000 net.cpp:368] pair_data -> sim
I0625 12:15:16.305863 1970144000 net.cpp:120] Setting up pair_data
I0625 12:15:16.344959 1970144000 db.cpp:20] Opened leveldb src/siamese_network_bw/data/siamese_network_validation_leveldb
I0625 12:15:16.345288 1970144000 data_layer.cpp:52] output data size: 100,2,62,47
I0625 12:15:16.346346 1970144000 net.cpp:127] Top shape: 100 2 62 47 (582800)
I0625 12:15:16.346365 1970144000 net.cpp:127] Top shape: 100 (100)
I0625 12:15:16.346377 1970144000 layer_factory.hpp:74] Creating layer slice_pair
I0625 12:15:16.346395 1970144000 net.cpp:90] Creating Layer slice_pair
I0625 12:15:16.346401 1970144000 net.cpp:410] slice_pair <- pair_data
I0625 12:15:16.346412 1970144000 net.cpp:368] slice_pair -> data
I0625 12:15:16.346427 1970144000 net.cpp:368] slice_pair -> data_p
I0625 12:15:16.346441 1970144000 net.cpp:120] Setting up slice_pair
I0625 12:15:16.346451 1970144000 net.cpp:127] Top shape: 100 1 62 47 (291400)
I0625 12:15:16.346460 1970144000 net.cpp:127] Top shape: 100 1 62 47 (291400)
I0625 12:15:16.346469 1970144000 layer_factory.hpp:74] Creating layer conv1
I0625 12:15:16.346482 1970144000 net.cpp:90] Creating Layer conv1
I0625 12:15:16.346496 1970144000 net.cpp:410] conv1 <- data
I0625 12:15:16.346513 1970144000 net.cpp:368] conv1 -> conv1
I0625 12:15:16.346524 1970144000 net.cpp:120] Setting up conv1
I0625 12:15:16.346950 1970144000 net.cpp:127] Top shape: 100 20 58 43 (4988000)
I0625 12:15:16.346968 1970144000 layer_factory.hpp:74] Creating layer pool1
I0625 12:15:16.346982 1970144000 net.cpp:90] Creating Layer pool1
I0625 12:15:16.346988 1970144000 net.cpp:410] pool1 <- conv1
I0625 12:15:16.346997 1970144000 net.cpp:368] pool1 -> pool1
I0625 12:15:16.347007 1970144000 net.cpp:120] Setting up pool1
I0625 12:15:16.347074 1970144000 net.cpp:127] Top shape: 100 20 29 22 (1276000)
I0625 12:15:16.347085 1970144000 layer_factory.hpp:74] Creating layer conv2
I0625 12:15:16.347107 1970144000 net.cpp:90] Creating Layer conv2
I0625 12:15:16.347120 1970144000 net.cpp:410] conv2 <- pool1
I0625 12:15:16.347131 1970144000 net.cpp:368] conv2 -> conv2
I0625 12:15:16.347142 1970144000 net.cpp:120] Setting up conv2
I0625 12:15:16.347782 1970144000 net.cpp:127] Top shape: 100 50 25 18 (2250000)
I0625 12:15:16.347800 1970144000 layer_factory.hpp:74] Creating layer pool2
I0625 12:15:16.347811 1970144000 net.cpp:90] Creating Layer pool2
I0625 12:15:16.347817 1970144000 net.cpp:410] pool2 <- conv2
I0625 12:15:16.347851 1970144000 net.cpp:368] pool2 -> pool2
I0625 12:15:16.347864 1970144000 net.cpp:120] Setting up pool2
I0625 12:15:16.348032 1970144000 net.cpp:127] Top shape: 100 50 13 9 (585000)
I0625 12:15:16.348047 1970144000 layer_factory.hpp:74] Creating layer ip1
I0625 12:15:16.348062 1970144000 net.cpp:90] Creating Layer ip1
I0625 12:15:16.348068 1970144000 net.cpp:410] ip1 <- pool2
I0625 12:15:16.348078 1970144000 net.cpp:368] ip1 -> ip1
I0625 12:15:16.348091 1970144000 net.cpp:120] Setting up ip1
I0625 12:15:16.375017 1970144000 net.cpp:127] Top shape: 100 500 (50000)
I0625 12:15:16.375039 1970144000 layer_factory.hpp:74] Creating layer relu1
I0625 12:15:16.375052 1970144000 net.cpp:90] Creating Layer relu1
I0625 12:15:16.375057 1970144000 net.cpp:410] relu1 <- ip1
I0625 12:15:16.375062 1970144000 net.cpp:357] relu1 -> ip1 (in-place)
I0625 12:15:16.375069 1970144000 net.cpp:120] Setting up relu1
I0625 12:15:16.375154 1970144000 net.cpp:127] Top shape: 100 500 (50000)
I0625 12:15:16.375166 1970144000 layer_factory.hpp:74] Creating layer ip2
I0625 12:15:16.375181 1970144000 net.cpp:90] Creating Layer ip2
I0625 12:15:16.375190 1970144000 net.cpp:410] ip2 <- ip1
I0625 12:15:16.375200 1970144000 net.cpp:368] ip2 -> ip2
I0625 12:15:16.375215 1970144000 net.cpp:120] Setting up ip2
I0625 12:15:16.375296 1970144000 net.cpp:127] Top shape: 100 10 (1000)
I0625 12:15:16.375309 1970144000 layer_factory.hpp:74] Creating layer feat
I0625 12:15:16.375344 1970144000 net.cpp:90] Creating Layer feat
I0625 12:15:16.375357 1970144000 net.cpp:410] feat <- ip2
I0625 12:15:16.375370 1970144000 net.cpp:368] feat -> feat
I0625 12:15:16.375380 1970144000 net.cpp:120] Setting up feat
I0625 12:15:16.375398 1970144000 net.cpp:127] Top shape: 100 2 (200)
I0625 12:15:16.375416 1970144000 layer_factory.hpp:74] Creating layer conv1_p
I0625 12:15:16.375429 1970144000 net.cpp:90] Creating Layer conv1_p
I0625 12:15:16.375434 1970144000 net.cpp:410] conv1_p <- data_p
I0625 12:15:16.375440 1970144000 net.cpp:368] conv1_p -> conv1_p
I0625 12:15:16.375448 1970144000 net.cpp:120] Setting up conv1_p
I0625 12:15:16.375885 1970144000 net.cpp:127] Top shape: 100 20 58 43 (4988000)
I0625 12:15:16.375900 1970144000 net.cpp:459] Sharing parameters 'conv1_w' owned by layer 'conv1', param index 0
I0625 12:15:16.375927 1970144000 net.cpp:459] Sharing parameters 'conv1_b' owned by layer 'conv1', param index 1
I0625 12:15:16.375953 1970144000 layer_factory.hpp:74] Creating layer pool1_p
I0625 12:15:16.375969 1970144000 net.cpp:90] Creating Layer pool1_p
I0625 12:15:16.375991 1970144000 net.cpp:410] pool1_p <- conv1_p
I0625 12:15:16.376003 1970144000 net.cpp:368] pool1_p -> pool1_p
I0625 12:15:16.376011 1970144000 net.cpp:120] Setting up pool1_p
I0625 12:15:16.376078 1970144000 net.cpp:127] Top shape: 100 20 29 22 (1276000)
I0625 12:15:16.376092 1970144000 layer_factory.hpp:74] Creating layer conv2_p
I0625 12:15:16.376103 1970144000 net.cpp:90] Creating Layer conv2_p
I0625 12:15:16.376111 1970144000 net.cpp:410] conv2_p <- pool1_p
I0625 12:15:16.376121 1970144000 net.cpp:368] conv2_p -> conv2_p
I0625 12:15:16.376135 1970144000 net.cpp:120] Setting up conv2_p
I0625 12:15:16.376808 1970144000 net.cpp:127] Top shape: 100 50 25 18 (2250000)
I0625 12:15:16.376835 1970144000 net.cpp:459] Sharing parameters 'conv2_w' owned by layer 'conv2', param index 0
I0625 12:15:16.376858 1970144000 net.cpp:459] Sharing parameters 'conv2_b' owned by layer 'conv2', param index 1
I0625 12:15:16.376873 1970144000 layer_factory.hpp:74] Creating layer pool2_p
I0625 12:15:16.376893 1970144000 net.cpp:90] Creating Layer pool2_p
I0625 12:15:16.376919 1970144000 net.cpp:410] pool2_p <- conv2_p
I0625 12:15:16.376934 1970144000 net.cpp:368] pool2_p -> pool2_p
I0625 12:15:16.376945 1970144000 net.cpp:120] Setting up pool2_p
I0625 12:15:16.377009 1970144000 net.cpp:127] Top shape: 100 50 13 9 (585000)
I0625 12:15:16.377019 1970144000 layer_factory.hpp:74] Creating layer ip1_p
I0625 12:15:16.377030 1970144000 net.cpp:90] Creating Layer ip1_p
I0625 12:15:16.377038 1970144000 net.cpp:410] ip1_p <- pool2_p
I0625 12:15:16.377074 1970144000 net.cpp:368] ip1_p -> ip1_p
I0625 12:15:16.377091 1970144000 net.cpp:120] Setting up ip1_p
I0625 12:15:16.404258 1970144000 net.cpp:127] Top shape: 100 500 (50000)
I0625 12:15:16.404286 1970144000 net.cpp:459] Sharing parameters 'ip1_w' owned by layer 'ip1', param index 0
I0625 12:15:16.405155 1970144000 net.cpp:459] Sharing parameters 'ip1_b' owned by layer 'ip1', param index 1
I0625 12:15:16.405167 1970144000 layer_factory.hpp:74] Creating layer relu1_p
I0625 12:15:16.405185 1970144000 net.cpp:90] Creating Layer relu1_p
I0625 12:15:16.405194 1970144000 net.cpp:410] relu1_p <- ip1_p
I0625 12:15:16.405202 1970144000 net.cpp:357] relu1_p -> ip1_p (in-place)
I0625 12:15:16.405210 1970144000 net.cpp:120] Setting up relu1_p
I0625 12:15:16.405424 1970144000 net.cpp:127] Top shape: 100 500 (50000)
I0625 12:15:16.405439 1970144000 layer_factory.hpp:74] Creating layer ip2_p
I0625 12:15:16.405457 1970144000 net.cpp:90] Creating Layer ip2_p
I0625 12:15:16.405464 1970144000 net.cpp:410] ip2_p <- ip1_p
I0625 12:15:16.405474 1970144000 net.cpp:368] ip2_p -> ip2_p
I0625 12:15:16.405491 1970144000 net.cpp:120] Setting up ip2_p
I0625 12:15:16.405589 1970144000 net.cpp:127] Top shape: 100 10 (1000)
I0625 12:15:16.405611 1970144000 net.cpp:459] Sharing parameters 'ip2_w' owned by layer 'ip2', param index 0
I0625 12:15:16.405622 1970144000 net.cpp:459] Sharing parameters 'ip2_b' owned by layer 'ip2', param index 1
I0625 12:15:16.405630 1970144000 layer_factory.hpp:74] Creating layer feat_p
I0625 12:15:16.405643 1970144000 net.cpp:90] Creating Layer feat_p
I0625 12:15:16.405650 1970144000 net.cpp:410] feat_p <- ip2_p
I0625 12:15:16.405660 1970144000 net.cpp:368] feat_p -> feat_p
I0625 12:15:16.405673 1970144000 net.cpp:120] Setting up feat_p
I0625 12:15:16.405689 1970144000 net.cpp:127] Top shape: 100 2 (200)
I0625 12:15:16.405712 1970144000 net.cpp:459] Sharing parameters 'feat_w' owned by layer 'feat', param index 0
I0625 12:15:16.405722 1970144000 net.cpp:459] Sharing parameters 'feat_b' owned by layer 'feat', param index 1
I0625 12:15:16.405731 1970144000 layer_factory.hpp:74] Creating layer loss
I0625 12:15:16.405747 1970144000 net.cpp:90] Creating Layer loss
I0625 12:15:16.405755 1970144000 net.cpp:410] loss <- feat
…
