…
I0708 10:04:18.262254 1970144000 solver.cpp:70] Creating training net from net file: src/siamese_network_bw/model/siamese_train_validate.prototxt
I0708 10:04:18.262903 1970144000 net.cpp:287] The NetState phase (0) differed from the phase (1) specified by a rule in layer pair_data
I0708 10:04:18.262945 1970144000 net.cpp:42] Initializing net from parameters: 
name: "siamese_train_validate"
state {
  phase: TRAIN
}
layer {
  name: "pair_data"
  type: "Data"
  top: "pair_data"
  top: "sim"
  include {
    phase: TRAIN
  }
  transform_param {
    scale: 0.00390625
  }
  data_param {
    source: "src/siamese_network_bw/data/siamese_network_train_leveldb"
    batch_size: 64
  }
}
layer {
  name: "slice_pair"
  type: "Slice"
  bottom: "pair_data"
  top: "data"
  top: "data_p"
  slice_param {
    slice_dim: 1
    slice_point: 1
  }
}
layer {
  name: "conv1"
  type: "Convolution"
  bottom: "data"
  top: "conv1"
  param {
    name: "conv1_w"
    lr_mult: 1
  }
  param {
    name: "conv1_b"
    lr_mult: 2
  }
  convolution_param {
    num_output: 32
    kernel_size: 3
    stride: 1
    weight_filler {
      type: "xavier"
    }
    bias_filler {
      type: "constant"
    }
  }
}
layer {
  name: "pool1"
  type: "Pooling"
  bottom: "conv1"
  top: "pool1"
  pooling_param {
    pool: MAX
    kernel_size: 2
    stride: 2
  }
}
layer {
  name: "conv2"
  type: "Convolution"
  bottom: "pool1"
  top: "conv2"
  param {
    name: "conv2_w"
    lr_mult: 1
  }
  param {
    name: "conv2_b"
    lr_mult: 2
  }
  convolution_param {
    num_output: 64
    kernel_size: 2
    stride: 1
    weight_filler {
      type: "xavier"
    }
    bias_filler {
      type: "constant"
    }
  }
}
layer {
  name: "pool2"
  type: "Pooling"
  bottom: "conv2"
  top: "pool2"
  pooling_param {
    pool: MAX
    kernel_size: 2
    stride: 2
  }
}
layer {
  name: "conv3"
  type: "Convolution"
  bottom: "pool2"
  top: "conv3"
  param {
    name: "conv3_w"
    lr_mult: 1
  }
  param {
    name: "conv3_b"
    lr_mult: 2
  }
  convolution_param {
    num_output: 128
    kernel_size: 2
    stride: 1
    weight_filler {
      type: "xavier"
    }
    bias_filler {
      type: "constant"
    }
  }
}
layer {
  name: "pool3"
  type: "Pooling"
  bottom: "conv3"
  top: "pool3"
  pooling_param {
    pool: MAX
    kernel_size: 2
    stride: 2
  }
}
layer {
  name: "ip1"
  type: "InnerProduct"
  bottom: "pool3"
  top: "ip1"
  param {
    name: "ip1_w"
    lr_mult: 1
  }
  param {
    name: "ip1_b"
    lr_mult: 2
  }
  inner_product_param {
    num_output: 500
    weight_filler {
      type: "xavier"
    }
    bias_filler {
      type: "constant"
    }
  }
}
layer {
  name: "relu1"
  type: "ReLU"
  bottom: "ip1"
  top: "ip1"
}
layer {
  name: "ip2"
  type: "InnerProduct"
  bottom: "ip1"
  top: "ip2"
  param {
    name: "ip2_w"
    lr_mult: 1
  }
  param {
    name: "ip2_b"
    lr_mult: 2
  }
  inner_product_param {
    num_output: 500
    weight_filler {
      type: "xavier"
    }
    bias_filler {
      type: "constant"
    }
  }
}
layer {
  name: "relu2"
  type: "ReLU"
  bottom: "ip2"
  top: "ip2"
}
layer {
  name: "feat"
  type: "InnerProduct"
  bottom: "ip2"
  top: "feat"
  param {
    name: "feat_w"
    lr_mult: 1
  }
  param {
    name: "feat_b"
    lr_mult: 2
  }
  inner_product_param {
    num_output: 2
    weight_filler {
      type: "xavier"
    }
    bias_filler {
      type: "constant"
    }
  }
}
layer {
  name: "conv1_p"
  type: "Convolution"
  bottom: "data_p"
  top: "conv1_p"
  param {
    name: "conv1_w"
    lr_mult: 1
  }
  param {
    name: "conv1_b"
    lr_mult: 2
  }
  convolution_param {
    num_output: 32
    kernel_size: 3
    stride: 1
    weight_filler {
      type: "xavier"
    }
    bias_filler {
      type: "constant"
    }
  }
}
layer {
  name: "pool1_p"
  type: "Pooling"
  bottom: "conv1_p"
  top: "pool1_p"
  pooling_param {
    pool: MAX
    kernel_size: 2
    stride: 2
  }
}
layer {
  name: "conv2_p"
  type: "Convolution"
  bottom: "pool1_p"
  top: "conv2_p"
  param {
    name: "conv2_w"
    lr_mult: 1
  }
  param {
    name: "conv2_b"
    lr_mult: 2
  }
  convolution_param {
    num_output: 64
    kernel_size: 2
    stride: 1
    weight_filler {
      type: "xavier"
    }
    bias_filler {
      type: "constant"
    }
  }
}
layer {
  name: "pool2_p"
  type: "Pooling"
  bottom: "conv2_p"
  top: "pool2_p"
  pooling_param {
    pool: MAX
    kernel_size: 2
    stride: 2
  }
}
layer {
  name: "conv3_p"
  type: "Convolution"
  bottom: "pool2_p"
  top: "conv3_p"
  param {
    name: "conv3_w"
    lr_mult: 1
  }
  param {
    name: "conv3_b"
    lr_mult: 2
  }
  convolution_param {
    num_output: 128
    kernel_size: 2
    stride: 1
    weight_filler {
      type: "xavier"
    }
    bias_filler {
      type: "constant"
    }
  }
}
layer {
  name: "pool3_p"
  type: "Pooling"
  bottom: "conv3_p"
  top: "pool3_p"
  pooling_param {
    pool: MAX
    kernel_size: 2
    stride: 2
  }
}
layer {
  name: "ip1_p"
  type: "InnerProduct"
  bottom: "pool3_p"
  top: "ip1_p"
  param {
    name: "ip1_w"
    lr_mult: 1
  }
  param {
    name: "ip1_b"
    lr_mult: 2
  }
  inner_product_param {
    num_output: 500
    weight_filler {
      type: "xavier"
    }
    bias_filler {
      type: "constant"
    }
  }
}
layer {
  name: "relu1_p"
  type: "ReLU"
  bottom: "ip1_p"
  top: "ip1_p"
}
layer {
  name: "ip2_p"
  type: "InnerProduct"
  bottom: "ip1_p"
  top: "ip2_p"
  param {
    name: "ip2_w"
    lr_mult: 1
  }
  param {
    name: "ip2_b"
    lr_mult: 2
  }
  inner_product_param {
    num_output: 500
    weight_filler {
      type: "xavier"
    }
    bias_filler {
      type: "constant"
    }
  }
}
layer {
  name: "relu2_p"
  type: "ReLU"
  bottom: "ip2_p"
  top: "ip2_p"
}
layer {
  name: "feat_p"
  type: "InnerProduct"
  bottom: "ip2_p"
  top: "feat_p"
  param {
    name: "feat_w"
    lr_mult: 1
  }
  param {
    name: "feat_b"
    lr_mult: 2
  }
  inner_product_param {
    num_output: 2
    weight_filler {
      type: "xavier"
    }
    bias_filler {
      type: "constant"
    }
  }
}
layer {
  name: "loss"
  type: "ContrastiveLoss"
  bottom: "feat"
  bottom: "feat_p"
  bottom: "sim"
  top: "loss"
  contrastive_loss_param {
    margin: 1
  }
}
I0708 10:04:18.263285 1970144000 layer_factory.hpp:74] Creating layer pair_data
I0708 10:04:18.263336 1970144000 net.cpp:90] Creating Layer pair_data
I0708 10:04:18.263350 1970144000 net.cpp:368] pair_data -> pair_data
I0708 10:04:18.263375 1970144000 net.cpp:368] pair_data -> sim
I0708 10:04:18.263386 1970144000 net.cpp:120] Setting up pair_data
I0708 10:04:18.295500 1970144000 db.cpp:20] Opened leveldb src/siamese_network_bw/data/siamese_network_train_leveldb
I0708 10:04:18.296532 1970144000 data_layer.cpp:52] output data size: 64,2,58,58
I0708 10:04:18.297763 1970144000 net.cpp:127] Top shape: 64 2 58 58 (430592)
I0708 10:04:18.297797 1970144000 net.cpp:127] Top shape: 64 (64)
I0708 10:04:18.297806 1970144000 layer_factory.hpp:74] Creating layer slice_pair
I0708 10:04:18.297819 1970144000 net.cpp:90] Creating Layer slice_pair
I0708 10:04:18.297823 1970144000 net.cpp:410] slice_pair <- pair_data
I0708 10:04:18.297830 1970144000 net.cpp:368] slice_pair -> data
I0708 10:04:18.297840 1970144000 net.cpp:368] slice_pair -> data_p
I0708 10:04:18.297847 1970144000 net.cpp:120] Setting up slice_pair
I0708 10:04:18.297857 1970144000 net.cpp:127] Top shape: 64 1 58 58 (215296)
I0708 10:04:18.297863 1970144000 net.cpp:127] Top shape: 64 1 58 58 (215296)
I0708 10:04:18.297868 1970144000 layer_factory.hpp:74] Creating layer conv1
I0708 10:04:18.297876 1970144000 net.cpp:90] Creating Layer conv1
I0708 10:04:18.297880 1970144000 net.cpp:410] conv1 <- data
I0708 10:04:18.297886 1970144000 net.cpp:368] conv1 -> conv1
I0708 10:04:18.297945 1970144000 net.cpp:120] Setting up conv1
I0708 10:04:18.388125 1970144000 net.cpp:127] Top shape: 64 32 56 56 (6422528)
I0708 10:04:18.388156 1970144000 layer_factory.hpp:74] Creating layer pool1
I0708 10:04:18.388170 1970144000 net.cpp:90] Creating Layer pool1
I0708 10:04:18.388175 1970144000 net.cpp:410] pool1 <- conv1
I0708 10:04:18.388181 1970144000 net.cpp:368] pool1 -> pool1
I0708 10:04:18.388190 1970144000 net.cpp:120] Setting up pool1
I0708 10:04:18.388397 1970144000 net.cpp:127] Top shape: 64 32 28 28 (1605632)
I0708 10:04:18.388448 1970144000 layer_factory.hpp:74] Creating layer conv2
I0708 10:04:18.388468 1970144000 net.cpp:90] Creating Layer conv2
I0708 10:04:18.388497 1970144000 net.cpp:410] conv2 <- pool1
I0708 10:04:18.388509 1970144000 net.cpp:368] conv2 -> conv2
I0708 10:04:18.388551 1970144000 net.cpp:120] Setting up conv2
I0708 10:04:18.388972 1970144000 net.cpp:127] Top shape: 64 64 27 27 (2985984)
I0708 10:04:18.388989 1970144000 layer_factory.hpp:74] Creating layer pool2
I0708 10:04:18.388996 1970144000 net.cpp:90] Creating Layer pool2
I0708 10:04:18.389005 1970144000 net.cpp:410] pool2 <- conv2
I0708 10:04:18.389011 1970144000 net.cpp:368] pool2 -> pool2
I0708 10:04:18.389019 1970144000 net.cpp:120] Setting up pool2
I0708 10:04:18.389068 1970144000 net.cpp:127] Top shape: 64 64 14 14 (802816)
I0708 10:04:18.389075 1970144000 layer_factory.hpp:74] Creating layer conv3
I0708 10:04:18.389083 1970144000 net.cpp:90] Creating Layer conv3
I0708 10:04:18.389087 1970144000 net.cpp:410] conv3 <- pool2
I0708 10:04:18.389093 1970144000 net.cpp:368] conv3 -> conv3
I0708 10:04:18.389117 1970144000 net.cpp:120] Setting up conv3
I0708 10:04:18.389717 1970144000 net.cpp:127] Top shape: 64 128 13 13 (1384448)
I0708 10:04:18.389734 1970144000 layer_factory.hpp:74] Creating layer pool3
I0708 10:04:18.389740 1970144000 net.cpp:90] Creating Layer pool3
I0708 10:04:18.389744 1970144000 net.cpp:410] pool3 <- conv3
I0708 10:04:18.389755 1970144000 net.cpp:368] pool3 -> pool3
I0708 10:04:18.389765 1970144000 net.cpp:120] Setting up pool3
I0708 10:04:18.389811 1970144000 net.cpp:127] Top shape: 64 128 7 7 (401408)
I0708 10:04:18.389816 1970144000 layer_factory.hpp:74] Creating layer ip1
I0708 10:04:18.389824 1970144000 net.cpp:90] Creating Layer ip1
I0708 10:04:18.389828 1970144000 net.cpp:410] ip1 <- pool3
I0708 10:04:18.389834 1970144000 net.cpp:368] ip1 -> ip1
I0708 10:04:18.389857 1970144000 net.cpp:120] Setting up ip1
I0708 10:04:18.415427 1970144000 net.cpp:127] Top shape: 64 500 (32000)
I0708 10:04:18.415465 1970144000 layer_factory.hpp:74] Creating layer relu1
I0708 10:04:18.415487 1970144000 net.cpp:90] Creating Layer relu1
I0708 10:04:18.415493 1970144000 net.cpp:410] relu1 <- ip1
I0708 10:04:18.415498 1970144000 net.cpp:357] relu1 -> ip1 (in-place)
I0708 10:04:18.415505 1970144000 net.cpp:120] Setting up relu1
I0708 10:04:18.415777 1970144000 net.cpp:127] Top shape: 64 500 (32000)
I0708 10:04:18.415792 1970144000 layer_factory.hpp:74] Creating layer ip2
I0708 10:04:18.415805 1970144000 net.cpp:90] Creating Layer ip2
I0708 10:04:18.415823 1970144000 net.cpp:410] ip2 <- ip1
I0708 10:04:18.415834 1970144000 net.cpp:368] ip2 -> ip2
I0708 10:04:18.415848 1970144000 net.cpp:120] Setting up ip2
I0708 10:04:18.417956 1970144000 net.cpp:127] Top shape: 64 500 (32000)
I0708 10:04:18.417987 1970144000 layer_factory.hpp:74] Creating layer relu2
I0708 10:04:18.418001 1970144000 net.cpp:90] Creating Layer relu2
I0708 10:04:18.418009 1970144000 net.cpp:410] relu2 <- ip2
I0708 10:04:18.418020 1970144000 net.cpp:357] relu2 -> ip2 (in-place)
I0708 10:04:18.418031 1970144000 net.cpp:120] Setting up relu2
I0708 10:04:18.418140 1970144000 net.cpp:127] Top shape: 64 500 (32000)
I0708 10:04:18.418151 1970144000 layer_factory.hpp:74] Creating layer feat
I0708 10:04:18.418166 1970144000 net.cpp:90] Creating Layer feat
I0708 10:04:18.418174 1970144000 net.cpp:410] feat <- ip2
I0708 10:04:18.418184 1970144000 net.cpp:368] feat -> feat
I0708 10:04:18.418207 1970144000 net.cpp:120] Setting up feat
I0708 10:04:18.418243 1970144000 net.cpp:127] Top shape: 64 2 (128)
I0708 10:04:18.418295 1970144000 layer_factory.hpp:74] Creating layer conv1_p
I0708 10:04:18.418313 1970144000 net.cpp:90] Creating Layer conv1_p
I0708 10:04:18.418321 1970144000 net.cpp:410] conv1_p <- data_p
I0708 10:04:18.418331 1970144000 net.cpp:368] conv1_p -> conv1_p
I0708 10:04:18.418344 1970144000 net.cpp:120] Setting up conv1_p
I0708 10:04:18.418828 1970144000 net.cpp:127] Top shape: 64 32 56 56 (6422528)
I0708 10:04:18.418846 1970144000 net.cpp:459] Sharing parameters 'conv1_w' owned by layer 'conv1', param index 0
I0708 10:04:18.418867 1970144000 net.cpp:459] Sharing parameters 'conv1_b' owned by layer 'conv1', param index 1
I0708 10:04:18.418877 1970144000 layer_factory.hpp:74] Creating layer pool1_p
I0708 10:04:18.418889 1970144000 net.cpp:90] Creating Layer pool1_p
I0708 10:04:18.418897 1970144000 net.cpp:410] pool1_p <- conv1_p
I0708 10:04:18.418906 1970144000 net.cpp:368] pool1_p -> pool1_p
I0708 10:04:18.418913 1970144000 net.cpp:120] Setting up pool1_p
I0708 10:04:18.419016 1970144000 net.cpp:127] Top shape: 64 32 28 28 (1605632)
I0708 10:04:18.419028 1970144000 layer_factory.hpp:74] Creating layer conv2_p
I0708 10:04:18.419040 1970144000 net.cpp:90] Creating Layer conv2_p
I0708 10:04:18.419047 1970144000 net.cpp:410] conv2_p <- pool1_p
I0708 10:04:18.419059 1970144000 net.cpp:368] conv2_p -> conv2_p
I0708 10:04:18.419072 1970144000 net.cpp:120] Setting up conv2_p
I0708 10:04:18.419524 1970144000 net.cpp:127] Top shape: 64 64 27 27 (2985984)
I0708 10:04:18.419538 1970144000 net.cpp:459] Sharing parameters 'conv2_w' owned by layer 'conv2', param index 0
I0708 10:04:18.419548 1970144000 net.cpp:459] Sharing parameters 'conv2_b' owned by layer 'conv2', param index 1
I0708 10:04:18.419554 1970144000 layer_factory.hpp:74] Creating layer pool2_p
I0708 10:04:18.419587 1970144000 net.cpp:90] Creating Layer pool2_p
I0708 10:04:18.419595 1970144000 net.cpp:410] pool2_p <- conv2_p
I0708 10:04:18.419602 1970144000 net.cpp:368] pool2_p -> pool2_p
I0708 10:04:18.419615 1970144000 net.cpp:120] Setting up pool2_p
I0708 10:04:18.419666 1970144000 net.cpp:127] Top shape: 64 64 14 14 (802816)
I0708 10:04:18.419672 1970144000 layer_factory.hpp:74] Creating layer conv3_p
I0708 10:04:18.419679 1970144000 net.cpp:90] Creating Layer conv3_p
I0708 10:04:18.419683 1970144000 net.cpp:410] conv3_p <- pool2_p
I0708 10:04:18.419690 1970144000 net.cpp:368] conv3_p -> conv3_p
I0708 10:04:18.419697 1970144000 net.cpp:120] Setting up conv3_p
I0708 10:04:18.420229 1970144000 net.cpp:127] Top shape: 64 128 13 13 (1384448)
I0708 10:04:18.420245 1970144000 net.cpp:459] Sharing parameters 'conv3_w' owned by layer 'conv3', param index 0
I0708 10:04:18.420255 1970144000 net.cpp:459] Sharing parameters 'conv3_b' owned by layer 'conv3', param index 1
I0708 10:04:18.420261 1970144000 layer_factory.hpp:74] Creating layer pool3_p
I0708 10:04:18.420267 1970144000 net.cpp:90] Creating Layer pool3_p
I0708 10:04:18.420272 1970144000 net.cpp:410] pool3_p <- conv3_p
I0708 10:04:18.420277 1970144000 net.cpp:368] pool3_p -> pool3_p
I0708 10:04:18.420284 1970144000 net.cpp:120] Setting up pool3_p
I0708 10:04:18.420408 1970144000 net.cpp:127] Top shape: 64 128 7 7 (401408)
I0708 10:04:18.420418 1970144000 layer_factory.hpp:74] Creating layer ip1_p
I0708 10:04:18.420425 1970144000 net.cpp:90] Creating Layer ip1_p
I0708 10:04:18.420451 1970144000 net.cpp:410] ip1_p <- pool3_p
I0708 10:04:18.420465 1970144000 net.cpp:368] ip1_p -> ip1_p
I0708 10:04:18.420477 1970144000 net.cpp:120] Setting up ip1_p
I0708 10:04:18.446920 1970144000 net.cpp:127] Top shape: 64 500 (32000)
I0708 10:04:18.446945 1970144000 net.cpp:459] Sharing parameters 'ip1_w' owned by layer 'ip1', param index 0
I0708 10:04:18.448153 1970144000 net.cpp:459] Sharing parameters 'ip1_b' owned by layer 'ip1', param index 1
I0708 10:04:18.448168 1970144000 layer_factory.hpp:74] Creating layer relu1_p
I0708 10:04:18.448178 1970144000 net.cpp:90] Creating Layer relu1_p
I0708 10:04:18.448182 1970144000 net.cpp:410] relu1_p <- ip1_p
I0708 10:04:18.448189 1970144000 net.cpp:357] relu1_p -> ip1_p (in-place)
I0708 10:04:18.448221 1970144000 net.cpp:120] Setting up relu1_p
I0708 10:04:18.448325 1970144000 net.cpp:127] Top shape: 64 500 (32000)
I0708 10:04:18.448338 1970144000 layer_factory.hpp:74] Creating layer ip2_p
I0708 10:04:18.448349 1970144000 net.cpp:90] Creating Layer ip2_p
I0708 10:04:18.448356 1970144000 net.cpp:410] ip2_p <- ip1_p
I0708 10:04:18.448365 1970144000 net.cpp:368] ip2_p -> ip2_p
I0708 10:04:18.448374 1970144000 net.cpp:120] Setting up ip2_p
I0708 10:04:18.450345 1970144000 net.cpp:127] Top shape: 64 500 (32000)
I0708 10:04:18.450358 1970144000 net.cpp:459] Sharing parameters 'ip2_w' owned by layer 'ip2', param index 0
I0708 10:04:18.450366 1970144000 net.cpp:459] Sharing parameters 'ip2_b' owned by layer 'ip2', param index 1
I0708 10:04:18.450371 1970144000 layer_factory.hpp:74] Creating layer relu2_p
I0708 10:04:18.450433 1970144000 net.cpp:90] Creating Layer relu2_p
I0708 10:04:18.450448 1970144000 net.cpp:410] relu2_p <- ip2_p
I0708 10:04:18.450458 1970144000 net.cpp:357] relu2_p -> ip2_p (in-place)
I0708 10:04:18.450469 1970144000 net.cpp:120] Setting up relu2_p
I0708 10:04:18.450570 1970144000 net.cpp:127] Top shape: 64 500 (32000)
I0708 10:04:18.450584 1970144000 layer_factory.hpp:74] Creating layer feat_p
I0708 10:04:18.450610 1970144000 net.cpp:90] Creating Layer feat_p
I0708 10:04:18.450647 1970144000 net.cpp:410] feat_p <- ip2_p
I0708 10:04:18.450665 1970144000 net.cpp:368] feat_p -> feat_p
I0708 10:04:18.450680 1970144000 net.cpp:120] Setting up feat_p
I0708 10:04:18.450708 1970144000 net.cpp:127] Top shape: 64 2 (128)
I0708 10:04:18.450719 1970144000 net.cpp:459] Sharing parameters 'feat_w' owned by layer 'feat', param index 0
I0708 10:04:18.450731 1970144000 net.cpp:459] Sharing parameters 'feat_b' owned by layer 'feat', param index 1
I0708 10:04:18.450752 1970144000 layer_factory.hpp:74] Creating layer loss
I0708 10:04:18.450783 1970144000 net.cpp:90] Creating Layer loss
I0708 10:04:18.450796 1970144000 net.cpp:410] loss <- feat
…
