…
I0625 12:27:31.606254 1970144000 solver.cpp:70] Creating training net from net file: src/siamese_network_bw/model/siamese_train_validate.prototxt
I0625 12:27:31.606703 1970144000 net.cpp:287] The NetState phase (0) differed from the phase (1) specified by a rule in layer pair_data
I0625 12:27:31.606729 1970144000 net.cpp:42] Initializing net from parameters: 
name: "siamese_train_validate"
state {
  phase: TRAIN
}
layer {
  name: "pair_data"
  type: "Data"
  top: "pair_data"
  top: "sim"
  include {
    phase: TRAIN
  }
  transform_param {
    scale: 0.00392156
  }
  data_param {
    source: "src/siamese_network_bw/data/siamese_network_train_leveldb"
    batch_size: 64
  }
}
layer {
  name: "slice_pair"
  type: "Slice"
  bottom: "pair_data"
  top: "data"
  top: "data_p"
  slice_param {
    slice_dim: 1
    slice_point: 1
  }
}
layer {
  name: "conv1"
  type: "Convolution"
  bottom: "data"
  top: "conv1"
  param {
    name: "conv1_w"
    lr_mult: 1
  }
  param {
    name: "conv1_b"
    lr_mult: 2
  }
  convolution_param {
    num_output: 20
    kernel_size: 5
    stride: 1
    weight_filler {
      type: "xavier"
    }
    bias_filler {
      type: "constant"
    }
  }
}
layer {
  name: "pool1"
  type: "Pooling"
  bottom: "conv1"
  top: "pool1"
  pooling_param {
    pool: MAX
    kernel_size: 2
    stride: 2
  }
}
layer {
  name: "conv2"
  type: "Convolution"
  bottom: "pool1"
  top: "conv2"
  param {
    name: "conv2_w"
    lr_mult: 1
  }
  param {
    name: "conv2_b"
    lr_mult: 2
  }
  convolution_param {
    num_output: 50
    kernel_size: 5
    stride: 1
    weight_filler {
      type: "xavier"
    }
    bias_filler {
      type: "constant"
    }
  }
}
layer {
  name: "pool2"
  type: "Pooling"
  bottom: "conv2"
  top: "pool2"
  pooling_param {
    pool: MAX
    kernel_size: 2
    stride: 2
  }
}
layer {
  name: "ip1"
  type: "InnerProduct"
  bottom: "pool2"
  top: "ip1"
  param {
    name: "ip1_w"
    lr_mult: 1
  }
  param {
    name: "ip1_b"
    lr_mult: 2
  }
  inner_product_param {
    num_output: 500
    weight_filler {
      type: "xavier"
    }
    bias_filler {
      type: "constant"
    }
  }
}
layer {
  name: "relu1"
  type: "ReLU"
  bottom: "ip1"
  top: "ip1"
}
layer {
  name: "ip2"
  type: "InnerProduct"
  bottom: "ip1"
  top: "ip2"
  param {
    name: "ip2_w"
    lr_mult: 1
  }
  param {
    name: "ip2_b"
    lr_mult: 2
  }
  inner_product_param {
    num_output: 10
    weight_filler {
      type: "xavier"
    }
    bias_filler {
      type: "constant"
    }
  }
}
layer {
  name: "feat"
  type: "InnerProduct"
  bottom: "ip2"
  top: "feat"
  param {
    name: "feat_w"
    lr_mult: 1
  }
  param {
    name: "feat_b"
    lr_mult: 2
  }
  inner_product_param {
    num_output: 2
    weight_filler {
      type: "xavier"
    }
    bias_filler {
      type: "constant"
    }
  }
}
layer {
  name: "conv1_p"
  type: "Convolution"
  bottom: "data_p"
  top: "conv1_p"
  param {
    name: "conv1_w"
    lr_mult: 1
  }
  param {
    name: "conv1_b"
    lr_mult: 2
  }
  convolution_param {
    num_output: 20
    kernel_size: 5
    stride: 1
    weight_filler {
      type: "xavier"
    }
    bias_filler {
      type: "constant"
    }
  }
}
layer {
  name: "pool1_p"
  type: "Pooling"
  bottom: "conv1_p"
  top: "pool1_p"
  pooling_param {
    pool: MAX
    kernel_size: 2
    stride: 2
  }
}
layer {
  name: "conv2_p"
  type: "Convolution"
  bottom: "pool1_p"
  top: "conv2_p"
  param {
    name: "conv2_w"
    lr_mult: 1
  }
  param {
    name: "conv2_b"
    lr_mult: 2
  }
  convolution_param {
    num_output: 50
    kernel_size: 5
    stride: 1
    weight_filler {
      type: "xavier"
    }
    bias_filler {
      type: "constant"
    }
  }
}
layer {
  name: "pool2_p"
  type: "Pooling"
  bottom: "conv2_p"
  top: "pool2_p"
  pooling_param {
    pool: MAX
    kernel_size: 2
    stride: 2
  }
}
layer {
  name: "ip1_p"
  type: "InnerProduct"
  bottom: "pool2_p"
  top: "ip1_p"
  param {
    name: "ip1_w"
    lr_mult: 1
  }
  param {
    name: "ip1_b"
    lr_mult: 2
  }
  inner_product_param {
    num_output: 500
    weight_filler {
      type: "xavier"
    }
    bias_filler {
      type: "constant"
    }
  }
}
layer {
  name: "relu1_p"
  type: "ReLU"
  bottom: "ip1_p"
  top: "ip1_p"
}
layer {
  name: "ip2_p"
  type: "InnerProduct"
  bottom: "ip1_p"
  top: "ip2_p"
  param {
    name: "ip2_w"
    lr_mult: 1
  }
  param {
    name: "ip2_b"
    lr_mult: 2
  }
  inner_product_param {
    num_output: 10
    weight_filler {
      type: "xavier"
    }
    bias_filler {
      type: "constant"
    }
  }
}
layer {
  name: "feat_p"
  type: "InnerProduct"
  bottom: "ip2_p"
  top: "feat_p"
  param {
    name: "feat_w"
    lr_mult: 1
  }
  param {
    name: "feat_b"
    lr_mult: 2
  }
  inner_product_param {
    num_output: 2
    weight_filler {
      type: "xavier"
    }
    bias_filler {
      type: "constant"
    }
  }
}
layer {
  name: "loss"
  type: "ContrastiveLoss"
  bottom: "feat"
  bottom: "feat_p"
  bottom: "sim"
  top: "loss"
  contrastive_loss_param {
    margin: 1
  }
}
I0625 12:27:31.606959 1970144000 layer_factory.hpp:74] Creating layer pair_data
I0625 12:27:31.606977 1970144000 net.cpp:90] Creating Layer pair_data
I0625 12:27:31.606984 1970144000 net.cpp:368] pair_data -> pair_data
I0625 12:27:31.607004 1970144000 net.cpp:368] pair_data -> sim
I0625 12:27:31.607012 1970144000 net.cpp:120] Setting up pair_data
I0625 12:27:31.608424 1970144000 db.cpp:20] Opened leveldb src/siamese_network_bw/data/siamese_network_train_leveldb
I0625 12:27:31.608935 1970144000 data_layer.cpp:52] output data size: 64,2,62,47
I0625 12:27:31.609575 1970144000 net.cpp:127] Top shape: 64 2 62 47 (372992)
I0625 12:27:31.609594 1970144000 net.cpp:127] Top shape: 64 (64)
I0625 12:27:31.609611 1970144000 layer_factory.hpp:74] Creating layer slice_pair
I0625 12:27:31.609622 1970144000 net.cpp:90] Creating Layer slice_pair
I0625 12:27:31.609627 1970144000 net.cpp:410] slice_pair <- pair_data
I0625 12:27:31.609635 1970144000 net.cpp:368] slice_pair -> data
I0625 12:27:31.609678 1970144000 net.cpp:368] slice_pair -> data_p
I0625 12:27:31.609690 1970144000 net.cpp:120] Setting up slice_pair
I0625 12:27:31.609700 1970144000 net.cpp:127] Top shape: 64 1 62 47 (186496)
I0625 12:27:31.609706 1970144000 net.cpp:127] Top shape: 64 1 62 47 (186496)
I0625 12:27:31.609711 1970144000 layer_factory.hpp:74] Creating layer conv1
I0625 12:27:31.609719 1970144000 net.cpp:90] Creating Layer conv1
I0625 12:27:31.609724 1970144000 net.cpp:410] conv1 <- data
I0625 12:27:31.609730 1970144000 net.cpp:368] conv1 -> conv1
I0625 12:27:31.609738 1970144000 net.cpp:120] Setting up conv1
I0625 12:27:31.670368 1970144000 net.cpp:127] Top shape: 64 20 58 43 (3192320)
I0625 12:27:31.670398 1970144000 layer_factory.hpp:74] Creating layer pool1
I0625 12:27:31.670421 1970144000 net.cpp:90] Creating Layer pool1
I0625 12:27:31.670426 1970144000 net.cpp:410] pool1 <- conv1
I0625 12:27:31.670433 1970144000 net.cpp:368] pool1 -> pool1
I0625 12:27:31.670440 1970144000 net.cpp:120] Setting up pool1
I0625 12:27:31.670629 1970144000 net.cpp:127] Top shape: 64 20 29 22 (816640)
I0625 12:27:31.670639 1970144000 layer_factory.hpp:74] Creating layer conv2
I0625 12:27:31.670650 1970144000 net.cpp:90] Creating Layer conv2
I0625 12:27:31.670655 1970144000 net.cpp:410] conv2 <- pool1
I0625 12:27:31.670660 1970144000 net.cpp:368] conv2 -> conv2
I0625 12:27:31.670668 1970144000 net.cpp:120] Setting up conv2
I0625 12:27:31.671103 1970144000 net.cpp:127] Top shape: 64 50 25 18 (1440000)
I0625 12:27:31.671128 1970144000 layer_factory.hpp:74] Creating layer pool2
I0625 12:27:31.671135 1970144000 net.cpp:90] Creating Layer pool2
I0625 12:27:31.671139 1970144000 net.cpp:410] pool2 <- conv2
I0625 12:27:31.671166 1970144000 net.cpp:368] pool2 -> pool2
I0625 12:27:31.671174 1970144000 net.cpp:120] Setting up pool2
I0625 12:27:31.671222 1970144000 net.cpp:127] Top shape: 64 50 13 9 (374400)
I0625 12:27:31.671228 1970144000 layer_factory.hpp:74] Creating layer ip1
I0625 12:27:31.671236 1970144000 net.cpp:90] Creating Layer ip1
I0625 12:27:31.671239 1970144000 net.cpp:410] ip1 <- pool2
I0625 12:27:31.671247 1970144000 net.cpp:368] ip1 -> ip1
I0625 12:27:31.671254 1970144000 net.cpp:120] Setting up ip1
I0625 12:27:31.694990 1970144000 net.cpp:127] Top shape: 64 500 (32000)
I0625 12:27:31.695030 1970144000 layer_factory.hpp:74] Creating layer relu1
I0625 12:27:31.695144 1970144000 net.cpp:90] Creating Layer relu1
I0625 12:27:31.695158 1970144000 net.cpp:410] relu1 <- ip1
I0625 12:27:31.695165 1970144000 net.cpp:357] relu1 -> ip1 (in-place)
I0625 12:27:31.695174 1970144000 net.cpp:120] Setting up relu1
I0625 12:27:31.695255 1970144000 net.cpp:127] Top shape: 64 500 (32000)
I0625 12:27:31.695262 1970144000 layer_factory.hpp:74] Creating layer ip2
I0625 12:27:31.695273 1970144000 net.cpp:90] Creating Layer ip2
I0625 12:27:31.695278 1970144000 net.cpp:410] ip2 <- ip1
I0625 12:27:31.695283 1970144000 net.cpp:368] ip2 -> ip2
I0625 12:27:31.695291 1970144000 net.cpp:120] Setting up ip2
I0625 12:27:31.695345 1970144000 net.cpp:127] Top shape: 64 10 (640)
I0625 12:27:31.695374 1970144000 layer_factory.hpp:74] Creating layer feat
I0625 12:27:31.695389 1970144000 net.cpp:90] Creating Layer feat
I0625 12:27:31.695394 1970144000 net.cpp:410] feat <- ip2
I0625 12:27:31.695401 1970144000 net.cpp:368] feat -> feat
I0625 12:27:31.695415 1970144000 net.cpp:120] Setting up feat
I0625 12:27:31.695426 1970144000 net.cpp:127] Top shape: 64 2 (128)
I0625 12:27:31.695435 1970144000 layer_factory.hpp:74] Creating layer conv1_p
I0625 12:27:31.695461 1970144000 net.cpp:90] Creating Layer conv1_p
I0625 12:27:31.695475 1970144000 net.cpp:410] conv1_p <- data_p
I0625 12:27:31.695487 1970144000 net.cpp:368] conv1_p -> conv1_p
I0625 12:27:31.695499 1970144000 net.cpp:120] Setting up conv1_p
I0625 12:27:31.695948 1970144000 net.cpp:127] Top shape: 64 20 58 43 (3192320)
I0625 12:27:31.695963 1970144000 net.cpp:459] Sharing parameters 'conv1_w' owned by layer 'conv1', param index 0
I0625 12:27:31.695981 1970144000 net.cpp:459] Sharing parameters 'conv1_b' owned by layer 'conv1', param index 1
I0625 12:27:31.695986 1970144000 layer_factory.hpp:74] Creating layer pool1_p
I0625 12:27:31.696001 1970144000 net.cpp:90] Creating Layer pool1_p
I0625 12:27:31.696007 1970144000 net.cpp:410] pool1_p <- conv1_p
I0625 12:27:31.696012 1970144000 net.cpp:368] pool1_p -> pool1_p
I0625 12:27:31.696027 1970144000 net.cpp:120] Setting up pool1_p
I0625 12:27:31.696234 1970144000 net.cpp:127] Top shape: 64 20 29 22 (816640)
I0625 12:27:31.696246 1970144000 layer_factory.hpp:74] Creating layer conv2_p
I0625 12:27:31.696255 1970144000 net.cpp:90] Creating Layer conv2_p
I0625 12:27:31.696259 1970144000 net.cpp:410] conv2_p <- pool1_p
I0625 12:27:31.696265 1970144000 net.cpp:368] conv2_p -> conv2_p
I0625 12:27:31.696272 1970144000 net.cpp:120] Setting up conv2_p
I0625 12:27:31.696727 1970144000 net.cpp:127] Top shape: 64 50 25 18 (1440000)
I0625 12:27:31.696738 1970144000 net.cpp:459] Sharing parameters 'conv2_w' owned by layer 'conv2', param index 0
I0625 12:27:31.696744 1970144000 net.cpp:459] Sharing parameters 'conv2_b' owned by layer 'conv2', param index 1
I0625 12:27:31.696749 1970144000 layer_factory.hpp:74] Creating layer pool2_p
I0625 12:27:31.696755 1970144000 net.cpp:90] Creating Layer pool2_p
I0625 12:27:31.696760 1970144000 net.cpp:410] pool2_p <- conv2_p
I0625 12:27:31.696765 1970144000 net.cpp:368] pool2_p -> pool2_p
I0625 12:27:31.696774 1970144000 net.cpp:120] Setting up pool2_p
I0625 12:27:31.696820 1970144000 net.cpp:127] Top shape: 64 50 13 9 (374400)
I0625 12:27:31.696827 1970144000 layer_factory.hpp:74] Creating layer ip1_p
I0625 12:27:31.696835 1970144000 net.cpp:90] Creating Layer ip1_p
I0625 12:27:31.696838 1970144000 net.cpp:410] ip1_p <- pool2_p
I0625 12:27:31.696864 1970144000 net.cpp:368] ip1_p -> ip1_p
I0625 12:27:31.696873 1970144000 net.cpp:120] Setting up ip1_p
I0625 12:27:31.720026 1970144000 net.cpp:127] Top shape: 64 500 (32000)
I0625 12:27:31.720053 1970144000 net.cpp:459] Sharing parameters 'ip1_w' owned by layer 'ip1', param index 0
I0625 12:27:31.721215 1970144000 net.cpp:459] Sharing parameters 'ip1_b' owned by layer 'ip1', param index 1
I0625 12:27:31.721225 1970144000 layer_factory.hpp:74] Creating layer relu1_p
I0625 12:27:31.721246 1970144000 net.cpp:90] Creating Layer relu1_p
I0625 12:27:31.721252 1970144000 net.cpp:410] relu1_p <- ip1_p
I0625 12:27:31.721259 1970144000 net.cpp:357] relu1_p -> ip1_p (in-place)
I0625 12:27:31.721350 1970144000 net.cpp:120] Setting up relu1_p
I0625 12:27:31.721438 1970144000 net.cpp:127] Top shape: 64 500 (32000)
I0625 12:27:31.721446 1970144000 layer_factory.hpp:74] Creating layer ip2_p
I0625 12:27:31.721460 1970144000 net.cpp:90] Creating Layer ip2_p
I0625 12:27:31.721465 1970144000 net.cpp:410] ip2_p <- ip1_p
I0625 12:27:31.721472 1970144000 net.cpp:368] ip2_p -> ip2_p
I0625 12:27:31.721482 1970144000 net.cpp:120] Setting up ip2_p
I0625 12:27:31.721536 1970144000 net.cpp:127] Top shape: 64 10 (640)
I0625 12:27:31.721546 1970144000 net.cpp:459] Sharing parameters 'ip2_w' owned by layer 'ip2', param index 0
I0625 12:27:31.721554 1970144000 net.cpp:459] Sharing parameters 'ip2_b' owned by layer 'ip2', param index 1
I0625 12:27:31.721559 1970144000 layer_factory.hpp:74] Creating layer feat_p
I0625 12:27:31.721565 1970144000 net.cpp:90] Creating Layer feat_p
I0625 12:27:31.721570 1970144000 net.cpp:410] feat_p <- ip2_p
I0625 12:27:31.721575 1970144000 net.cpp:368] feat_p -> feat_p
I0625 12:27:31.721582 1970144000 net.cpp:120] Setting up feat_p
I0625 12:27:31.721592 1970144000 net.cpp:127] Top shape: 64 2 (128)
I0625 12:27:31.721597 1970144000 net.cpp:459] Sharing parameters 'feat_w' owned by layer 'feat', param index 0
I0625 12:27:31.721602 1970144000 net.cpp:459] Sharing parameters 'feat_b' owned by layer 'feat', param index 1
I0625 12:27:31.721607 1970144000 layer_factory.hpp:74] Creating layer loss
I0625 12:27:31.721618 1970144000 net.cpp:90] Creating Layer loss
I0625 12:27:31.721622 1970144000 net.cpp:410] loss <- feat
…
I0625 12:27:31.722110 1970144000 solver.cpp:154] Creating test net (#0) specified by net file: src/siamese_network_bw/model/siamese_train_validate.prototxt
I0625 12:27:31.722177 1970144000 net.cpp:287] The NetState phase (1) differed from the phase (0) specified by a rule in layer pair_data
I0625 12:27:31.722215 1970144000 net.cpp:42] Initializing net from parameters: 
name: "siamese_train_validate"
state {
  phase: TEST
}
layer {
  name: "pair_data"
  type: "Data"
  top: "pair_data"
  top: "sim"
  include {
    phase: TEST
  }
  transform_param {
    scale: 0.00392156
  }
  data_param {
    source: "src/siamese_network_bw/data/siamese_network_validation_leveldb"
    batch_size: 100
  }
}
layer {
  name: "slice_pair"
  type: "Slice"
  bottom: "pair_data"
  top: "data"
  top: "data_p"
  slice_param {
    slice_dim: 1
    slice_point: 1
  }
}
layer {
  name: "conv1"
  type: "Convolution"
  bottom: "data"
  top: "conv1"
  param {
    name: "conv1_w"
    lr_mult: 1
  }
  param {
    name: "conv1_b"
    lr_mult: 2
  }
  convolution_param {
    num_output: 20
    kernel_size: 5
    stride: 1
    weight_filler {
      type: "xavier"
    }
    bias_filler {
      type: "constant"
    }
  }
}
layer {
  name: "pool1"
  type: "Pooling"
  bottom: "conv1"
  top: "pool1"
  pooling_param {
    pool: MAX
    kernel_size: 2
    stride: 2
  }
}
layer {
  name: "conv2"
  type: "Convolution"
  bottom: "pool1"
  top: "conv2"
  param {
    name: "conv2_w"
    lr_mult: 1
  }
  param {
    name: "conv2_b"
    lr_mult: 2
  }
  convolution_param {
    num_output: 50
    kernel_size: 5
    stride: 1
    weight_filler {
      type: "xavier"
    }
    bias_filler {
      type: "constant"
    }
  }
}
layer {
  name: "pool2"
  type: "Pooling"
  bottom: "conv2"
  top: "pool2"
  pooling_param {
    pool: MAX
    kernel_size: 2
    stride: 2
  }
}
layer {
  name: "ip1"
  type: "InnerProduct"
  bottom: "pool2"
  top: "ip1"
  param {
    name: "ip1_w"
    lr_mult: 1
  }
  param {
    name: "ip1_b"
    lr_mult: 2
  }
  inner_product_param {
    num_output: 500
    weight_filler {
      type: "xavier"
    }
    bias_filler {
      type: "constant"
    }
  }
}
layer {
  name: "relu1"
  type: "ReLU"
  bottom: "ip1"
  top: "ip1"
}
layer {
  name: "ip2"
  type: "InnerProduct"
  bottom: "ip1"
  top: "ip2"
  param {
    name: "ip2_w"
    lr_mult: 1
  }
  param {
    name: "ip2_b"
    lr_mult: 2
  }
  inner_product_param {
    num_output: 10
    weight_filler {
      type: "xavier"
    }
    bias_filler {
      type: "constant"
    }
  }
}
layer {
  name: "feat"
  type: "InnerProduct"
  bottom: "ip2"
  top: "feat"
  param {
    name: "feat_w"
    lr_mult: 1
  }
  param {
    name: "feat_b"
    lr_mult: 2
  }
  inner_product_param {
    num_output: 2
    weight_filler {
      type: "xavier"
    }
    bias_filler {
      type: "constant"
    }
  }
}
layer {
  name: "conv1_p"
  type: "Convolution"
  bottom: "data_p"
  top: "conv1_p"
  param {
    name: "conv1_w"
    lr_mult: 1
  }
  param {
    name: "conv1_b"
    lr_mult: 2
  }
  convolution_param {
    num_output: 20
    kernel_size: 5
    stride: 1
    weight_filler {
      type: "xavier"
    }
    bias_filler {
      type: "constant"
    }
  }
}
layer {
  name: "pool1_p"
  type: "Pooling"
  bottom: "conv1_p"
  top: "pool1_p"
  pooling_param {
    pool: MAX
    kernel_size: 2
    stride: 2
  }
}
layer {
  name: "conv2_p"
  type: "Convolution"
  bottom: "pool1_p"
  top: "conv2_p"
  param {
    name: "conv2_w"
    lr_mult: 1
  }
  param {
    name: "conv2_b"
    lr_mult: 2
  }
  convolution_param {
    num_output: 50
    kernel_size: 5
    stride: 1
    weight_filler {
      type: "xavier"
    }
    bias_filler {
      type: "constant"
    }
  }
}
layer {
  name: "pool2_p"
  type: "Pooling"
  bottom: "conv2_p"
  top: "pool2_p"
  pooling_param {
    pool: MAX
    kernel_size: 2
    stride: 2
  }
}
layer {
  name: "ip1_p"
  type: "InnerProduct"
  bottom: "pool2_p"
  top: "ip1_p"
  param {
    name: "ip1_w"
    lr_mult: 1
  }
  param {
    name: "ip1_b"
    lr_mult: 2
  }
  inner_product_param {
    num_output: 500
    weight_filler {
      type: "xavier"
    }
    bias_filler {
      type: "constant"
    }
  }
}
layer {
  name: "relu1_p"
  type: "ReLU"
  bottom: "ip1_p"
  top: "ip1_p"
}
layer {
  name: "ip2_p"
  type: "InnerProduct"
  bottom: "ip1_p"
  top: "ip2_p"
  param {
    name: "ip2_w"
    lr_mult: 1
  }
  param {
    name: "ip2_b"
    lr_mult: 2
  }
  inner_product_param {
    num_output: 10
    weight_filler {
      type: "xavier"
    }
    bias_filler {
      type: "constant"
    }
  }
}
layer {
  name: "feat_p"
  type: "InnerProduct"
  bottom: "ip2_p"
  top: "feat_p"
  param {
    name: "feat_w"
    lr_mult: 1
  }
  param {
    name: "feat_b"
    lr_mult: 2
  }
  inner_product_param {
    num_output: 2
    weight_filler {
      type: "xavier"
    }
    bias_filler {
      type: "constant"
    }
  }
}
layer {
  name: "loss"
  type: "ContrastiveLoss"
  bottom: "feat"
  bottom: "feat_p"
  bottom: "sim"
  top: "loss"
  contrastive_loss_param {
    margin: 1
  }
}
I0625 12:27:31.722527 1970144000 layer_factory.hpp:74] Creating layer pair_data
I0625 12:27:31.722563 1970144000 net.cpp:90] Creating Layer pair_data
I0625 12:27:31.722578 1970144000 net.cpp:368] pair_data -> pair_data
I0625 12:27:31.722620 1970144000 net.cpp:368] pair_data -> sim
I0625 12:27:31.722635 1970144000 net.cpp:120] Setting up pair_data
I0625 12:27:31.723987 1970144000 db.cpp:20] Opened leveldb src/siamese_network_bw/data/siamese_network_validation_leveldb
I0625 12:27:31.724524 1970144000 data_layer.cpp:52] output data size: 100,2,62,47
I0625 12:27:31.725553 1970144000 net.cpp:127] Top shape: 100 2 62 47 (582800)
I0625 12:27:31.725615 1970144000 net.cpp:127] Top shape: 100 (100)
I0625 12:27:31.725647 1970144000 layer_factory.hpp:74] Creating layer slice_pair
I0625 12:27:31.725666 1970144000 net.cpp:90] Creating Layer slice_pair
I0625 12:27:31.725672 1970144000 net.cpp:410] slice_pair <- pair_data
I0625 12:27:31.725677 1970144000 net.cpp:368] slice_pair -> data
I0625 12:27:31.725690 1970144000 net.cpp:368] slice_pair -> data_p
I0625 12:27:31.725697 1970144000 net.cpp:120] Setting up slice_pair
I0625 12:27:31.725705 1970144000 net.cpp:127] Top shape: 100 1 62 47 (291400)
I0625 12:27:31.725711 1970144000 net.cpp:127] Top shape: 100 1 62 47 (291400)
I0625 12:27:31.725716 1970144000 layer_factory.hpp:74] Creating layer conv1
I0625 12:27:31.725723 1970144000 net.cpp:90] Creating Layer conv1
I0625 12:27:31.725728 1970144000 net.cpp:410] conv1 <- data
I0625 12:27:31.725734 1970144000 net.cpp:368] conv1 -> conv1
I0625 12:27:31.725761 1970144000 net.cpp:120] Setting up conv1
I0625 12:27:31.726148 1970144000 net.cpp:127] Top shape: 100 20 58 43 (4988000)
I0625 12:27:31.726164 1970144000 layer_factory.hpp:74] Creating layer pool1
I0625 12:27:31.726176 1970144000 net.cpp:90] Creating Layer pool1
I0625 12:27:31.726183 1970144000 net.cpp:410] pool1 <- conv1
I0625 12:27:31.726192 1970144000 net.cpp:368] pool1 -> pool1
I0625 12:27:31.726204 1970144000 net.cpp:120] Setting up pool1
I0625 12:27:31.726286 1970144000 net.cpp:127] Top shape: 100 20 29 22 (1276000)
I0625 12:27:31.726299 1970144000 layer_factory.hpp:74] Creating layer conv2
I0625 12:27:31.726311 1970144000 net.cpp:90] Creating Layer conv2
I0625 12:27:31.726320 1970144000 net.cpp:410] conv2 <- pool1
I0625 12:27:31.726335 1970144000 net.cpp:368] conv2 -> conv2
I0625 12:27:31.726358 1970144000 net.cpp:120] Setting up conv2
I0625 12:27:31.727166 1970144000 net.cpp:127] Top shape: 100 50 25 18 (2250000)
I0625 12:27:31.727205 1970144000 layer_factory.hpp:74] Creating layer pool2
I0625 12:27:31.727217 1970144000 net.cpp:90] Creating Layer pool2
I0625 12:27:31.727226 1970144000 net.cpp:410] pool2 <- conv2
I0625 12:27:31.727262 1970144000 net.cpp:368] pool2 -> pool2
I0625 12:27:31.727274 1970144000 net.cpp:120] Setting up pool2
I0625 12:27:31.727443 1970144000 net.cpp:127] Top shape: 100 50 13 9 (585000)
I0625 12:27:31.727481 1970144000 layer_factory.hpp:74] Creating layer ip1
I0625 12:27:31.727507 1970144000 net.cpp:90] Creating Layer ip1
I0625 12:27:31.727517 1970144000 net.cpp:410] ip1 <- pool2
I0625 12:27:31.727533 1970144000 net.cpp:368] ip1 -> ip1
I0625 12:27:31.727566 1970144000 net.cpp:120] Setting up ip1
I0625 12:27:31.751668 1970144000 net.cpp:127] Top shape: 100 500 (50000)
I0625 12:27:31.751708 1970144000 layer_factory.hpp:74] Creating layer relu1
I0625 12:27:31.751720 1970144000 net.cpp:90] Creating Layer relu1
I0625 12:27:31.751725 1970144000 net.cpp:410] relu1 <- ip1
I0625 12:27:31.751731 1970144000 net.cpp:357] relu1 -> ip1 (in-place)
I0625 12:27:31.751739 1970144000 net.cpp:120] Setting up relu1
I0625 12:27:31.751823 1970144000 net.cpp:127] Top shape: 100 500 (50000)
I0625 12:27:31.751832 1970144000 layer_factory.hpp:74] Creating layer ip2
I0625 12:27:31.751868 1970144000 net.cpp:90] Creating Layer ip2
I0625 12:27:31.751881 1970144000 net.cpp:410] ip2 <- ip1
I0625 12:27:31.751889 1970144000 net.cpp:368] ip2 -> ip2
I0625 12:27:31.751898 1970144000 net.cpp:120] Setting up ip2
I0625 12:27:31.751946 1970144000 net.cpp:127] Top shape: 100 10 (1000)
I0625 12:27:31.751955 1970144000 layer_factory.hpp:74] Creating layer feat
I0625 12:27:31.751963 1970144000 net.cpp:90] Creating Layer feat
I0625 12:27:31.751967 1970144000 net.cpp:410] feat <- ip2
I0625 12:27:31.751974 1970144000 net.cpp:368] feat -> feat
I0625 12:27:31.751981 1970144000 net.cpp:120] Setting up feat
I0625 12:27:31.751996 1970144000 net.cpp:127] Top shape: 100 2 (200)
I0625 12:27:31.752004 1970144000 layer_factory.hpp:74] Creating layer conv1_p
I0625 12:27:31.752012 1970144000 net.cpp:90] Creating Layer conv1_p
I0625 12:27:31.752015 1970144000 net.cpp:410] conv1_p <- data_p
I0625 12:27:31.752027 1970144000 net.cpp:368] conv1_p -> conv1_p
I0625 12:27:31.752034 1970144000 net.cpp:120] Setting up conv1_p
I0625 12:27:31.752352 1970144000 net.cpp:127] Top shape: 100 20 58 43 (4988000)
I0625 12:27:31.752364 1970144000 net.cpp:459] Sharing parameters 'conv1_w' owned by layer 'conv1', param index 0
I0625 12:27:31.752370 1970144000 net.cpp:459] Sharing parameters 'conv1_b' owned by layer 'conv1', param index 1
I0625 12:27:31.752375 1970144000 layer_factory.hpp:74] Creating layer pool1_p
I0625 12:27:31.752382 1970144000 net.cpp:90] Creating Layer pool1_p
I0625 12:27:31.752387 1970144000 net.cpp:410] pool1_p <- conv1_p
I0625 12:27:31.752392 1970144000 net.cpp:368] pool1_p -> pool1_p
I0625 12:27:31.752398 1970144000 net.cpp:120] Setting up pool1_p
I0625 12:27:31.752446 1970144000 net.cpp:127] Top shape: 100 20 29 22 (1276000)
I0625 12:27:31.752454 1970144000 layer_factory.hpp:74] Creating layer conv2_p
I0625 12:27:31.752460 1970144000 net.cpp:90] Creating Layer conv2_p
I0625 12:27:31.752465 1970144000 net.cpp:410] conv2_p <- pool1_p
I0625 12:27:31.752470 1970144000 net.cpp:368] conv2_p -> conv2_p
I0625 12:27:31.752477 1970144000 net.cpp:120] Setting up conv2_p
I0625 12:27:31.752923 1970144000 net.cpp:127] Top shape: 100 50 25 18 (2250000)
I0625 12:27:31.752934 1970144000 net.cpp:459] Sharing parameters 'conv2_w' owned by layer 'conv2', param index 0
I0625 12:27:31.752940 1970144000 net.cpp:459] Sharing parameters 'conv2_b' owned by layer 'conv2', param index 1
I0625 12:27:31.752945 1970144000 layer_factory.hpp:74] Creating layer pool2_p
I0625 12:27:31.752954 1970144000 net.cpp:90] Creating Layer pool2_p
I0625 12:27:31.752959 1970144000 net.cpp:410] pool2_p <- conv2_p
I0625 12:27:31.752964 1970144000 net.cpp:368] pool2_p -> pool2_p
I0625 12:27:31.752996 1970144000 net.cpp:120] Setting up pool2_p
I0625 12:27:31.753060 1970144000 net.cpp:127] Top shape: 100 50 13 9 (585000)
I0625 12:27:31.753068 1970144000 layer_factory.hpp:74] Creating layer ip1_p
I0625 12:27:31.753077 1970144000 net.cpp:90] Creating Layer ip1_p
I0625 12:27:31.753080 1970144000 net.cpp:410] ip1_p <- pool2_p
I0625 12:27:31.753111 1970144000 net.cpp:368] ip1_p -> ip1_p
I0625 12:27:31.753120 1970144000 net.cpp:120] Setting up ip1_p
I0625 12:27:31.780025 1970144000 net.cpp:127] Top shape: 100 500 (50000)
I0625 12:27:31.780055 1970144000 net.cpp:459] Sharing parameters 'ip1_w' owned by layer 'ip1', param index 0
I0625 12:27:31.781193 1970144000 net.cpp:459] Sharing parameters 'ip1_b' owned by layer 'ip1', param index 1
I0625 12:27:31.781213 1970144000 layer_factory.hpp:74] Creating layer relu1_p
I0625 12:27:31.781225 1970144000 net.cpp:90] Creating Layer relu1_p
I0625 12:27:31.781230 1970144000 net.cpp:410] relu1_p <- ip1_p
I0625 12:27:31.781237 1970144000 net.cpp:357] relu1_p -> ip1_p (in-place)
I0625 12:27:31.781250 1970144000 net.cpp:120] Setting up relu1_p
I0625 12:27:31.781507 1970144000 net.cpp:127] Top shape: 100 500 (50000)
I0625 12:27:31.781522 1970144000 layer_factory.hpp:74] Creating layer ip2_p
I0625 12:27:31.781540 1970144000 net.cpp:90] Creating Layer ip2_p
I0625 12:27:31.781545 1970144000 net.cpp:410] ip2_p <- ip1_p
I0625 12:27:31.781551 1970144000 net.cpp:368] ip2_p -> ip2_p
I0625 12:27:31.781561 1970144000 net.cpp:120] Setting up ip2_p
I0625 12:27:31.781615 1970144000 net.cpp:127] Top shape: 100 10 (1000)
I0625 12:27:31.781626 1970144000 net.cpp:459] Sharing parameters 'ip2_w' owned by layer 'ip2', param index 0
I0625 12:27:31.781653 1970144000 net.cpp:459] Sharing parameters 'ip2_b' owned by layer 'ip2', param index 1
I0625 12:27:31.781666 1970144000 layer_factory.hpp:74] Creating layer feat_p
I0625 12:27:31.781677 1970144000 net.cpp:90] Creating Layer feat_p
I0625 12:27:31.781683 1970144000 net.cpp:410] feat_p <- ip2_p
I0625 12:27:31.781693 1970144000 net.cpp:368] feat_p -> feat_p
I0625 12:27:31.781703 1970144000 net.cpp:120] Setting up feat_p
I0625 12:27:31.781735 1970144000 net.cpp:127] Top shape: 100 2 (200)
I0625 12:27:31.781745 1970144000 net.cpp:459] Sharing parameters 'feat_w' owned by layer 'feat', param index 0
I0625 12:27:31.781751 1970144000 net.cpp:459] Sharing parameters 'feat_b' owned by layer 'feat', param index 1
I0625 12:27:31.781759 1970144000 layer_factory.hpp:74] Creating layer loss
I0625 12:27:31.781770 1970144000 net.cpp:90] Creating Layer loss
I0625 12:27:31.781774 1970144000 net.cpp:410] loss <- feat
…
