…
I0811 12:55:56.360854 2099430144 solver.cpp:70] Creating training net from net file: src/siamese_network_bw/model/siamese_train_validate.prototxt
I0811 12:55:56.363730 2099430144 net.cpp:287] The NetState phase (0) differed from the phase (1) specified by a rule in layer pair_data
I0811 12:55:56.363760 2099430144 net.cpp:42] Initializing net from parameters: 
name: "siamese_train_validate"
state {
  phase: TRAIN
}
layer {
  name: "pair_data"
  type: "Data"
  top: "pair_data"
  top: "sim"
  include {
    phase: TRAIN
  }
  transform_param {
    scale: 0.00390625
  }
  data_param {
    source: "src/siamese_network_bw/data/siamese_network_train_leveldb"
    batch_size: 64
  }
}
layer {
  name: "slice_pair"
  type: "Slice"
  bottom: "pair_data"
  top: "data"
  top: "data_p"
  slice_param {
    slice_dim: 1
    slice_point: 1
  }
}
layer {
  name: "conv1"
  type: "Convolution"
  bottom: "data"
  top: "conv1"
  param {
    name: "conv1_w"
    lr_mult: 1
  }
  param {
    name: "conv1_b"
    lr_mult: 2
  }
  convolution_param {
    num_output: 32
    kernel_size: 3
    stride: 1
    weight_filler {
      type: "xavier"
    }
    bias_filler {
      type: "constant"
    }
  }
}
layer {
  name: "pool1"
  type: "Pooling"
  bottom: "conv1"
  top: "pool1"
  pooling_param {
    pool: MAX
    kernel_size: 2
    stride: 2
  }
}
layer {
  name: "conv2"
  type: "Convolution"
  bottom: "pool1"
  top: "conv2"
  param {
    name: "conv2_w"
    lr_mult: 1
  }
  param {
    name: "conv2_b"
    lr_mult: 2
  }
  convolution_param {
    num_output: 64
    kernel_size: 2
    stride: 1
    weight_filler {
      type: "xavier"
    }
    bias_filler {
      type: "constant"
    }
  }
}
layer {
  name: "pool2"
  type: "Pooling"
  bottom: "conv2"
  top: "pool2"
  pooling_param {
    pool: MAX
    kernel_size: 2
    stride: 2
  }
}
layer {
  name: "conv3"
  type: "Convolution"
  bottom: "pool2"
  top: "conv3"
  param {
    name: "conv3_w"
    lr_mult: 1
  }
  param {
    name: "conv3_b"
    lr_mult: 2
  }
  convolution_param {
    num_output: 128
    kernel_size: 2
    stride: 1
    weight_filler {
      type: "xavier"
    }
    bias_filler {
      type: "constant"
    }
  }
}
layer {
  name: "pool3"
  type: "Pooling"
  bottom: "conv3"
  top: "pool3"
  pooling_param {
    pool: MAX
    kernel_size: 2
    stride: 2
  }
}
layer {
  name: "ip1"
  type: "InnerProduct"
  bottom: "pool3"
  top: "ip1"
  param {
    name: "ip1_w"
    lr_mult: 1
  }
  param {
    name: "ip1_b"
    lr_mult: 2
  }
  inner_product_param {
    num_output: 500
    weight_filler {
      type: "xavier"
    }
    bias_filler {
      type: "constant"
    }
  }
}
layer {
  name: "relu1"
  type: "ReLU"
  bottom: "ip1"
  top: "ip1"
}
layer {
  name: "ip2"
  type: "InnerProduct"
  bottom: "ip1"
  top: "ip2"
  param {
    name: "ip2_w"
    lr_mult: 1
  }
  param {
    name: "ip2_b"
    lr_mult: 2
  }
  inner_product_param {
    num_output: 500
    weight_filler {
      type: "xavier"
    }
    bias_filler {
      type: "constant"
    }
  }
}
layer {
  name: "relu2"
  type: "ReLU"
  bottom: "ip2"
  top: "ip2"
}
layer {
  name: "feat"
  type: "InnerProduct"
  bottom: "ip2"
  top: "feat"
  param {
    name: "feat_w"
    lr_mult: 1
  }
  param {
    name: "feat_b"
    lr_mult: 2
  }
  inner_product_param {
    num_output: 2
    weight_filler {
      type: "xavier"
    }
    bias_filler {
      type: "constant"
    }
  }
}
layer {
  name: "conv1_p"
  type: "Convolution"
  bottom: "data_p"
  top: "conv1_p"
  param {
    name: "conv1_w"
    lr_mult: 1
  }
  param {
    name: "conv1_b"
    lr_mult: 2
  }
  convolution_param {
    num_output: 32
    kernel_size: 3
    stride: 1
    weight_filler {
      type: "xavier"
    }
    bias_filler {
      type: "constant"
    }
  }
}
layer {
  name: "pool1_p"
  type: "Pooling"
  bottom: "conv1_p"
  top: "pool1_p"
  pooling_param {
    pool: MAX
    kernel_size: 2
    stride: 2
  }
}
layer {
  name: "conv2_p"
  type: "Convolution"
  bottom: "pool1_p"
  top: "conv2_p"
  param {
    name: "conv2_w"
    lr_mult: 1
  }
  param {
    name: "conv2_b"
    lr_mult: 2
  }
  convolution_param {
    num_output: 64
    kernel_size: 2
    stride: 1
    weight_filler {
      type: "xavier"
    }
    bias_filler {
      type: "constant"
    }
  }
}
layer {
  name: "pool2_p"
  type: "Pooling"
  bottom: "conv2_p"
  top: "pool2_p"
  pooling_param {
    pool: MAX
    kernel_size: 2
    stride: 2
  }
}
layer {
  name: "conv3_p"
  type: "Convolution"
  bottom: "pool2_p"
  top: "conv3_p"
  param {
    name: "conv3_w"
    lr_mult: 1
  }
  param {
    name: "conv3_b"
    lr_mult: 2
  }
  convolution_param {
    num_output: 128
    kernel_size: 2
    stride: 1
    weight_filler {
      type: "xavier"
    }
    bias_filler {
      type: "constant"
    }
  }
}
layer {
  name: "pool3_p"
  type: "Pooling"
  bottom: "conv3_p"
  top: "pool3_p"
  pooling_param {
    pool: MAX
    kernel_size: 2
    stride: 2
  }
}
layer {
  name: "ip1_p"
  type: "InnerProduct"
  bottom: "pool3_p"
  top: "ip1_p"
  param {
    name: "ip1_w"
    lr_mult: 1
  }
  param {
    name: "ip1_b"
    lr_mult: 2
  }
  inner_product_param {
    num_output: 500
    weight_filler {
      type: "xavier"
    }
    bias_filler {
      type: "constant"
    }
  }
}
layer {
  name: "relu1_p"
  type: "ReLU"
  bottom: "ip1_p"
  top: "ip1_p"
}
layer {
  name: "ip2_p"
  type: "InnerProduct"
  bottom: "ip1_p"
  top: "ip2_p"
  param {
    name: "ip2_w"
    lr_mult: 1
  }
  param {
    name: "ip2_b"
    lr_mult: 2
  }
  inner_product_param {
    num_output: 500
    weight_filler {
      type: "xavier"
    }
    bias_filler {
      type: "constant"
    }
  }
}
layer {
  name: "relu2_p"
  type: "ReLU"
  bottom: "ip2_p"
  top: "ip2_p"
}
layer {
  name: "feat_p"
  type: "InnerProduct"
  bottom: "ip2_p"
  top: "feat_p"
  param {
    name: "feat_w"
    lr_mult: 1
  }
  param {
    name: "feat_b"
    lr_mult: 2
  }
  inner_product_param {
    num_output: 2
    weight_filler {
      type: "xavier"
    }
    bias_filler {
      type: "constant"
    }
  }
}
layer {
  name: "loss"
  type: "ContrastiveLoss"
  bottom: "feat"
  bottom: "feat_p"
  bottom: "sim"
  top: "loss"
  contrastive_loss_param {
    margin: 1
  }
}
I0811 12:55:56.364390 2099430144 layer_factory.hpp:74] Creating layer pair_data
I0811 12:55:56.365337 2099430144 net.cpp:90] Creating Layer pair_data
I0811 12:55:56.365352 2099430144 net.cpp:368] pair_data -> pair_data
I0811 12:55:56.365713 2099430144 net.cpp:368] pair_data -> sim
I0811 12:55:56.365728 2099430144 net.cpp:120] Setting up pair_data
I0811 12:56:13.318660 2099430144 db.cpp:20] Opened leveldb src/siamese_network_bw/data/siamese_network_train_leveldb
I0811 12:56:13.387747 2099430144 data_layer.cpp:52] output data size: 64,2,58,58
I0811 12:56:13.388908 2099430144 net.cpp:127] Top shape: 64 2 58 58 (430592)
I0811 12:56:13.389575 2099430144 net.cpp:127] Top shape: 64 (64)
I0811 12:56:13.389590 2099430144 layer_factory.hpp:74] Creating layer slice_pair
I0811 12:56:13.389607 2099430144 net.cpp:90] Creating Layer slice_pair
I0811 12:56:13.389613 2099430144 net.cpp:410] slice_pair <- pair_data
I0811 12:56:13.389622 2099430144 net.cpp:368] slice_pair -> data
I0811 12:56:13.389634 2099430144 net.cpp:368] slice_pair -> data_p
I0811 12:56:13.389643 2099430144 net.cpp:120] Setting up slice_pair
I0811 12:56:13.389809 2099430144 net.cpp:127] Top shape: 64 1 58 58 (215296)
I0811 12:56:13.389827 2099430144 net.cpp:127] Top shape: 64 1 58 58 (215296)
I0811 12:56:13.389835 2099430144 layer_factory.hpp:74] Creating layer conv1
I0811 12:56:13.389847 2099430144 net.cpp:90] Creating Layer conv1
I0811 12:56:13.389853 2099430144 net.cpp:410] conv1 <- data
I0811 12:56:13.389868 2099430144 net.cpp:368] conv1 -> conv1
I0811 12:56:13.390494 2099430144 net.cpp:120] Setting up conv1
I0811 12:56:13.573469 2099430144 net.cpp:127] Top shape: 64 32 56 56 (6422528)
I0811 12:56:13.574007 2099430144 layer_factory.hpp:74] Creating layer pool1
I0811 12:56:13.574368 2099430144 net.cpp:90] Creating Layer pool1
I0811 12:56:13.574385 2099430144 net.cpp:410] pool1 <- conv1
I0811 12:56:13.574396 2099430144 net.cpp:368] pool1 -> pool1
I0811 12:56:13.574415 2099430144 net.cpp:120] Setting up pool1
I0811 12:56:13.575057 2099430144 net.cpp:127] Top shape: 64 32 28 28 (1605632)
I0811 12:56:13.575074 2099430144 layer_factory.hpp:74] Creating layer conv2
I0811 12:56:13.575088 2099430144 net.cpp:90] Creating Layer conv2
I0811 12:56:13.575093 2099430144 net.cpp:410] conv2 <- pool1
I0811 12:56:13.575103 2099430144 net.cpp:368] conv2 -> conv2
I0811 12:56:13.575112 2099430144 net.cpp:120] Setting up conv2
I0811 12:56:13.575526 2099430144 net.cpp:127] Top shape: 64 64 27 27 (2985984)
I0811 12:56:13.575542 2099430144 layer_factory.hpp:74] Creating layer pool2
I0811 12:56:13.575551 2099430144 net.cpp:90] Creating Layer pool2
I0811 12:56:13.575556 2099430144 net.cpp:410] pool2 <- conv2
I0811 12:56:13.575563 2099430144 net.cpp:368] pool2 -> pool2
I0811 12:56:13.575572 2099430144 net.cpp:120] Setting up pool2
I0811 12:56:13.575625 2099430144 net.cpp:127] Top shape: 64 64 14 14 (802816)
I0811 12:56:13.575633 2099430144 layer_factory.hpp:74] Creating layer conv3
I0811 12:56:13.575640 2099430144 net.cpp:90] Creating Layer conv3
I0811 12:56:13.575644 2099430144 net.cpp:410] conv3 <- pool2
I0811 12:56:13.575652 2099430144 net.cpp:368] conv3 -> conv3
I0811 12:56:13.575664 2099430144 net.cpp:120] Setting up conv3
I0811 12:56:13.576177 2099430144 net.cpp:127] Top shape: 64 128 13 13 (1384448)
I0811 12:56:13.576190 2099430144 layer_factory.hpp:74] Creating layer pool3
I0811 12:56:13.576197 2099430144 net.cpp:90] Creating Layer pool3
I0811 12:56:13.576202 2099430144 net.cpp:410] pool3 <- conv3
I0811 12:56:13.576210 2099430144 net.cpp:368] pool3 -> pool3
I0811 12:56:13.576218 2099430144 net.cpp:120] Setting up pool3
I0811 12:56:13.576272 2099430144 net.cpp:127] Top shape: 64 128 7 7 (401408)
I0811 12:56:13.576278 2099430144 layer_factory.hpp:74] Creating layer ip1
I0811 12:56:13.576287 2099430144 net.cpp:90] Creating Layer ip1
I0811 12:56:13.576292 2099430144 net.cpp:410] ip1 <- pool3
I0811 12:56:13.576299 2099430144 net.cpp:368] ip1 -> ip1
I0811 12:56:13.576308 2099430144 net.cpp:120] Setting up ip1
I0811 12:56:13.600229 2099430144 net.cpp:127] Top shape: 64 500 (32000)
I0811 12:56:13.600266 2099430144 layer_factory.hpp:74] Creating layer relu1
I0811 12:56:13.600283 2099430144 net.cpp:90] Creating Layer relu1
I0811 12:56:13.600288 2099430144 net.cpp:410] relu1 <- ip1
I0811 12:56:13.600293 2099430144 net.cpp:357] relu1 -> ip1 (in-place)
I0811 12:56:13.600301 2099430144 net.cpp:120] Setting up relu1
I0811 12:56:13.600601 2099430144 net.cpp:127] Top shape: 64 500 (32000)
I0811 12:56:13.600620 2099430144 layer_factory.hpp:74] Creating layer ip2
I0811 12:56:13.600637 2099430144 net.cpp:90] Creating Layer ip2
I0811 12:56:13.600641 2099430144 net.cpp:410] ip2 <- ip1
I0811 12:56:13.600648 2099430144 net.cpp:368] ip2 -> ip2
I0811 12:56:13.600656 2099430144 net.cpp:120] Setting up ip2
I0811 12:56:13.602290 2099430144 net.cpp:127] Top shape: 64 500 (32000)
I0811 12:56:13.602310 2099430144 layer_factory.hpp:74] Creating layer relu2
I0811 12:56:13.602315 2099430144 net.cpp:90] Creating Layer relu2
I0811 12:56:13.602319 2099430144 net.cpp:410] relu2 <- ip2
I0811 12:56:13.602324 2099430144 net.cpp:357] relu2 -> ip2 (in-place)
I0811 12:56:13.602329 2099430144 net.cpp:120] Setting up relu2
I0811 12:56:13.602381 2099430144 net.cpp:127] Top shape: 64 500 (32000)
I0811 12:56:13.602386 2099430144 layer_factory.hpp:74] Creating layer feat
I0811 12:56:13.602394 2099430144 net.cpp:90] Creating Layer feat
I0811 12:56:13.602397 2099430144 net.cpp:410] feat <- ip2
I0811 12:56:13.602403 2099430144 net.cpp:368] feat -> feat
I0811 12:56:13.602409 2099430144 net.cpp:120] Setting up feat
I0811 12:56:13.602424 2099430144 net.cpp:127] Top shape: 64 2 (128)
I0811 12:56:13.602458 2099430144 layer_factory.hpp:74] Creating layer conv1_p
I0811 12:56:13.602468 2099430144 net.cpp:90] Creating Layer conv1_p
I0811 12:56:13.602473 2099430144 net.cpp:410] conv1_p <- data_p
I0811 12:56:13.602478 2099430144 net.cpp:368] conv1_p -> conv1_p
I0811 12:56:13.602485 2099430144 net.cpp:120] Setting up conv1_p
I0811 12:56:13.602784 2099430144 net.cpp:127] Top shape: 64 32 56 56 (6422528)
I0811 12:56:13.602794 2099430144 net.cpp:459] Sharing parameters 'conv1_w' owned by layer 'conv1', param index 0
I0811 12:56:13.602809 2099430144 net.cpp:459] Sharing parameters 'conv1_b' owned by layer 'conv1', param index 1
I0811 12:56:13.602813 2099430144 layer_factory.hpp:74] Creating layer pool1_p
I0811 12:56:13.602820 2099430144 net.cpp:90] Creating Layer pool1_p
I0811 12:56:13.602824 2099430144 net.cpp:410] pool1_p <- conv1_p
I0811 12:56:13.602829 2099430144 net.cpp:368] pool1_p -> pool1_p
I0811 12:56:13.602838 2099430144 net.cpp:120] Setting up pool1_p
I0811 12:56:13.602881 2099430144 net.cpp:127] Top shape: 64 32 28 28 (1605632)
I0811 12:56:13.602886 2099430144 layer_factory.hpp:74] Creating layer conv2_p
I0811 12:56:13.602895 2099430144 net.cpp:90] Creating Layer conv2_p
I0811 12:56:13.602898 2099430144 net.cpp:410] conv2_p <- pool1_p
I0811 12:56:13.602905 2099430144 net.cpp:368] conv2_p -> conv2_p
I0811 12:56:13.602928 2099430144 net.cpp:120] Setting up conv2_p
I0811 12:56:13.603283 2099430144 net.cpp:127] Top shape: 64 64 27 27 (2985984)
I0811 12:56:13.603293 2099430144 net.cpp:459] Sharing parameters 'conv2_w' owned by layer 'conv2', param index 0
I0811 12:56:13.603298 2099430144 net.cpp:459] Sharing parameters 'conv2_b' owned by layer 'conv2', param index 1
I0811 12:56:13.603303 2099430144 layer_factory.hpp:74] Creating layer pool2_p
I0811 12:56:13.603312 2099430144 net.cpp:90] Creating Layer pool2_p
I0811 12:56:13.603317 2099430144 net.cpp:410] pool2_p <- conv2_p
I0811 12:56:13.603322 2099430144 net.cpp:368] pool2_p -> pool2_p
I0811 12:56:13.603329 2099430144 net.cpp:120] Setting up pool2_p
I0811 12:56:13.603371 2099430144 net.cpp:127] Top shape: 64 64 14 14 (802816)
I0811 12:56:13.603377 2099430144 layer_factory.hpp:74] Creating layer conv3_p
I0811 12:56:13.603386 2099430144 net.cpp:90] Creating Layer conv3_p
I0811 12:56:13.603390 2099430144 net.cpp:410] conv3_p <- pool2_p
I0811 12:56:13.603395 2099430144 net.cpp:368] conv3_p -> conv3_p
I0811 12:56:13.603401 2099430144 net.cpp:120] Setting up conv3_p
I0811 12:56:13.603885 2099430144 net.cpp:127] Top shape: 64 128 13 13 (1384448)
I0811 12:56:13.603899 2099430144 net.cpp:459] Sharing parameters 'conv3_w' owned by layer 'conv3', param index 0
I0811 12:56:13.603907 2099430144 net.cpp:459] Sharing parameters 'conv3_b' owned by layer 'conv3', param index 1
I0811 12:56:13.603912 2099430144 layer_factory.hpp:74] Creating layer pool3_p
I0811 12:56:13.603919 2099430144 net.cpp:90] Creating Layer pool3_p
I0811 12:56:13.603921 2099430144 net.cpp:410] pool3_p <- conv3_p
I0811 12:56:13.603927 2099430144 net.cpp:368] pool3_p -> pool3_p
I0811 12:56:13.603934 2099430144 net.cpp:120] Setting up pool3_p
I0811 12:56:13.604095 2099430144 net.cpp:127] Top shape: 64 128 7 7 (401408)
I0811 12:56:13.604104 2099430144 layer_factory.hpp:74] Creating layer ip1_p
I0811 12:56:13.604110 2099430144 net.cpp:90] Creating Layer ip1_p
I0811 12:56:13.604115 2099430144 net.cpp:410] ip1_p <- pool3_p
I0811 12:56:13.604120 2099430144 net.cpp:368] ip1_p -> ip1_p
I0811 12:56:13.604127 2099430144 net.cpp:120] Setting up ip1_p
I0811 12:56:13.628752 2099430144 net.cpp:127] Top shape: 64 500 (32000)
I0811 12:56:13.628792 2099430144 net.cpp:459] Sharing parameters 'ip1_w' owned by layer 'ip1', param index 0
I0811 12:56:13.630066 2099430144 net.cpp:459] Sharing parameters 'ip1_b' owned by layer 'ip1', param index 1
I0811 12:56:13.630074 2099430144 layer_factory.hpp:74] Creating layer relu1_p
I0811 12:56:13.630094 2099430144 net.cpp:90] Creating Layer relu1_p
I0811 12:56:13.630098 2099430144 net.cpp:410] relu1_p <- ip1_p
I0811 12:56:13.630105 2099430144 net.cpp:357] relu1_p -> ip1_p (in-place)
I0811 12:56:13.630141 2099430144 net.cpp:120] Setting up relu1_p
I0811 12:56:13.630230 2099430144 net.cpp:127] Top shape: 64 500 (32000)
I0811 12:56:13.630235 2099430144 layer_factory.hpp:74] Creating layer ip2_p
I0811 12:56:13.630252 2099430144 net.cpp:90] Creating Layer ip2_p
I0811 12:56:13.630256 2099430144 net.cpp:410] ip2_p <- ip1_p
I0811 12:56:13.630264 2099430144 net.cpp:368] ip2_p -> ip2_p
I0811 12:56:13.630271 2099430144 net.cpp:120] Setting up ip2_p
I0811 12:56:13.632132 2099430144 net.cpp:127] Top shape: 64 500 (32000)
I0811 12:56:13.632138 2099430144 net.cpp:459] Sharing parameters 'ip2_w' owned by layer 'ip2', param index 0
I0811 12:56:13.632143 2099430144 net.cpp:459] Sharing parameters 'ip2_b' owned by layer 'ip2', param index 1
I0811 12:56:13.632148 2099430144 layer_factory.hpp:74] Creating layer relu2_p
I0811 12:56:13.632153 2099430144 net.cpp:90] Creating Layer relu2_p
I0811 12:56:13.632155 2099430144 net.cpp:410] relu2_p <- ip2_p
I0811 12:56:13.632160 2099430144 net.cpp:357] relu2_p -> ip2_p (in-place)
I0811 12:56:13.632164 2099430144 net.cpp:120] Setting up relu2_p
I0811 12:56:13.632205 2099430144 net.cpp:127] Top shape: 64 500 (32000)
I0811 12:56:13.632210 2099430144 layer_factory.hpp:74] Creating layer feat_p
I0811 12:56:13.632217 2099430144 net.cpp:90] Creating Layer feat_p
I0811 12:56:13.632220 2099430144 net.cpp:410] feat_p <- ip2_p
I0811 12:56:13.632225 2099430144 net.cpp:368] feat_p -> feat_p
I0811 12:56:13.632231 2099430144 net.cpp:120] Setting up feat_p
I0811 12:56:13.632244 2099430144 net.cpp:127] Top shape: 64 2 (128)
I0811 12:56:13.632249 2099430144 net.cpp:459] Sharing parameters 'feat_w' owned by layer 'feat', param index 0
I0811 12:56:13.632254 2099430144 net.cpp:459] Sharing parameters 'feat_b' owned by layer 'feat', param index 1
I0811 12:56:13.632258 2099430144 layer_factory.hpp:74] Creating layer loss
I0811 12:56:13.632541 2099430144 net.cpp:90] Creating Layer loss
I0811 12:56:13.632558 2099430144 net.cpp:410] loss <- feat
…
