…
I0804 19:46:05.955698 2099430144 solver.cpp:70] Creating training net from net file: src/siamese_network_bw/model/siamese_train_validate.prototxt
I0804 19:46:05.956171 2099430144 net.cpp:287] The NetState phase (0) differed from the phase (1) specified by a rule in layer pair_data
I0804 19:46:05.956212 2099430144 net.cpp:42] Initializing net from parameters: 
name: "siamese_train_validate"
state {
  phase: TRAIN
}
layer {
  name: "pair_data"
  type: "Data"
  top: "pair_data"
  top: "sim"
  include {
    phase: TRAIN
  }
  transform_param {
    scale: 0.00390625
  }
  data_param {
    source: "src/siamese_network_bw/data/siamese_network_train_leveldb"
    batch_size: 64
  }
}
layer {
  name: "slice_pair"
  type: "Slice"
  bottom: "pair_data"
  top: "data"
  top: "data_p"
  slice_param {
    slice_dim: 1
    slice_point: 1
  }
}
layer {
  name: "conv1"
  type: "Convolution"
  bottom: "data"
  top: "conv1"
  param {
    name: "conv1_w"
    lr_mult: 1
  }
  param {
    name: "conv1_b"
    lr_mult: 2
  }
  convolution_param {
    num_output: 32
    kernel_size: 3
    stride: 1
    weight_filler {
      type: "xavier"
    }
    bias_filler {
      type: "constant"
    }
  }
}
layer {
  name: "pool1"
  type: "Pooling"
  bottom: "conv1"
  top: "pool1"
  pooling_param {
    pool: MAX
    kernel_size: 2
    stride: 2
  }
}
layer {
  name: "conv2"
  type: "Convolution"
  bottom: "pool1"
  top: "conv2"
  param {
    name: "conv2_w"
    lr_mult: 1
  }
  param {
    name: "conv2_b"
    lr_mult: 2
  }
  convolution_param {
    num_output: 64
    kernel_size: 2
    stride: 1
    weight_filler {
      type: "xavier"
    }
    bias_filler {
      type: "constant"
    }
  }
}
layer {
  name: "pool2"
  type: "Pooling"
  bottom: "conv2"
  top: "pool2"
  pooling_param {
    pool: MAX
    kernel_size: 2
    stride: 2
  }
}
layer {
  name: "conv3"
  type: "Convolution"
  bottom: "pool2"
  top: "conv3"
  param {
    name: "conv3_w"
    lr_mult: 1
  }
  param {
    name: "conv3_b"
    lr_mult: 2
  }
  convolution_param {
    num_output: 128
    kernel_size: 2
    stride: 1
    weight_filler {
      type: "xavier"
    }
    bias_filler {
      type: "constant"
    }
  }
}
layer {
  name: "pool3"
  type: "Pooling"
  bottom: "conv3"
  top: "pool3"
  pooling_param {
    pool: MAX
    kernel_size: 2
    stride: 2
  }
}
layer {
  name: "ip1"
  type: "InnerProduct"
  bottom: "pool3"
  top: "ip1"
  param {
    name: "ip1_w"
    lr_mult: 1
  }
  param {
    name: "ip1_b"
    lr_mult: 2
  }
  inner_product_param {
    num_output: 500
    weight_filler {
      type: "xavier"
    }
    bias_filler {
      type: "constant"
    }
  }
}
layer {
  name: "relu1"
  type: "ReLU"
  bottom: "ip1"
  top: "ip1"
}
layer {
  name: "ip2"
  type: "InnerProduct"
  bottom: "ip1"
  top: "ip2"
  param {
    name: "ip2_w"
    lr_mult: 1
  }
  param {
    name: "ip2_b"
    lr_mult: 2
  }
  inner_product_param {
    num_output: 500
    weight_filler {
      type: "xavier"
    }
    bias_filler {
      type: "constant"
    }
  }
}
layer {
  name: "relu2"
  type: "ReLU"
  bottom: "ip2"
  top: "ip2"
}
layer {
  name: "feat"
  type: "InnerProduct"
  bottom: "ip2"
  top: "feat"
  param {
    name: "feat_w"
    lr_mult: 1
  }
  param {
    name: "feat_b"
    lr_mult: 2
  }
  inner_product_param {
    num_output: 2
    weight_filler {
      type: "xavier"
    }
    bias_filler {
      type: "constant"
    }
  }
}
layer {
  name: "conv1_p"
  type: "Convolution"
  bottom: "data_p"
  top: "conv1_p"
  param {
    name: "conv1_w"
    lr_mult: 1
  }
  param {
    name: "conv1_b"
    lr_mult: 2
  }
  convolution_param {
    num_output: 32
    kernel_size: 3
    stride: 1
    weight_filler {
      type: "xavier"
    }
    bias_filler {
      type: "constant"
    }
  }
}
layer {
  name: "pool1_p"
  type: "Pooling"
  bottom: "conv1_p"
  top: "pool1_p"
  pooling_param {
    pool: MAX
    kernel_size: 2
    stride: 2
  }
}
layer {
  name: "conv2_p"
  type: "Convolution"
  bottom: "pool1_p"
  top: "conv2_p"
  param {
    name: "conv2_w"
    lr_mult: 1
  }
  param {
    name: "conv2_b"
    lr_mult: 2
  }
  convolution_param {
    num_output: 64
    kernel_size: 2
    stride: 1
    weight_filler {
      type: "xavier"
    }
    bias_filler {
      type: "constant"
    }
  }
}
layer {
  name: "pool2_p"
  type: "Pooling"
  bottom: "conv2_p"
  top: "pool2_p"
  pooling_param {
    pool: MAX
    kernel_size: 2
    stride: 2
  }
}
layer {
  name: "conv3_p"
  type: "Convolution"
  bottom: "pool2_p"
  top: "conv3_p"
  param {
    name: "conv3_w"
    lr_mult: 1
  }
  param {
    name: "conv3_b"
    lr_mult: 2
  }
  convolution_param {
    num_output: 128
    kernel_size: 2
    stride: 1
    weight_filler {
      type: "xavier"
    }
    bias_filler {
      type: "constant"
    }
  }
}
layer {
  name: "pool3_p"
  type: "Pooling"
  bottom: "conv3_p"
  top: "pool3_p"
  pooling_param {
    pool: MAX
    kernel_size: 2
    stride: 2
  }
}
layer {
  name: "ip1_p"
  type: "InnerProduct"
  bottom: "pool3_p"
  top: "ip1_p"
  param {
    name: "ip1_w"
    lr_mult: 1
  }
  param {
    name: "ip1_b"
    lr_mult: 2
  }
  inner_product_param {
    num_output: 500
    weight_filler {
      type: "xavier"
    }
    bias_filler {
      type: "constant"
    }
  }
}
layer {
  name: "relu1_p"
  type: "ReLU"
  bottom: "ip1_p"
  top: "ip1_p"
}
layer {
  name: "ip2_p"
  type: "InnerProduct"
  bottom: "ip1_p"
  top: "ip2_p"
  param {
    name: "ip2_w"
    lr_mult: 1
  }
  param {
    name: "ip2_b"
    lr_mult: 2
  }
  inner_product_param {
    num_output: 500
    weight_filler {
      type: "xavier"
    }
    bias_filler {
      type: "constant"
    }
  }
}
layer {
  name: "relu2_p"
  type: "ReLU"
  bottom: "ip2_p"
  top: "ip2_p"
}
layer {
  name: "feat_p"
  type: "InnerProduct"
  bottom: "ip2_p"
  top: "feat_p"
  param {
    name: "feat_w"
    lr_mult: 1
  }
  param {
    name: "feat_b"
    lr_mult: 2
  }
  inner_product_param {
    num_output: 2
    weight_filler {
      type: "xavier"
    }
    bias_filler {
      type: "constant"
    }
  }
}
layer {
  name: "loss"
  type: "ContrastiveLoss"
  bottom: "feat"
  bottom: "feat_p"
  bottom: "sim"
  top: "loss"
  contrastive_loss_param {
    margin: 1
  }
}
I0804 19:46:05.956578 2099430144 layer_factory.hpp:74] Creating layer pair_data
I0804 19:46:05.956599 2099430144 net.cpp:90] Creating Layer pair_data
I0804 19:46:05.956609 2099430144 net.cpp:368] pair_data -> pair_data
I0804 19:46:05.956630 2099430144 net.cpp:368] pair_data -> sim
I0804 19:46:05.956640 2099430144 net.cpp:120] Setting up pair_data
I0804 19:46:05.958947 2099430144 db.cpp:20] Opened leveldb src/siamese_network_bw/data/siamese_network_train_leveldb
I0804 19:46:05.970283 2099430144 data_layer.cpp:52] output data size: 64,2,58,58
I0804 19:46:05.971119 2099430144 net.cpp:127] Top shape: 64 2 58 58 (430592)
I0804 19:46:05.971140 2099430144 net.cpp:127] Top shape: 64 (64)
I0804 19:46:05.971148 2099430144 layer_factory.hpp:74] Creating layer slice_pair
I0804 19:46:05.971163 2099430144 net.cpp:90] Creating Layer slice_pair
I0804 19:46:05.971228 2099430144 net.cpp:410] slice_pair <- pair_data
I0804 19:46:05.971253 2099430144 net.cpp:368] slice_pair -> data
I0804 19:46:05.971269 2099430144 net.cpp:368] slice_pair -> data_p
I0804 19:46:05.971281 2099430144 net.cpp:120] Setting up slice_pair
I0804 19:46:05.971294 2099430144 net.cpp:127] Top shape: 64 1 58 58 (215296)
I0804 19:46:05.971303 2099430144 net.cpp:127] Top shape: 64 1 58 58 (215296)
I0804 19:46:05.971312 2099430144 layer_factory.hpp:74] Creating layer conv1
I0804 19:46:05.971325 2099430144 net.cpp:90] Creating Layer conv1
I0804 19:46:05.971331 2099430144 net.cpp:410] conv1 <- data
I0804 19:46:05.971350 2099430144 net.cpp:368] conv1 -> conv1
I0804 19:46:05.971388 2099430144 net.cpp:120] Setting up conv1
I0804 19:46:06.025113 2099430144 net.cpp:127] Top shape: 64 32 56 56 (6422528)
I0804 19:46:06.025143 2099430144 layer_factory.hpp:74] Creating layer pool1
I0804 19:46:06.025156 2099430144 net.cpp:90] Creating Layer pool1
I0804 19:46:06.025161 2099430144 net.cpp:410] pool1 <- conv1
I0804 19:46:06.025167 2099430144 net.cpp:368] pool1 -> pool1
I0804 19:46:06.025174 2099430144 net.cpp:120] Setting up pool1
I0804 19:46:06.025301 2099430144 net.cpp:127] Top shape: 64 32 28 28 (1605632)
I0804 19:46:06.025310 2099430144 layer_factory.hpp:74] Creating layer conv2
I0804 19:46:06.025321 2099430144 net.cpp:90] Creating Layer conv2
I0804 19:46:06.025326 2099430144 net.cpp:410] conv2 <- pool1
I0804 19:46:06.025331 2099430144 net.cpp:368] conv2 -> conv2
I0804 19:46:06.025337 2099430144 net.cpp:120] Setting up conv2
I0804 19:46:06.025610 2099430144 net.cpp:127] Top shape: 64 64 27 27 (2985984)
I0804 19:46:06.025634 2099430144 layer_factory.hpp:74] Creating layer pool2
I0804 19:46:06.025640 2099430144 net.cpp:90] Creating Layer pool2
I0804 19:46:06.025643 2099430144 net.cpp:410] pool2 <- conv2
I0804 19:46:06.025648 2099430144 net.cpp:368] pool2 -> pool2
I0804 19:46:06.025655 2099430144 net.cpp:120] Setting up pool2
I0804 19:46:06.025698 2099430144 net.cpp:127] Top shape: 64 64 14 14 (802816)
I0804 19:46:06.025704 2099430144 layer_factory.hpp:74] Creating layer conv3
I0804 19:46:06.025712 2099430144 net.cpp:90] Creating Layer conv3
I0804 19:46:06.025717 2099430144 net.cpp:410] conv3 <- pool2
I0804 19:46:06.025722 2099430144 net.cpp:368] conv3 -> conv3
I0804 19:46:06.025730 2099430144 net.cpp:120] Setting up conv3
I0804 19:46:06.026170 2099430144 net.cpp:127] Top shape: 64 128 13 13 (1384448)
I0804 19:46:06.026182 2099430144 layer_factory.hpp:74] Creating layer pool3
I0804 19:46:06.026188 2099430144 net.cpp:90] Creating Layer pool3
I0804 19:46:06.026192 2099430144 net.cpp:410] pool3 <- conv3
I0804 19:46:06.026197 2099430144 net.cpp:368] pool3 -> pool3
I0804 19:46:06.026202 2099430144 net.cpp:120] Setting up pool3
I0804 19:46:06.026254 2099430144 net.cpp:127] Top shape: 64 128 7 7 (401408)
I0804 19:46:06.026260 2099430144 layer_factory.hpp:74] Creating layer ip1
I0804 19:46:06.026270 2099430144 net.cpp:90] Creating Layer ip1
I0804 19:46:06.026275 2099430144 net.cpp:410] ip1 <- pool3
I0804 19:46:06.026280 2099430144 net.cpp:368] ip1 -> ip1
I0804 19:46:06.026288 2099430144 net.cpp:120] Setting up ip1
I0804 19:46:06.055747 2099430144 net.cpp:127] Top shape: 64 500 (32000)
I0804 19:46:06.055783 2099430144 layer_factory.hpp:74] Creating layer relu1
I0804 19:46:06.055799 2099430144 net.cpp:90] Creating Layer relu1
I0804 19:46:06.055806 2099430144 net.cpp:410] relu1 <- ip1
I0804 19:46:06.055814 2099430144 net.cpp:357] relu1 -> ip1 (in-place)
I0804 19:46:06.055822 2099430144 net.cpp:120] Setting up relu1
I0804 19:46:06.056044 2099430144 net.cpp:127] Top shape: 64 500 (32000)
I0804 19:46:06.056058 2099430144 layer_factory.hpp:74] Creating layer ip2
I0804 19:46:06.056143 2099430144 net.cpp:90] Creating Layer ip2
I0804 19:46:06.056155 2099430144 net.cpp:410] ip2 <- ip1
I0804 19:46:06.056165 2099430144 net.cpp:368] ip2 -> ip2
I0804 19:46:06.056175 2099430144 net.cpp:120] Setting up ip2
I0804 19:46:06.058354 2099430144 net.cpp:127] Top shape: 64 500 (32000)
I0804 19:46:06.058373 2099430144 layer_factory.hpp:74] Creating layer relu2
I0804 19:46:06.058382 2099430144 net.cpp:90] Creating Layer relu2
I0804 19:46:06.058387 2099430144 net.cpp:410] relu2 <- ip2
I0804 19:46:06.058400 2099430144 net.cpp:357] relu2 -> ip2 (in-place)
I0804 19:46:06.058408 2099430144 net.cpp:120] Setting up relu2
I0804 19:46:06.058476 2099430144 net.cpp:127] Top shape: 64 500 (32000)
I0804 19:46:06.058483 2099430144 layer_factory.hpp:74] Creating layer feat
I0804 19:46:06.058492 2099430144 net.cpp:90] Creating Layer feat
I0804 19:46:06.058496 2099430144 net.cpp:410] feat <- ip2
I0804 19:46:06.058524 2099430144 net.cpp:368] feat -> feat
I0804 19:46:06.058533 2099430144 net.cpp:120] Setting up feat
I0804 19:46:06.058606 2099430144 net.cpp:127] Top shape: 64 2 (128)
I0804 19:46:06.058655 2099430144 layer_factory.hpp:74] Creating layer conv1_p
I0804 19:46:06.058668 2099430144 net.cpp:90] Creating Layer conv1_p
I0804 19:46:06.058693 2099430144 net.cpp:410] conv1_p <- data_p
I0804 19:46:06.058717 2099430144 net.cpp:368] conv1_p -> conv1_p
I0804 19:46:06.058727 2099430144 net.cpp:120] Setting up conv1_p
I0804 19:46:06.059128 2099430144 net.cpp:127] Top shape: 64 32 56 56 (6422528)
I0804 19:46:06.059159 2099430144 net.cpp:459] Sharing parameters 'conv1_w' owned by layer 'conv1', param index 0
I0804 19:46:06.059185 2099430144 net.cpp:459] Sharing parameters 'conv1_b' owned by layer 'conv1', param index 1
I0804 19:46:06.059193 2099430144 layer_factory.hpp:74] Creating layer pool1_p
I0804 19:46:06.059202 2099430144 net.cpp:90] Creating Layer pool1_p
I0804 19:46:06.059207 2099430144 net.cpp:410] pool1_p <- conv1_p
I0804 19:46:06.059214 2099430144 net.cpp:368] pool1_p -> pool1_p
I0804 19:46:06.059222 2099430144 net.cpp:120] Setting up pool1_p
I0804 19:46:06.059291 2099430144 net.cpp:127] Top shape: 64 32 28 28 (1605632)
I0804 19:46:06.059300 2099430144 layer_factory.hpp:74] Creating layer conv2_p
I0804 19:46:06.059311 2099430144 net.cpp:90] Creating Layer conv2_p
I0804 19:46:06.059317 2099430144 net.cpp:410] conv2_p <- pool1_p
I0804 19:46:06.059324 2099430144 net.cpp:368] conv2_p -> conv2_p
I0804 19:46:06.059332 2099430144 net.cpp:120] Setting up conv2_p
I0804 19:46:06.059777 2099430144 net.cpp:127] Top shape: 64 64 27 27 (2985984)
I0804 19:46:06.059789 2099430144 net.cpp:459] Sharing parameters 'conv2_w' owned by layer 'conv2', param index 0
I0804 19:46:06.059798 2099430144 net.cpp:459] Sharing parameters 'conv2_b' owned by layer 'conv2', param index 1
I0804 19:46:06.059804 2099430144 layer_factory.hpp:74] Creating layer pool2_p
I0804 19:46:06.059815 2099430144 net.cpp:90] Creating Layer pool2_p
I0804 19:46:06.059820 2099430144 net.cpp:410] pool2_p <- conv2_p
I0804 19:46:06.059826 2099430144 net.cpp:368] pool2_p -> pool2_p
I0804 19:46:06.059835 2099430144 net.cpp:120] Setting up pool2_p
I0804 19:46:06.059885 2099430144 net.cpp:127] Top shape: 64 64 14 14 (802816)
I0804 19:46:06.059891 2099430144 layer_factory.hpp:74] Creating layer conv3_p
I0804 19:46:06.059900 2099430144 net.cpp:90] Creating Layer conv3_p
I0804 19:46:06.059905 2099430144 net.cpp:410] conv3_p <- pool2_p
I0804 19:46:06.060098 2099430144 net.cpp:368] conv3_p -> conv3_p
I0804 19:46:06.060117 2099430144 net.cpp:120] Setting up conv3_p
I0804 19:46:06.060749 2099430144 net.cpp:127] Top shape: 64 128 13 13 (1384448)
I0804 19:46:06.060786 2099430144 net.cpp:459] Sharing parameters 'conv3_w' owned by layer 'conv3', param index 0
I0804 19:46:06.060797 2099430144 net.cpp:459] Sharing parameters 'conv3_b' owned by layer 'conv3', param index 1
I0804 19:46:06.060803 2099430144 layer_factory.hpp:74] Creating layer pool3_p
I0804 19:46:06.060811 2099430144 net.cpp:90] Creating Layer pool3_p
I0804 19:46:06.060816 2099430144 net.cpp:410] pool3_p <- conv3_p
I0804 19:46:06.060822 2099430144 net.cpp:368] pool3_p -> pool3_p
I0804 19:46:06.060828 2099430144 net.cpp:120] Setting up pool3_p
I0804 19:46:06.060957 2099430144 net.cpp:127] Top shape: 64 128 7 7 (401408)
I0804 19:46:06.060969 2099430144 layer_factory.hpp:74] Creating layer ip1_p
I0804 19:46:06.060983 2099430144 net.cpp:90] Creating Layer ip1_p
I0804 19:46:06.060989 2099430144 net.cpp:410] ip1_p <- pool3_p
I0804 19:46:06.060998 2099430144 net.cpp:368] ip1_p -> ip1_p
I0804 19:46:06.061007 2099430144 net.cpp:120] Setting up ip1_p
I0804 19:46:06.087688 2099430144 net.cpp:127] Top shape: 64 500 (32000)
I0804 19:46:06.087715 2099430144 net.cpp:459] Sharing parameters 'ip1_w' owned by layer 'ip1', param index 0
I0804 19:46:06.088996 2099430144 net.cpp:459] Sharing parameters 'ip1_b' owned by layer 'ip1', param index 1
I0804 19:46:06.089004 2099430144 layer_factory.hpp:74] Creating layer relu1_p
I0804 19:46:06.089015 2099430144 net.cpp:90] Creating Layer relu1_p
I0804 19:46:06.089018 2099430144 net.cpp:410] relu1_p <- ip1_p
I0804 19:46:06.089023 2099430144 net.cpp:357] relu1_p -> ip1_p (in-place)
I0804 19:46:06.089058 2099430144 net.cpp:120] Setting up relu1_p
I0804 19:46:06.089179 2099430144 net.cpp:127] Top shape: 64 500 (32000)
I0804 19:46:06.089192 2099430144 layer_factory.hpp:74] Creating layer ip2_p
I0804 19:46:06.089202 2099430144 net.cpp:90] Creating Layer ip2_p
I0804 19:46:06.089207 2099430144 net.cpp:410] ip2_p <- ip1_p
I0804 19:46:06.089216 2099430144 net.cpp:368] ip2_p -> ip2_p
I0804 19:46:06.089225 2099430144 net.cpp:120] Setting up ip2_p
I0804 19:46:06.090924 2099430144 net.cpp:127] Top shape: 64 500 (32000)
I0804 19:46:06.090931 2099430144 net.cpp:459] Sharing parameters 'ip2_w' owned by layer 'ip2', param index 0
I0804 19:46:06.090950 2099430144 net.cpp:459] Sharing parameters 'ip2_b' owned by layer 'ip2', param index 1
I0804 19:46:06.090953 2099430144 layer_factory.hpp:74] Creating layer relu2_p
I0804 19:46:06.090960 2099430144 net.cpp:90] Creating Layer relu2_p
I0804 19:46:06.090963 2099430144 net.cpp:410] relu2_p <- ip2_p
I0804 19:46:06.090968 2099430144 net.cpp:357] relu2_p -> ip2_p (in-place)
I0804 19:46:06.090975 2099430144 net.cpp:120] Setting up relu2_p
I0804 19:46:06.091019 2099430144 net.cpp:127] Top shape: 64 500 (32000)
I0804 19:46:06.091025 2099430144 layer_factory.hpp:74] Creating layer feat_p
I0804 19:46:06.091032 2099430144 net.cpp:90] Creating Layer feat_p
I0804 19:46:06.091048 2099430144 net.cpp:410] feat_p <- ip2_p
I0804 19:46:06.091085 2099430144 net.cpp:368] feat_p -> feat_p
I0804 19:46:06.091114 2099430144 net.cpp:120] Setting up feat_p
I0804 19:46:06.091167 2099430144 net.cpp:127] Top shape: 64 2 (128)
I0804 19:46:06.091187 2099430144 net.cpp:459] Sharing parameters 'feat_w' owned by layer 'feat', param index 0
I0804 19:46:06.091207 2099430144 net.cpp:459] Sharing parameters 'feat_b' owned by layer 'feat', param index 1
I0804 19:46:06.091255 2099430144 layer_factory.hpp:74] Creating layer loss
I0804 19:46:06.091308 2099430144 net.cpp:90] Creating Layer loss
I0804 19:46:06.091323 2099430144 net.cpp:410] loss <- feat
…
