…
I0717 00:26:30.211110 2045784832 solver.cpp:70] Creating training net from net file: src/siamese_network_bw/model/siamese_train_validate.prototxt
I0717 00:26:30.213186 2045784832 net.cpp:287] The NetState phase (0) differed from the phase (1) specified by a rule in layer pair_data
I0717 00:26:30.213228 2045784832 net.cpp:42] Initializing net from parameters: 
name: "siamese_train_validate"
state {
  phase: TRAIN
}
layer {
  name: "pair_data"
  type: "Data"
  top: "pair_data"
  top: "sim"
  include {
    phase: TRAIN
  }
  transform_param {
    scale: 0.00390625
  }
  data_param {
    source: "src/siamese_network_bw/data/siamese_network_train_leveldb"
    batch_size: 64
  }
}
layer {
  name: "slice_pair"
  type: "Slice"
  bottom: "pair_data"
  top: "data"
  top: "data_p"
  slice_param {
    slice_dim: 1
    slice_point: 1
  }
}
layer {
  name: "conv1"
  type: "Convolution"
  bottom: "data"
  top: "conv1"
  param {
    name: "conv1_w"
    lr_mult: 1
  }
  param {
    name: "conv1_b"
    lr_mult: 2
  }
  convolution_param {
    num_output: 32
    kernel_size: 3
    stride: 1
    weight_filler {
      type: "xavier"
    }
    bias_filler {
      type: "constant"
    }
  }
}
layer {
  name: "pool1"
  type: "Pooling"
  bottom: "conv1"
  top: "pool1"
  pooling_param {
    pool: MAX
    kernel_size: 2
    stride: 2
  }
}
layer {
  name: "conv2"
  type: "Convolution"
  bottom: "pool1"
  top: "conv2"
  param {
    name: "conv2_w"
    lr_mult: 1
  }
  param {
    name: "conv2_b"
    lr_mult: 2
  }
  convolution_param {
    num_output: 64
    kernel_size: 2
    stride: 1
    weight_filler {
      type: "xavier"
    }
    bias_filler {
      type: "constant"
    }
  }
}
layer {
  name: "pool2"
  type: "Pooling"
  bottom: "conv2"
  top: "pool2"
  pooling_param {
    pool: MAX
    kernel_size: 2
    stride: 2
  }
}
layer {
  name: "conv3"
  type: "Convolution"
  bottom: "pool2"
  top: "conv3"
  param {
    name: "conv3_w"
    lr_mult: 1
  }
  param {
    name: "conv3_b"
    lr_mult: 2
  }
  convolution_param {
    num_output: 128
    kernel_size: 2
    stride: 1
    weight_filler {
      type: "xavier"
    }
    bias_filler {
      type: "constant"
    }
  }
}
layer {
  name: "pool3"
  type: "Pooling"
  bottom: "conv3"
  top: "pool3"
  pooling_param {
    pool: MAX
    kernel_size: 2
    stride: 2
  }
}
layer {
  name: "ip1"
  type: "InnerProduct"
  bottom: "pool3"
  top: "ip1"
  param {
    name: "ip1_w"
    lr_mult: 1
  }
  param {
    name: "ip1_b"
    lr_mult: 2
  }
  inner_product_param {
    num_output: 500
    weight_filler {
      type: "xavier"
    }
    bias_filler {
      type: "constant"
    }
  }
}
layer {
  name: "relu1"
  type: "ReLU"
  bottom: "ip1"
  top: "ip1"
}
layer {
  name: "ip2"
  type: "InnerProduct"
  bottom: "ip1"
  top: "ip2"
  param {
    name: "ip2_w"
    lr_mult: 1
  }
  param {
    name: "ip2_b"
    lr_mult: 2
  }
  inner_product_param {
    num_output: 500
    weight_filler {
      type: "xavier"
    }
    bias_filler {
      type: "constant"
    }
  }
}
layer {
  name: "relu2"
  type: "ReLU"
  bottom: "ip2"
  top: "ip2"
}
layer {
  name: "feat"
  type: "InnerProduct"
  bottom: "ip2"
  top: "feat"
  param {
    name: "feat_w"
    lr_mult: 1
  }
  param {
    name: "feat_b"
    lr_mult: 2
  }
  inner_product_param {
    num_output: 2
    weight_filler {
      type: "xavier"
    }
    bias_filler {
      type: "constant"
    }
  }
}
layer {
  name: "conv1_p"
  type: "Convolution"
  bottom: "data_p"
  top: "conv1_p"
  param {
    name: "conv1_w"
    lr_mult: 1
  }
  param {
    name: "conv1_b"
    lr_mult: 2
  }
  convolution_param {
    num_output: 32
    kernel_size: 3
    stride: 1
    weight_filler {
      type: "xavier"
    }
    bias_filler {
      type: "constant"
    }
  }
}
layer {
  name: "pool1_p"
  type: "Pooling"
  bottom: "conv1_p"
  top: "pool1_p"
  pooling_param {
    pool: MAX
    kernel_size: 2
    stride: 2
  }
}
layer {
  name: "conv2_p"
  type: "Convolution"
  bottom: "pool1_p"
  top: "conv2_p"
  param {
    name: "conv2_w"
    lr_mult: 1
  }
  param {
    name: "conv2_b"
    lr_mult: 2
  }
  convolution_param {
    num_output: 64
    kernel_size: 2
    stride: 1
    weight_filler {
      type: "xavier"
    }
    bias_filler {
      type: "constant"
    }
  }
}
layer {
  name: "pool2_p"
  type: "Pooling"
  bottom: "conv2_p"
  top: "pool2_p"
  pooling_param {
    pool: MAX
    kernel_size: 2
    stride: 2
  }
}
layer {
  name: "conv3_p"
  type: "Convolution"
  bottom: "pool2_p"
  top: "conv3_p"
  param {
    name: "conv3_w"
    lr_mult: 1
  }
  param {
    name: "conv3_b"
    lr_mult: 2
  }
  convolution_param {
    num_output: 128
    kernel_size: 2
    stride: 1
    weight_filler {
      type: "xavier"
    }
    bias_filler {
      type: "constant"
    }
  }
}
layer {
  name: "pool3_p"
  type: "Pooling"
  bottom: "conv3_p"
  top: "pool3_p"
  pooling_param {
    pool: MAX
    kernel_size: 2
    stride: 2
  }
}
layer {
  name: "ip1_p"
  type: "InnerProduct"
  bottom: "pool3_p"
  top: "ip1_p"
  param {
    name: "ip1_w"
    lr_mult: 1
  }
  param {
    name: "ip1_b"
    lr_mult: 2
  }
  inner_product_param {
    num_output: 500
    weight_filler {
      type: "xavier"
    }
    bias_filler {
      type: "constant"
    }
  }
}
layer {
  name: "relu1_p"
  type: "ReLU"
  bottom: "ip1_p"
  top: "ip1_p"
}
layer {
  name: "ip2_p"
  type: "InnerProduct"
  bottom: "ip1_p"
  top: "ip2_p"
  param {
    name: "ip2_w"
    lr_mult: 1
  }
  param {
    name: "ip2_b"
    lr_mult: 2
  }
  inner_product_param {
    num_output: 500
    weight_filler {
      type: "xavier"
    }
    bias_filler {
      type: "constant"
    }
  }
}
layer {
  name: "relu2_p"
  type: "ReLU"
  bottom: "ip2_p"
  top: "ip2_p"
}
layer {
  name: "feat_p"
  type: "InnerProduct"
  bottom: "ip2_p"
  top: "feat_p"
  param {
    name: "feat_w"
    lr_mult: 1
  }
  param {
    name: "feat_b"
    lr_mult: 2
  }
  inner_product_param {
    num_output: 2
    weight_filler {
      type: "xavier"
    }
    bias_filler {
      type: "constant"
    }
  }
}
layer {
  name: "loss"
  type: "ContrastiveLoss"
  bottom: "feat"
  bottom: "feat_p"
  bottom: "sim"
  top: "loss"
  contrastive_loss_param {
    margin: 1
  }
}
I0717 00:26:30.213599 2045784832 layer_factory.hpp:74] Creating layer pair_data
I0717 00:26:30.213621 2045784832 net.cpp:90] Creating Layer pair_data
I0717 00:26:30.213629 2045784832 net.cpp:368] pair_data -> pair_data
I0717 00:26:30.213651 2045784832 net.cpp:368] pair_data -> sim
I0717 00:26:30.213663 2045784832 net.cpp:120] Setting up pair_data
I0717 00:26:41.759177 2045784832 db.cpp:20] Opened leveldb src/siamese_network_bw/data/siamese_network_train_leveldb
I0717 00:26:41.895112 2045784832 data_layer.cpp:52] output data size: 64,2,58,58
I0717 00:26:41.896159 2045784832 net.cpp:127] Top shape: 64 2 58 58 (430592)
I0717 00:26:41.896214 2045784832 net.cpp:127] Top shape: 64 (64)
I0717 00:26:41.896227 2045784832 layer_factory.hpp:74] Creating layer slice_pair
I0717 00:26:41.896248 2045784832 net.cpp:90] Creating Layer slice_pair
I0717 00:26:41.896258 2045784832 net.cpp:410] slice_pair <- pair_data
I0717 00:26:41.896272 2045784832 net.cpp:368] slice_pair -> data
I0717 00:26:41.896291 2045784832 net.cpp:368] slice_pair -> data_p
I0717 00:26:41.896303 2045784832 net.cpp:120] Setting up slice_pair
I0717 00:26:41.896320 2045784832 net.cpp:127] Top shape: 64 1 58 58 (215296)
I0717 00:26:41.896330 2045784832 net.cpp:127] Top shape: 64 1 58 58 (215296)
I0717 00:26:41.896405 2045784832 layer_factory.hpp:74] Creating layer conv1
I0717 00:26:41.896455 2045784832 net.cpp:90] Creating Layer conv1
I0717 00:26:41.896472 2045784832 net.cpp:410] conv1 <- data
I0717 00:26:41.896524 2045784832 net.cpp:368] conv1 -> conv1
I0717 00:26:41.896610 2045784832 net.cpp:120] Setting up conv1
I0717 00:26:41.972311 2045784832 net.cpp:127] Top shape: 64 32 56 56 (6422528)
I0717 00:26:41.972347 2045784832 layer_factory.hpp:74] Creating layer pool1
I0717 00:26:41.972359 2045784832 net.cpp:90] Creating Layer pool1
I0717 00:26:41.972363 2045784832 net.cpp:410] pool1 <- conv1
I0717 00:26:41.972370 2045784832 net.cpp:368] pool1 -> pool1
I0717 00:26:41.972378 2045784832 net.cpp:120] Setting up pool1
I0717 00:26:41.972517 2045784832 net.cpp:127] Top shape: 64 32 28 28 (1605632)
I0717 00:26:41.972527 2045784832 layer_factory.hpp:74] Creating layer conv2
I0717 00:26:41.972544 2045784832 net.cpp:90] Creating Layer conv2
I0717 00:26:41.972548 2045784832 net.cpp:410] conv2 <- pool1
I0717 00:26:41.972555 2045784832 net.cpp:368] conv2 -> conv2
I0717 00:26:41.972563 2045784832 net.cpp:120] Setting up conv2
I0717 00:26:41.972839 2045784832 net.cpp:127] Top shape: 64 64 27 27 (2985984)
I0717 00:26:41.972852 2045784832 layer_factory.hpp:74] Creating layer pool2
I0717 00:26:41.972859 2045784832 net.cpp:90] Creating Layer pool2
I0717 00:26:41.972863 2045784832 net.cpp:410] pool2 <- conv2
I0717 00:26:41.972868 2045784832 net.cpp:368] pool2 -> pool2
I0717 00:26:41.972875 2045784832 net.cpp:120] Setting up pool2
I0717 00:26:41.972918 2045784832 net.cpp:127] Top shape: 64 64 14 14 (802816)
I0717 00:26:41.972924 2045784832 layer_factory.hpp:74] Creating layer conv3
I0717 00:26:41.972930 2045784832 net.cpp:90] Creating Layer conv3
I0717 00:26:41.972935 2045784832 net.cpp:410] conv3 <- pool2
I0717 00:26:41.972940 2045784832 net.cpp:368] conv3 -> conv3
I0717 00:26:41.972970 2045784832 net.cpp:120] Setting up conv3
I0717 00:26:41.973682 2045784832 net.cpp:127] Top shape: 64 128 13 13 (1384448)
I0717 00:26:41.973702 2045784832 layer_factory.hpp:74] Creating layer pool3
I0717 00:26:41.973711 2045784832 net.cpp:90] Creating Layer pool3
I0717 00:26:41.973717 2045784832 net.cpp:410] pool3 <- conv3
I0717 00:26:41.973726 2045784832 net.cpp:368] pool3 -> pool3
I0717 00:26:41.973734 2045784832 net.cpp:120] Setting up pool3
I0717 00:26:41.973795 2045784832 net.cpp:127] Top shape: 64 128 7 7 (401408)
I0717 00:26:41.973804 2045784832 layer_factory.hpp:74] Creating layer ip1
I0717 00:26:41.973815 2045784832 net.cpp:90] Creating Layer ip1
I0717 00:26:41.973821 2045784832 net.cpp:410] ip1 <- pool3
I0717 00:26:41.973830 2045784832 net.cpp:368] ip1 -> ip1
I0717 00:26:41.973839 2045784832 net.cpp:120] Setting up ip1
I0717 00:26:41.997473 2045784832 net.cpp:127] Top shape: 64 500 (32000)
I0717 00:26:41.997488 2045784832 layer_factory.hpp:74] Creating layer relu1
I0717 00:26:41.997509 2045784832 net.cpp:90] Creating Layer relu1
I0717 00:26:41.997514 2045784832 net.cpp:410] relu1 <- ip1
I0717 00:26:41.997519 2045784832 net.cpp:357] relu1 -> ip1 (in-place)
I0717 00:26:41.997525 2045784832 net.cpp:120] Setting up relu1
I0717 00:26:41.997700 2045784832 net.cpp:127] Top shape: 64 500 (32000)
I0717 00:26:41.997709 2045784832 layer_factory.hpp:74] Creating layer ip2
I0717 00:26:41.997725 2045784832 net.cpp:90] Creating Layer ip2
I0717 00:26:41.997730 2045784832 net.cpp:410] ip2 <- ip1
I0717 00:26:41.997736 2045784832 net.cpp:368] ip2 -> ip2
I0717 00:26:41.997745 2045784832 net.cpp:120] Setting up ip2
I0717 00:26:41.999421 2045784832 net.cpp:127] Top shape: 64 500 (32000)
I0717 00:26:41.999431 2045784832 layer_factory.hpp:74] Creating layer relu2
I0717 00:26:41.999447 2045784832 net.cpp:90] Creating Layer relu2
I0717 00:26:41.999450 2045784832 net.cpp:410] relu2 <- ip2
I0717 00:26:41.999455 2045784832 net.cpp:357] relu2 -> ip2 (in-place)
I0717 00:26:41.999460 2045784832 net.cpp:120] Setting up relu2
I0717 00:26:41.999507 2045784832 net.cpp:127] Top shape: 64 500 (32000)
I0717 00:26:41.999513 2045784832 layer_factory.hpp:74] Creating layer feat
I0717 00:26:41.999521 2045784832 net.cpp:90] Creating Layer feat
I0717 00:26:41.999524 2045784832 net.cpp:410] feat <- ip2
I0717 00:26:41.999531 2045784832 net.cpp:368] feat -> feat
I0717 00:26:41.999537 2045784832 net.cpp:120] Setting up feat
I0717 00:26:41.999552 2045784832 net.cpp:127] Top shape: 64 2 (128)
I0717 00:26:41.999579 2045784832 layer_factory.hpp:74] Creating layer conv1_p
I0717 00:26:41.999586 2045784832 net.cpp:90] Creating Layer conv1_p
I0717 00:26:41.999591 2045784832 net.cpp:410] conv1_p <- data_p
I0717 00:26:41.999598 2045784832 net.cpp:368] conv1_p -> conv1_p
I0717 00:26:41.999604 2045784832 net.cpp:120] Setting up conv1_p
I0717 00:26:41.999847 2045784832 net.cpp:127] Top shape: 64 32 56 56 (6422528)
I0717 00:26:41.999856 2045784832 net.cpp:459] Sharing parameters 'conv1_w' owned by layer 'conv1', param index 0
I0717 00:26:41.999871 2045784832 net.cpp:459] Sharing parameters 'conv1_b' owned by layer 'conv1', param index 1
I0717 00:26:41.999876 2045784832 layer_factory.hpp:74] Creating layer pool1_p
I0717 00:26:41.999882 2045784832 net.cpp:90] Creating Layer pool1_p
I0717 00:26:41.999886 2045784832 net.cpp:410] pool1_p <- conv1_p
I0717 00:26:41.999891 2045784832 net.cpp:368] pool1_p -> pool1_p
I0717 00:26:41.999897 2045784832 net.cpp:120] Setting up pool1_p
I0717 00:26:41.999941 2045784832 net.cpp:127] Top shape: 64 32 28 28 (1605632)
I0717 00:26:41.999948 2045784832 layer_factory.hpp:74] Creating layer conv2_p
I0717 00:26:41.999954 2045784832 net.cpp:90] Creating Layer conv2_p
I0717 00:26:41.999959 2045784832 net.cpp:410] conv2_p <- pool1_p
I0717 00:26:41.999965 2045784832 net.cpp:368] conv2_p -> conv2_p
I0717 00:26:41.999972 2045784832 net.cpp:120] Setting up conv2_p
I0717 00:26:42.000401 2045784832 net.cpp:127] Top shape: 64 64 27 27 (2985984)
I0717 00:26:42.000411 2045784832 net.cpp:459] Sharing parameters 'conv2_w' owned by layer 'conv2', param index 0
I0717 00:26:42.000417 2045784832 net.cpp:459] Sharing parameters 'conv2_b' owned by layer 'conv2', param index 1
I0717 00:26:42.000422 2045784832 layer_factory.hpp:74] Creating layer pool2_p
I0717 00:26:42.000430 2045784832 net.cpp:90] Creating Layer pool2_p
I0717 00:26:42.000434 2045784832 net.cpp:410] pool2_p <- conv2_p
I0717 00:26:42.000439 2045784832 net.cpp:368] pool2_p -> pool2_p
I0717 00:26:42.000447 2045784832 net.cpp:120] Setting up pool2_p
I0717 00:26:42.000490 2045784832 net.cpp:127] Top shape: 64 64 14 14 (802816)
I0717 00:26:42.000496 2045784832 layer_factory.hpp:74] Creating layer conv3_p
I0717 00:26:42.000502 2045784832 net.cpp:90] Creating Layer conv3_p
I0717 00:26:42.000506 2045784832 net.cpp:410] conv3_p <- pool2_p
I0717 00:26:42.000514 2045784832 net.cpp:368] conv3_p -> conv3_p
I0717 00:26:42.000519 2045784832 net.cpp:120] Setting up conv3_p
I0717 00:26:42.000999 2045784832 net.cpp:127] Top shape: 64 128 13 13 (1384448)
I0717 00:26:42.001010 2045784832 net.cpp:459] Sharing parameters 'conv3_w' owned by layer 'conv3', param index 0
I0717 00:26:42.001018 2045784832 net.cpp:459] Sharing parameters 'conv3_b' owned by layer 'conv3', param index 1
I0717 00:26:42.001023 2045784832 layer_factory.hpp:74] Creating layer pool3_p
I0717 00:26:42.001029 2045784832 net.cpp:90] Creating Layer pool3_p
I0717 00:26:42.001032 2045784832 net.cpp:410] pool3_p <- conv3_p
I0717 00:26:42.001037 2045784832 net.cpp:368] pool3_p -> pool3_p
I0717 00:26:42.001044 2045784832 net.cpp:120] Setting up pool3_p
I0717 00:26:42.001140 2045784832 net.cpp:127] Top shape: 64 128 7 7 (401408)
I0717 00:26:42.001148 2045784832 layer_factory.hpp:74] Creating layer ip1_p
I0717 00:26:42.001155 2045784832 net.cpp:90] Creating Layer ip1_p
I0717 00:26:42.001160 2045784832 net.cpp:410] ip1_p <- pool3_p
I0717 00:26:42.001168 2045784832 net.cpp:368] ip1_p -> ip1_p
I0717 00:26:42.001174 2045784832 net.cpp:120] Setting up ip1_p
I0717 00:26:42.026548 2045784832 net.cpp:127] Top shape: 64 500 (32000)
I0717 00:26:42.026563 2045784832 net.cpp:459] Sharing parameters 'ip1_w' owned by layer 'ip1', param index 0
I0717 00:26:42.027458 2045784832 net.cpp:459] Sharing parameters 'ip1_b' owned by layer 'ip1', param index 1
I0717 00:26:42.027467 2045784832 layer_factory.hpp:74] Creating layer relu1_p
I0717 00:26:42.027484 2045784832 net.cpp:90] Creating Layer relu1_p
I0717 00:26:42.027489 2045784832 net.cpp:410] relu1_p <- ip1_p
I0717 00:26:42.027494 2045784832 net.cpp:357] relu1_p -> ip1_p (in-place)
I0717 00:26:42.027515 2045784832 net.cpp:120] Setting up relu1_p
I0717 00:26:42.027577 2045784832 net.cpp:127] Top shape: 64 500 (32000)
I0717 00:26:42.027583 2045784832 layer_factory.hpp:74] Creating layer ip2_p
I0717 00:26:42.027591 2045784832 net.cpp:90] Creating Layer ip2_p
I0717 00:26:42.027595 2045784832 net.cpp:410] ip2_p <- ip1_p
I0717 00:26:42.027601 2045784832 net.cpp:368] ip2_p -> ip2_p
I0717 00:26:42.027608 2045784832 net.cpp:120] Setting up ip2_p
I0717 00:26:42.029368 2045784832 net.cpp:127] Top shape: 64 500 (32000)
I0717 00:26:42.029377 2045784832 net.cpp:459] Sharing parameters 'ip2_w' owned by layer 'ip2', param index 0
I0717 00:26:42.029393 2045784832 net.cpp:459] Sharing parameters 'ip2_b' owned by layer 'ip2', param index 1
I0717 00:26:42.029397 2045784832 layer_factory.hpp:74] Creating layer relu2_p
I0717 00:26:42.029402 2045784832 net.cpp:90] Creating Layer relu2_p
I0717 00:26:42.029422 2045784832 net.cpp:410] relu2_p <- ip2_p
I0717 00:26:42.029435 2045784832 net.cpp:357] relu2_p -> ip2_p (in-place)
I0717 00:26:42.029443 2045784832 net.cpp:120] Setting up relu2_p
I0717 00:26:42.029495 2045784832 net.cpp:127] Top shape: 64 500 (32000)
I0717 00:26:42.029501 2045784832 layer_factory.hpp:74] Creating layer feat_p
I0717 00:26:42.029510 2045784832 net.cpp:90] Creating Layer feat_p
I0717 00:26:42.029513 2045784832 net.cpp:410] feat_p <- ip2_p
I0717 00:26:42.029520 2045784832 net.cpp:368] feat_p -> feat_p
I0717 00:26:42.029526 2045784832 net.cpp:120] Setting up feat_p
I0717 00:26:42.029544 2045784832 net.cpp:127] Top shape: 64 2 (128)
I0717 00:26:42.029551 2045784832 net.cpp:459] Sharing parameters 'feat_w' owned by layer 'feat', param index 0
I0717 00:26:42.029556 2045784832 net.cpp:459] Sharing parameters 'feat_b' owned by layer 'feat', param index 1
I0717 00:26:42.029561 2045784832 layer_factory.hpp:74] Creating layer loss
I0717 00:26:42.029621 2045784832 net.cpp:90] Creating Layer loss
I0717 00:26:42.029634 2045784832 net.cpp:410] loss <- feat
…
