…
I0610 01:30:00.051952 1956823808 solver.cpp:70] Creating training net from net file: src/siamese_network_bw/model/siamese_train_validate.prototxt
I0610 01:30:00.053179 1956823808 net.cpp:287] The NetState phase (0) differed from the phase (1) specified by a rule in layer pair_data
I0610 01:30:00.053220 1956823808 net.cpp:42] Initializing net from parameters: 
name: "siamese_train_validate"
state {
  phase: TRAIN
}
layer {
  name: "pair_data"
  type: "Data"
  top: "pair_data"
  top: "sim"
  include {
    phase: TRAIN
  }
  transform_param {
    scale: 1
  }
  data_param {
    source: "src/siamese_network_bw/data/siamese_network_train_leveldb"
    batch_size: 64
  }
}
layer {
  name: "slice_pair"
  type: "Slice"
  bottom: "pair_data"
  top: "data"
  top: "data_p"
  slice_param {
    slice_dim: 1
    slice_point: 1
  }
}
layer {
  name: "conv1"
  type: "Convolution"
  bottom: "data"
  top: "conv1"
  param {
    name: "conv1_w"
    lr_mult: 1
  }
  param {
    name: "conv1_b"
    lr_mult: 2
  }
  convolution_param {
    num_output: 32
    kernel_size: 3
    stride: 1
    weight_filler {
      type: "xavier"
    }
    bias_filler {
      type: "constant"
    }
  }
}
layer {
  name: "pool1"
  type: "Pooling"
  bottom: "conv1"
  top: "pool1"
  pooling_param {
    pool: MAX
    kernel_size: 2
    stride: 2
  }
}
layer {
  name: "conv2"
  type: "Convolution"
  bottom: "pool1"
  top: "conv2"
  param {
    name: "conv2_w"
    lr_mult: 1
  }
  param {
    name: "conv2_b"
    lr_mult: 2
  }
  convolution_param {
    num_output: 64
    kernel_size: 2
    stride: 1
    weight_filler {
      type: "xavier"
    }
    bias_filler {
      type: "constant"
    }
  }
}
layer {
  name: "pool2"
  type: "Pooling"
  bottom: "conv2"
  top: "pool2"
  pooling_param {
    pool: MAX
    kernel_size: 2
    stride: 2
  }
}
layer {
  name: "conv3"
  type: "Convolution"
  bottom: "pool2"
  top: "conv3"
  param {
    name: "conv3_w"
    lr_mult: 1
  }
  param {
    name: "conv3_b"
    lr_mult: 2
  }
  convolution_param {
    num_output: 128
    kernel_size: 2
    stride: 1
    weight_filler {
      type: "xavier"
    }
    bias_filler {
      type: "constant"
    }
  }
}
layer {
  name: "pool3"
  type: "Pooling"
  bottom: "conv3"
  top: "pool3"
  pooling_param {
    pool: MAX
    kernel_size: 2
    stride: 2
  }
}
layer {
  name: "ip1"
  type: "InnerProduct"
  bottom: "pool3"
  top: "ip1"
  param {
    name: "ip1_w"
    lr_mult: 1
  }
  param {
    name: "ip1_b"
    lr_mult: 2
  }
  inner_product_param {
    num_output: 500
    weight_filler {
      type: "xavier"
    }
    bias_filler {
      type: "constant"
    }
  }
}
layer {
  name: "relu1"
  type: "ReLU"
  bottom: "ip1"
  top: "ip1"
}
layer {
  name: "ip2"
  type: "InnerProduct"
  bottom: "ip1"
  top: "ip2"
  param {
    name: "ip2_w"
    lr_mult: 1
  }
  param {
    name: "ip2_b"
    lr_mult: 2
  }
  inner_product_param {
    num_output: 10
    weight_filler {
      type: "xavier"
    }
    bias_filler {
      type: "constant"
    }
  }
}
layer {
  name: "feat"
  type: "InnerProduct"
  bottom: "ip2"
  top: "feat"
  param {
    name: "feat_w"
    lr_mult: 1
  }
  param {
    name: "feat_b"
    lr_mult: 2
  }
  inner_product_param {
    num_output: 2
    weight_filler {
      type: "xavier"
    }
    bias_filler {
      type: "constant"
    }
  }
}
layer {
  name: "conv1_p"
  type: "Convolution"
  bottom: "data_p"
  top: "conv1_p"
  param {
    name: "conv1_w"
    lr_mult: 1
  }
  param {
    name: "conv1_b"
    lr_mult: 2
  }
  convolution_param {
    num_output: 32
    kernel_size: 3
    stride: 1
    weight_filler {
      type: "xavier"
    }
    bias_filler {
      type: "constant"
    }
  }
}
layer {
  name: "pool1_p"
  type: "Pooling"
  bottom: "conv1_p"
  top: "pool1_p"
  pooling_param {
    pool: MAX
    kernel_size: 2
    stride: 2
  }
}
layer {
  name: "conv2_p"
  type: "Convolution"
  bottom: "pool1_p"
  top: "conv2_p"
  param {
    name: "conv2_w"
    lr_mult: 1
  }
  param {
    name: "conv2_b"
    lr_mult: 2
  }
  convolution_param {
    num_output: 64
    kernel_size: 2
    stride: 1
    weight_filler {
      type: "xavier"
    }
    bias_filler {
      type: "constant"
    }
  }
}
layer {
  name: "pool2_p"
  type: "Pooling"
  bottom: "conv2_p"
  top: "pool2_p"
  pooling_param {
    pool: MAX
    kernel_size: 2
    stride: 2
  }
}
layer {
  name: "conv3_p"
  type: "Convolution"
  bottom: "pool2_p"
  top: "conv3_p"
  param {
    name: "conv3_w"
    lr_mult: 1
  }
  param {
    name: "conv3_b"
    lr_mult: 2
  }
  convolution_param {
    num_output: 128
    kernel_size: 2
    stride: 1
    weight_filler {
      type: "xavier"
    }
    bias_filler {
      type: "constant"
    }
  }
}
layer {
  name: "pool3_p"
  type: "Pooling"
  bottom: "conv3_p"
  top: "pool3_p"
  pooling_param {
    pool: MAX
    kernel_size: 2
    stride: 2
  }
}
layer {
  name: "ip1_p"
  type: "InnerProduct"
  bottom: "pool3_p"
  top: "ip1_p"
  param {
    name: "ip1_w"
    lr_mult: 1
  }
  param {
    name: "ip1_b"
    lr_mult: 2
  }
  inner_product_param {
    num_output: 500
    weight_filler {
      type: "xavier"
    }
    bias_filler {
      type: "constant"
    }
  }
}
layer {
  name: "relu1_p"
  type: "ReLU"
  bottom: "ip1_p"
  top: "ip1_p"
}
layer {
  name: "ip2_p"
  type: "InnerProduct"
  bottom: "ip1_p"
  top: "ip2_p"
  param {
    name: "ip2_w"
    lr_mult: 1
  }
  param {
    name: "ip2_b"
    lr_mult: 2
  }
  inner_product_param {
    num_output: 10
    weight_filler {
      type: "xavier"
    }
    bias_filler {
      type: "constant"
    }
  }
}
layer {
  name: "feat_p"
  type: "InnerProduct"
  bottom: "ip2_p"
  top: "feat_p"
  param {
    name: "feat_w"
    lr_mult: 1
  }
  param {
    name: "feat_b"
    lr_mult: 2
  }
  inner_product_param {
    num_output: 2
    weight_filler {
      type: "xavier"
    }
    bias_filler {
      type: "constant"
    }
  }
}
layer {
  name: "loss"
  type: "ContrastiveLoss"
  bottom: "feat"
  bottom: "feat_p"
  bottom: "sim"
  top: "loss"
  contrastive_loss_param {
    margin: 1
  }
}
I0610 01:30:00.053531 1956823808 layer_factory.hpp:74] Creating layer pair_data
I0610 01:30:00.053555 1956823808 net.cpp:90] Creating Layer pair_data
I0610 01:30:00.053562 1956823808 net.cpp:368] pair_data -> pair_data
I0610 01:30:00.053583 1956823808 net.cpp:368] pair_data -> sim
I0610 01:30:00.053591 1956823808 net.cpp:120] Setting up pair_data
I0610 01:30:00.063333 1956823808 db.cpp:20] Opened leveldb src/siamese_network_bw/data/siamese_network_train_leveldb
I0610 01:30:00.065871 1956823808 data_layer.cpp:52] output data size: 64,2,62,47
I0610 01:30:00.066515 1956823808 net.cpp:127] Top shape: 64 2 62 47 (372992)
I0610 01:30:00.066540 1956823808 net.cpp:127] Top shape: 64 (64)
I0610 01:30:00.066547 1956823808 layer_factory.hpp:74] Creating layer slice_pair
I0610 01:30:00.066558 1956823808 net.cpp:90] Creating Layer slice_pair
I0610 01:30:00.066563 1956823808 net.cpp:410] slice_pair <- pair_data
I0610 01:30:00.066570 1956823808 net.cpp:368] slice_pair -> data
I0610 01:30:00.066579 1956823808 net.cpp:368] slice_pair -> data_p
I0610 01:30:00.066586 1956823808 net.cpp:120] Setting up slice_pair
I0610 01:30:00.066593 1956823808 net.cpp:127] Top shape: 64 1 62 47 (186496)
I0610 01:30:00.066599 1956823808 net.cpp:127] Top shape: 64 1 62 47 (186496)
I0610 01:30:00.066603 1956823808 layer_factory.hpp:74] Creating layer conv1
I0610 01:30:00.066612 1956823808 net.cpp:90] Creating Layer conv1
I0610 01:30:00.066615 1956823808 net.cpp:410] conv1 <- data
I0610 01:30:00.066623 1956823808 net.cpp:368] conv1 -> conv1
I0610 01:30:00.066630 1956823808 net.cpp:120] Setting up conv1
I0610 01:30:00.193989 1956823808 net.cpp:127] Top shape: 64 32 60 45 (5529600)
I0610 01:30:00.194025 1956823808 layer_factory.hpp:74] Creating layer pool1
I0610 01:30:00.194064 1956823808 net.cpp:90] Creating Layer pool1
I0610 01:30:00.194070 1956823808 net.cpp:410] pool1 <- conv1
I0610 01:30:00.194077 1956823808 net.cpp:368] pool1 -> pool1
I0610 01:30:00.194085 1956823808 net.cpp:120] Setting up pool1
I0610 01:30:00.194335 1956823808 net.cpp:127] Top shape: 64 32 30 23 (1413120)
I0610 01:30:00.194353 1956823808 layer_factory.hpp:74] Creating layer conv2
I0610 01:30:00.194368 1956823808 net.cpp:90] Creating Layer conv2
I0610 01:30:00.194377 1956823808 net.cpp:410] conv2 <- pool1
I0610 01:30:00.194389 1956823808 net.cpp:368] conv2 -> conv2
I0610 01:30:00.194421 1956823808 net.cpp:120] Setting up conv2
I0610 01:30:00.194878 1956823808 net.cpp:127] Top shape: 64 64 29 22 (2613248)
I0610 01:30:00.194897 1956823808 layer_factory.hpp:74] Creating layer pool2
I0610 01:30:00.194905 1956823808 net.cpp:90] Creating Layer pool2
I0610 01:30:00.194910 1956823808 net.cpp:410] pool2 <- conv2
I0610 01:30:00.194916 1956823808 net.cpp:368] pool2 -> pool2
I0610 01:30:00.194921 1956823808 net.cpp:120] Setting up pool2
I0610 01:30:00.194983 1956823808 net.cpp:127] Top shape: 64 64 15 11 (675840)
I0610 01:30:00.195021 1956823808 layer_factory.hpp:74] Creating layer conv3
I0610 01:30:00.195062 1956823808 net.cpp:90] Creating Layer conv3
I0610 01:30:00.195093 1956823808 net.cpp:410] conv3 <- pool2
I0610 01:30:00.195122 1956823808 net.cpp:368] conv3 -> conv3
I0610 01:30:00.195139 1956823808 net.cpp:120] Setting up conv3
I0610 01:30:00.195771 1956823808 net.cpp:127] Top shape: 64 128 14 10 (1146880)
I0610 01:30:00.195788 1956823808 layer_factory.hpp:74] Creating layer pool3
I0610 01:30:00.195797 1956823808 net.cpp:90] Creating Layer pool3
I0610 01:30:00.195806 1956823808 net.cpp:410] pool3 <- conv3
I0610 01:30:00.195832 1956823808 net.cpp:368] pool3 -> pool3
I0610 01:30:00.195849 1956823808 net.cpp:120] Setting up pool3
I0610 01:30:00.195942 1956823808 net.cpp:127] Top shape: 64 128 7 5 (286720)
I0610 01:30:00.195960 1956823808 layer_factory.hpp:74] Creating layer ip1
I0610 01:30:00.195976 1956823808 net.cpp:90] Creating Layer ip1
I0610 01:30:00.195984 1956823808 net.cpp:410] ip1 <- pool3
I0610 01:30:00.195992 1956823808 net.cpp:368] ip1 -> ip1
I0610 01:30:00.196004 1956823808 net.cpp:120] Setting up ip1
I0610 01:30:00.215065 1956823808 net.cpp:127] Top shape: 64 500 (32000)
I0610 01:30:00.215095 1956823808 layer_factory.hpp:74] Creating layer relu1
I0610 01:30:00.215111 1956823808 net.cpp:90] Creating Layer relu1
I0610 01:30:00.215116 1956823808 net.cpp:410] relu1 <- ip1
I0610 01:30:00.215126 1956823808 net.cpp:357] relu1 -> ip1 (in-place)
I0610 01:30:00.215138 1956823808 net.cpp:120] Setting up relu1
I0610 01:30:00.215517 1956823808 net.cpp:127] Top shape: 64 500 (32000)
I0610 01:30:00.215536 1956823808 layer_factory.hpp:74] Creating layer ip2
I0610 01:30:00.215553 1956823808 net.cpp:90] Creating Layer ip2
I0610 01:30:00.215562 1956823808 net.cpp:410] ip2 <- ip1
I0610 01:30:00.215584 1956823808 net.cpp:368] ip2 -> ip2
I0610 01:30:00.215602 1956823808 net.cpp:120] Setting up ip2
I0610 01:30:00.215699 1956823808 net.cpp:127] Top shape: 64 10 (640)
I0610 01:30:00.215716 1956823808 layer_factory.hpp:74] Creating layer feat
I0610 01:30:00.215728 1956823808 net.cpp:90] Creating Layer feat
I0610 01:30:00.215735 1956823808 net.cpp:410] feat <- ip2
I0610 01:30:00.215741 1956823808 net.cpp:368] feat -> feat
I0610 01:30:00.215749 1956823808 net.cpp:120] Setting up feat
I0610 01:30:00.215761 1956823808 net.cpp:127] Top shape: 64 2 (128)
I0610 01:30:00.215767 1956823808 layer_factory.hpp:74] Creating layer conv1_p
I0610 01:30:00.215782 1956823808 net.cpp:90] Creating Layer conv1_p
I0610 01:30:00.215795 1956823808 net.cpp:410] conv1_p <- data_p
I0610 01:30:00.215813 1956823808 net.cpp:368] conv1_p -> conv1_p
I0610 01:30:00.215821 1956823808 net.cpp:120] Setting up conv1_p
I0610 01:30:00.216156 1956823808 net.cpp:127] Top shape: 64 32 60 45 (5529600)
I0610 01:30:00.216171 1956823808 net.cpp:459] Sharing parameters 'conv1_w' owned by layer 'conv1', param index 0
I0610 01:30:00.216228 1956823808 net.cpp:459] Sharing parameters 'conv1_b' owned by layer 'conv1', param index 1
I0610 01:30:00.216238 1956823808 layer_factory.hpp:74] Creating layer pool1_p
I0610 01:30:00.216248 1956823808 net.cpp:90] Creating Layer pool1_p
I0610 01:30:00.216267 1956823808 net.cpp:410] pool1_p <- conv1_p
I0610 01:30:00.216287 1956823808 net.cpp:368] pool1_p -> pool1_p
I0610 01:30:00.216301 1956823808 net.cpp:120] Setting up pool1_p
I0610 01:30:00.216369 1956823808 net.cpp:127] Top shape: 64 32 30 23 (1413120)
I0610 01:30:00.216384 1956823808 layer_factory.hpp:74] Creating layer conv2_p
I0610 01:30:00.216413 1956823808 net.cpp:90] Creating Layer conv2_p
I0610 01:30:00.216420 1956823808 net.cpp:410] conv2_p <- pool1_p
I0610 01:30:00.216428 1956823808 net.cpp:368] conv2_p -> conv2_p
I0610 01:30:00.216444 1956823808 net.cpp:120] Setting up conv2_p
I0610 01:30:00.216886 1956823808 net.cpp:127] Top shape: 64 64 29 22 (2613248)
I0610 01:30:00.216902 1956823808 net.cpp:459] Sharing parameters 'conv2_w' owned by layer 'conv2', param index 0
I0610 01:30:00.216908 1956823808 net.cpp:459] Sharing parameters 'conv2_b' owned by layer 'conv2', param index 1
I0610 01:30:00.216913 1956823808 layer_factory.hpp:74] Creating layer pool2_p
I0610 01:30:00.216922 1956823808 net.cpp:90] Creating Layer pool2_p
I0610 01:30:00.216929 1956823808 net.cpp:410] pool2_p <- conv2_p
I0610 01:30:00.216938 1956823808 net.cpp:368] pool2_p -> pool2_p
I0610 01:30:00.216946 1956823808 net.cpp:120] Setting up pool2_p
I0610 01:30:00.217007 1956823808 net.cpp:127] Top shape: 64 64 15 11 (675840)
I0610 01:30:00.217018 1956823808 layer_factory.hpp:74] Creating layer conv3_p
I0610 01:30:00.217032 1956823808 net.cpp:90] Creating Layer conv3_p
I0610 01:30:00.217046 1956823808 net.cpp:410] conv3_p <- pool2_p
I0610 01:30:00.217059 1956823808 net.cpp:368] conv3_p -> conv3_p
I0610 01:30:00.217067 1956823808 net.cpp:120] Setting up conv3_p
I0610 01:30:00.217749 1956823808 net.cpp:127] Top shape: 64 128 14 10 (1146880)
I0610 01:30:00.217764 1956823808 net.cpp:459] Sharing parameters 'conv3_w' owned by layer 'conv3', param index 0
I0610 01:30:00.217777 1956823808 net.cpp:459] Sharing parameters 'conv3_b' owned by layer 'conv3', param index 1
I0610 01:30:00.217787 1956823808 layer_factory.hpp:74] Creating layer pool3_p
I0610 01:30:00.217797 1956823808 net.cpp:90] Creating Layer pool3_p
I0610 01:30:00.217804 1956823808 net.cpp:410] pool3_p <- conv3_p
I0610 01:30:00.217813 1956823808 net.cpp:368] pool3_p -> pool3_p
I0610 01:30:00.217823 1956823808 net.cpp:120] Setting up pool3_p
I0610 01:30:00.217918 1956823808 net.cpp:127] Top shape: 64 128 7 5 (286720)
I0610 01:30:00.217931 1956823808 layer_factory.hpp:74] Creating layer ip1_p
I0610 01:30:00.217944 1956823808 net.cpp:90] Creating Layer ip1_p
I0610 01:30:00.217952 1956823808 net.cpp:410] ip1_p <- pool3_p
I0610 01:30:00.217962 1956823808 net.cpp:368] ip1_p -> ip1_p
I0610 01:30:00.217973 1956823808 net.cpp:120] Setting up ip1_p
I0610 01:30:00.236821 1956823808 net.cpp:127] Top shape: 64 500 (32000)
I0610 01:30:00.236846 1956823808 net.cpp:459] Sharing parameters 'ip1_w' owned by layer 'ip1', param index 0
I0610 01:30:00.236856 1956823808 net.cpp:459] Sharing parameters 'ip1_b' owned by layer 'ip1', param index 1
I0610 01:30:00.236862 1956823808 layer_factory.hpp:74] Creating layer relu1_p
I0610 01:30:00.236901 1956823808 net.cpp:90] Creating Layer relu1_p
I0610 01:30:00.236906 1956823808 net.cpp:410] relu1_p <- ip1_p
I0610 01:30:00.236910 1956823808 net.cpp:357] relu1_p -> ip1_p (in-place)
I0610 01:30:00.236917 1956823808 net.cpp:120] Setting up relu1_p
I0610 01:30:00.237187 1956823808 net.cpp:127] Top shape: 64 500 (32000)
I0610 01:30:00.237196 1956823808 layer_factory.hpp:74] Creating layer ip2_p
I0610 01:30:00.237207 1956823808 net.cpp:90] Creating Layer ip2_p
I0610 01:30:00.237211 1956823808 net.cpp:410] ip2_p <- ip1_p
I0610 01:30:00.237217 1956823808 net.cpp:368] ip2_p -> ip2_p
I0610 01:30:00.237231 1956823808 net.cpp:120] Setting up ip2_p
I0610 01:30:00.237282 1956823808 net.cpp:127] Top shape: 64 10 (640)
I0610 01:30:00.237310 1956823808 net.cpp:459] Sharing parameters 'ip2_w' owned by layer 'ip2', param index 0
I0610 01:30:00.237316 1956823808 net.cpp:459] Sharing parameters 'ip2_b' owned by layer 'ip2', param index 1
I0610 01:30:00.237321 1956823808 layer_factory.hpp:74] Creating layer feat_p
I0610 01:30:00.237328 1956823808 net.cpp:90] Creating Layer feat_p
I0610 01:30:00.237331 1956823808 net.cpp:410] feat_p <- ip2_p
I0610 01:30:00.237339 1956823808 net.cpp:368] feat_p -> feat_p
I0610 01:30:00.237345 1956823808 net.cpp:120] Setting up feat_p
I0610 01:30:00.237354 1956823808 net.cpp:127] Top shape: 64 2 (128)
I0610 01:30:00.237360 1956823808 net.cpp:459] Sharing parameters 'feat_w' owned by layer 'feat', param index 0
I0610 01:30:00.237365 1956823808 net.cpp:459] Sharing parameters 'feat_b' owned by layer 'feat', param index 1
I0610 01:30:00.237368 1956823808 layer_factory.hpp:74] Creating layer loss
I0610 01:30:00.237377 1956823808 net.cpp:90] Creating Layer loss
I0610 01:30:00.237381 1956823808 net.cpp:410] loss <- feat
…
I0610 01:30:00.237892 1956823808 solver.cpp:154] Creating test net (#0) specified by net file: src/siamese_network_bw/model/siamese_train_validate.prototxt
I0610 01:30:00.237933 1956823808 net.cpp:287] The NetState phase (1) differed from the phase (0) specified by a rule in layer pair_data
I0610 01:30:00.237951 1956823808 net.cpp:42] Initializing net from parameters: 
name: "siamese_train_validate"
state {
  phase: TEST
}
layer {
  name: "pair_data"
  type: "Data"
  top: "pair_data"
  top: "sim"
  include {
    phase: TEST
  }
  transform_param {
    scale: 1
  }
  data_param {
    source: "src/siamese_network_bw/data/siamese_network_validation_leveldb"
    batch_size: 100
  }
}
layer {
  name: "slice_pair"
  type: "Slice"
  bottom: "pair_data"
  top: "data"
  top: "data_p"
  slice_param {
    slice_dim: 1
    slice_point: 1
  }
}
layer {
  name: "conv1"
  type: "Convolution"
  bottom: "data"
  top: "conv1"
  param {
    name: "conv1_w"
    lr_mult: 1
  }
  param {
    name: "conv1_b"
    lr_mult: 2
  }
  convolution_param {
    num_output: 32
    kernel_size: 3
    stride: 1
    weight_filler {
      type: "xavier"
    }
    bias_filler {
      type: "constant"
    }
  }
}
layer {
  name: "pool1"
  type: "Pooling"
  bottom: "conv1"
  top: "pool1"
  pooling_param {
    pool: MAX
    kernel_size: 2
    stride: 2
  }
}
layer {
  name: "conv2"
  type: "Convolution"
  bottom: "pool1"
  top: "conv2"
  param {
    name: "conv2_w"
    lr_mult: 1
  }
  param {
    name: "conv2_b"
    lr_mult: 2
  }
  convolution_param {
    num_output: 64
    kernel_size: 2
    stride: 1
    weight_filler {
      type: "xavier"
    }
    bias_filler {
      type: "constant"
    }
  }
}
layer {
  name: "pool2"
  type: "Pooling"
  bottom: "conv2"
  top: "pool2"
  pooling_param {
    pool: MAX
    kernel_size: 2
    stride: 2
  }
}
layer {
  name: "conv3"
  type: "Convolution"
  bottom: "pool2"
  top: "conv3"
  param {
    name: "conv3_w"
    lr_mult: 1
  }
  param {
    name: "conv3_b"
    lr_mult: 2
  }
  convolution_param {
    num_output: 128
    kernel_size: 2
    stride: 1
    weight_filler {
      type: "xavier"
    }
    bias_filler {
      type: "constant"
    }
  }
}
layer {
  name: "pool3"
  type: "Pooling"
  bottom: "conv3"
  top: "pool3"
  pooling_param {
    pool: MAX
    kernel_size: 2
    stride: 2
  }
}
layer {
  name: "ip1"
  type: "InnerProduct"
  bottom: "pool3"
  top: "ip1"
  param {
    name: "ip1_w"
    lr_mult: 1
  }
  param {
    name: "ip1_b"
    lr_mult: 2
  }
  inner_product_param {
    num_output: 500
    weight_filler {
      type: "xavier"
    }
    bias_filler {
      type: "constant"
    }
  }
}
layer {
  name: "relu1"
  type: "ReLU"
  bottom: "ip1"
  top: "ip1"
}
layer {
  name: "ip2"
  type: "InnerProduct"
  bottom: "ip1"
  top: "ip2"
  param {
    name: "ip2_w"
    lr_mult: 1
  }
  param {
    name: "ip2_b"
    lr_mult: 2
  }
  inner_product_param {
    num_output: 10
    weight_filler {
      type: "xavier"
    }
    bias_filler {
      type: "constant"
    }
  }
}
layer {
  name: "feat"
  type: "InnerProduct"
  bottom: "ip2"
  top: "feat"
  param {
    name: "feat_w"
    lr_mult: 1
  }
  param {
    name: "feat_b"
    lr_mult: 2
  }
  inner_product_param {
    num_output: 2
    weight_filler {
      type: "xavier"
    }
    bias_filler {
      type: "constant"
    }
  }
}
layer {
  name: "conv1_p"
  type: "Convolution"
  bottom: "data_p"
  top: "conv1_p"
  param {
    name: "conv1_w"
    lr_mult: 1
  }
  param {
    name: "conv1_b"
    lr_mult: 2
  }
  convolution_param {
    num_output: 32
    kernel_size: 3
    stride: 1
    weight_filler {
      type: "xavier"
    }
    bias_filler {
      type: "constant"
    }
  }
}
layer {
  name: "pool1_p"
  type: "Pooling"
  bottom: "conv1_p"
  top: "pool1_p"
  pooling_param {
    pool: MAX
    kernel_size: 2
    stride: 2
  }
}
layer {
  name: "conv2_p"
  type: "Convolution"
  bottom: "pool1_p"
  top: "conv2_p"
  param {
    name: "conv2_w"
    lr_mult: 1
  }
  param {
    name: "conv2_b"
    lr_mult: 2
  }
  convolution_param {
    num_output: 64
    kernel_size: 2
    stride: 1
    weight_filler {
      type: "xavier"
    }
    bias_filler {
      type: "constant"
    }
  }
}
layer {
  name: "pool2_p"
  type: "Pooling"
  bottom: "conv2_p"
  top: "pool2_p"
  pooling_param {
    pool: MAX
    kernel_size: 2
    stride: 2
  }
}
layer {
  name: "conv3_p"
  type: "Convolution"
  bottom: "pool2_p"
  top: "conv3_p"
  param {
    name: "conv3_w"
    lr_mult: 1
  }
  param {
    name: "conv3_b"
    lr_mult: 2
  }
  convolution_param {
    num_output: 128
    kernel_size: 2
    stride: 1
    weight_filler {
      type: "xavier"
    }
    bias_filler {
      type: "constant"
    }
  }
}
layer {
  name: "pool3_p"
  type: "Pooling"
  bottom: "conv3_p"
  top: "pool3_p"
  pooling_param {
    pool: MAX
    kernel_size: 2
    stride: 2
  }
}
layer {
  name: "ip1_p"
  type: "InnerProduct"
  bottom: "pool3_p"
  top: "ip1_p"
  param {
    name: "ip1_w"
    lr_mult: 1
  }
  param {
    name: "ip1_b"
    lr_mult: 2
  }
  inner_product_param {
    num_output: 500
    weight_filler {
      type: "xavier"
    }
    bias_filler {
      type: "constant"
    }
  }
}
layer {
  name: "relu1_p"
  type: "ReLU"
  bottom: "ip1_p"
  top: "ip1_p"
}
layer {
  name: "ip2_p"
  type: "InnerProduct"
  bottom: "ip1_p"
  top: "ip2_p"
  param {
    name: "ip2_w"
    lr_mult: 1
  }
  param {
    name: "ip2_b"
    lr_mult: 2
  }
  inner_product_param {
    num_output: 10
    weight_filler {
      type: "xavier"
    }
    bias_filler {
      type: "constant"
    }
  }
}
layer {
  name: "feat_p"
  type: "InnerProduct"
  bottom: "ip2_p"
  top: "feat_p"
  param {
    name: "feat_w"
    lr_mult: 1
  }
  param {
    name: "feat_b"
    lr_mult: 2
  }
  inner_product_param {
    num_output: 2
    weight_filler {
      type: "xavier"
    }
    bias_filler {
      type: "constant"
    }
  }
}
layer {
  name: "loss"
  type: "ContrastiveLoss"
  bottom: "feat"
  bottom: "feat_p"
  bottom: "sim"
  top: "loss"
  contrastive_loss_param {
    margin: 1
  }
}
I0610 01:30:00.238271 1956823808 layer_factory.hpp:74] Creating layer pair_data
I0610 01:30:00.238281 1956823808 net.cpp:90] Creating Layer pair_data
I0610 01:30:00.238286 1956823808 net.cpp:368] pair_data -> pair_data
I0610 01:30:00.238294 1956823808 net.cpp:368] pair_data -> sim
I0610 01:30:00.238301 1956823808 net.cpp:120] Setting up pair_data
I0610 01:30:00.242960 1956823808 db.cpp:20] Opened leveldb src/siamese_network_bw/data/siamese_network_validation_leveldb
I0610 01:30:00.244740 1956823808 data_layer.cpp:52] output data size: 100,2,62,47
I0610 01:30:00.245576 1956823808 net.cpp:127] Top shape: 100 2 62 47 (582800)
I0610 01:30:00.245589 1956823808 net.cpp:127] Top shape: 100 (100)
I0610 01:30:00.245595 1956823808 layer_factory.hpp:74] Creating layer slice_pair
I0610 01:30:00.245733 1956823808 net.cpp:90] Creating Layer slice_pair
I0610 01:30:00.245739 1956823808 net.cpp:410] slice_pair <- pair_data
I0610 01:30:00.245745 1956823808 net.cpp:368] slice_pair -> data
I0610 01:30:00.245754 1956823808 net.cpp:368] slice_pair -> data_p
I0610 01:30:00.245759 1956823808 net.cpp:120] Setting up slice_pair
I0610 01:30:00.245769 1956823808 net.cpp:127] Top shape: 100 1 62 47 (291400)
I0610 01:30:00.245774 1956823808 net.cpp:127] Top shape: 100 1 62 47 (291400)
I0610 01:30:00.245779 1956823808 layer_factory.hpp:74] Creating layer conv1
I0610 01:30:00.245786 1956823808 net.cpp:90] Creating Layer conv1
I0610 01:30:00.245790 1956823808 net.cpp:410] conv1 <- data
I0610 01:30:00.245800 1956823808 net.cpp:368] conv1 -> conv1
I0610 01:30:00.245806 1956823808 net.cpp:120] Setting up conv1
I0610 01:30:00.246214 1956823808 net.cpp:127] Top shape: 100 32 60 45 (8640000)
I0610 01:30:00.246232 1956823808 layer_factory.hpp:74] Creating layer pool1
I0610 01:30:00.246243 1956823808 net.cpp:90] Creating Layer pool1
I0610 01:30:00.246247 1956823808 net.cpp:410] pool1 <- conv1
I0610 01:30:00.246253 1956823808 net.cpp:368] pool1 -> pool1
I0610 01:30:00.246258 1956823808 net.cpp:120] Setting up pool1
I0610 01:30:00.246367 1956823808 net.cpp:127] Top shape: 100 32 30 23 (2208000)
I0610 01:30:00.246381 1956823808 layer_factory.hpp:74] Creating layer conv2
I0610 01:30:00.246392 1956823808 net.cpp:90] Creating Layer conv2
I0610 01:30:00.246397 1956823808 net.cpp:410] conv2 <- pool1
I0610 01:30:00.246404 1956823808 net.cpp:368] conv2 -> conv2
I0610 01:30:00.246413 1956823808 net.cpp:120] Setting up conv2
I0610 01:30:00.246731 1956823808 net.cpp:127] Top shape: 100 64 29 22 (4083200)
I0610 01:30:00.246755 1956823808 layer_factory.hpp:74] Creating layer pool2
I0610 01:30:00.246762 1956823808 net.cpp:90] Creating Layer pool2
I0610 01:30:00.246785 1956823808 net.cpp:410] pool2 <- conv2
I0610 01:30:00.246791 1956823808 net.cpp:368] pool2 -> pool2
I0610 01:30:00.246798 1956823808 net.cpp:120] Setting up pool2
I0610 01:30:00.246844 1956823808 net.cpp:127] Top shape: 100 64 15 11 (1056000)
I0610 01:30:00.246850 1956823808 layer_factory.hpp:74] Creating layer conv3
I0610 01:30:00.246856 1956823808 net.cpp:90] Creating Layer conv3
I0610 01:30:00.246860 1956823808 net.cpp:410] conv3 <- pool2
I0610 01:30:00.246865 1956823808 net.cpp:368] conv3 -> conv3
I0610 01:30:00.246873 1956823808 net.cpp:120] Setting up conv3
I0610 01:30:00.247364 1956823808 net.cpp:127] Top shape: 100 128 14 10 (1792000)
I0610 01:30:00.247400 1956823808 layer_factory.hpp:74] Creating layer pool3
I0610 01:30:00.247407 1956823808 net.cpp:90] Creating Layer pool3
I0610 01:30:00.247411 1956823808 net.cpp:410] pool3 <- conv3
I0610 01:30:00.247419 1956823808 net.cpp:368] pool3 -> pool3
I0610 01:30:00.247429 1956823808 net.cpp:120] Setting up pool3
I0610 01:30:00.247478 1956823808 net.cpp:127] Top shape: 100 128 7 5 (448000)
I0610 01:30:00.247484 1956823808 layer_factory.hpp:74] Creating layer ip1
I0610 01:30:00.247493 1956823808 net.cpp:90] Creating Layer ip1
I0610 01:30:00.247498 1956823808 net.cpp:410] ip1 <- pool3
I0610 01:30:00.247504 1956823808 net.cpp:368] ip1 -> ip1
I0610 01:30:00.247510 1956823808 net.cpp:120] Setting up ip1
I0610 01:30:00.263295 1956823808 net.cpp:127] Top shape: 100 500 (50000)
I0610 01:30:00.263324 1956823808 layer_factory.hpp:74] Creating layer relu1
I0610 01:30:00.263334 1956823808 net.cpp:90] Creating Layer relu1
I0610 01:30:00.263337 1956823808 net.cpp:410] relu1 <- ip1
I0610 01:30:00.263345 1956823808 net.cpp:357] relu1 -> ip1 (in-place)
I0610 01:30:00.263353 1956823808 net.cpp:120] Setting up relu1
I0610 01:30:00.263584 1956823808 net.cpp:127] Top shape: 100 500 (50000)
I0610 01:30:00.263593 1956823808 layer_factory.hpp:74] Creating layer ip2
I0610 01:30:00.263602 1956823808 net.cpp:90] Creating Layer ip2
I0610 01:30:00.263607 1956823808 net.cpp:410] ip2 <- ip1
I0610 01:30:00.263613 1956823808 net.cpp:368] ip2 -> ip2
I0610 01:30:00.263622 1956823808 net.cpp:120] Setting up ip2
I0610 01:30:00.263711 1956823808 net.cpp:127] Top shape: 100 10 (1000)
I0610 01:30:00.263746 1956823808 layer_factory.hpp:74] Creating layer feat
I0610 01:30:00.263757 1956823808 net.cpp:90] Creating Layer feat
I0610 01:30:00.263762 1956823808 net.cpp:410] feat <- ip2
I0610 01:30:00.263772 1956823808 net.cpp:368] feat -> feat
I0610 01:30:00.263810 1956823808 net.cpp:120] Setting up feat
I0610 01:30:00.263833 1956823808 net.cpp:127] Top shape: 100 2 (200)
I0610 01:30:00.263840 1956823808 layer_factory.hpp:74] Creating layer conv1_p
I0610 01:30:00.263855 1956823808 net.cpp:90] Creating Layer conv1_p
I0610 01:30:00.263860 1956823808 net.cpp:410] conv1_p <- data_p
I0610 01:30:00.263866 1956823808 net.cpp:368] conv1_p -> conv1_p
I0610 01:30:00.263872 1956823808 net.cpp:120] Setting up conv1_p
I0610 01:30:00.264169 1956823808 net.cpp:127] Top shape: 100 32 60 45 (8640000)
I0610 01:30:00.264181 1956823808 net.cpp:459] Sharing parameters 'conv1_w' owned by layer 'conv1', param index 0
I0610 01:30:00.264189 1956823808 net.cpp:459] Sharing parameters 'conv1_b' owned by layer 'conv1', param index 1
I0610 01:30:00.264197 1956823808 layer_factory.hpp:74] Creating layer pool1_p
I0610 01:30:00.264205 1956823808 net.cpp:90] Creating Layer pool1_p
I0610 01:30:00.264209 1956823808 net.cpp:410] pool1_p <- conv1_p
I0610 01:30:00.264219 1956823808 net.cpp:368] pool1_p -> pool1_p
I0610 01:30:00.264225 1956823808 net.cpp:120] Setting up pool1_p
I0610 01:30:00.264271 1956823808 net.cpp:127] Top shape: 100 32 30 23 (2208000)
I0610 01:30:00.264277 1956823808 layer_factory.hpp:74] Creating layer conv2_p
I0610 01:30:00.264284 1956823808 net.cpp:90] Creating Layer conv2_p
I0610 01:30:00.264308 1956823808 net.cpp:410] conv2_p <- pool1_p
I0610 01:30:00.264324 1956823808 net.cpp:368] conv2_p -> conv2_p
I0610 01:30:00.264333 1956823808 net.cpp:120] Setting up conv2_p
I0610 01:30:00.264660 1956823808 net.cpp:127] Top shape: 100 64 29 22 (4083200)
I0610 01:30:00.264686 1956823808 net.cpp:459] Sharing parameters 'conv2_w' owned by layer 'conv2', param index 0
I0610 01:30:00.264744 1956823808 net.cpp:459] Sharing parameters 'conv2_b' owned by layer 'conv2', param index 1
I0610 01:30:00.264761 1956823808 layer_factory.hpp:74] Creating layer pool2_p
I0610 01:30:00.264785 1956823808 net.cpp:90] Creating Layer pool2_p
I0610 01:30:00.264793 1956823808 net.cpp:410] pool2_p <- conv2_p
I0610 01:30:00.264801 1956823808 net.cpp:368] pool2_p -> pool2_p
I0610 01:30:00.264835 1956823808 net.cpp:120] Setting up pool2_p
I0610 01:30:00.264900 1956823808 net.cpp:127] Top shape: 100 64 15 11 (1056000)
I0610 01:30:00.264909 1956823808 layer_factory.hpp:74] Creating layer conv3_p
I0610 01:30:00.264919 1956823808 net.cpp:90] Creating Layer conv3_p
I0610 01:30:00.264922 1956823808 net.cpp:410] conv3_p <- pool2_p
I0610 01:30:00.264930 1956823808 net.cpp:368] conv3_p -> conv3_p
I0610 01:30:00.264937 1956823808 net.cpp:120] Setting up conv3_p
I0610 01:30:00.265498 1956823808 net.cpp:127] Top shape: 100 128 14 10 (1792000)
I0610 01:30:00.265516 1956823808 net.cpp:459] Sharing parameters 'conv3_w' owned by layer 'conv3', param index 0
I0610 01:30:00.265524 1956823808 net.cpp:459] Sharing parameters 'conv3_b' owned by layer 'conv3', param index 1
I0610 01:30:00.265529 1956823808 layer_factory.hpp:74] Creating layer pool3_p
I0610 01:30:00.265535 1956823808 net.cpp:90] Creating Layer pool3_p
I0610 01:30:00.265539 1956823808 net.cpp:410] pool3_p <- conv3_p
I0610 01:30:00.265545 1956823808 net.cpp:368] pool3_p -> pool3_p
I0610 01:30:00.265558 1956823808 net.cpp:120] Setting up pool3_p
I0610 01:30:00.265604 1956823808 net.cpp:127] Top shape: 100 128 7 5 (448000)
I0610 01:30:00.265610 1956823808 layer_factory.hpp:74] Creating layer ip1_p
I0610 01:30:00.265619 1956823808 net.cpp:90] Creating Layer ip1_p
I0610 01:30:00.265624 1956823808 net.cpp:410] ip1_p <- pool3_p
I0610 01:30:00.265629 1956823808 net.cpp:368] ip1_p -> ip1_p
I0610 01:30:00.265638 1956823808 net.cpp:120] Setting up ip1_p
I0610 01:30:00.283401 1956823808 net.cpp:127] Top shape: 100 500 (50000)
I0610 01:30:00.283422 1956823808 net.cpp:459] Sharing parameters 'ip1_w' owned by layer 'ip1', param index 0
I0610 01:30:00.283431 1956823808 net.cpp:459] Sharing parameters 'ip1_b' owned by layer 'ip1', param index 1
I0610 01:30:00.283435 1956823808 layer_factory.hpp:74] Creating layer relu1_p
I0610 01:30:00.283443 1956823808 net.cpp:90] Creating Layer relu1_p
I0610 01:30:00.283447 1956823808 net.cpp:410] relu1_p <- ip1_p
I0610 01:30:00.283452 1956823808 net.cpp:357] relu1_p -> ip1_p (in-place)
I0610 01:30:00.283463 1956823808 net.cpp:120] Setting up relu1_p
I0610 01:30:00.283690 1956823808 net.cpp:127] Top shape: 100 500 (50000)
I0610 01:30:00.283700 1956823808 layer_factory.hpp:74] Creating layer ip2_p
I0610 01:30:00.283736 1956823808 net.cpp:90] Creating Layer ip2_p
I0610 01:30:00.283747 1956823808 net.cpp:410] ip2_p <- ip1_p
I0610 01:30:00.283754 1956823808 net.cpp:368] ip2_p -> ip2_p
I0610 01:30:00.283763 1956823808 net.cpp:120] Setting up ip2_p
I0610 01:30:00.283810 1956823808 net.cpp:127] Top shape: 100 10 (1000)
I0610 01:30:00.283817 1956823808 net.cpp:459] Sharing parameters 'ip2_w' owned by layer 'ip2', param index 0
I0610 01:30:00.283821 1956823808 net.cpp:459] Sharing parameters 'ip2_b' owned by layer 'ip2', param index 1
I0610 01:30:00.283826 1956823808 layer_factory.hpp:74] Creating layer feat_p
I0610 01:30:00.283835 1956823808 net.cpp:90] Creating Layer feat_p
I0610 01:30:00.283839 1956823808 net.cpp:410] feat_p <- ip2_p
I0610 01:30:00.283844 1956823808 net.cpp:368] feat_p -> feat_p
I0610 01:30:00.283850 1956823808 net.cpp:120] Setting up feat_p
I0610 01:30:00.283859 1956823808 net.cpp:127] Top shape: 100 2 (200)
I0610 01:30:00.283864 1956823808 net.cpp:459] Sharing parameters 'feat_w' owned by layer 'feat', param index 0
I0610 01:30:00.283869 1956823808 net.cpp:459] Sharing parameters 'feat_b' owned by layer 'feat', param index 1
I0610 01:30:00.283872 1956823808 layer_factory.hpp:74] Creating layer loss
I0610 01:30:00.283907 1956823808 net.cpp:90] Creating Layer loss
I0610 01:30:00.283915 1956823808 net.cpp:410] loss <- feat
…
