…
I0811 19:42:38.202131 2099430144 solver.cpp:70] Creating training net from net file: src/siamese_network_bw/model/siamese_train_validate.prototxt
I0811 19:42:38.206378 2099430144 net.cpp:287] The NetState phase (0) differed from the phase (1) specified by a rule in layer pair_data
I0811 19:42:38.206436 2099430144 net.cpp:42] Initializing net from parameters: 
name: "siamese_train_validate"
state {
  phase: TRAIN
}
layer {
  name: "pair_data"
  type: "Data"
  top: "pair_data"
  top: "sim"
  include {
    phase: TRAIN
  }
  transform_param {
    scale: 0.00390625
  }
  data_param {
    source: "src/siamese_network_bw/data/siamese_network_train_leveldb"
    batch_size: 64
  }
}
layer {
  name: "slice_pair"
  type: "Slice"
  bottom: "pair_data"
  top: "data"
  top: "data_p"
  slice_param {
    slice_dim: 1
    slice_point: 1
  }
}
layer {
  name: "conv1"
  type: "Convolution"
  bottom: "data"
  top: "conv1"
  param {
    name: "conv1_w"
    lr_mult: 1
  }
  param {
    name: "conv1_b"
    lr_mult: 2
  }
  convolution_param {
    num_output: 32
    kernel_size: 3
    stride: 1
    weight_filler {
      type: "xavier"
    }
    bias_filler {
      type: "constant"
    }
  }
}
layer {
  name: "pool1"
  type: "Pooling"
  bottom: "conv1"
  top: "pool1"
  pooling_param {
    pool: MAX
    kernel_size: 2
    stride: 2
  }
}
layer {
  name: "conv2"
  type: "Convolution"
  bottom: "pool1"
  top: "conv2"
  param {
    name: "conv2_w"
    lr_mult: 1
  }
  param {
    name: "conv2_b"
    lr_mult: 2
  }
  convolution_param {
    num_output: 64
    kernel_size: 2
    stride: 1
    weight_filler {
      type: "xavier"
    }
    bias_filler {
      type: "constant"
    }
  }
}
layer {
  name: "pool2"
  type: "Pooling"
  bottom: "conv2"
  top: "pool2"
  pooling_param {
    pool: MAX
    kernel_size: 2
    stride: 2
  }
}
layer {
  name: "conv3"
  type: "Convolution"
  bottom: "pool2"
  top: "conv3"
  param {
    name: "conv3_w"
    lr_mult: 1
  }
  param {
    name: "conv3_b"
    lr_mult: 2
  }
  convolution_param {
    num_output: 128
    kernel_size: 2
    stride: 1
    weight_filler {
      type: "xavier"
    }
    bias_filler {
      type: "constant"
    }
  }
}
layer {
  name: "pool3"
  type: "Pooling"
  bottom: "conv3"
  top: "pool3"
  pooling_param {
    pool: MAX
    kernel_size: 2
    stride: 2
  }
}
layer {
  name: "ip1"
  type: "InnerProduct"
  bottom: "pool3"
  top: "ip1"
  param {
    name: "ip1_w"
    lr_mult: 1
  }
  param {
    name: "ip1_b"
    lr_mult: 2
  }
  inner_product_param {
    num_output: 500
    weight_filler {
      type: "xavier"
    }
    bias_filler {
      type: "constant"
    }
  }
}
layer {
  name: "relu1"
  type: "ReLU"
  bottom: "ip1"
  top: "ip1"
}
layer {
  name: "ip2"
  type: "InnerProduct"
  bottom: "ip1"
  top: "ip2"
  param {
    name: "ip2_w"
    lr_mult: 1
  }
  param {
    name: "ip2_b"
    lr_mult: 2
  }
  inner_product_param {
    num_output: 500
    weight_filler {
      type: "xavier"
    }
    bias_filler {
      type: "constant"
    }
  }
}
layer {
  name: "relu2"
  type: "ReLU"
  bottom: "ip2"
  top: "ip2"
}
layer {
  name: "feat"
  type: "InnerProduct"
  bottom: "ip2"
  top: "feat"
  param {
    name: "feat_w"
    lr_mult: 1
  }
  param {
    name: "feat_b"
    lr_mult: 2
  }
  inner_product_param {
    num_output: 2
    weight_filler {
      type: "xavier"
    }
    bias_filler {
      type: "constant"
    }
  }
}
layer {
  name: "conv1_p"
  type: "Convolution"
  bottom: "data_p"
  top: "conv1_p"
  param {
    name: "conv1_w"
    lr_mult: 1
  }
  param {
    name: "conv1_b"
    lr_mult: 2
  }
  convolution_param {
    num_output: 32
    kernel_size: 3
    stride: 1
    weight_filler {
      type: "xavier"
    }
    bias_filler {
      type: "constant"
    }
  }
}
layer {
  name: "pool1_p"
  type: "Pooling"
  bottom: "conv1_p"
  top: "pool1_p"
  pooling_param {
    pool: MAX
    kernel_size: 2
    stride: 2
  }
}
layer {
  name: "conv2_p"
  type: "Convolution"
  bottom: "pool1_p"
  top: "conv2_p"
  param {
    name: "conv2_w"
    lr_mult: 1
  }
  param {
    name: "conv2_b"
    lr_mult: 2
  }
  convolution_param {
    num_output: 64
    kernel_size: 2
    stride: 1
    weight_filler {
      type: "xavier"
    }
    bias_filler {
      type: "constant"
    }
  }
}
layer {
  name: "pool2_p"
  type: "Pooling"
  bottom: "conv2_p"
  top: "pool2_p"
  pooling_param {
    pool: MAX
    kernel_size: 2
    stride: 2
  }
}
layer {
  name: "conv3_p"
  type: "Convolution"
  bottom: "pool2_p"
  top: "conv3_p"
  param {
    name: "conv3_w"
    lr_mult: 1
  }
  param {
    name: "conv3_b"
    lr_mult: 2
  }
  convolution_param {
    num_output: 128
    kernel_size: 2
    stride: 1
    weight_filler {
      type: "xavier"
    }
    bias_filler {
      type: "constant"
    }
  }
}
layer {
  name: "pool3_p"
  type: "Pooling"
  bottom: "conv3_p"
  top: "pool3_p"
  pooling_param {
    pool: MAX
    kernel_size: 2
    stride: 2
  }
}
layer {
  name: "ip1_p"
  type: "InnerProduct"
  bottom: "pool3_p"
  top: "ip1_p"
  param {
    name: "ip1_w"
    lr_mult: 1
  }
  param {
    name: "ip1_b"
    lr_mult: 2
  }
  inner_product_param {
    num_output: 500
    weight_filler {
      type: "xavier"
    }
    bias_filler {
      type: "constant"
    }
  }
}
layer {
  name: "relu1_p"
  type: "ReLU"
  bottom: "ip1_p"
  top: "ip1_p"
}
layer {
  name: "ip2_p"
  type: "InnerProduct"
  bottom: "ip1_p"
  top: "ip2_p"
  param {
    name: "ip2_w"
    lr_mult: 1
  }
  param {
    name: "ip2_b"
    lr_mult: 2
  }
  inner_product_param {
    num_output: 500
    weight_filler {
      type: "xavier"
    }
    bias_filler {
      type: "constant"
    }
  }
}
layer {
  name: "relu2_p"
  type: "ReLU"
  bottom: "ip2_p"
  top: "ip2_p"
}
layer {
  name: "feat_p"
  type: "InnerProduct"
  bottom: "ip2_p"
  top: "feat_p"
  param {
    name: "feat_w"
    lr_mult: 1
  }
  param {
    name: "feat_b"
    lr_mult: 2
  }
  inner_product_param {
    num_output: 2
    weight_filler {
      type: "xavier"
    }
    bias_filler {
      type: "constant"
    }
  }
}
layer {
  name: "loss"
  type: "ContrastiveLoss"
  bottom: "feat"
  bottom: "feat_p"
  bottom: "sim"
  top: "loss"
  contrastive_loss_param {
    margin: 1
  }
}
I0811 19:42:38.207027 2099430144 layer_factory.hpp:74] Creating layer pair_data
I0811 19:42:38.208052 2099430144 net.cpp:90] Creating Layer pair_data
I0811 19:42:38.208071 2099430144 net.cpp:368] pair_data -> pair_data
I0811 19:42:38.208472 2099430144 net.cpp:368] pair_data -> sim
I0811 19:42:38.208489 2099430144 net.cpp:120] Setting up pair_data
I0811 19:42:51.009763 2099430144 db.cpp:20] Opened leveldb src/siamese_network_bw/data/siamese_network_train_leveldb
I0811 19:42:51.018759 2099430144 data_layer.cpp:52] output data size: 64,2,58,58
I0811 19:42:51.019517 2099430144 net.cpp:127] Top shape: 64 2 58 58 (430592)
I0811 19:42:51.019778 2099430144 net.cpp:127] Top shape: 64 (64)
I0811 19:42:51.019789 2099430144 layer_factory.hpp:74] Creating layer slice_pair
I0811 19:42:51.019800 2099430144 net.cpp:90] Creating Layer slice_pair
I0811 19:42:51.019804 2099430144 net.cpp:410] slice_pair <- pair_data
I0811 19:42:51.019811 2099430144 net.cpp:368] slice_pair -> data
I0811 19:42:51.019820 2099430144 net.cpp:368] slice_pair -> data_p
I0811 19:42:51.019825 2099430144 net.cpp:120] Setting up slice_pair
I0811 19:42:51.020009 2099430144 net.cpp:127] Top shape: 64 1 58 58 (215296)
I0811 19:42:51.020021 2099430144 net.cpp:127] Top shape: 64 1 58 58 (215296)
I0811 19:42:51.020028 2099430144 layer_factory.hpp:74] Creating layer conv1
I0811 19:42:51.020040 2099430144 net.cpp:90] Creating Layer conv1
I0811 19:42:51.020045 2099430144 net.cpp:410] conv1 <- data
I0811 19:42:51.020051 2099430144 net.cpp:368] conv1 -> conv1
I0811 19:42:51.020077 2099430144 net.cpp:120] Setting up conv1
I0811 19:42:51.166239 2099430144 net.cpp:127] Top shape: 64 32 56 56 (6422528)
I0811 19:42:51.166278 2099430144 layer_factory.hpp:74] Creating layer pool1
I0811 19:42:51.166293 2099430144 net.cpp:90] Creating Layer pool1
I0811 19:42:51.166299 2099430144 net.cpp:410] pool1 <- conv1
I0811 19:42:51.166311 2099430144 net.cpp:368] pool1 -> pool1
I0811 19:42:51.166321 2099430144 net.cpp:120] Setting up pool1
I0811 19:42:51.166779 2099430144 net.cpp:127] Top shape: 64 32 28 28 (1605632)
I0811 19:42:51.166797 2099430144 layer_factory.hpp:74] Creating layer conv2
I0811 19:42:51.166810 2099430144 net.cpp:90] Creating Layer conv2
I0811 19:42:51.166815 2099430144 net.cpp:410] conv2 <- pool1
I0811 19:42:51.166822 2099430144 net.cpp:368] conv2 -> conv2
I0811 19:42:51.166832 2099430144 net.cpp:120] Setting up conv2
I0811 19:42:51.167152 2099430144 net.cpp:127] Top shape: 64 64 27 27 (2985984)
I0811 19:42:51.167167 2099430144 layer_factory.hpp:74] Creating layer pool2
I0811 19:42:51.167176 2099430144 net.cpp:90] Creating Layer pool2
I0811 19:42:51.167181 2099430144 net.cpp:410] pool2 <- conv2
I0811 19:42:51.167186 2099430144 net.cpp:368] pool2 -> pool2
I0811 19:42:51.167197 2099430144 net.cpp:120] Setting up pool2
I0811 19:42:51.167250 2099430144 net.cpp:127] Top shape: 64 64 14 14 (802816)
I0811 19:42:51.167258 2099430144 layer_factory.hpp:74] Creating layer conv3
I0811 19:42:51.167268 2099430144 net.cpp:90] Creating Layer conv3
I0811 19:42:51.167273 2099430144 net.cpp:410] conv3 <- pool2
I0811 19:42:51.167307 2099430144 net.cpp:368] conv3 -> conv3
I0811 19:42:51.167326 2099430144 net.cpp:120] Setting up conv3
I0811 19:42:51.167883 2099430144 net.cpp:127] Top shape: 64 128 13 13 (1384448)
I0811 19:42:51.167901 2099430144 layer_factory.hpp:74] Creating layer pool3
I0811 19:42:51.167911 2099430144 net.cpp:90] Creating Layer pool3
I0811 19:42:51.167915 2099430144 net.cpp:410] pool3 <- conv3
I0811 19:42:51.167930 2099430144 net.cpp:368] pool3 -> pool3
I0811 19:42:51.167937 2099430144 net.cpp:120] Setting up pool3
I0811 19:42:51.167991 2099430144 net.cpp:127] Top shape: 64 128 7 7 (401408)
I0811 19:42:51.167999 2099430144 layer_factory.hpp:74] Creating layer ip1
I0811 19:42:51.168010 2099430144 net.cpp:90] Creating Layer ip1
I0811 19:42:51.168015 2099430144 net.cpp:410] ip1 <- pool3
I0811 19:42:51.168022 2099430144 net.cpp:368] ip1 -> ip1
I0811 19:42:51.168032 2099430144 net.cpp:120] Setting up ip1
I0811 19:42:51.190922 2099430144 net.cpp:127] Top shape: 64 500 (32000)
I0811 19:42:51.190963 2099430144 layer_factory.hpp:74] Creating layer relu1
I0811 19:42:51.191084 2099430144 net.cpp:90] Creating Layer relu1
I0811 19:42:51.191095 2099430144 net.cpp:410] relu1 <- ip1
I0811 19:42:51.191105 2099430144 net.cpp:357] relu1 -> ip1 (in-place)
I0811 19:42:51.191113 2099430144 net.cpp:120] Setting up relu1
I0811 19:42:51.191371 2099430144 net.cpp:127] Top shape: 64 500 (32000)
I0811 19:42:51.191391 2099430144 layer_factory.hpp:74] Creating layer ip2
I0811 19:42:51.191411 2099430144 net.cpp:90] Creating Layer ip2
I0811 19:42:51.191414 2099430144 net.cpp:410] ip2 <- ip1
I0811 19:42:51.191421 2099430144 net.cpp:368] ip2 -> ip2
I0811 19:42:51.191427 2099430144 net.cpp:120] Setting up ip2
I0811 19:42:51.193090 2099430144 net.cpp:127] Top shape: 64 500 (32000)
I0811 19:42:51.193112 2099430144 layer_factory.hpp:74] Creating layer relu2
I0811 19:42:51.193120 2099430144 net.cpp:90] Creating Layer relu2
I0811 19:42:51.193123 2099430144 net.cpp:410] relu2 <- ip2
I0811 19:42:51.193127 2099430144 net.cpp:357] relu2 -> ip2 (in-place)
I0811 19:42:51.193133 2099430144 net.cpp:120] Setting up relu2
I0811 19:42:51.193186 2099430144 net.cpp:127] Top shape: 64 500 (32000)
I0811 19:42:51.193192 2099430144 layer_factory.hpp:74] Creating layer feat
I0811 19:42:51.193198 2099430144 net.cpp:90] Creating Layer feat
I0811 19:42:51.193202 2099430144 net.cpp:410] feat <- ip2
I0811 19:42:51.193208 2099430144 net.cpp:368] feat -> feat
I0811 19:42:51.193217 2099430144 net.cpp:120] Setting up feat
I0811 19:42:51.193235 2099430144 net.cpp:127] Top shape: 64 2 (128)
I0811 19:42:51.193269 2099430144 layer_factory.hpp:74] Creating layer conv1_p
I0811 19:42:51.193276 2099430144 net.cpp:90] Creating Layer conv1_p
I0811 19:42:51.193280 2099430144 net.cpp:410] conv1_p <- data_p
I0811 19:42:51.193286 2099430144 net.cpp:368] conv1_p -> conv1_p
I0811 19:42:51.193298 2099430144 net.cpp:120] Setting up conv1_p
I0811 19:42:51.193533 2099430144 net.cpp:127] Top shape: 64 32 56 56 (6422528)
I0811 19:42:51.193543 2099430144 net.cpp:459] Sharing parameters 'conv1_w' owned by layer 'conv1', param index 0
I0811 19:42:51.193557 2099430144 net.cpp:459] Sharing parameters 'conv1_b' owned by layer 'conv1', param index 1
I0811 19:42:51.193562 2099430144 layer_factory.hpp:74] Creating layer pool1_p
I0811 19:42:51.193568 2099430144 net.cpp:90] Creating Layer pool1_p
I0811 19:42:51.193572 2099430144 net.cpp:410] pool1_p <- conv1_p
I0811 19:42:51.193578 2099430144 net.cpp:368] pool1_p -> pool1_p
I0811 19:42:51.193583 2099430144 net.cpp:120] Setting up pool1_p
I0811 19:42:51.193634 2099430144 net.cpp:127] Top shape: 64 32 28 28 (1605632)
I0811 19:42:51.193686 2099430144 layer_factory.hpp:74] Creating layer conv2_p
I0811 19:42:51.193704 2099430144 net.cpp:90] Creating Layer conv2_p
I0811 19:42:51.193722 2099430144 net.cpp:410] conv2_p <- pool1_p
I0811 19:42:51.193740 2099430144 net.cpp:368] conv2_p -> conv2_p
I0811 19:42:51.193753 2099430144 net.cpp:120] Setting up conv2_p
I0811 19:42:51.194069 2099430144 net.cpp:127] Top shape: 64 64 27 27 (2985984)
I0811 19:42:51.194083 2099430144 net.cpp:459] Sharing parameters 'conv2_w' owned by layer 'conv2', param index 0
I0811 19:42:51.194090 2099430144 net.cpp:459] Sharing parameters 'conv2_b' owned by layer 'conv2', param index 1
I0811 19:42:51.194094 2099430144 layer_factory.hpp:74] Creating layer pool2_p
I0811 19:42:51.194104 2099430144 net.cpp:90] Creating Layer pool2_p
I0811 19:42:51.194109 2099430144 net.cpp:410] pool2_p <- conv2_p
I0811 19:42:51.194115 2099430144 net.cpp:368] pool2_p -> pool2_p
I0811 19:42:51.194123 2099430144 net.cpp:120] Setting up pool2_p
I0811 19:42:51.194164 2099430144 net.cpp:127] Top shape: 64 64 14 14 (802816)
I0811 19:42:51.194171 2099430144 layer_factory.hpp:74] Creating layer conv3_p
I0811 19:42:51.194180 2099430144 net.cpp:90] Creating Layer conv3_p
I0811 19:42:51.194182 2099430144 net.cpp:410] conv3_p <- pool2_p
I0811 19:42:51.194188 2099430144 net.cpp:368] conv3_p -> conv3_p
I0811 19:42:51.194195 2099430144 net.cpp:120] Setting up conv3_p
I0811 19:42:51.194881 2099430144 net.cpp:127] Top shape: 64 128 13 13 (1384448)
I0811 19:42:51.194905 2099430144 net.cpp:459] Sharing parameters 'conv3_w' owned by layer 'conv3', param index 0
I0811 19:42:51.194918 2099430144 net.cpp:459] Sharing parameters 'conv3_b' owned by layer 'conv3', param index 1
I0811 19:42:51.194929 2099430144 layer_factory.hpp:74] Creating layer pool3_p
I0811 19:42:51.194965 2099430144 net.cpp:90] Creating Layer pool3_p
I0811 19:42:51.194979 2099430144 net.cpp:410] pool3_p <- conv3_p
I0811 19:42:51.194989 2099430144 net.cpp:368] pool3_p -> pool3_p
I0811 19:42:51.195016 2099430144 net.cpp:120] Setting up pool3_p
I0811 19:42:51.195152 2099430144 net.cpp:127] Top shape: 64 128 7 7 (401408)
I0811 19:42:51.195163 2099430144 layer_factory.hpp:74] Creating layer ip1_p
I0811 19:42:51.195170 2099430144 net.cpp:90] Creating Layer ip1_p
I0811 19:42:51.195175 2099430144 net.cpp:410] ip1_p <- pool3_p
I0811 19:42:51.195181 2099430144 net.cpp:368] ip1_p -> ip1_p
I0811 19:42:51.195189 2099430144 net.cpp:120] Setting up ip1_p
I0811 19:42:51.221925 2099430144 net.cpp:127] Top shape: 64 500 (32000)
I0811 19:42:51.221956 2099430144 net.cpp:459] Sharing parameters 'ip1_w' owned by layer 'ip1', param index 0
I0811 19:42:51.223033 2099430144 net.cpp:459] Sharing parameters 'ip1_b' owned by layer 'ip1', param index 1
I0811 19:42:51.223053 2099430144 layer_factory.hpp:74] Creating layer relu1_p
I0811 19:42:51.223064 2099430144 net.cpp:90] Creating Layer relu1_p
I0811 19:42:51.223070 2099430144 net.cpp:410] relu1_p <- ip1_p
I0811 19:42:51.223078 2099430144 net.cpp:357] relu1_p -> ip1_p (in-place)
I0811 19:42:51.223112 2099430144 net.cpp:120] Setting up relu1_p
I0811 19:42:51.223275 2099430144 net.cpp:127] Top shape: 64 500 (32000)
I0811 19:42:51.223294 2099430144 layer_factory.hpp:74] Creating layer ip2_p
I0811 19:42:51.223310 2099430144 net.cpp:90] Creating Layer ip2_p
I0811 19:42:51.223316 2099430144 net.cpp:410] ip2_p <- ip1_p
I0811 19:42:51.223323 2099430144 net.cpp:368] ip2_p -> ip2_p
I0811 19:42:51.223345 2099430144 net.cpp:120] Setting up ip2_p
I0811 19:42:51.225771 2099430144 net.cpp:127] Top shape: 64 500 (32000)
I0811 19:42:51.225793 2099430144 net.cpp:459] Sharing parameters 'ip2_w' owned by layer 'ip2', param index 0
I0811 19:42:51.225803 2099430144 net.cpp:459] Sharing parameters 'ip2_b' owned by layer 'ip2', param index 1
I0811 19:42:51.225810 2099430144 layer_factory.hpp:74] Creating layer relu2_p
I0811 19:42:51.225817 2099430144 net.cpp:90] Creating Layer relu2_p
I0811 19:42:51.225821 2099430144 net.cpp:410] relu2_p <- ip2_p
I0811 19:42:51.225826 2099430144 net.cpp:357] relu2_p -> ip2_p (in-place)
I0811 19:42:51.225833 2099430144 net.cpp:120] Setting up relu2_p
I0811 19:42:51.225981 2099430144 net.cpp:127] Top shape: 64 500 (32000)
I0811 19:42:51.226001 2099430144 layer_factory.hpp:74] Creating layer feat_p
I0811 19:42:51.226014 2099430144 net.cpp:90] Creating Layer feat_p
I0811 19:42:51.226022 2099430144 net.cpp:410] feat_p <- ip2_p
I0811 19:42:51.226035 2099430144 net.cpp:368] feat_p -> feat_p
I0811 19:42:51.226048 2099430144 net.cpp:120] Setting up feat_p
I0811 19:42:51.226090 2099430144 net.cpp:127] Top shape: 64 2 (128)
I0811 19:42:51.226106 2099430144 net.cpp:459] Sharing parameters 'feat_w' owned by layer 'feat', param index 0
I0811 19:42:51.226116 2099430144 net.cpp:459] Sharing parameters 'feat_b' owned by layer 'feat', param index 1
I0811 19:42:51.226124 2099430144 layer_factory.hpp:74] Creating layer loss
I0811 19:42:51.226353 2099430144 net.cpp:90] Creating Layer loss
I0811 19:42:51.226366 2099430144 net.cpp:410] loss <- feat
…
