…
I0707 22:04:46.640002 1970144000 solver.cpp:70] Creating training net from net file: src/siamese_network_bw/model/siamese_train_validate.prototxt
I0707 22:04:46.640511 1970144000 net.cpp:287] The NetState phase (0) differed from the phase (1) specified by a rule in layer pair_data
I0707 22:04:46.640543 1970144000 net.cpp:42] Initializing net from parameters: 
name: "siamese_train_validate"
state {
  phase: TRAIN
}
layer {
  name: "pair_data"
  type: "Data"
  top: "pair_data"
  top: "sim"
  include {
    phase: TRAIN
  }
  transform_param {
    scale: 0.00390625
  }
  data_param {
    source: "src/siamese_network_bw/data/siamese_network_train_leveldb"
    batch_size: 100
  }
}
layer {
  name: "slice_pair"
  type: "Slice"
  bottom: "pair_data"
  top: "data"
  top: "data_p"
  slice_param {
    slice_dim: 1
    slice_point: 1
  }
}
layer {
  name: "conv1"
  type: "Convolution"
  bottom: "data"
  top: "conv1"
  param {
    name: "conv1_w"
    lr_mult: 1
  }
  param {
    name: "conv1_b"
    lr_mult: 2
  }
  convolution_param {
    num_output: 32
    kernel_size: 3
    stride: 1
    weight_filler {
      type: "xavier"
    }
    bias_filler {
      type: "constant"
    }
  }
}
layer {
  name: "pool1"
  type: "Pooling"
  bottom: "conv1"
  top: "pool1"
  pooling_param {
    pool: MAX
    kernel_size: 2
    stride: 2
  }
}
layer {
  name: "conv2"
  type: "Convolution"
  bottom: "pool1"
  top: "conv2"
  param {
    name: "conv2_w"
    lr_mult: 1
  }
  param {
    name: "conv2_b"
    lr_mult: 2
  }
  convolution_param {
    num_output: 64
    kernel_size: 2
    stride: 1
    weight_filler {
      type: "xavier"
    }
    bias_filler {
      type: "constant"
    }
  }
}
layer {
  name: "pool2"
  type: "Pooling"
  bottom: "conv2"
  top: "pool2"
  pooling_param {
    pool: MAX
    kernel_size: 2
    stride: 2
  }
}
layer {
  name: "conv3"
  type: "Convolution"
  bottom: "pool2"
  top: "conv3"
  param {
    name: "conv3_w"
    lr_mult: 1
  }
  param {
    name: "conv3_b"
    lr_mult: 2
  }
  convolution_param {
    num_output: 128
    kernel_size: 2
    stride: 1
    weight_filler {
      type: "xavier"
    }
    bias_filler {
      type: "constant"
    }
  }
}
layer {
  name: "pool3"
  type: "Pooling"
  bottom: "conv3"
  top: "pool3"
  pooling_param {
    pool: MAX
    kernel_size: 2
    stride: 2
  }
}
layer {
  name: "ip1"
  type: "InnerProduct"
  bottom: "pool3"
  top: "ip1"
  param {
    name: "ip1_w"
    lr_mult: 1
  }
  param {
    name: "ip1_b"
    lr_mult: 2
  }
  inner_product_param {
    num_output: 500
    weight_filler {
      type: "xavier"
    }
    bias_filler {
      type: "constant"
    }
  }
}
layer {
  name: "relu1"
  type: "ReLU"
  bottom: "ip1"
  top: "ip1"
}
layer {
  name: "ip2"
  type: "InnerProduct"
  bottom: "ip1"
  top: "ip2"
  param {
    name: "ip2_w"
    lr_mult: 1
  }
  param {
    name: "ip2_b"
    lr_mult: 2
  }
  inner_product_param {
    num_output: 500
    weight_filler {
      type: "xavier"
    }
    bias_filler {
      type: "constant"
    }
  }
}
layer {
  name: "relu2"
  type: "ReLU"
  bottom: "ip2"
  top: "ip2"
}
layer {
  name: "feat"
  type: "InnerProduct"
  bottom: "ip2"
  top: "feat"
  param {
    name: "feat_w"
    lr_mult: 1
  }
  param {
    name: "feat_b"
    lr_mult: 2
  }
  inner_product_param {
    num_output: 2
    weight_filler {
      type: "xavier"
    }
    bias_filler {
      type: "constant"
    }
  }
}
layer {
  name: "conv1_p"
  type: "Convolution"
  bottom: "data_p"
  top: "conv1_p"
  param {
    name: "conv1_w"
    lr_mult: 1
  }
  param {
    name: "conv1_b"
    lr_mult: 2
  }
  convolution_param {
    num_output: 32
    kernel_size: 3
    stride: 1
    weight_filler {
      type: "xavier"
    }
    bias_filler {
      type: "constant"
    }
  }
}
layer {
  name: "pool1_p"
  type: "Pooling"
  bottom: "conv1_p"
  top: "pool1_p"
  pooling_param {
    pool: MAX
    kernel_size: 2
    stride: 2
  }
}
layer {
  name: "conv2_p"
  type: "Convolution"
  bottom: "pool1_p"
  top: "conv2_p"
  param {
    name: "conv2_w"
    lr_mult: 1
  }
  param {
    name: "conv2_b"
    lr_mult: 2
  }
  convolution_param {
    num_output: 64
    kernel_size: 2
    stride: 1
    weight_filler {
      type: "xavier"
    }
    bias_filler {
      type: "constant"
    }
  }
}
layer {
  name: "pool2_p"
  type: "Pooling"
  bottom: "conv2_p"
  top: "pool2_p"
  pooling_param {
    pool: MAX
    kernel_size: 2
    stride: 2
  }
}
layer {
  name: "conv3_p"
  type: "Convolution"
  bottom: "pool2_p"
  top: "conv3_p"
  param {
    name: "conv3_w"
    lr_mult: 1
  }
  param {
    name: "conv3_b"
    lr_mult: 2
  }
  convolution_param {
    num_output: 128
    kernel_size: 2
    stride: 1
    weight_filler {
      type: "xavier"
    }
    bias_filler {
      type: "constant"
    }
  }
}
layer {
  name: "pool3_p"
  type: "Pooling"
  bottom: "conv3_p"
  top: "pool3_p"
  pooling_param {
    pool: MAX
    kernel_size: 2
    stride: 2
  }
}
layer {
  name: "ip1_p"
  type: "InnerProduct"
  bottom: "pool3_p"
  top: "ip1_p"
  param {
    name: "ip1_w"
    lr_mult: 1
  }
  param {
    name: "ip1_b"
    lr_mult: 2
  }
  inner_product_param {
    num_output: 500
    weight_filler {
      type: "xavier"
    }
    bias_filler {
      type: "constant"
    }
  }
}
layer {
  name: "relu1_p"
  type: "ReLU"
  bottom: "ip1_p"
  top: "ip1_p"
}
layer {
  name: "ip2_p"
  type: "InnerProduct"
  bottom: "ip1_p"
  top: "ip2_p"
  param {
    name: "ip2_w"
    lr_mult: 1
  }
  param {
    name: "ip2_b"
    lr_mult: 2
  }
  inner_product_param {
    num_output: 500
    weight_filler {
      type: "xavier"
    }
    bias_filler {
      type: "constant"
    }
  }
}
layer {
  name: "relu2_p"
  type: "ReLU"
  bottom: "ip2_p"
  top: "ip2_p"
}
layer {
  name: "feat_p"
  type: "InnerProduct"
  bottom: "ip2_p"
  top: "feat_p"
  param {
    name: "feat_w"
    lr_mult: 1
  }
  param {
    name: "feat_b"
    lr_mult: 2
  }
  inner_product_param {
    num_output: 2
    weight_filler {
      type: "xavier"
    }
    bias_filler {
      type: "constant"
    }
  }
}
layer {
  name: "loss"
  type: "ContrastiveLoss"
  bottom: "feat"
  bottom: "feat_p"
  bottom: "sim"
  top: "loss"
  contrastive_loss_param {
    margin: 1
  }
}
I0707 22:04:46.641000 1970144000 layer_factory.hpp:74] Creating layer pair_data
I0707 22:04:46.641031 1970144000 net.cpp:90] Creating Layer pair_data
I0707 22:04:46.641044 1970144000 net.cpp:368] pair_data -> pair_data
I0707 22:04:46.641077 1970144000 net.cpp:368] pair_data -> sim
I0707 22:04:46.641090 1970144000 net.cpp:120] Setting up pair_data
I0707 22:04:46.643347 1970144000 db.cpp:20] Opened leveldb src/siamese_network_bw/data/siamese_network_train_leveldb
I0707 22:04:46.643568 1970144000 data_layer.cpp:52] output data size: 100,2,58,58
I0707 22:04:46.644955 1970144000 net.cpp:127] Top shape: 100 2 58 58 (672800)
I0707 22:04:46.644991 1970144000 net.cpp:127] Top shape: 100 (100)
I0707 22:04:46.645004 1970144000 layer_factory.hpp:74] Creating layer slice_pair
I0707 22:04:46.645015 1970144000 net.cpp:90] Creating Layer slice_pair
I0707 22:04:46.645020 1970144000 net.cpp:410] slice_pair <- pair_data
I0707 22:04:46.645028 1970144000 net.cpp:368] slice_pair -> data
I0707 22:04:46.645043 1970144000 net.cpp:368] slice_pair -> data_p
I0707 22:04:46.645056 1970144000 net.cpp:120] Setting up slice_pair
I0707 22:04:46.645071 1970144000 net.cpp:127] Top shape: 100 1 58 58 (336400)
I0707 22:04:46.645079 1970144000 net.cpp:127] Top shape: 100 1 58 58 (336400)
I0707 22:04:46.645088 1970144000 layer_factory.hpp:74] Creating layer conv1
I0707 22:04:46.645103 1970144000 net.cpp:90] Creating Layer conv1
I0707 22:04:46.645108 1970144000 net.cpp:410] conv1 <- data
I0707 22:04:46.645118 1970144000 net.cpp:368] conv1 -> conv1
I0707 22:04:46.645155 1970144000 net.cpp:120] Setting up conv1
I0707 22:04:46.702579 1970144000 net.cpp:127] Top shape: 100 32 56 56 (10035200)
I0707 22:04:46.702615 1970144000 layer_factory.hpp:74] Creating layer pool1
I0707 22:04:46.702628 1970144000 net.cpp:90] Creating Layer pool1
I0707 22:04:46.702641 1970144000 net.cpp:410] pool1 <- conv1
I0707 22:04:46.702648 1970144000 net.cpp:368] pool1 -> pool1
I0707 22:04:46.702656 1970144000 net.cpp:120] Setting up pool1
I0707 22:04:46.702839 1970144000 net.cpp:127] Top shape: 100 32 28 28 (2508800)
I0707 22:04:46.702853 1970144000 layer_factory.hpp:74] Creating layer conv2
I0707 22:04:46.702867 1970144000 net.cpp:90] Creating Layer conv2
I0707 22:04:46.702874 1970144000 net.cpp:410] conv2 <- pool1
I0707 22:04:46.702886 1970144000 net.cpp:368] conv2 -> conv2
I0707 22:04:46.702896 1970144000 net.cpp:120] Setting up conv2
I0707 22:04:46.703251 1970144000 net.cpp:127] Top shape: 100 64 27 27 (4665600)
I0707 22:04:46.703266 1970144000 layer_factory.hpp:74] Creating layer pool2
I0707 22:04:46.703274 1970144000 net.cpp:90] Creating Layer pool2
I0707 22:04:46.703277 1970144000 net.cpp:410] pool2 <- conv2
I0707 22:04:46.703284 1970144000 net.cpp:368] pool2 -> pool2
I0707 22:04:46.703291 1970144000 net.cpp:120] Setting up pool2
I0707 22:04:46.703335 1970144000 net.cpp:127] Top shape: 100 64 14 14 (1254400)
I0707 22:04:46.703341 1970144000 layer_factory.hpp:74] Creating layer conv3
I0707 22:04:46.703361 1970144000 net.cpp:90] Creating Layer conv3
I0707 22:04:46.703367 1970144000 net.cpp:410] conv3 <- pool2
I0707 22:04:46.703377 1970144000 net.cpp:368] conv3 -> conv3
I0707 22:04:46.703389 1970144000 net.cpp:120] Setting up conv3
I0707 22:04:46.703929 1970144000 net.cpp:127] Top shape: 100 128 13 13 (2163200)
I0707 22:04:46.703945 1970144000 layer_factory.hpp:74] Creating layer pool3
I0707 22:04:46.703951 1970144000 net.cpp:90] Creating Layer pool3
I0707 22:04:46.703955 1970144000 net.cpp:410] pool3 <- conv3
I0707 22:04:46.703963 1970144000 net.cpp:368] pool3 -> pool3
I0707 22:04:46.703969 1970144000 net.cpp:120] Setting up pool3
I0707 22:04:46.704012 1970144000 net.cpp:127] Top shape: 100 128 7 7 (627200)
I0707 22:04:46.704023 1970144000 layer_factory.hpp:74] Creating layer ip1
I0707 22:04:46.704048 1970144000 net.cpp:90] Creating Layer ip1
I0707 22:04:46.704056 1970144000 net.cpp:410] ip1 <- pool3
I0707 22:04:46.704063 1970144000 net.cpp:368] ip1 -> ip1
I0707 22:04:46.704098 1970144000 net.cpp:120] Setting up ip1
I0707 22:04:46.729086 1970144000 net.cpp:127] Top shape: 100 500 (50000)
I0707 22:04:46.729125 1970144000 layer_factory.hpp:74] Creating layer relu1
I0707 22:04:46.729140 1970144000 net.cpp:90] Creating Layer relu1
I0707 22:04:46.729145 1970144000 net.cpp:410] relu1 <- ip1
I0707 22:04:46.729151 1970144000 net.cpp:357] relu1 -> ip1 (in-place)
I0707 22:04:46.729157 1970144000 net.cpp:120] Setting up relu1
I0707 22:04:46.729382 1970144000 net.cpp:127] Top shape: 100 500 (50000)
I0707 22:04:46.729396 1970144000 layer_factory.hpp:74] Creating layer ip2
I0707 22:04:46.729406 1970144000 net.cpp:90] Creating Layer ip2
I0707 22:04:46.729411 1970144000 net.cpp:410] ip2 <- ip1
I0707 22:04:46.729460 1970144000 net.cpp:368] ip2 -> ip2
I0707 22:04:46.729470 1970144000 net.cpp:120] Setting up ip2
I0707 22:04:46.731529 1970144000 net.cpp:127] Top shape: 100 500 (50000)
I0707 22:04:46.731541 1970144000 layer_factory.hpp:74] Creating layer relu2
I0707 22:04:46.731547 1970144000 net.cpp:90] Creating Layer relu2
I0707 22:04:46.731551 1970144000 net.cpp:410] relu2 <- ip2
I0707 22:04:46.731556 1970144000 net.cpp:357] relu2 -> ip2 (in-place)
I0707 22:04:46.731564 1970144000 net.cpp:120] Setting up relu2
I0707 22:04:46.731619 1970144000 net.cpp:127] Top shape: 100 500 (50000)
I0707 22:04:46.731631 1970144000 layer_factory.hpp:74] Creating layer feat
I0707 22:04:46.731642 1970144000 net.cpp:90] Creating Layer feat
I0707 22:04:46.731647 1970144000 net.cpp:410] feat <- ip2
I0707 22:04:46.731652 1970144000 net.cpp:368] feat -> feat
I0707 22:04:46.731658 1970144000 net.cpp:120] Setting up feat
I0707 22:04:46.731793 1970144000 net.cpp:127] Top shape: 100 2 (200)
I0707 22:04:46.731807 1970144000 layer_factory.hpp:74] Creating layer conv1_p
I0707 22:04:46.731817 1970144000 net.cpp:90] Creating Layer conv1_p
I0707 22:04:46.731822 1970144000 net.cpp:410] conv1_p <- data_p
I0707 22:04:46.731830 1970144000 net.cpp:368] conv1_p -> conv1_p
I0707 22:04:46.731838 1970144000 net.cpp:120] Setting up conv1_p
I0707 22:04:46.732077 1970144000 net.cpp:127] Top shape: 100 32 56 56 (10035200)
I0707 22:04:46.732089 1970144000 net.cpp:459] Sharing parameters 'conv1_w' owned by layer 'conv1', param index 0
I0707 22:04:46.732105 1970144000 net.cpp:459] Sharing parameters 'conv1_b' owned by layer 'conv1', param index 1
I0707 22:04:46.732110 1970144000 layer_factory.hpp:74] Creating layer pool1_p
I0707 22:04:46.732127 1970144000 net.cpp:90] Creating Layer pool1_p
I0707 22:04:46.732137 1970144000 net.cpp:410] pool1_p <- conv1_p
I0707 22:04:46.732146 1970144000 net.cpp:368] pool1_p -> pool1_p
I0707 22:04:46.732152 1970144000 net.cpp:120] Setting up pool1_p
I0707 22:04:46.732208 1970144000 net.cpp:127] Top shape: 100 32 28 28 (2508800)
I0707 22:04:46.732218 1970144000 layer_factory.hpp:74] Creating layer conv2_p
I0707 22:04:46.732228 1970144000 net.cpp:90] Creating Layer conv2_p
I0707 22:04:46.732233 1970144000 net.cpp:410] conv2_p <- pool1_p
I0707 22:04:46.732241 1970144000 net.cpp:368] conv2_p -> conv2_p
I0707 22:04:46.732250 1970144000 net.cpp:120] Setting up conv2_p
I0707 22:04:46.732722 1970144000 net.cpp:127] Top shape: 100 64 27 27 (4665600)
I0707 22:04:46.732738 1970144000 net.cpp:459] Sharing parameters 'conv2_w' owned by layer 'conv2', param index 0
I0707 22:04:46.732765 1970144000 net.cpp:459] Sharing parameters 'conv2_b' owned by layer 'conv2', param index 1
I0707 22:04:46.732770 1970144000 layer_factory.hpp:74] Creating layer pool2_p
I0707 22:04:46.732779 1970144000 net.cpp:90] Creating Layer pool2_p
I0707 22:04:46.732784 1970144000 net.cpp:410] pool2_p <- conv2_p
I0707 22:04:46.732792 1970144000 net.cpp:368] pool2_p -> pool2_p
I0707 22:04:46.732800 1970144000 net.cpp:120] Setting up pool2_p
I0707 22:04:46.732848 1970144000 net.cpp:127] Top shape: 100 64 14 14 (1254400)
I0707 22:04:46.732856 1970144000 layer_factory.hpp:74] Creating layer conv3_p
I0707 22:04:46.732863 1970144000 net.cpp:90] Creating Layer conv3_p
I0707 22:04:46.732868 1970144000 net.cpp:410] conv3_p <- pool2_p
I0707 22:04:46.732873 1970144000 net.cpp:368] conv3_p -> conv3_p
I0707 22:04:46.732880 1970144000 net.cpp:120] Setting up conv3_p
I0707 22:04:46.733507 1970144000 net.cpp:127] Top shape: 100 128 13 13 (2163200)
I0707 22:04:46.733542 1970144000 net.cpp:459] Sharing parameters 'conv3_w' owned by layer 'conv3', param index 0
I0707 22:04:46.733553 1970144000 net.cpp:459] Sharing parameters 'conv3_b' owned by layer 'conv3', param index 1
I0707 22:04:46.733559 1970144000 layer_factory.hpp:74] Creating layer pool3_p
I0707 22:04:46.733566 1970144000 net.cpp:90] Creating Layer pool3_p
I0707 22:04:46.733571 1970144000 net.cpp:410] pool3_p <- conv3_p
I0707 22:04:46.733577 1970144000 net.cpp:368] pool3_p -> pool3_p
I0707 22:04:46.733584 1970144000 net.cpp:120] Setting up pool3_p
I0707 22:04:46.733690 1970144000 net.cpp:127] Top shape: 100 128 7 7 (627200)
I0707 22:04:46.733700 1970144000 layer_factory.hpp:74] Creating layer ip1_p
I0707 22:04:46.733707 1970144000 net.cpp:90] Creating Layer ip1_p
I0707 22:04:46.733712 1970144000 net.cpp:410] ip1_p <- pool3_p
I0707 22:04:46.733719 1970144000 net.cpp:368] ip1_p -> ip1_p
I0707 22:04:46.733726 1970144000 net.cpp:120] Setting up ip1_p
I0707 22:04:46.759212 1970144000 net.cpp:127] Top shape: 100 500 (50000)
I0707 22:04:46.759245 1970144000 net.cpp:459] Sharing parameters 'ip1_w' owned by layer 'ip1', param index 0
I0707 22:04:46.760514 1970144000 net.cpp:459] Sharing parameters 'ip1_b' owned by layer 'ip1', param index 1
I0707 22:04:46.760524 1970144000 layer_factory.hpp:74] Creating layer relu1_p
I0707 22:04:46.760543 1970144000 net.cpp:90] Creating Layer relu1_p
I0707 22:04:46.760548 1970144000 net.cpp:410] relu1_p <- ip1_p
I0707 22:04:46.760579 1970144000 net.cpp:357] relu1_p -> ip1_p (in-place)
I0707 22:04:46.760587 1970144000 net.cpp:120] Setting up relu1_p
I0707 22:04:46.760665 1970144000 net.cpp:127] Top shape: 100 500 (50000)
I0707 22:04:46.760715 1970144000 layer_factory.hpp:74] Creating layer ip2_p
I0707 22:04:46.760735 1970144000 net.cpp:90] Creating Layer ip2_p
I0707 22:04:46.760745 1970144000 net.cpp:410] ip2_p <- ip1_p
I0707 22:04:46.760756 1970144000 net.cpp:368] ip2_p -> ip2_p
I0707 22:04:46.760767 1970144000 net.cpp:120] Setting up ip2_p
I0707 22:04:46.762846 1970144000 net.cpp:127] Top shape: 100 500 (50000)
I0707 22:04:46.762858 1970144000 net.cpp:459] Sharing parameters 'ip2_w' owned by layer 'ip2', param index 0
I0707 22:04:46.762877 1970144000 net.cpp:459] Sharing parameters 'ip2_b' owned by layer 'ip2', param index 1
I0707 22:04:46.762882 1970144000 layer_factory.hpp:74] Creating layer relu2_p
I0707 22:04:46.762892 1970144000 net.cpp:90] Creating Layer relu2_p
I0707 22:04:46.762897 1970144000 net.cpp:410] relu2_p <- ip2_p
I0707 22:04:46.762908 1970144000 net.cpp:357] relu2_p -> ip2_p (in-place)
I0707 22:04:46.762914 1970144000 net.cpp:120] Setting up relu2_p
I0707 22:04:46.762969 1970144000 net.cpp:127] Top shape: 100 500 (50000)
I0707 22:04:46.762976 1970144000 layer_factory.hpp:74] Creating layer feat_p
I0707 22:04:46.762984 1970144000 net.cpp:90] Creating Layer feat_p
I0707 22:04:46.762989 1970144000 net.cpp:410] feat_p <- ip2_p
I0707 22:04:46.762995 1970144000 net.cpp:368] feat_p -> feat_p
I0707 22:04:46.763015 1970144000 net.cpp:120] Setting up feat_p
I0707 22:04:46.763034 1970144000 net.cpp:127] Top shape: 100 2 (200)
I0707 22:04:46.763041 1970144000 net.cpp:459] Sharing parameters 'feat_w' owned by layer 'feat', param index 0
I0707 22:04:46.763046 1970144000 net.cpp:459] Sharing parameters 'feat_b' owned by layer 'feat', param index 1
I0707 22:04:46.763051 1970144000 layer_factory.hpp:74] Creating layer loss
I0707 22:04:46.763062 1970144000 net.cpp:90] Creating Layer loss
I0707 22:04:46.763067 1970144000 net.cpp:410] loss <- feat
…
