…
I0708 08:56:53.827131 1970144000 solver.cpp:70] Creating training net from net file: src/siamese_network_bw/model/siamese_train_validate.prototxt
I0708 08:56:53.828738 1970144000 net.cpp:287] The NetState phase (0) differed from the phase (1) specified by a rule in layer pair_data
I0708 08:56:53.828778 1970144000 net.cpp:42] Initializing net from parameters: 
name: "siamese_train_validate"
state {
  phase: TRAIN
}
layer {
  name: "pair_data"
  type: "Data"
  top: "pair_data"
  top: "sim"
  include {
    phase: TRAIN
  }
  transform_param {
    scale: 0.00390625
  }
  data_param {
    source: "src/siamese_network_bw/data/siamese_network_train_leveldb"
    batch_size: 100
  }
}
layer {
  name: "slice_pair"
  type: "Slice"
  bottom: "pair_data"
  top: "data"
  top: "data_p"
  slice_param {
    slice_dim: 1
    slice_point: 1
  }
}
layer {
  name: "conv1"
  type: "Convolution"
  bottom: "data"
  top: "conv1"
  param {
    name: "conv1_w"
    lr_mult: 1
  }
  param {
    name: "conv1_b"
    lr_mult: 2
  }
  convolution_param {
    num_output: 32
    kernel_size: 3
    stride: 1
    weight_filler {
      type: "xavier"
    }
    bias_filler {
      type: "constant"
    }
  }
}
layer {
  name: "pool1"
  type: "Pooling"
  bottom: "conv1"
  top: "pool1"
  pooling_param {
    pool: MAX
    kernel_size: 2
    stride: 2
  }
}
layer {
  name: "conv2"
  type: "Convolution"
  bottom: "pool1"
  top: "conv2"
  param {
    name: "conv2_w"
    lr_mult: 1
  }
  param {
    name: "conv2_b"
    lr_mult: 2
  }
  convolution_param {
    num_output: 64
    kernel_size: 2
    stride: 1
    weight_filler {
      type: "xavier"
    }
    bias_filler {
      type: "constant"
    }
  }
}
layer {
  name: "pool2"
  type: "Pooling"
  bottom: "conv2"
  top: "pool2"
  pooling_param {
    pool: MAX
    kernel_size: 2
    stride: 2
  }
}
layer {
  name: "conv3"
  type: "Convolution"
  bottom: "pool2"
  top: "conv3"
  param {
    name: "conv3_w"
    lr_mult: 1
  }
  param {
    name: "conv3_b"
    lr_mult: 2
  }
  convolution_param {
    num_output: 128
    kernel_size: 2
    stride: 1
    weight_filler {
      type: "xavier"
    }
    bias_filler {
      type: "constant"
    }
  }
}
layer {
  name: "pool3"
  type: "Pooling"
  bottom: "conv3"
  top: "pool3"
  pooling_param {
    pool: MAX
    kernel_size: 2
    stride: 2
  }
}
layer {
  name: "ip1"
  type: "InnerProduct"
  bottom: "pool3"
  top: "ip1"
  param {
    name: "ip1_w"
    lr_mult: 1
  }
  param {
    name: "ip1_b"
    lr_mult: 2
  }
  inner_product_param {
    num_output: 500
    weight_filler {
      type: "xavier"
    }
    bias_filler {
      type: "constant"
    }
  }
}
layer {
  name: "relu1"
  type: "ReLU"
  bottom: "ip1"
  top: "ip1"
}
layer {
  name: "ip2"
  type: "InnerProduct"
  bottom: "ip1"
  top: "ip2"
  param {
    name: "ip2_w"
    lr_mult: 1
  }
  param {
    name: "ip2_b"
    lr_mult: 2
  }
  inner_product_param {
    num_output: 500
    weight_filler {
      type: "xavier"
    }
    bias_filler {
      type: "constant"
    }
  }
}
layer {
  name: "relu2"
  type: "ReLU"
  bottom: "ip2"
  top: "ip2"
}
layer {
  name: "feat"
  type: "InnerProduct"
  bottom: "ip2"
  top: "feat"
  param {
    name: "feat_w"
    lr_mult: 1
  }
  param {
    name: "feat_b"
    lr_mult: 2
  }
  inner_product_param {
    num_output: 2
    weight_filler {
      type: "xavier"
    }
    bias_filler {
      type: "constant"
    }
  }
}
layer {
  name: "conv1_p"
  type: "Convolution"
  bottom: "data_p"
  top: "conv1_p"
  param {
    name: "conv1_w"
    lr_mult: 1
  }
  param {
    name: "conv1_b"
    lr_mult: 2
  }
  convolution_param {
    num_output: 32
    kernel_size: 3
    stride: 1
    weight_filler {
      type: "xavier"
    }
    bias_filler {
      type: "constant"
    }
  }
}
layer {
  name: "pool1_p"
  type: "Pooling"
  bottom: "conv1_p"
  top: "pool1_p"
  pooling_param {
    pool: MAX
    kernel_size: 2
    stride: 2
  }
}
layer {
  name: "conv2_p"
  type: "Convolution"
  bottom: "pool1_p"
  top: "conv2_p"
  param {
    name: "conv2_w"
    lr_mult: 1
  }
  param {
    name: "conv2_b"
    lr_mult: 2
  }
  convolution_param {
    num_output: 64
    kernel_size: 2
    stride: 1
    weight_filler {
      type: "xavier"
    }
    bias_filler {
      type: "constant"
    }
  }
}
layer {
  name: "pool2_p"
  type: "Pooling"
  bottom: "conv2_p"
  top: "pool2_p"
  pooling_param {
    pool: MAX
    kernel_size: 2
    stride: 2
  }
}
layer {
  name: "conv3_p"
  type: "Convolution"
  bottom: "pool2_p"
  top: "conv3_p"
  param {
    name: "conv3_w"
    lr_mult: 1
  }
  param {
    name: "conv3_b"
    lr_mult: 2
  }
  convolution_param {
    num_output: 128
    kernel_size: 2
    stride: 1
    weight_filler {
      type: "xavier"
    }
    bias_filler {
      type: "constant"
    }
  }
}
layer {
  name: "pool3_p"
  type: "Pooling"
  bottom: "conv3_p"
  top: "pool3_p"
  pooling_param {
    pool: MAX
    kernel_size: 2
    stride: 2
  }
}
layer {
  name: "ip1_p"
  type: "InnerProduct"
  bottom: "pool3_p"
  top: "ip1_p"
  param {
    name: "ip1_w"
    lr_mult: 1
  }
  param {
    name: "ip1_b"
    lr_mult: 2
  }
  inner_product_param {
    num_output: 500
    weight_filler {
      type: "xavier"
    }
    bias_filler {
      type: "constant"
    }
  }
}
layer {
  name: "relu1_p"
  type: "ReLU"
  bottom: "ip1_p"
  top: "ip1_p"
}
layer {
  name: "ip2_p"
  type: "InnerProduct"
  bottom: "ip1_p"
  top: "ip2_p"
  param {
    name: "ip2_w"
    lr_mult: 1
  }
  param {
    name: "ip2_b"
    lr_mult: 2
  }
  inner_product_param {
    num_output: 500
    weight_filler {
      type: "xavier"
    }
    bias_filler {
      type: "constant"
    }
  }
}
layer {
  name: "relu2_p"
  type: "ReLU"
  bottom: "ip2_p"
  top: "ip2_p"
}
layer {
  name: "feat_p"
  type: "InnerProduct"
  bottom: "ip2_p"
  top: "feat_p"
  param {
    name: "feat_w"
    lr_mult: 1
  }
  param {
    name: "feat_b"
    lr_mult: 2
  }
  inner_product_param {
    num_output: 2
    weight_filler {
      type: "xavier"
    }
    bias_filler {
      type: "constant"
    }
  }
}
layer {
  name: "loss"
  type: "ContrastiveLoss"
  bottom: "feat"
  bottom: "feat_p"
  bottom: "sim"
  top: "loss"
  contrastive_loss_param {
    margin: 1
  }
}
I0708 08:56:53.829057 1970144000 layer_factory.hpp:74] Creating layer pair_data
I0708 08:56:53.829268 1970144000 net.cpp:90] Creating Layer pair_data
I0708 08:56:53.829290 1970144000 net.cpp:368] pair_data -> pair_data
I0708 08:56:53.829361 1970144000 net.cpp:368] pair_data -> sim
I0708 08:56:53.829403 1970144000 net.cpp:120] Setting up pair_data
I0708 08:56:53.858585 1970144000 db.cpp:20] Opened leveldb src/siamese_network_bw/data/siamese_network_train_leveldb
I0708 08:56:53.858639 1970144000 data_layer.cpp:52] output data size: 100,2,58,58
I0708 08:56:53.860409 1970144000 net.cpp:127] Top shape: 100 2 58 58 (672800)
I0708 08:56:53.860440 1970144000 net.cpp:127] Top shape: 100 (100)
I0708 08:56:53.860448 1970144000 layer_factory.hpp:74] Creating layer slice_pair
I0708 08:56:53.860466 1970144000 net.cpp:90] Creating Layer slice_pair
I0708 08:56:53.860471 1970144000 net.cpp:410] slice_pair <- pair_data
I0708 08:56:53.860479 1970144000 net.cpp:368] slice_pair -> data
I0708 08:56:53.860496 1970144000 net.cpp:368] slice_pair -> data_p
I0708 08:56:53.860507 1970144000 net.cpp:120] Setting up slice_pair
I0708 08:56:53.860522 1970144000 net.cpp:127] Top shape: 100 1 58 58 (336400)
I0708 08:56:53.860532 1970144000 net.cpp:127] Top shape: 100 1 58 58 (336400)
I0708 08:56:53.860541 1970144000 layer_factory.hpp:74] Creating layer conv1
I0708 08:56:53.860558 1970144000 net.cpp:90] Creating Layer conv1
I0708 08:56:53.860566 1970144000 net.cpp:410] conv1 <- data
I0708 08:56:53.860576 1970144000 net.cpp:368] conv1 -> conv1
I0708 08:56:53.860615 1970144000 net.cpp:120] Setting up conv1
I0708 08:56:53.995168 1970144000 net.cpp:127] Top shape: 100 32 56 56 (10035200)
I0708 08:56:53.995218 1970144000 layer_factory.hpp:74] Creating layer pool1
I0708 08:56:53.995234 1970144000 net.cpp:90] Creating Layer pool1
I0708 08:56:53.995240 1970144000 net.cpp:410] pool1 <- conv1
I0708 08:56:53.995249 1970144000 net.cpp:368] pool1 -> pool1
I0708 08:56:53.995259 1970144000 net.cpp:120] Setting up pool1
I0708 08:56:53.995682 1970144000 net.cpp:127] Top shape: 100 32 28 28 (2508800)
I0708 08:56:53.995718 1970144000 layer_factory.hpp:74] Creating layer conv2
I0708 08:56:53.995736 1970144000 net.cpp:90] Creating Layer conv2
I0708 08:56:53.995743 1970144000 net.cpp:410] conv2 <- pool1
I0708 08:56:53.995750 1970144000 net.cpp:368] conv2 -> conv2
I0708 08:56:53.995760 1970144000 net.cpp:120] Setting up conv2
I0708 08:56:53.996320 1970144000 net.cpp:127] Top shape: 100 64 27 27 (4665600)
I0708 08:56:53.996338 1970144000 layer_factory.hpp:74] Creating layer pool2
I0708 08:56:53.996346 1970144000 net.cpp:90] Creating Layer pool2
I0708 08:56:53.996351 1970144000 net.cpp:410] pool2 <- conv2
I0708 08:56:53.996358 1970144000 net.cpp:368] pool2 -> pool2
I0708 08:56:53.996366 1970144000 net.cpp:120] Setting up pool2
I0708 08:56:53.996423 1970144000 net.cpp:127] Top shape: 100 64 14 14 (1254400)
I0708 08:56:53.996435 1970144000 layer_factory.hpp:74] Creating layer conv3
I0708 08:56:53.996455 1970144000 net.cpp:90] Creating Layer conv3
I0708 08:56:53.996469 1970144000 net.cpp:410] conv3 <- pool2
I0708 08:56:53.996480 1970144000 net.cpp:368] conv3 -> conv3
I0708 08:56:53.996497 1970144000 net.cpp:120] Setting up conv3
I0708 08:56:53.997148 1970144000 net.cpp:127] Top shape: 100 128 13 13 (2163200)
I0708 08:56:53.997169 1970144000 layer_factory.hpp:74] Creating layer pool3
I0708 08:56:53.997179 1970144000 net.cpp:90] Creating Layer pool3
I0708 08:56:53.997184 1970144000 net.cpp:410] pool3 <- conv3
I0708 08:56:53.997189 1970144000 net.cpp:368] pool3 -> pool3
I0708 08:56:53.997197 1970144000 net.cpp:120] Setting up pool3
I0708 08:56:53.997252 1970144000 net.cpp:127] Top shape: 100 128 7 7 (627200)
I0708 08:56:53.997263 1970144000 layer_factory.hpp:74] Creating layer ip1
I0708 08:56:53.997279 1970144000 net.cpp:90] Creating Layer ip1
I0708 08:56:53.997287 1970144000 net.cpp:410] ip1 <- pool3
I0708 08:56:53.997308 1970144000 net.cpp:368] ip1 -> ip1
I0708 08:56:53.997321 1970144000 net.cpp:120] Setting up ip1
I0708 08:56:54.023720 1970144000 net.cpp:127] Top shape: 100 500 (50000)
I0708 08:56:54.023747 1970144000 layer_factory.hpp:74] Creating layer relu1
I0708 08:56:54.023762 1970144000 net.cpp:90] Creating Layer relu1
I0708 08:56:54.023766 1970144000 net.cpp:410] relu1 <- ip1
I0708 08:56:54.023772 1970144000 net.cpp:357] relu1 -> ip1 (in-place)
I0708 08:56:54.023779 1970144000 net.cpp:120] Setting up relu1
I0708 08:56:54.024000 1970144000 net.cpp:127] Top shape: 100 500 (50000)
I0708 08:56:54.024010 1970144000 layer_factory.hpp:74] Creating layer ip2
I0708 08:56:54.024019 1970144000 net.cpp:90] Creating Layer ip2
I0708 08:56:54.024022 1970144000 net.cpp:410] ip2 <- ip1
I0708 08:56:54.024029 1970144000 net.cpp:368] ip2 -> ip2
I0708 08:56:54.024035 1970144000 net.cpp:120] Setting up ip2
I0708 08:56:54.025732 1970144000 net.cpp:127] Top shape: 100 500 (50000)
I0708 08:56:54.025746 1970144000 layer_factory.hpp:74] Creating layer relu2
I0708 08:56:54.025758 1970144000 net.cpp:90] Creating Layer relu2
I0708 08:56:54.025761 1970144000 net.cpp:410] relu2 <- ip2
I0708 08:56:54.025768 1970144000 net.cpp:357] relu2 -> ip2 (in-place)
I0708 08:56:54.025774 1970144000 net.cpp:120] Setting up relu2
I0708 08:56:54.025833 1970144000 net.cpp:127] Top shape: 100 500 (50000)
I0708 08:56:54.025840 1970144000 layer_factory.hpp:74] Creating layer feat
I0708 08:56:54.025846 1970144000 net.cpp:90] Creating Layer feat
I0708 08:56:54.025851 1970144000 net.cpp:410] feat <- ip2
I0708 08:56:54.025858 1970144000 net.cpp:368] feat -> feat
I0708 08:56:54.025866 1970144000 net.cpp:120] Setting up feat
I0708 08:56:54.025969 1970144000 net.cpp:127] Top shape: 100 2 (200)
I0708 08:56:54.025998 1970144000 layer_factory.hpp:74] Creating layer conv1_p
I0708 08:56:54.026011 1970144000 net.cpp:90] Creating Layer conv1_p
I0708 08:56:54.026034 1970144000 net.cpp:410] conv1_p <- data_p
I0708 08:56:54.026046 1970144000 net.cpp:368] conv1_p -> conv1_p
I0708 08:56:54.026056 1970144000 net.cpp:120] Setting up conv1_p
I0708 08:56:54.026356 1970144000 net.cpp:127] Top shape: 100 32 56 56 (10035200)
I0708 08:56:54.026374 1970144000 net.cpp:459] Sharing parameters 'conv1_w' owned by layer 'conv1', param index 0
I0708 08:56:54.026396 1970144000 net.cpp:459] Sharing parameters 'conv1_b' owned by layer 'conv1', param index 1
I0708 08:56:54.026402 1970144000 layer_factory.hpp:74] Creating layer pool1_p
I0708 08:56:54.026417 1970144000 net.cpp:90] Creating Layer pool1_p
I0708 08:56:54.026446 1970144000 net.cpp:410] pool1_p <- conv1_p
I0708 08:56:54.026459 1970144000 net.cpp:368] pool1_p -> pool1_p
I0708 08:56:54.026469 1970144000 net.cpp:120] Setting up pool1_p
I0708 08:56:54.026546 1970144000 net.cpp:127] Top shape: 100 32 28 28 (2508800)
I0708 08:56:54.026556 1970144000 layer_factory.hpp:74] Creating layer conv2_p
I0708 08:56:54.026567 1970144000 net.cpp:90] Creating Layer conv2_p
I0708 08:56:54.026574 1970144000 net.cpp:410] conv2_p <- pool1_p
I0708 08:56:54.026582 1970144000 net.cpp:368] conv2_p -> conv2_p
I0708 08:56:54.026589 1970144000 net.cpp:120] Setting up conv2_p
I0708 08:56:54.026883 1970144000 net.cpp:127] Top shape: 100 64 27 27 (4665600)
I0708 08:56:54.026895 1970144000 net.cpp:459] Sharing parameters 'conv2_w' owned by layer 'conv2', param index 0
I0708 08:56:54.026901 1970144000 net.cpp:459] Sharing parameters 'conv2_b' owned by layer 'conv2', param index 1
I0708 08:56:54.026906 1970144000 layer_factory.hpp:74] Creating layer pool2_p
I0708 08:56:54.026912 1970144000 net.cpp:90] Creating Layer pool2_p
I0708 08:56:54.026917 1970144000 net.cpp:410] pool2_p <- conv2_p
I0708 08:56:54.026922 1970144000 net.cpp:368] pool2_p -> pool2_p
I0708 08:56:54.026932 1970144000 net.cpp:120] Setting up pool2_p
I0708 08:56:54.026976 1970144000 net.cpp:127] Top shape: 100 64 14 14 (1254400)
I0708 08:56:54.026983 1970144000 layer_factory.hpp:74] Creating layer conv3_p
I0708 08:56:54.026993 1970144000 net.cpp:90] Creating Layer conv3_p
I0708 08:56:54.026999 1970144000 net.cpp:410] conv3_p <- pool2_p
I0708 08:56:54.027006 1970144000 net.cpp:368] conv3_p -> conv3_p
I0708 08:56:54.027014 1970144000 net.cpp:120] Setting up conv3_p
I0708 08:56:54.027451 1970144000 net.cpp:127] Top shape: 100 128 13 13 (2163200)
I0708 08:56:54.027463 1970144000 net.cpp:459] Sharing parameters 'conv3_w' owned by layer 'conv3', param index 0
I0708 08:56:54.027472 1970144000 net.cpp:459] Sharing parameters 'conv3_b' owned by layer 'conv3', param index 1
I0708 08:56:54.027477 1970144000 layer_factory.hpp:74] Creating layer pool3_p
I0708 08:56:54.027484 1970144000 net.cpp:90] Creating Layer pool3_p
I0708 08:56:54.027488 1970144000 net.cpp:410] pool3_p <- conv3_p
I0708 08:56:54.027493 1970144000 net.cpp:368] pool3_p -> pool3_p
I0708 08:56:54.027500 1970144000 net.cpp:120] Setting up pool3_p
I0708 08:56:54.027601 1970144000 net.cpp:127] Top shape: 100 128 7 7 (627200)
I0708 08:56:54.027609 1970144000 layer_factory.hpp:74] Creating layer ip1_p
I0708 08:56:54.027619 1970144000 net.cpp:90] Creating Layer ip1_p
I0708 08:56:54.027623 1970144000 net.cpp:410] ip1_p <- pool3_p
I0708 08:56:54.027631 1970144000 net.cpp:368] ip1_p -> ip1_p
I0708 08:56:54.027637 1970144000 net.cpp:120] Setting up ip1_p
I0708 08:56:54.053241 1970144000 net.cpp:127] Top shape: 100 500 (50000)
I0708 08:56:54.053267 1970144000 net.cpp:459] Sharing parameters 'ip1_w' owned by layer 'ip1', param index 0
I0708 08:56:54.054198 1970144000 net.cpp:459] Sharing parameters 'ip1_b' owned by layer 'ip1', param index 1
I0708 08:56:54.054208 1970144000 layer_factory.hpp:74] Creating layer relu1_p
I0708 08:56:54.054216 1970144000 net.cpp:90] Creating Layer relu1_p
I0708 08:56:54.054221 1970144000 net.cpp:410] relu1_p <- ip1_p
I0708 08:56:54.054253 1970144000 net.cpp:357] relu1_p -> ip1_p (in-place)
I0708 08:56:54.054262 1970144000 net.cpp:120] Setting up relu1_p
I0708 08:56:54.054359 1970144000 net.cpp:127] Top shape: 100 500 (50000)
I0708 08:56:54.054368 1970144000 layer_factory.hpp:74] Creating layer ip2_p
I0708 08:56:54.054378 1970144000 net.cpp:90] Creating Layer ip2_p
I0708 08:56:54.054381 1970144000 net.cpp:410] ip2_p <- ip1_p
I0708 08:56:54.054388 1970144000 net.cpp:368] ip2_p -> ip2_p
I0708 08:56:54.054394 1970144000 net.cpp:120] Setting up ip2_p
I0708 08:56:54.056553 1970144000 net.cpp:127] Top shape: 100 500 (50000)
I0708 08:56:54.056568 1970144000 net.cpp:459] Sharing parameters 'ip2_w' owned by layer 'ip2', param index 0
I0708 08:56:54.056576 1970144000 net.cpp:459] Sharing parameters 'ip2_b' owned by layer 'ip2', param index 1
I0708 08:56:54.056581 1970144000 layer_factory.hpp:74] Creating layer relu2_p
I0708 08:56:54.056587 1970144000 net.cpp:90] Creating Layer relu2_p
I0708 08:56:54.056591 1970144000 net.cpp:410] relu2_p <- ip2_p
I0708 08:56:54.056597 1970144000 net.cpp:357] relu2_p -> ip2_p (in-place)
I0708 08:56:54.056608 1970144000 net.cpp:120] Setting up relu2_p
I0708 08:56:54.056674 1970144000 net.cpp:127] Top shape: 100 500 (50000)
I0708 08:56:54.056681 1970144000 layer_factory.hpp:74] Creating layer feat_p
I0708 08:56:54.056689 1970144000 net.cpp:90] Creating Layer feat_p
I0708 08:56:54.056694 1970144000 net.cpp:410] feat_p <- ip2_p
I0708 08:56:54.056701 1970144000 net.cpp:368] feat_p -> feat_p
I0708 08:56:54.056710 1970144000 net.cpp:120] Setting up feat_p
I0708 08:56:54.056726 1970144000 net.cpp:127] Top shape: 100 2 (200)
I0708 08:56:54.056732 1970144000 net.cpp:459] Sharing parameters 'feat_w' owned by layer 'feat', param index 0
I0708 08:56:54.056737 1970144000 net.cpp:459] Sharing parameters 'feat_b' owned by layer 'feat', param index 1
I0708 08:56:54.056742 1970144000 layer_factory.hpp:74] Creating layer loss
I0708 08:56:54.056751 1970144000 net.cpp:90] Creating Layer loss
I0708 08:56:54.056756 1970144000 net.cpp:410] loss <- feat
…
