…
I0811 13:42:13.419983 2099430144 solver.cpp:70] Creating training net from net file: src/siamese_network_bw/model/siamese_train_validate.prototxt
I0811 13:42:13.421756 2099430144 net.cpp:287] The NetState phase (0) differed from the phase (1) specified by a rule in layer pair_data
I0811 13:42:13.421795 2099430144 net.cpp:42] Initializing net from parameters: 
name: "siamese_train_validate"
state {
  phase: TRAIN
}
layer {
  name: "pair_data"
  type: "Data"
  top: "pair_data"
  top: "sim"
  include {
    phase: TRAIN
  }
  transform_param {
    scale: 0.00390625
  }
  data_param {
    source: "src/siamese_network_bw/data/siamese_network_train_leveldb"
    batch_size: 64
  }
}
layer {
  name: "slice_pair"
  type: "Slice"
  bottom: "pair_data"
  top: "data"
  top: "data_p"
  slice_param {
    slice_dim: 1
    slice_point: 1
  }
}
layer {
  name: "conv1"
  type: "Convolution"
  bottom: "data"
  top: "conv1"
  param {
    name: "conv1_w"
    lr_mult: 1
  }
  param {
    name: "conv1_b"
    lr_mult: 2
  }
  convolution_param {
    num_output: 32
    kernel_size: 3
    stride: 1
    weight_filler {
      type: "xavier"
    }
    bias_filler {
      type: "constant"
    }
  }
}
layer {
  name: "pool1"
  type: "Pooling"
  bottom: "conv1"
  top: "pool1"
  pooling_param {
    pool: MAX
    kernel_size: 2
    stride: 2
  }
}
layer {
  name: "conv2"
  type: "Convolution"
  bottom: "pool1"
  top: "conv2"
  param {
    name: "conv2_w"
    lr_mult: 1
  }
  param {
    name: "conv2_b"
    lr_mult: 2
  }
  convolution_param {
    num_output: 64
    kernel_size: 2
    stride: 1
    weight_filler {
      type: "xavier"
    }
    bias_filler {
      type: "constant"
    }
  }
}
layer {
  name: "pool2"
  type: "Pooling"
  bottom: "conv2"
  top: "pool2"
  pooling_param {
    pool: MAX
    kernel_size: 2
    stride: 2
  }
}
layer {
  name: "conv3"
  type: "Convolution"
  bottom: "pool2"
  top: "conv3"
  param {
    name: "conv3_w"
    lr_mult: 1
  }
  param {
    name: "conv3_b"
    lr_mult: 2
  }
  convolution_param {
    num_output: 128
    kernel_size: 2
    stride: 1
    weight_filler {
      type: "xavier"
    }
    bias_filler {
      type: "constant"
    }
  }
}
layer {
  name: "pool3"
  type: "Pooling"
  bottom: "conv3"
  top: "pool3"
  pooling_param {
    pool: MAX
    kernel_size: 2
    stride: 2
  }
}
layer {
  name: "ip1"
  type: "InnerProduct"
  bottom: "pool3"
  top: "ip1"
  param {
    name: "ip1_w"
    lr_mult: 1
  }
  param {
    name: "ip1_b"
    lr_mult: 2
  }
  inner_product_param {
    num_output: 500
    weight_filler {
      type: "xavier"
    }
    bias_filler {
      type: "constant"
    }
  }
}
layer {
  name: "relu1"
  type: "ReLU"
  bottom: "ip1"
  top: "ip1"
}
layer {
  name: "ip2"
  type: "InnerProduct"
  bottom: "ip1"
  top: "ip2"
  param {
    name: "ip2_w"
    lr_mult: 1
  }
  param {
    name: "ip2_b"
    lr_mult: 2
  }
  inner_product_param {
    num_output: 500
    weight_filler {
      type: "xavier"
    }
    bias_filler {
      type: "constant"
    }
  }
}
layer {
  name: "relu2"
  type: "ReLU"
  bottom: "ip2"
  top: "ip2"
}
layer {
  name: "feat"
  type: "InnerProduct"
  bottom: "ip2"
  top: "feat"
  param {
    name: "feat_w"
    lr_mult: 1
  }
  param {
    name: "feat_b"
    lr_mult: 2
  }
  inner_product_param {
    num_output: 2
    weight_filler {
      type: "xavier"
    }
    bias_filler {
      type: "constant"
    }
  }
}
layer {
  name: "conv1_p"
  type: "Convolution"
  bottom: "data_p"
  top: "conv1_p"
  param {
    name: "conv1_w"
    lr_mult: 1
  }
  param {
    name: "conv1_b"
    lr_mult: 2
  }
  convolution_param {
    num_output: 32
    kernel_size: 3
    stride: 1
    weight_filler {
      type: "xavier"
    }
    bias_filler {
      type: "constant"
    }
  }
}
layer {
  name: "pool1_p"
  type: "Pooling"
  bottom: "conv1_p"
  top: "pool1_p"
  pooling_param {
    pool: MAX
    kernel_size: 2
    stride: 2
  }
}
layer {
  name: "conv2_p"
  type: "Convolution"
  bottom: "pool1_p"
  top: "conv2_p"
  param {
    name: "conv2_w"
    lr_mult: 1
  }
  param {
    name: "conv2_b"
    lr_mult: 2
  }
  convolution_param {
    num_output: 64
    kernel_size: 2
    stride: 1
    weight_filler {
      type: "xavier"
    }
    bias_filler {
      type: "constant"
    }
  }
}
layer {
  name: "pool2_p"
  type: "Pooling"
  bottom: "conv2_p"
  top: "pool2_p"
  pooling_param {
    pool: MAX
    kernel_size: 2
    stride: 2
  }
}
layer {
  name: "conv3_p"
  type: "Convolution"
  bottom: "pool2_p"
  top: "conv3_p"
  param {
    name: "conv3_w"
    lr_mult: 1
  }
  param {
    name: "conv3_b"
    lr_mult: 2
  }
  convolution_param {
    num_output: 128
    kernel_size: 2
    stride: 1
    weight_filler {
      type: "xavier"
    }
    bias_filler {
      type: "constant"
    }
  }
}
layer {
  name: "pool3_p"
  type: "Pooling"
  bottom: "conv3_p"
  top: "pool3_p"
  pooling_param {
    pool: MAX
    kernel_size: 2
    stride: 2
  }
}
layer {
  name: "ip1_p"
  type: "InnerProduct"
  bottom: "pool3_p"
  top: "ip1_p"
  param {
    name: "ip1_w"
    lr_mult: 1
  }
  param {
    name: "ip1_b"
    lr_mult: 2
  }
  inner_product_param {
    num_output: 500
    weight_filler {
      type: "xavier"
    }
    bias_filler {
      type: "constant"
    }
  }
}
layer {
  name: "relu1_p"
  type: "ReLU"
  bottom: "ip1_p"
  top: "ip1_p"
}
layer {
  name: "ip2_p"
  type: "InnerProduct"
  bottom: "ip1_p"
  top: "ip2_p"
  param {
    name: "ip2_w"
    lr_mult: 1
  }
  param {
    name: "ip2_b"
    lr_mult: 2
  }
  inner_product_param {
    num_output: 500
    weight_filler {
      type: "xavier"
    }
    bias_filler {
      type: "constant"
    }
  }
}
layer {
  name: "relu2_p"
  type: "ReLU"
  bottom: "ip2_p"
  top: "ip2_p"
}
layer {
  name: "feat_p"
  type: "InnerProduct"
  bottom: "ip2_p"
  top: "feat_p"
  param {
    name: "feat_w"
    lr_mult: 1
  }
  param {
    name: "feat_b"
    lr_mult: 2
  }
  inner_product_param {
    num_output: 2
    weight_filler {
      type: "xavier"
    }
    bias_filler {
      type: "constant"
    }
  }
}
layer {
  name: "loss"
  type: "ContrastiveLoss"
  bottom: "feat"
  bottom: "feat_p"
  bottom: "sim"
  top: "loss"
  contrastive_loss_param {
    margin: 1
  }
}
I0811 13:42:13.422072 2099430144 layer_factory.hpp:74] Creating layer pair_data
I0811 13:42:13.422288 2099430144 net.cpp:90] Creating Layer pair_data
I0811 13:42:13.422310 2099430144 net.cpp:368] pair_data -> pair_data
I0811 13:42:13.422333 2099430144 net.cpp:368] pair_data -> sim
I0811 13:42:13.422340 2099430144 net.cpp:120] Setting up pair_data
I0811 13:42:19.612229 2099430144 db.cpp:20] Opened leveldb src/siamese_network_bw/data/siamese_network_train_leveldb
I0811 13:42:19.612308 2099430144 data_layer.cpp:52] output data size: 64,2,58,58
I0811 13:42:19.618983 2099430144 net.cpp:127] Top shape: 64 2 58 58 (430592)
I0811 13:42:19.619048 2099430144 net.cpp:127] Top shape: 64 (64)
I0811 13:42:19.619062 2099430144 layer_factory.hpp:74] Creating layer slice_pair
I0811 13:42:19.619083 2099430144 net.cpp:90] Creating Layer slice_pair
I0811 13:42:19.619092 2099430144 net.cpp:410] slice_pair <- pair_data
I0811 13:42:19.619104 2099430144 net.cpp:368] slice_pair -> data
I0811 13:42:19.619127 2099430144 net.cpp:368] slice_pair -> data_p
I0811 13:42:19.619139 2099430144 net.cpp:120] Setting up slice_pair
I0811 13:42:19.619155 2099430144 net.cpp:127] Top shape: 64 1 58 58 (215296)
I0811 13:42:19.619165 2099430144 net.cpp:127] Top shape: 64 1 58 58 (215296)
I0811 13:42:19.619174 2099430144 layer_factory.hpp:74] Creating layer conv1
I0811 13:42:19.619189 2099430144 net.cpp:90] Creating Layer conv1
I0811 13:42:19.619196 2099430144 net.cpp:410] conv1 <- data
I0811 13:42:19.619209 2099430144 net.cpp:368] conv1 -> conv1
I0811 13:42:19.619261 2099430144 net.cpp:120] Setting up conv1
I0811 13:42:19.797484 2099430144 net.cpp:127] Top shape: 64 32 56 56 (6422528)
I0811 13:42:19.797528 2099430144 layer_factory.hpp:74] Creating layer pool1
I0811 13:42:19.797544 2099430144 net.cpp:90] Creating Layer pool1
I0811 13:42:19.797550 2099430144 net.cpp:410] pool1 <- conv1
I0811 13:42:19.797559 2099430144 net.cpp:368] pool1 -> pool1
I0811 13:42:19.797569 2099430144 net.cpp:120] Setting up pool1
I0811 13:42:19.798019 2099430144 net.cpp:127] Top shape: 64 32 28 28 (1605632)
I0811 13:42:19.798039 2099430144 layer_factory.hpp:74] Creating layer conv2
I0811 13:42:19.798053 2099430144 net.cpp:90] Creating Layer conv2
I0811 13:42:19.798058 2099430144 net.cpp:410] conv2 <- pool1
I0811 13:42:19.798066 2099430144 net.cpp:368] conv2 -> conv2
I0811 13:42:19.798079 2099430144 net.cpp:120] Setting up conv2
I0811 13:42:19.798486 2099430144 net.cpp:127] Top shape: 64 64 27 27 (2985984)
I0811 13:42:19.798504 2099430144 layer_factory.hpp:74] Creating layer pool2
I0811 13:42:19.798513 2099430144 net.cpp:90] Creating Layer pool2
I0811 13:42:19.798518 2099430144 net.cpp:410] pool2 <- conv2
I0811 13:42:19.798526 2099430144 net.cpp:368] pool2 -> pool2
I0811 13:42:19.798537 2099430144 net.cpp:120] Setting up pool2
I0811 13:42:19.798596 2099430144 net.cpp:127] Top shape: 64 64 14 14 (802816)
I0811 13:42:19.798606 2099430144 layer_factory.hpp:74] Creating layer conv3
I0811 13:42:19.798617 2099430144 net.cpp:90] Creating Layer conv3
I0811 13:42:19.798622 2099430144 net.cpp:410] conv3 <- pool2
I0811 13:42:19.798630 2099430144 net.cpp:368] conv3 -> conv3
I0811 13:42:19.798640 2099430144 net.cpp:120] Setting up conv3
I0811 13:42:19.799180 2099430144 net.cpp:127] Top shape: 64 128 13 13 (1384448)
I0811 13:42:19.799196 2099430144 layer_factory.hpp:74] Creating layer pool3
I0811 13:42:19.799202 2099430144 net.cpp:90] Creating Layer pool3
I0811 13:42:19.799206 2099430144 net.cpp:410] pool3 <- conv3
I0811 13:42:19.799212 2099430144 net.cpp:368] pool3 -> pool3
I0811 13:42:19.799226 2099430144 net.cpp:120] Setting up pool3
I0811 13:42:19.799283 2099430144 net.cpp:127] Top shape: 64 128 7 7 (401408)
I0811 13:42:19.799290 2099430144 layer_factory.hpp:74] Creating layer ip1
I0811 13:42:19.799300 2099430144 net.cpp:90] Creating Layer ip1
I0811 13:42:19.799305 2099430144 net.cpp:410] ip1 <- pool3
I0811 13:42:19.799312 2099430144 net.cpp:368] ip1 -> ip1
I0811 13:42:19.799320 2099430144 net.cpp:120] Setting up ip1
I0811 13:42:19.821949 2099430144 net.cpp:127] Top shape: 64 500 (32000)
I0811 13:42:19.821982 2099430144 layer_factory.hpp:74] Creating layer relu1
I0811 13:42:19.822000 2099430144 net.cpp:90] Creating Layer relu1
I0811 13:42:19.822003 2099430144 net.cpp:410] relu1 <- ip1
I0811 13:42:19.822010 2099430144 net.cpp:357] relu1 -> ip1 (in-place)
I0811 13:42:19.822016 2099430144 net.cpp:120] Setting up relu1
I0811 13:42:19.822330 2099430144 net.cpp:127] Top shape: 64 500 (32000)
I0811 13:42:19.822340 2099430144 layer_factory.hpp:74] Creating layer ip2
I0811 13:42:19.822357 2099430144 net.cpp:90] Creating Layer ip2
I0811 13:42:19.822361 2099430144 net.cpp:410] ip2 <- ip1
I0811 13:42:19.822368 2099430144 net.cpp:368] ip2 -> ip2
I0811 13:42:19.822471 2099430144 net.cpp:120] Setting up ip2
I0811 13:42:19.824108 2099430144 net.cpp:127] Top shape: 64 500 (32000)
I0811 13:42:19.824129 2099430144 layer_factory.hpp:74] Creating layer relu2
I0811 13:42:19.824139 2099430144 net.cpp:90] Creating Layer relu2
I0811 13:42:19.824143 2099430144 net.cpp:410] relu2 <- ip2
I0811 13:42:19.824148 2099430144 net.cpp:357] relu2 -> ip2 (in-place)
I0811 13:42:19.824153 2099430144 net.cpp:120] Setting up relu2
I0811 13:42:19.824220 2099430144 net.cpp:127] Top shape: 64 500 (32000)
I0811 13:42:19.824228 2099430144 layer_factory.hpp:74] Creating layer feat
I0811 13:42:19.824237 2099430144 net.cpp:90] Creating Layer feat
I0811 13:42:19.824244 2099430144 net.cpp:410] feat <- ip2
I0811 13:42:19.824259 2099430144 net.cpp:368] feat -> feat
I0811 13:42:19.824267 2099430144 net.cpp:120] Setting up feat
I0811 13:42:19.824290 2099430144 net.cpp:127] Top shape: 64 2 (128)
I0811 13:42:19.824323 2099430144 layer_factory.hpp:74] Creating layer conv1_p
I0811 13:42:19.824331 2099430144 net.cpp:90] Creating Layer conv1_p
I0811 13:42:19.824334 2099430144 net.cpp:410] conv1_p <- data_p
I0811 13:42:19.824340 2099430144 net.cpp:368] conv1_p -> conv1_p
I0811 13:42:19.824347 2099430144 net.cpp:120] Setting up conv1_p
I0811 13:42:19.824678 2099430144 net.cpp:127] Top shape: 64 32 56 56 (6422528)
I0811 13:42:19.824688 2099430144 net.cpp:459] Sharing parameters 'conv1_w' owned by layer 'conv1', param index 0
I0811 13:42:19.824703 2099430144 net.cpp:459] Sharing parameters 'conv1_b' owned by layer 'conv1', param index 1
I0811 13:42:19.824708 2099430144 layer_factory.hpp:74] Creating layer pool1_p
I0811 13:42:19.824715 2099430144 net.cpp:90] Creating Layer pool1_p
I0811 13:42:19.824719 2099430144 net.cpp:410] pool1_p <- conv1_p
I0811 13:42:19.824724 2099430144 net.cpp:368] pool1_p -> pool1_p
I0811 13:42:19.824730 2099430144 net.cpp:120] Setting up pool1_p
I0811 13:42:19.824779 2099430144 net.cpp:127] Top shape: 64 32 28 28 (1605632)
I0811 13:42:19.824784 2099430144 layer_factory.hpp:74] Creating layer conv2_p
I0811 13:42:19.824790 2099430144 net.cpp:90] Creating Layer conv2_p
I0811 13:42:19.824795 2099430144 net.cpp:410] conv2_p <- pool1_p
I0811 13:42:19.824801 2099430144 net.cpp:368] conv2_p -> conv2_p
I0811 13:42:19.824808 2099430144 net.cpp:120] Setting up conv2_p
I0811 13:42:19.825131 2099430144 net.cpp:127] Top shape: 64 64 27 27 (2985984)
I0811 13:42:19.825140 2099430144 net.cpp:459] Sharing parameters 'conv2_w' owned by layer 'conv2', param index 0
I0811 13:42:19.825146 2099430144 net.cpp:459] Sharing parameters 'conv2_b' owned by layer 'conv2', param index 1
I0811 13:42:19.825150 2099430144 layer_factory.hpp:74] Creating layer pool2_p
I0811 13:42:19.825158 2099430144 net.cpp:90] Creating Layer pool2_p
I0811 13:42:19.825161 2099430144 net.cpp:410] pool2_p <- conv2_p
I0811 13:42:19.825170 2099430144 net.cpp:368] pool2_p -> pool2_p
I0811 13:42:19.825176 2099430144 net.cpp:120] Setting up pool2_p
I0811 13:42:19.825223 2099430144 net.cpp:127] Top shape: 64 64 14 14 (802816)
I0811 13:42:19.825230 2099430144 layer_factory.hpp:74] Creating layer conv3_p
I0811 13:42:19.825237 2099430144 net.cpp:90] Creating Layer conv3_p
I0811 13:42:19.825242 2099430144 net.cpp:410] conv3_p <- pool2_p
I0811 13:42:19.825248 2099430144 net.cpp:368] conv3_p -> conv3_p
I0811 13:42:19.825254 2099430144 net.cpp:120] Setting up conv3_p
I0811 13:42:19.825778 2099430144 net.cpp:127] Top shape: 64 128 13 13 (1384448)
I0811 13:42:19.825791 2099430144 net.cpp:459] Sharing parameters 'conv3_w' owned by layer 'conv3', param index 0
I0811 13:42:19.825798 2099430144 net.cpp:459] Sharing parameters 'conv3_b' owned by layer 'conv3', param index 1
I0811 13:42:19.825803 2099430144 layer_factory.hpp:74] Creating layer pool3_p
I0811 13:42:19.825814 2099430144 net.cpp:90] Creating Layer pool3_p
I0811 13:42:19.825819 2099430144 net.cpp:410] pool3_p <- conv3_p
I0811 13:42:19.825824 2099430144 net.cpp:368] pool3_p -> pool3_p
I0811 13:42:19.825830 2099430144 net.cpp:120] Setting up pool3_p
I0811 13:42:19.825994 2099430144 net.cpp:127] Top shape: 64 128 7 7 (401408)
I0811 13:42:19.826002 2099430144 layer_factory.hpp:74] Creating layer ip1_p
I0811 13:42:19.826011 2099430144 net.cpp:90] Creating Layer ip1_p
I0811 13:42:19.826015 2099430144 net.cpp:410] ip1_p <- pool3_p
I0811 13:42:19.826021 2099430144 net.cpp:368] ip1_p -> ip1_p
I0811 13:42:19.826028 2099430144 net.cpp:120] Setting up ip1_p
I0811 13:42:19.851605 2099430144 net.cpp:127] Top shape: 64 500 (32000)
I0811 13:42:19.851647 2099430144 net.cpp:459] Sharing parameters 'ip1_w' owned by layer 'ip1', param index 0
I0811 13:42:19.852946 2099430144 net.cpp:459] Sharing parameters 'ip1_b' owned by layer 'ip1', param index 1
I0811 13:42:19.852967 2099430144 layer_factory.hpp:74] Creating layer relu1_p
I0811 13:42:19.852977 2099430144 net.cpp:90] Creating Layer relu1_p
I0811 13:42:19.852980 2099430144 net.cpp:410] relu1_p <- ip1_p
I0811 13:42:19.852987 2099430144 net.cpp:357] relu1_p -> ip1_p (in-place)
I0811 13:42:19.853019 2099430144 net.cpp:120] Setting up relu1_p
I0811 13:42:19.853112 2099430144 net.cpp:127] Top shape: 64 500 (32000)
I0811 13:42:19.853121 2099430144 layer_factory.hpp:74] Creating layer ip2_p
I0811 13:42:19.853127 2099430144 net.cpp:90] Creating Layer ip2_p
I0811 13:42:19.853132 2099430144 net.cpp:410] ip2_p <- ip1_p
I0811 13:42:19.853154 2099430144 net.cpp:368] ip2_p -> ip2_p
I0811 13:42:19.853168 2099430144 net.cpp:120] Setting up ip2_p
I0811 13:42:19.854784 2099430144 net.cpp:127] Top shape: 64 500 (32000)
I0811 13:42:19.854792 2099430144 net.cpp:459] Sharing parameters 'ip2_w' owned by layer 'ip2', param index 0
I0811 13:42:19.854810 2099430144 net.cpp:459] Sharing parameters 'ip2_b' owned by layer 'ip2', param index 1
I0811 13:42:19.854815 2099430144 layer_factory.hpp:74] Creating layer relu2_p
I0811 13:42:19.854822 2099430144 net.cpp:90] Creating Layer relu2_p
I0811 13:42:19.854826 2099430144 net.cpp:410] relu2_p <- ip2_p
I0811 13:42:19.854832 2099430144 net.cpp:357] relu2_p -> ip2_p (in-place)
I0811 13:42:19.854837 2099430144 net.cpp:120] Setting up relu2_p
I0811 13:42:19.854899 2099430144 net.cpp:127] Top shape: 64 500 (32000)
I0811 13:42:19.854905 2099430144 layer_factory.hpp:74] Creating layer feat_p
I0811 13:42:19.854913 2099430144 net.cpp:90] Creating Layer feat_p
I0811 13:42:19.854918 2099430144 net.cpp:410] feat_p <- ip2_p
I0811 13:42:19.854923 2099430144 net.cpp:368] feat_p -> feat_p
I0811 13:42:19.854950 2099430144 net.cpp:120] Setting up feat_p
I0811 13:42:19.854975 2099430144 net.cpp:127] Top shape: 64 2 (128)
I0811 13:42:19.854982 2099430144 net.cpp:459] Sharing parameters 'feat_w' owned by layer 'feat', param index 0
I0811 13:42:19.854989 2099430144 net.cpp:459] Sharing parameters 'feat_b' owned by layer 'feat', param index 1
I0811 13:42:19.854995 2099430144 layer_factory.hpp:74] Creating layer loss
I0811 13:42:19.855010 2099430144 net.cpp:90] Creating Layer loss
I0811 13:42:19.855015 2099430144 net.cpp:410] loss <- feat
…
