…
I0627 13:05:10.451730 1970144000 solver.cpp:70] Creating training net from net file: src/siamese_network_bw/model/siamese_train_validate.prototxt
I0627 13:05:10.452400 1970144000 net.cpp:287] The NetState phase (0) differed from the phase (1) specified by a rule in layer pair_data
I0627 13:05:10.452433 1970144000 net.cpp:42] Initializing net from parameters: 
name: "siamese_train_validate"
state {
  phase: TRAIN
}
layer {
  name: "pair_data"
  type: "Data"
  top: "pair_data"
  top: "sim"
  include {
    phase: TRAIN
  }
  transform_param {
    scale: 0.00390625
  }
  data_param {
    source: "src/siamese_network_bw/data/siamese_network_train_leveldb"
    batch_size: 64
  }
}
layer {
  name: "slice_pair"
  type: "Slice"
  bottom: "pair_data"
  top: "data"
  top: "data_p"
  slice_param {
    slice_dim: 1
    slice_point: 1
  }
}
layer {
  name: "conv1"
  type: "Convolution"
  bottom: "data"
  top: "conv1"
  param {
    name: "conv1_w"
    lr_mult: 1
  }
  param {
    name: "conv1_b"
    lr_mult: 2
  }
  convolution_param {
    num_output: 20
    kernel_size: 5
    stride: 1
    weight_filler {
      type: "xavier"
    }
    bias_filler {
      type: "constant"
    }
  }
}
layer {
  name: "pool1"
  type: "Pooling"
  bottom: "conv1"
  top: "pool1"
  pooling_param {
    pool: MAX
    kernel_size: 2
    stride: 2
  }
}
layer {
  name: "conv2"
  type: "Convolution"
  bottom: "pool1"
  top: "conv2"
  param {
    name: "conv2_w"
    lr_mult: 1
  }
  param {
    name: "conv2_b"
    lr_mult: 2
  }
  convolution_param {
    num_output: 50
    kernel_size: 5
    stride: 1
    weight_filler {
      type: "xavier"
    }
    bias_filler {
      type: "constant"
    }
  }
}
layer {
  name: "pool2"
  type: "Pooling"
  bottom: "conv2"
  top: "pool2"
  pooling_param {
    pool: MAX
    kernel_size: 2
    stride: 2
  }
}
layer {
  name: "ip1"
  type: "InnerProduct"
  bottom: "pool2"
  top: "ip1"
  param {
    name: "ip1_w"
    lr_mult: 1
  }
  param {
    name: "ip1_b"
    lr_mult: 2
  }
  inner_product_param {
    num_output: 500
    weight_filler {
      type: "xavier"
    }
    bias_filler {
      type: "constant"
    }
  }
}
layer {
  name: "relu1"
  type: "ReLU"
  bottom: "ip1"
  top: "ip1"
}
layer {
  name: "ip2"
  type: "InnerProduct"
  bottom: "ip1"
  top: "ip2"
  param {
    name: "ip2_w"
    lr_mult: 1
  }
  param {
    name: "ip2_b"
    lr_mult: 2
  }
  inner_product_param {
    num_output: 10
    weight_filler {
      type: "xavier"
    }
    bias_filler {
      type: "constant"
    }
  }
}
layer {
  name: "feat"
  type: "InnerProduct"
  bottom: "ip2"
  top: "feat"
  param {
    name: "feat_w"
    lr_mult: 1
  }
  param {
    name: "feat_b"
    lr_mult: 2
  }
  inner_product_param {
    num_output: 2
    weight_filler {
      type: "xavier"
    }
    bias_filler {
      type: "constant"
    }
  }
}
layer {
  name: "conv1_p"
  type: "Convolution"
  bottom: "data_p"
  top: "conv1_p"
  param {
    name: "conv1_w"
    lr_mult: 1
  }
  param {
    name: "conv1_b"
    lr_mult: 2
  }
  convolution_param {
    num_output: 20
    kernel_size: 5
    stride: 1
    weight_filler {
      type: "xavier"
    }
    bias_filler {
      type: "constant"
    }
  }
}
layer {
  name: "pool1_p"
  type: "Pooling"
  bottom: "conv1_p"
  top: "pool1_p"
  pooling_param {
    pool: MAX
    kernel_size: 2
    stride: 2
  }
}
layer {
  name: "conv2_p"
  type: "Convolution"
  bottom: "pool1_p"
  top: "conv2_p"
  param {
    name: "conv2_w"
    lr_mult: 1
  }
  param {
    name: "conv2_b"
    lr_mult: 2
  }
  convolution_param {
    num_output: 50
    kernel_size: 5
    stride: 1
    weight_filler {
      type: "xavier"
    }
    bias_filler {
      type: "constant"
    }
  }
}
layer {
  name: "pool2_p"
  type: "Pooling"
  bottom: "conv2_p"
  top: "pool2_p"
  pooling_param {
    pool: MAX
    kernel_size: 2
    stride: 2
  }
}
layer {
  name: "ip1_p"
  type: "InnerProduct"
  bottom: "pool2_p"
  top: "ip1_p"
  param {
    name: "ip1_w"
    lr_mult: 1
  }
  param {
    name: "ip1_b"
    lr_mult: 2
  }
  inner_product_param {
    num_output: 500
    weight_filler {
      type: "xavier"
    }
    bias_filler {
      type: "constant"
    }
  }
}
layer {
  name: "relu1_p"
  type: "ReLU"
  bottom: "ip1_p"
  top: "ip1_p"
}
layer {
  name: "ip2_p"
  type: "InnerProduct"
  bottom: "ip1_p"
  top: "ip2_p"
  param {
    name: "ip2_w"
    lr_mult: 1
  }
  param {
    name: "ip2_b"
    lr_mult: 2
  }
  inner_product_param {
    num_output: 10
    weight_filler {
      type: "xavier"
    }
    bias_filler {
      type: "constant"
    }
  }
}
layer {
  name: "feat_p"
  type: "InnerProduct"
  bottom: "ip2_p"
  top: "feat_p"
  param {
    name: "feat_w"
    lr_mult: 1
  }
  param {
    name: "feat_b"
    lr_mult: 2
  }
  inner_product_param {
    num_output: 2
    weight_filler {
      type: "xavier"
    }
    bias_filler {
      type: "constant"
    }
  }
}
layer {
  name: "loss"
  type: "ContrastiveLoss"
  bottom: "feat"
  bottom: "feat_p"
  bottom: "sim"
  top: "loss"
  contrastive_loss_param {
    margin: 1
  }
}
I0627 13:05:10.452689 1970144000 layer_factory.hpp:74] Creating layer pair_data
I0627 13:05:10.452708 1970144000 net.cpp:90] Creating Layer pair_data
I0627 13:05:10.452718 1970144000 net.cpp:368] pair_data -> pair_data
I0627 13:05:10.452736 1970144000 net.cpp:368] pair_data -> sim
I0627 13:05:10.452744 1970144000 net.cpp:120] Setting up pair_data
I0627 13:05:10.542073 1970144000 db.cpp:20] Opened leveldb src/siamese_network_bw/data/siamese_network_train_leveldb
I0627 13:05:10.544239 1970144000 data_layer.cpp:52] output data size: 64,2,62,47
I0627 13:05:10.544972 1970144000 net.cpp:127] Top shape: 64 2 62 47 (372992)
I0627 13:05:10.544997 1970144000 net.cpp:127] Top shape: 64 (64)
I0627 13:05:10.545004 1970144000 layer_factory.hpp:74] Creating layer slice_pair
I0627 13:05:10.545017 1970144000 net.cpp:90] Creating Layer slice_pair
I0627 13:05:10.545022 1970144000 net.cpp:410] slice_pair <- pair_data
I0627 13:05:10.545049 1970144000 net.cpp:368] slice_pair -> data
I0627 13:05:10.545073 1970144000 net.cpp:368] slice_pair -> data_p
I0627 13:05:10.545100 1970144000 net.cpp:120] Setting up slice_pair
I0627 13:05:10.545120 1970144000 net.cpp:127] Top shape: 64 1 62 47 (186496)
I0627 13:05:10.545135 1970144000 net.cpp:127] Top shape: 64 1 62 47 (186496)
I0627 13:05:10.545145 1970144000 layer_factory.hpp:74] Creating layer conv1
I0627 13:05:10.545176 1970144000 net.cpp:90] Creating Layer conv1
I0627 13:05:10.545195 1970144000 net.cpp:410] conv1 <- data
I0627 13:05:10.545212 1970144000 net.cpp:368] conv1 -> conv1
I0627 13:05:10.545227 1970144000 net.cpp:120] Setting up conv1
I0627 13:05:10.687631 1970144000 net.cpp:127] Top shape: 64 20 58 43 (3192320)
I0627 13:05:10.687664 1970144000 layer_factory.hpp:74] Creating layer pool1
I0627 13:05:10.687676 1970144000 net.cpp:90] Creating Layer pool1
I0627 13:05:10.687681 1970144000 net.cpp:410] pool1 <- conv1
I0627 13:05:10.687690 1970144000 net.cpp:368] pool1 -> pool1
I0627 13:05:10.687697 1970144000 net.cpp:120] Setting up pool1
I0627 13:05:10.687892 1970144000 net.cpp:127] Top shape: 64 20 29 22 (816640)
I0627 13:05:10.687909 1970144000 layer_factory.hpp:74] Creating layer conv2
I0627 13:05:10.687924 1970144000 net.cpp:90] Creating Layer conv2
I0627 13:05:10.687929 1970144000 net.cpp:410] conv2 <- pool1
I0627 13:05:10.687938 1970144000 net.cpp:368] conv2 -> conv2
I0627 13:05:10.687958 1970144000 net.cpp:120] Setting up conv2
I0627 13:05:10.688650 1970144000 net.cpp:127] Top shape: 64 50 25 18 (1440000)
I0627 13:05:10.688666 1970144000 layer_factory.hpp:74] Creating layer pool2
I0627 13:05:10.688678 1970144000 net.cpp:90] Creating Layer pool2
I0627 13:05:10.688683 1970144000 net.cpp:410] pool2 <- conv2
I0627 13:05:10.688710 1970144000 net.cpp:368] pool2 -> pool2
I0627 13:05:10.688719 1970144000 net.cpp:120] Setting up pool2
I0627 13:05:10.688781 1970144000 net.cpp:127] Top shape: 64 50 13 9 (374400)
I0627 13:05:10.688791 1970144000 layer_factory.hpp:74] Creating layer ip1
I0627 13:05:10.688802 1970144000 net.cpp:90] Creating Layer ip1
I0627 13:05:10.688827 1970144000 net.cpp:410] ip1 <- pool2
I0627 13:05:10.688868 1970144000 net.cpp:368] ip1 -> ip1
I0627 13:05:10.688884 1970144000 net.cpp:120] Setting up ip1
I0627 13:05:10.713341 1970144000 net.cpp:127] Top shape: 64 500 (32000)
I0627 13:05:10.713374 1970144000 layer_factory.hpp:74] Creating layer relu1
I0627 13:05:10.713392 1970144000 net.cpp:90] Creating Layer relu1
I0627 13:05:10.713403 1970144000 net.cpp:410] relu1 <- ip1
I0627 13:05:10.713412 1970144000 net.cpp:357] relu1 -> ip1 (in-place)
I0627 13:05:10.713419 1970144000 net.cpp:120] Setting up relu1
I0627 13:05:10.713511 1970144000 net.cpp:127] Top shape: 64 500 (32000)
I0627 13:05:10.713524 1970144000 layer_factory.hpp:74] Creating layer ip2
I0627 13:05:10.713539 1970144000 net.cpp:90] Creating Layer ip2
I0627 13:05:10.713547 1970144000 net.cpp:410] ip2 <- ip1
I0627 13:05:10.713568 1970144000 net.cpp:368] ip2 -> ip2
I0627 13:05:10.713582 1970144000 net.cpp:120] Setting up ip2
I0627 13:05:10.713665 1970144000 net.cpp:127] Top shape: 64 10 (640)
I0627 13:05:10.713677 1970144000 layer_factory.hpp:74] Creating layer feat
I0627 13:05:10.713690 1970144000 net.cpp:90] Creating Layer feat
I0627 13:05:10.713696 1970144000 net.cpp:410] feat <- ip2
I0627 13:05:10.713706 1970144000 net.cpp:368] feat -> feat
I0627 13:05:10.713714 1970144000 net.cpp:120] Setting up feat
I0627 13:05:10.713724 1970144000 net.cpp:127] Top shape: 64 2 (128)
I0627 13:05:10.713734 1970144000 layer_factory.hpp:74] Creating layer conv1_p
I0627 13:05:10.713745 1970144000 net.cpp:90] Creating Layer conv1_p
I0627 13:05:10.713752 1970144000 net.cpp:410] conv1_p <- data_p
I0627 13:05:10.713779 1970144000 net.cpp:368] conv1_p -> conv1_p
I0627 13:05:10.713793 1970144000 net.cpp:120] Setting up conv1_p
I0627 13:05:10.714195 1970144000 net.cpp:127] Top shape: 64 20 58 43 (3192320)
I0627 13:05:10.714210 1970144000 net.cpp:459] Sharing parameters 'conv1_w' owned by layer 'conv1', param index 0
I0627 13:05:10.714226 1970144000 net.cpp:459] Sharing parameters 'conv1_b' owned by layer 'conv1', param index 1
I0627 13:05:10.714232 1970144000 layer_factory.hpp:74] Creating layer pool1_p
I0627 13:05:10.714253 1970144000 net.cpp:90] Creating Layer pool1_p
I0627 13:05:10.714277 1970144000 net.cpp:410] pool1_p <- conv1_p
I0627 13:05:10.714304 1970144000 net.cpp:368] pool1_p -> pool1_p
I0627 13:05:10.714336 1970144000 net.cpp:120] Setting up pool1_p
I0627 13:05:10.714529 1970144000 net.cpp:127] Top shape: 64 20 29 22 (816640)
I0627 13:05:10.714545 1970144000 layer_factory.hpp:74] Creating layer conv2_p
I0627 13:05:10.714557 1970144000 net.cpp:90] Creating Layer conv2_p
I0627 13:05:10.714565 1970144000 net.cpp:410] conv2_p <- pool1_p
I0627 13:05:10.714581 1970144000 net.cpp:368] conv2_p -> conv2_p
I0627 13:05:10.714592 1970144000 net.cpp:120] Setting up conv2_p
I0627 13:05:10.715216 1970144000 net.cpp:127] Top shape: 64 50 25 18 (1440000)
I0627 13:05:10.715234 1970144000 net.cpp:459] Sharing parameters 'conv2_w' owned by layer 'conv2', param index 0
I0627 13:05:10.715248 1970144000 net.cpp:459] Sharing parameters 'conv2_b' owned by layer 'conv2', param index 1
I0627 13:05:10.715257 1970144000 layer_factory.hpp:74] Creating layer pool2_p
I0627 13:05:10.715267 1970144000 net.cpp:90] Creating Layer pool2_p
I0627 13:05:10.715288 1970144000 net.cpp:410] pool2_p <- conv2_p
I0627 13:05:10.715311 1970144000 net.cpp:368] pool2_p -> pool2_p
I0627 13:05:10.715323 1970144000 net.cpp:120] Setting up pool2_p
I0627 13:05:10.715405 1970144000 net.cpp:127] Top shape: 64 50 13 9 (374400)
I0627 13:05:10.715437 1970144000 layer_factory.hpp:74] Creating layer ip1_p
I0627 13:05:10.715448 1970144000 net.cpp:90] Creating Layer ip1_p
I0627 13:05:10.715454 1970144000 net.cpp:410] ip1_p <- pool2_p
I0627 13:05:10.715492 1970144000 net.cpp:368] ip1_p -> ip1_p
I0627 13:05:10.715500 1970144000 net.cpp:120] Setting up ip1_p
I0627 13:05:10.740353 1970144000 net.cpp:127] Top shape: 64 500 (32000)
I0627 13:05:10.740382 1970144000 net.cpp:459] Sharing parameters 'ip1_w' owned by layer 'ip1', param index 0
I0627 13:05:10.741693 1970144000 net.cpp:459] Sharing parameters 'ip1_b' owned by layer 'ip1', param index 1
I0627 13:05:10.741706 1970144000 layer_factory.hpp:74] Creating layer relu1_p
I0627 13:05:10.741716 1970144000 net.cpp:90] Creating Layer relu1_p
I0627 13:05:10.741722 1970144000 net.cpp:410] relu1_p <- ip1_p
I0627 13:05:10.741736 1970144000 net.cpp:357] relu1_p -> ip1_p (in-place)
I0627 13:05:10.741744 1970144000 net.cpp:120] Setting up relu1_p
I0627 13:05:10.742041 1970144000 net.cpp:127] Top shape: 64 500 (32000)
I0627 13:05:10.742051 1970144000 layer_factory.hpp:74] Creating layer ip2_p
I0627 13:05:10.742061 1970144000 net.cpp:90] Creating Layer ip2_p
I0627 13:05:10.742065 1970144000 net.cpp:410] ip2_p <- ip1_p
I0627 13:05:10.742074 1970144000 net.cpp:368] ip2_p -> ip2_p
I0627 13:05:10.742151 1970144000 net.cpp:120] Setting up ip2_p
I0627 13:05:10.742259 1970144000 net.cpp:127] Top shape: 64 10 (640)
I0627 13:05:10.742280 1970144000 net.cpp:459] Sharing parameters 'ip2_w' owned by layer 'ip2', param index 0
I0627 13:05:10.742300 1970144000 net.cpp:459] Sharing parameters 'ip2_b' owned by layer 'ip2', param index 1
I0627 13:05:10.742312 1970144000 layer_factory.hpp:74] Creating layer feat_p
I0627 13:05:10.742326 1970144000 net.cpp:90] Creating Layer feat_p
I0627 13:05:10.742347 1970144000 net.cpp:410] feat_p <- ip2_p
I0627 13:05:10.742363 1970144000 net.cpp:368] feat_p -> feat_p
I0627 13:05:10.742372 1970144000 net.cpp:120] Setting up feat_p
I0627 13:05:10.742389 1970144000 net.cpp:127] Top shape: 64 2 (128)
I0627 13:05:10.742400 1970144000 net.cpp:459] Sharing parameters 'feat_w' owned by layer 'feat', param index 0
I0627 13:05:10.742409 1970144000 net.cpp:459] Sharing parameters 'feat_b' owned by layer 'feat', param index 1
I0627 13:05:10.742418 1970144000 layer_factory.hpp:74] Creating layer loss
I0627 13:05:10.742456 1970144000 net.cpp:90] Creating Layer loss
I0627 13:05:10.742470 1970144000 net.cpp:410] loss <- feat
…
I0627 13:05:10.743175 1970144000 solver.cpp:154] Creating test net (#0) specified by net file: src/siamese_network_bw/model/siamese_train_validate.prototxt
I0627 13:05:10.743237 1970144000 net.cpp:287] The NetState phase (1) differed from the phase (0) specified by a rule in layer pair_data
I0627 13:05:10.743274 1970144000 net.cpp:42] Initializing net from parameters: 
name: "siamese_train_validate"
state {
  phase: TEST
}
layer {
  name: "pair_data"
  type: "Data"
  top: "pair_data"
  top: "sim"
  include {
    phase: TEST
  }
  transform_param {
    scale: 0.00390625
  }
  data_param {
    source: "src/siamese_network_bw/data/siamese_network_validation_leveldb"
    batch_size: 100
  }
}
layer {
  name: "slice_pair"
  type: "Slice"
  bottom: "pair_data"
  top: "data"
  top: "data_p"
  slice_param {
    slice_dim: 1
    slice_point: 1
  }
}
layer {
  name: "conv1"
  type: "Convolution"
  bottom: "data"
  top: "conv1"
  param {
    name: "conv1_w"
    lr_mult: 1
  }
  param {
    name: "conv1_b"
    lr_mult: 2
  }
  convolution_param {
    num_output: 20
    kernel_size: 5
    stride: 1
    weight_filler {
      type: "xavier"
    }
    bias_filler {
      type: "constant"
    }
  }
}
layer {
  name: "pool1"
  type: "Pooling"
  bottom: "conv1"
  top: "pool1"
  pooling_param {
    pool: MAX
    kernel_size: 2
    stride: 2
  }
}
layer {
  name: "conv2"
  type: "Convolution"
  bottom: "pool1"
  top: "conv2"
  param {
    name: "conv2_w"
    lr_mult: 1
  }
  param {
    name: "conv2_b"
    lr_mult: 2
  }
  convolution_param {
    num_output: 50
    kernel_size: 5
    stride: 1
    weight_filler {
      type: "xavier"
    }
    bias_filler {
      type: "constant"
    }
  }
}
layer {
  name: "pool2"
  type: "Pooling"
  bottom: "conv2"
  top: "pool2"
  pooling_param {
    pool: MAX
    kernel_size: 2
    stride: 2
  }
}
layer {
  name: "ip1"
  type: "InnerProduct"
  bottom: "pool2"
  top: "ip1"
  param {
    name: "ip1_w"
    lr_mult: 1
  }
  param {
    name: "ip1_b"
    lr_mult: 2
  }
  inner_product_param {
    num_output: 500
    weight_filler {
      type: "xavier"
    }
    bias_filler {
      type: "constant"
    }
  }
}
layer {
  name: "relu1"
  type: "ReLU"
  bottom: "ip1"
  top: "ip1"
}
layer {
  name: "ip2"
  type: "InnerProduct"
  bottom: "ip1"
  top: "ip2"
  param {
    name: "ip2_w"
    lr_mult: 1
  }
  param {
    name: "ip2_b"
    lr_mult: 2
  }
  inner_product_param {
    num_output: 10
    weight_filler {
      type: "xavier"
    }
    bias_filler {
      type: "constant"
    }
  }
}
layer {
  name: "feat"
  type: "InnerProduct"
  bottom: "ip2"
  top: "feat"
  param {
    name: "feat_w"
    lr_mult: 1
  }
  param {
    name: "feat_b"
    lr_mult: 2
  }
  inner_product_param {
    num_output: 2
    weight_filler {
      type: "xavier"
    }
    bias_filler {
      type: "constant"
    }
  }
}
layer {
  name: "conv1_p"
  type: "Convolution"
  bottom: "data_p"
  top: "conv1_p"
  param {
    name: "conv1_w"
    lr_mult: 1
  }
  param {
    name: "conv1_b"
    lr_mult: 2
  }
  convolution_param {
    num_output: 20
    kernel_size: 5
    stride: 1
    weight_filler {
      type: "xavier"
    }
    bias_filler {
      type: "constant"
    }
  }
}
layer {
  name: "pool1_p"
  type: "Pooling"
  bottom: "conv1_p"
  top: "pool1_p"
  pooling_param {
    pool: MAX
    kernel_size: 2
    stride: 2
  }
}
layer {
  name: "conv2_p"
  type: "Convolution"
  bottom: "pool1_p"
  top: "conv2_p"
  param {
    name: "conv2_w"
    lr_mult: 1
  }
  param {
    name: "conv2_b"
    lr_mult: 2
  }
  convolution_param {
    num_output: 50
    kernel_size: 5
    stride: 1
    weight_filler {
      type: "xavier"
    }
    bias_filler {
      type: "constant"
    }
  }
}
layer {
  name: "pool2_p"
  type: "Pooling"
  bottom: "conv2_p"
  top: "pool2_p"
  pooling_param {
    pool: MAX
    kernel_size: 2
    stride: 2
  }
}
layer {
  name: "ip1_p"
  type: "InnerProduct"
  bottom: "pool2_p"
  top: "ip1_p"
  param {
    name: "ip1_w"
    lr_mult: 1
  }
  param {
    name: "ip1_b"
    lr_mult: 2
  }
  inner_product_param {
    num_output: 500
    weight_filler {
      type: "xavier"
    }
    bias_filler {
      type: "constant"
    }
  }
}
layer {
  name: "relu1_p"
  type: "ReLU"
  bottom: "ip1_p"
  top: "ip1_p"
}
layer {
  name: "ip2_p"
  type: "InnerProduct"
  bottom: "ip1_p"
  top: "ip2_p"
  param {
    name: "ip2_w"
    lr_mult: 1
  }
  param {
    name: "ip2_b"
    lr_mult: 2
  }
  inner_product_param {
    num_output: 10
    weight_filler {
      type: "xavier"
    }
    bias_filler {
      type: "constant"
    }
  }
}
layer {
  name: "feat_p"
  type: "InnerProduct"
  bottom: "ip2_p"
  top: "feat_p"
  param {
    name: "feat_w"
    lr_mult: 1
  }
  param {
    name: "feat_b"
    lr_mult: 2
  }
  inner_product_param {
    num_output: 2
    weight_filler {
      type: "xavier"
    }
    bias_filler {
      type: "constant"
    }
  }
}
layer {
  name: "loss"
  type: "ContrastiveLoss"
  bottom: "feat"
  bottom: "feat_p"
  bottom: "sim"
  top: "loss"
  contrastive_loss_param {
    margin: 1
  }
}
I0627 13:05:10.743650 1970144000 layer_factory.hpp:74] Creating layer pair_data
I0627 13:05:10.743669 1970144000 net.cpp:90] Creating Layer pair_data
I0627 13:05:10.743679 1970144000 net.cpp:368] pair_data -> pair_data
I0627 13:05:10.743693 1970144000 net.cpp:368] pair_data -> sim
I0627 13:05:10.743705 1970144000 net.cpp:120] Setting up pair_data
I0627 13:05:10.803890 1970144000 db.cpp:20] Opened leveldb src/siamese_network_bw/data/siamese_network_validation_leveldb
I0627 13:05:10.804280 1970144000 data_layer.cpp:52] output data size: 100,2,62,47
I0627 13:05:10.805488 1970144000 net.cpp:127] Top shape: 100 2 62 47 (582800)
I0627 13:05:10.805510 1970144000 net.cpp:127] Top shape: 100 (100)
I0627 13:05:10.805534 1970144000 layer_factory.hpp:74] Creating layer slice_pair
I0627 13:05:10.805553 1970144000 net.cpp:90] Creating Layer slice_pair
I0627 13:05:10.805559 1970144000 net.cpp:410] slice_pair <- pair_data
I0627 13:05:10.805567 1970144000 net.cpp:368] slice_pair -> data
I0627 13:05:10.805580 1970144000 net.cpp:368] slice_pair -> data_p
I0627 13:05:10.805588 1970144000 net.cpp:120] Setting up slice_pair
I0627 13:05:10.805594 1970144000 net.cpp:127] Top shape: 100 1 62 47 (291400)
I0627 13:05:10.805600 1970144000 net.cpp:127] Top shape: 100 1 62 47 (291400)
I0627 13:05:10.805605 1970144000 layer_factory.hpp:74] Creating layer conv1
I0627 13:05:10.805619 1970144000 net.cpp:90] Creating Layer conv1
I0627 13:05:10.805624 1970144000 net.cpp:410] conv1 <- data
I0627 13:05:10.805629 1970144000 net.cpp:368] conv1 -> conv1
I0627 13:05:10.805636 1970144000 net.cpp:120] Setting up conv1
I0627 13:05:10.805977 1970144000 net.cpp:127] Top shape: 100 20 58 43 (4988000)
I0627 13:05:10.805990 1970144000 layer_factory.hpp:74] Creating layer pool1
I0627 13:05:10.805997 1970144000 net.cpp:90] Creating Layer pool1
I0627 13:05:10.806001 1970144000 net.cpp:410] pool1 <- conv1
I0627 13:05:10.806006 1970144000 net.cpp:368] pool1 -> pool1
I0627 13:05:10.806015 1970144000 net.cpp:120] Setting up pool1
I0627 13:05:10.806066 1970144000 net.cpp:127] Top shape: 100 20 29 22 (1276000)
I0627 13:05:10.806072 1970144000 layer_factory.hpp:74] Creating layer conv2
I0627 13:05:10.806080 1970144000 net.cpp:90] Creating Layer conv2
I0627 13:05:10.806084 1970144000 net.cpp:410] conv2 <- pool1
I0627 13:05:10.806090 1970144000 net.cpp:368] conv2 -> conv2
I0627 13:05:10.806097 1970144000 net.cpp:120] Setting up conv2
I0627 13:05:10.806906 1970144000 net.cpp:127] Top shape: 100 50 25 18 (2250000)
I0627 13:05:10.806927 1970144000 layer_factory.hpp:74] Creating layer pool2
I0627 13:05:10.806943 1970144000 net.cpp:90] Creating Layer pool2
I0627 13:05:10.806951 1970144000 net.cpp:410] pool2 <- conv2
I0627 13:05:10.806985 1970144000 net.cpp:368] pool2 -> pool2
I0627 13:05:10.806998 1970144000 net.cpp:120] Setting up pool2
I0627 13:05:10.807171 1970144000 net.cpp:127] Top shape: 100 50 13 9 (585000)
I0627 13:05:10.807188 1970144000 layer_factory.hpp:74] Creating layer ip1
I0627 13:05:10.807205 1970144000 net.cpp:90] Creating Layer ip1
I0627 13:05:10.807229 1970144000 net.cpp:410] ip1 <- pool2
I0627 13:05:10.807245 1970144000 net.cpp:368] ip1 -> ip1
I0627 13:05:10.807260 1970144000 net.cpp:120] Setting up ip1
I0627 13:05:10.831764 1970144000 net.cpp:127] Top shape: 100 500 (50000)
I0627 13:05:10.831797 1970144000 layer_factory.hpp:74] Creating layer relu1
I0627 13:05:10.831809 1970144000 net.cpp:90] Creating Layer relu1
I0627 13:05:10.831815 1970144000 net.cpp:410] relu1 <- ip1
I0627 13:05:10.831822 1970144000 net.cpp:357] relu1 -> ip1 (in-place)
I0627 13:05:10.831830 1970144000 net.cpp:120] Setting up relu1
I0627 13:05:10.831935 1970144000 net.cpp:127] Top shape: 100 500 (50000)
I0627 13:05:10.831945 1970144000 layer_factory.hpp:74] Creating layer ip2
I0627 13:05:10.831964 1970144000 net.cpp:90] Creating Layer ip2
I0627 13:05:10.831971 1970144000 net.cpp:410] ip2 <- ip1
I0627 13:05:10.831982 1970144000 net.cpp:368] ip2 -> ip2
I0627 13:05:10.831995 1970144000 net.cpp:120] Setting up ip2
I0627 13:05:10.832047 1970144000 net.cpp:127] Top shape: 100 10 (1000)
I0627 13:05:10.832056 1970144000 layer_factory.hpp:74] Creating layer feat
I0627 13:05:10.832065 1970144000 net.cpp:90] Creating Layer feat
I0627 13:05:10.832069 1970144000 net.cpp:410] feat <- ip2
I0627 13:05:10.832077 1970144000 net.cpp:368] feat -> feat
I0627 13:05:10.832084 1970144000 net.cpp:120] Setting up feat
I0627 13:05:10.832093 1970144000 net.cpp:127] Top shape: 100 2 (200)
I0627 13:05:10.832100 1970144000 layer_factory.hpp:74] Creating layer conv1_p
I0627 13:05:10.832111 1970144000 net.cpp:90] Creating Layer conv1_p
I0627 13:05:10.832115 1970144000 net.cpp:410] conv1_p <- data_p
I0627 13:05:10.832123 1970144000 net.cpp:368] conv1_p -> conv1_p
I0627 13:05:10.832129 1970144000 net.cpp:120] Setting up conv1_p
I0627 13:05:10.832495 1970144000 net.cpp:127] Top shape: 100 20 58 43 (4988000)
I0627 13:05:10.832509 1970144000 net.cpp:459] Sharing parameters 'conv1_w' owned by layer 'conv1', param index 0
I0627 13:05:10.832515 1970144000 net.cpp:459] Sharing parameters 'conv1_b' owned by layer 'conv1', param index 1
I0627 13:05:10.832521 1970144000 layer_factory.hpp:74] Creating layer pool1_p
I0627 13:05:10.832530 1970144000 net.cpp:90] Creating Layer pool1_p
I0627 13:05:10.832535 1970144000 net.cpp:410] pool1_p <- conv1_p
I0627 13:05:10.832543 1970144000 net.cpp:368] pool1_p -> pool1_p
I0627 13:05:10.832551 1970144000 net.cpp:120] Setting up pool1_p
I0627 13:05:10.832598 1970144000 net.cpp:127] Top shape: 100 20 29 22 (1276000)
I0627 13:05:10.832607 1970144000 layer_factory.hpp:74] Creating layer conv2_p
I0627 13:05:10.832613 1970144000 net.cpp:90] Creating Layer conv2_p
I0627 13:05:10.832618 1970144000 net.cpp:410] conv2_p <- pool1_p
I0627 13:05:10.832625 1970144000 net.cpp:368] conv2_p -> conv2_p
I0627 13:05:10.832634 1970144000 net.cpp:120] Setting up conv2_p
I0627 13:05:10.833101 1970144000 net.cpp:127] Top shape: 100 50 25 18 (2250000)
I0627 13:05:10.833231 1970144000 net.cpp:459] Sharing parameters 'conv2_w' owned by layer 'conv2', param index 0
I0627 13:05:10.833242 1970144000 net.cpp:459] Sharing parameters 'conv2_b' owned by layer 'conv2', param index 1
I0627 13:05:10.833247 1970144000 layer_factory.hpp:74] Creating layer pool2_p
I0627 13:05:10.833256 1970144000 net.cpp:90] Creating Layer pool2_p
I0627 13:05:10.833259 1970144000 net.cpp:410] pool2_p <- conv2_p
I0627 13:05:10.833266 1970144000 net.cpp:368] pool2_p -> pool2_p
I0627 13:05:10.833273 1970144000 net.cpp:120] Setting up pool2_p
I0627 13:05:10.833326 1970144000 net.cpp:127] Top shape: 100 50 13 9 (585000)
I0627 13:05:10.833333 1970144000 layer_factory.hpp:74] Creating layer ip1_p
I0627 13:05:10.833340 1970144000 net.cpp:90] Creating Layer ip1_p
I0627 13:05:10.833345 1970144000 net.cpp:410] ip1_p <- pool2_p
I0627 13:05:10.833380 1970144000 net.cpp:368] ip1_p -> ip1_p
I0627 13:05:10.833389 1970144000 net.cpp:120] Setting up ip1_p
I0627 13:05:10.858814 1970144000 net.cpp:127] Top shape: 100 500 (50000)
I0627 13:05:10.858850 1970144000 net.cpp:459] Sharing parameters 'ip1_w' owned by layer 'ip1', param index 0
I0627 13:05:10.860153 1970144000 net.cpp:459] Sharing parameters 'ip1_b' owned by layer 'ip1', param index 1
I0627 13:05:10.860167 1970144000 layer_factory.hpp:74] Creating layer relu1_p
I0627 13:05:10.860177 1970144000 net.cpp:90] Creating Layer relu1_p
I0627 13:05:10.860182 1970144000 net.cpp:410] relu1_p <- ip1_p
I0627 13:05:10.860188 1970144000 net.cpp:357] relu1_p -> ip1_p (in-place)
I0627 13:05:10.860194 1970144000 net.cpp:120] Setting up relu1_p
I0627 13:05:10.860404 1970144000 net.cpp:127] Top shape: 100 500 (50000)
I0627 13:05:10.860416 1970144000 layer_factory.hpp:74] Creating layer ip2_p
I0627 13:05:10.860429 1970144000 net.cpp:90] Creating Layer ip2_p
I0627 13:05:10.860433 1970144000 net.cpp:410] ip2_p <- ip1_p
I0627 13:05:10.860440 1970144000 net.cpp:368] ip2_p -> ip2_p
I0627 13:05:10.860452 1970144000 net.cpp:120] Setting up ip2_p
I0627 13:05:10.860499 1970144000 net.cpp:127] Top shape: 100 10 (1000)
I0627 13:05:10.860507 1970144000 net.cpp:459] Sharing parameters 'ip2_w' owned by layer 'ip2', param index 0
I0627 13:05:10.860513 1970144000 net.cpp:459] Sharing parameters 'ip2_b' owned by layer 'ip2', param index 1
I0627 13:05:10.860518 1970144000 layer_factory.hpp:74] Creating layer feat_p
I0627 13:05:10.860525 1970144000 net.cpp:90] Creating Layer feat_p
I0627 13:05:10.860530 1970144000 net.cpp:410] feat_p <- ip2_p
I0627 13:05:10.860560 1970144000 net.cpp:368] feat_p -> feat_p
I0627 13:05:10.860581 1970144000 net.cpp:120] Setting up feat_p
I0627 13:05:10.860594 1970144000 net.cpp:127] Top shape: 100 2 (200)
I0627 13:05:10.860627 1970144000 net.cpp:459] Sharing parameters 'feat_w' owned by layer 'feat', param index 0
I0627 13:05:10.860635 1970144000 net.cpp:459] Sharing parameters 'feat_b' owned by layer 'feat', param index 1
I0627 13:05:10.860640 1970144000 layer_factory.hpp:74] Creating layer loss
I0627 13:05:10.860647 1970144000 net.cpp:90] Creating Layer loss
I0627 13:05:10.860656 1970144000 net.cpp:410] loss <- feat
…
