…
I0607 15:19:55.122880 1956823808 solver.cpp:70] Creating training net from net file: src/siamese_network_bw/model/siamese_train_validate.prototxt
I0607 15:19:55.123766 1956823808 net.cpp:260] The NetState phase (0) differed from the phase (1) specified by a rule in layer pair_data
I0607 15:19:55.123802 1956823808 net.cpp:39] Initializing net from parameters: 
name: "siamese_train_validate"
state {
  phase: TRAIN
}
layer {
  name: "pair_data"
  type: "Data"
  top: "pair_data"
  top: "sim"
  include {
    phase: TRAIN
  }
  transform_param {
    scale: 1
  }
  data_param {
    source: "src/siamese_network_bw/data/siamese_network_train_leveldb"
    batch_size: 64
  }
}
layer {
  name: "slice_pair"
  type: "Slice"
  bottom: "pair_data"
  top: "data"
  top: "data_p"
  slice_param {
    slice_dim: 1
    slice_point: 1
  }
}
layer {
  name: "conv1"
  type: "Convolution"
  bottom: "data"
  top: "conv1"
  param {
    name: "conv1_w"
    lr_mult: 1
  }
  param {
    name: "conv1_b"
    lr_mult: 2
  }
  convolution_param {
    num_output: 20
    kernel_size: 5
    stride: 1
    weight_filler {
      type: "xavier"
    }
    bias_filler {
      type: "constant"
    }
  }
}
layer {
  name: "pool1"
  type: "Pooling"
  bottom: "conv1"
  top: "pool1"
  pooling_param {
    pool: MAX
    kernel_size: 2
    stride: 2
  }
}
layer {
  name: "conv2"
  type: "Convolution"
  bottom: "pool1"
  top: "conv2"
  param {
    name: "conv2_w"
    lr_mult: 1
  }
  param {
    name: "conv2_b"
    lr_mult: 2
  }
  convolution_param {
    num_output: 50
    kernel_size: 5
    stride: 1
    weight_filler {
      type: "xavier"
    }
    bias_filler {
      type: "constant"
    }
  }
}
layer {
  name: "pool2"
  type: "Pooling"
  bottom: "conv2"
  top: "pool2"
  pooling_param {
    pool: MAX
    kernel_size: 2
    stride: 2
  }
}
layer {
  name: "ip1"
  type: "InnerProduct"
  bottom: "pool2"
  top: "ip1"
  param {
    name: "ip1_w"
    lr_mult: 1
  }
  param {
    name: "ip1_b"
    lr_mult: 2
  }
  inner_product_param {
    num_output: 500
    weight_filler {
      type: "xavier"
    }
    bias_filler {
      type: "constant"
    }
  }
}
layer {
  name: "relu1"
  type: "ReLU"
  bottom: "ip1"
  top: "ip1"
}
layer {
  name: "ip2"
  type: "InnerProduct"
  bottom: "ip1"
  top: "ip2"
  param {
    name: "ip2_w"
    lr_mult: 1
  }
  param {
    name: "ip2_b"
    lr_mult: 2
  }
  inner_product_param {
    num_output: 10
    weight_filler {
      type: "xavier"
    }
    bias_filler {
      type: "constant"
    }
  }
}
layer {
  name: "feat"
  type: "InnerProduct"
  bottom: "ip2"
  top: "feat"
  param {
    name: "feat_w"
    lr_mult: 1
  }
  param {
    name: "feat_b"
    lr_mult: 2
  }
  inner_product_param {
    num_output: 2
    weight_filler {
      type: "xavier"
    }
    bias_filler {
      type: "constant"
    }
  }
}
layer {
  name: "conv1_p"
  type: "Convolution"
  bottom: "data_p"
  top: "conv1_p"
  param {
    name: "conv1_w"
    lr_mult: 1
  }
  param {
    name: "conv1_b"
    lr_mult: 2
  }
  convolution_param {
    num_output: 20
    kernel_size: 5
    stride: 1
    weight_filler {
      type: "xavier"
    }
    bias_filler {
      type: "constant"
    }
  }
}
layer {
  name: "pool1_p"
  type: "Pooling"
  bottom: "conv1_p"
  top: "pool1_p"
  pooling_param {
    pool: MAX
    kernel_size: 2
    stride: 2
  }
}
layer {
  name: "conv2_p"
  type: "Convolution"
  bottom: "pool1_p"
  top: "conv2_p"
  param {
    name: "conv2_w"
    lr_mult: 1
  }
  param {
    name: "conv2_b"
    lr_mult: 2
  }
  convolution_param {
    num_output: 50
    kernel_size: 5
    stride: 1
    weight_filler {
      type: "xavier"
    }
    bias_filler {
      type: "constant"
    }
  }
}
layer {
  name: "pool2_p"
  type: "Pooling"
  bottom: "conv2_p"
  top: "pool2_p"
  pooling_param {
    pool: MAX
    kernel_size: 2
    stride: 2
  }
}
layer {
  name: "ip1_p"
  type: "InnerProduct"
  bottom: "pool2_p"
  top: "ip1_p"
  param {
    name: "ip1_w"
    lr_mult: 1
  }
  param {
    name: "ip1_b"
    lr_mult: 2
  }
  inner_product_param {
    num_output: 500
    weight_filler {
      type: "xavier"
    }
    bias_filler {
      type: "constant"
    }
  }
}
layer {
  name: "relu1_p"
  type: "ReLU"
  bottom: "ip1_p"
  top: "ip1_p"
}
layer {
  name: "ip2_p"
  type: "InnerProduct"
  bottom: "ip1_p"
  top: "ip2_p"
  param {
    name: "ip2_w"
    lr_mult: 1
  }
  param {
    name: "ip2_b"
    lr_mult: 2
  }
  inner_product_param {
    num_output: 10
    weight_filler {
      type: "xavier"
    }
    bias_filler {
      type: "constant"
    }
  }
}
layer {
  name: "feat_p"
  type: "InnerProduct"
  bottom: "ip2_p"
  top: "feat_p"
  param {
    name: "feat_w"
    lr_mult: 1
  }
  param {
    name: "feat_b"
    lr_mult: 2
  }
  inner_product_param {
    num_output: 2
    weight_filler {
      type: "xavier"
    }
    bias_filler {
      type: "constant"
    }
  }
}
layer {
  name: "loss"
  type: "ContrastiveLoss"
  bottom: "feat"
  bottom: "feat_p"
  bottom: "sim"
  top: "loss"
  contrastive_loss_param {
    margin: 1
  }
}
I0607 15:19:55.124415 1956823808 layer_factory.hpp:74] Creating layer pair_data
I0607 15:19:55.124430 1956823808 net.cpp:69] Creating Layer pair_data
I0607 15:19:55.124439 1956823808 net.cpp:341] pair_data -> pair_data
I0607 15:19:55.124452 1956823808 net.cpp:341] pair_data -> sim
I0607 15:19:55.124460 1956823808 net.cpp:98] Setting up pair_data
I0607 15:19:55.126852 1956823808 db.cpp:20] Opened leveldb src/siamese_network_bw/data/siamese_network_train_leveldb
I0607 15:19:55.128233 1956823808 data_layer.cpp:65] output data size: 64,2,62,47
I0607 15:19:55.128926 1956823808 net.cpp:105] Top shape: 64 2 62 47 (372992)
I0607 15:19:55.128933 1956823808 net.cpp:105] Top shape: 64 1 1 1 (64)
I0607 15:19:55.128949 1956823808 layer_factory.hpp:74] Creating layer slice_pair
I0607 15:19:55.128962 1956823808 net.cpp:69] Creating Layer slice_pair
I0607 15:19:55.128965 1956823808 net.cpp:379] slice_pair <- pair_data
I0607 15:19:55.128974 1956823808 net.cpp:341] slice_pair -> data
I0607 15:19:55.128983 1956823808 net.cpp:341] slice_pair -> data_p
I0607 15:19:55.128989 1956823808 net.cpp:98] Setting up slice_pair
I0607 15:19:55.128995 1956823808 net.cpp:105] Top shape: 64 1 62 47 (186496)
I0607 15:19:55.128999 1956823808 net.cpp:105] Top shape: 64 1 62 47 (186496)
I0607 15:19:55.129003 1956823808 layer_factory.hpp:74] Creating layer conv1
I0607 15:19:55.129009 1956823808 net.cpp:69] Creating Layer conv1
I0607 15:19:55.129012 1956823808 net.cpp:379] conv1 <- data
I0607 15:19:55.129017 1956823808 net.cpp:341] conv1 -> conv1
I0607 15:19:55.129024 1956823808 net.cpp:98] Setting up conv1
I0607 15:19:55.182018 1956823808 net.cpp:105] Top shape: 64 20 58 43 (3192320)
I0607 15:19:55.182046 1956823808 layer_factory.hpp:74] Creating layer pool1
I0607 15:19:55.182060 1956823808 net.cpp:69] Creating Layer pool1
I0607 15:19:55.182063 1956823808 net.cpp:379] pool1 <- conv1
I0607 15:19:55.182070 1956823808 net.cpp:341] pool1 -> pool1
I0607 15:19:55.182076 1956823808 net.cpp:98] Setting up pool1
I0607 15:19:55.182209 1956823808 net.cpp:105] Top shape: 64 20 29 22 (816640)
I0607 15:19:55.182215 1956823808 layer_factory.hpp:74] Creating layer conv2
I0607 15:19:55.182224 1956823808 net.cpp:69] Creating Layer conv2
I0607 15:19:55.182229 1956823808 net.cpp:379] conv2 <- pool1
I0607 15:19:55.182242 1956823808 net.cpp:341] conv2 -> conv2
I0607 15:19:55.182250 1956823808 net.cpp:98] Setting up conv2
I0607 15:19:55.182617 1956823808 net.cpp:105] Top shape: 64 50 25 18 (1440000)
I0607 15:19:55.182628 1956823808 layer_factory.hpp:74] Creating layer pool2
I0607 15:19:55.182634 1956823808 net.cpp:69] Creating Layer pool2
I0607 15:19:55.182638 1956823808 net.cpp:379] pool2 <- conv2
I0607 15:19:55.182663 1956823808 net.cpp:341] pool2 -> pool2
I0607 15:19:55.182670 1956823808 net.cpp:98] Setting up pool2
I0607 15:19:55.182718 1956823808 net.cpp:105] Top shape: 64 50 13 9 (374400)
I0607 15:19:55.182723 1956823808 layer_factory.hpp:74] Creating layer ip1
I0607 15:19:55.182731 1956823808 net.cpp:69] Creating Layer ip1
I0607 15:19:55.182735 1956823808 net.cpp:379] ip1 <- pool2
I0607 15:19:55.182740 1956823808 net.cpp:341] ip1 -> ip1
I0607 15:19:55.182749 1956823808 net.cpp:98] Setting up ip1
I0607 15:19:55.203239 1956823808 net.cpp:105] Top shape: 64 500 1 1 (32000)
I0607 15:19:55.203274 1956823808 layer_factory.hpp:74] Creating layer relu1
I0607 15:19:55.203287 1956823808 net.cpp:69] Creating Layer relu1
I0607 15:19:55.203294 1956823808 net.cpp:379] relu1 <- ip1
I0607 15:19:55.203300 1956823808 net.cpp:330] relu1 -> ip1 (in-place)
I0607 15:19:55.203307 1956823808 net.cpp:98] Setting up relu1
I0607 15:19:55.203390 1956823808 net.cpp:105] Top shape: 64 500 1 1 (32000)
I0607 15:19:55.203529 1956823808 layer_factory.hpp:74] Creating layer ip2
I0607 15:19:55.203552 1956823808 net.cpp:69] Creating Layer ip2
I0607 15:19:55.203557 1956823808 net.cpp:379] ip2 <- ip1
I0607 15:19:55.203564 1956823808 net.cpp:341] ip2 -> ip2
I0607 15:19:55.203572 1956823808 net.cpp:98] Setting up ip2
I0607 15:19:55.203627 1956823808 net.cpp:105] Top shape: 64 10 1 1 (640)
I0607 15:19:55.203634 1956823808 layer_factory.hpp:74] Creating layer feat
I0607 15:19:55.203641 1956823808 net.cpp:69] Creating Layer feat
I0607 15:19:55.203645 1956823808 net.cpp:379] feat <- ip2
I0607 15:19:55.203650 1956823808 net.cpp:341] feat -> feat
I0607 15:19:55.203657 1956823808 net.cpp:98] Setting up feat
I0607 15:19:55.203665 1956823808 net.cpp:105] Top shape: 64 2 1 1 (128)
I0607 15:19:55.203670 1956823808 layer_factory.hpp:74] Creating layer conv1_p
I0607 15:19:55.203680 1956823808 net.cpp:69] Creating Layer conv1_p
I0607 15:19:55.203683 1956823808 net.cpp:379] conv1_p <- data_p
I0607 15:19:55.203690 1956823808 net.cpp:341] conv1_p -> conv1_p
I0607 15:19:55.203696 1956823808 net.cpp:98] Setting up conv1_p
I0607 15:19:55.203976 1956823808 net.cpp:105] Top shape: 64 20 58 43 (3192320)
I0607 15:19:55.203985 1956823808 net.cpp:423] Sharing parameters 'conv1_w' owned by layer 'conv1', param index 0
I0607 15:19:55.204000 1956823808 net.cpp:423] Sharing parameters 'conv1_b' owned by layer 'conv1', param index 1
I0607 15:19:55.204005 1956823808 layer_factory.hpp:74] Creating layer pool1_p
I0607 15:19:55.204012 1956823808 net.cpp:69] Creating Layer pool1_p
I0607 15:19:55.204015 1956823808 net.cpp:379] pool1_p <- conv1_p
I0607 15:19:55.204021 1956823808 net.cpp:341] pool1_p -> pool1_p
I0607 15:19:55.204036 1956823808 net.cpp:98] Setting up pool1_p
I0607 15:19:55.204134 1956823808 net.cpp:105] Top shape: 64 20 29 22 (816640)
I0607 15:19:55.204141 1956823808 layer_factory.hpp:74] Creating layer conv2_p
I0607 15:19:55.204149 1956823808 net.cpp:69] Creating Layer conv2_p
I0607 15:19:55.204152 1956823808 net.cpp:379] conv2_p <- pool1_p
I0607 15:19:55.204159 1956823808 net.cpp:341] conv2_p -> conv2_p
I0607 15:19:55.204165 1956823808 net.cpp:98] Setting up conv2_p
I0607 15:19:55.204550 1956823808 net.cpp:105] Top shape: 64 50 25 18 (1440000)
I0607 15:19:55.204557 1956823808 net.cpp:423] Sharing parameters 'conv2_w' owned by layer 'conv2', param index 0
I0607 15:19:55.204562 1956823808 net.cpp:423] Sharing parameters 'conv2_b' owned by layer 'conv2', param index 1
I0607 15:19:55.204566 1956823808 layer_factory.hpp:74] Creating layer pool2_p
I0607 15:19:55.204574 1956823808 net.cpp:69] Creating Layer pool2_p
I0607 15:19:55.204578 1956823808 net.cpp:379] pool2_p <- conv2_p
I0607 15:19:55.204583 1956823808 net.cpp:341] pool2_p -> pool2_p
I0607 15:19:55.204588 1956823808 net.cpp:98] Setting up pool2_p
I0607 15:19:55.204627 1956823808 net.cpp:105] Top shape: 64 50 13 9 (374400)
I0607 15:19:55.204632 1956823808 layer_factory.hpp:74] Creating layer ip1_p
I0607 15:19:55.204639 1956823808 net.cpp:69] Creating Layer ip1_p
I0607 15:19:55.204643 1956823808 net.cpp:379] ip1_p <- pool2_p
I0607 15:19:55.204674 1956823808 net.cpp:341] ip1_p -> ip1_p
I0607 15:19:55.204680 1956823808 net.cpp:98] Setting up ip1_p
I0607 15:19:55.228806 1956823808 net.cpp:105] Top shape: 64 500 1 1 (32000)
I0607 15:19:55.228831 1956823808 net.cpp:423] Sharing parameters 'ip1_w' owned by layer 'ip1', param index 0
I0607 15:19:55.229799 1956823808 net.cpp:423] Sharing parameters 'ip1_b' owned by layer 'ip1', param index 1
I0607 15:19:55.229811 1956823808 layer_factory.hpp:74] Creating layer relu1_p
I0607 15:19:55.229825 1956823808 net.cpp:69] Creating Layer relu1_p
I0607 15:19:55.229830 1956823808 net.cpp:379] relu1_p <- ip1_p
I0607 15:19:55.229836 1956823808 net.cpp:330] relu1_p -> ip1_p (in-place)
I0607 15:19:55.229842 1956823808 net.cpp:98] Setting up relu1_p
I0607 15:19:55.229910 1956823808 net.cpp:105] Top shape: 64 500 1 1 (32000)
I0607 15:19:55.229917 1956823808 layer_factory.hpp:74] Creating layer ip2_p
I0607 15:19:55.229928 1956823808 net.cpp:69] Creating Layer ip2_p
I0607 15:19:55.229930 1956823808 net.cpp:379] ip2_p <- ip1_p
I0607 15:19:55.229936 1956823808 net.cpp:341] ip2_p -> ip2_p
I0607 15:19:55.229945 1956823808 net.cpp:98] Setting up ip2_p
I0607 15:19:55.229990 1956823808 net.cpp:105] Top shape: 64 10 1 1 (640)
I0607 15:19:55.229998 1956823808 net.cpp:423] Sharing parameters 'ip2_w' owned by layer 'ip2', param index 0
I0607 15:19:55.230002 1956823808 net.cpp:423] Sharing parameters 'ip2_b' owned by layer 'ip2', param index 1
I0607 15:19:55.230006 1956823808 layer_factory.hpp:74] Creating layer feat_p
I0607 15:19:55.230013 1956823808 net.cpp:69] Creating Layer feat_p
I0607 15:19:55.230017 1956823808 net.cpp:379] feat_p <- ip2_p
I0607 15:19:55.230022 1956823808 net.cpp:341] feat_p -> feat_p
I0607 15:19:55.230028 1956823808 net.cpp:98] Setting up feat_p
I0607 15:19:55.230036 1956823808 net.cpp:105] Top shape: 64 2 1 1 (128)
I0607 15:19:55.230039 1956823808 net.cpp:423] Sharing parameters 'feat_w' owned by layer 'feat', param index 0
I0607 15:19:55.230043 1956823808 net.cpp:423] Sharing parameters 'feat_b' owned by layer 'feat', param index 1
I0607 15:19:55.230047 1956823808 layer_factory.hpp:74] Creating layer loss
I0607 15:19:55.230057 1956823808 net.cpp:69] Creating Layer loss
I0607 15:19:55.230064 1956823808 net.cpp:379] loss <- feat
I0607 15:19:55.230068 1956823808 net.cpp:379] loss <- feat_p
I0607 15:19:55.230072 1956823808 net.cpp:379] loss <- sim
I0607 15:19:55.230078 1956823808 net.cpp:341] loss -> loss
I0607 15:19:55.230083 1956823808 net.cpp:98] Setting up loss
I0607 15:19:55.230089 1956823808 net.cpp:105] Top shape: 1 1 1 1 (1)
I0607 15:19:55.230093 1956823808 net.cpp:111]     with loss weight 1
I0607 15:19:55.230105 1956823808 net.cpp:156] loss needs backward computation.
I0607 15:19:55.230109 1956823808 net.cpp:156] feat_p needs backward computation.
I0607 15:19:55.230113 1956823808 net.cpp:156] ip2_p needs backward computation.
I0607 15:19:55.230116 1956823808 net.cpp:156] relu1_p needs backward computation.
…
I0607 15:19:55.231089 1956823808 solver.cpp:154] Creating test net (#0) specified by net file: src/siamese_network_bw/model/siamese_train_validate.prototxt
I0607 15:19:55.231132 1956823808 net.cpp:260] The NetState phase (1) differed from the phase (0) specified by a rule in layer pair_data
I0607 15:19:55.231153 1956823808 net.cpp:39] Initializing net from parameters: 
name: "siamese_train_validate"
state {
  phase: TEST
}
layer {
  name: "pair_data"
  type: "Data"
  top: "pair_data"
  top: "sim"
  include {
    phase: TEST
  }
  transform_param {
    scale: 1
  }
  data_param {
    source: "src/siamese_network_bw/data/siamese_network_validation_leveldb"
    batch_size: 100
  }
}
layer {
  name: "slice_pair"
  type: "Slice"
  bottom: "pair_data"
  top: "data"
  top: "data_p"
  slice_param {
    slice_dim: 1
    slice_point: 1
  }
}
layer {
  name: "conv1"
  type: "Convolution"
  bottom: "data"
  top: "conv1"
  param {
    name: "conv1_w"
    lr_mult: 1
  }
  param {
    name: "conv1_b"
    lr_mult: 2
  }
  convolution_param {
    num_output: 20
    kernel_size: 5
    stride: 1
    weight_filler {
      type: "xavier"
    }
    bias_filler {
      type: "constant"
    }
  }
}
layer {
  name: "pool1"
  type: "Pooling"
  bottom: "conv1"
  top: "pool1"
  pooling_param {
    pool: MAX
    kernel_size: 2
    stride: 2
  }
}
layer {
  name: "conv2"
  type: "Convolution"
  bottom: "pool1"
  top: "conv2"
  param {
    name: "conv2_w"
    lr_mult: 1
  }
  param {
    name: "conv2_b"
    lr_mult: 2
  }
  convolution_param {
    num_output: 50
    kernel_size: 5
    stride: 1
    weight_filler {
      type: "xavier"
    }
    bias_filler {
      type: "constant"
    }
  }
}
layer {
  name: "pool2"
  type: "Pooling"
  bottom: "conv2"
  top: "pool2"
  pooling_param {
    pool: MAX
    kernel_size: 2
    stride: 2
  }
}
layer {
  name: "ip1"
  type: "InnerProduct"
  bottom: "pool2"
  top: "ip1"
  param {
    name: "ip1_w"
    lr_mult: 1
  }
  param {
    name: "ip1_b"
    lr_mult: 2
  }
  inner_product_param {
    num_output: 500
    weight_filler {
      type: "xavier"
    }
    bias_filler {
      type: "constant"
    }
  }
}
layer {
  name: "relu1"
  type: "ReLU"
  bottom: "ip1"
  top: "ip1"
}
layer {
  name: "ip2"
  type: "InnerProduct"
  bottom: "ip1"
  top: "ip2"
  param {
    name: "ip2_w"
    lr_mult: 1
  }
  param {
    name: "ip2_b"
    lr_mult: 2
  }
  inner_product_param {
    num_output: 10
    weight_filler {
      type: "xavier"
    }
    bias_filler {
      type: "constant"
    }
  }
}
layer {
  name: "feat"
  type: "InnerProduct"
  bottom: "ip2"
  top: "feat"
  param {
    name: "feat_w"
    lr_mult: 1
  }
  param {
    name: "feat_b"
    lr_mult: 2
  }
  inner_product_param {
    num_output: 2
    weight_filler {
      type: "xavier"
    }
    bias_filler {
      type: "constant"
    }
  }
}
layer {
  name: "conv1_p"
  type: "Convolution"
  bottom: "data_p"
  top: "conv1_p"
  param {
    name: "conv1_w"
    lr_mult: 1
  }
  param {
    name: "conv1_b"
    lr_mult: 2
  }
  convolution_param {
    num_output: 20
    kernel_size: 5
    stride: 1
    weight_filler {
      type: "xavier"
    }
    bias_filler {
      type: "constant"
    }
  }
}
layer {
  name: "pool1_p"
  type: "Pooling"
  bottom: "conv1_p"
  top: "pool1_p"
  pooling_param {
    pool: MAX
    kernel_size: 2
    stride: 2
  }
}
layer {
  name: "conv2_p"
  type: "Convolution"
  bottom: "pool1_p"
  top: "conv2_p"
  param {
    name: "conv2_w"
    lr_mult: 1
  }
  param {
    name: "conv2_b"
    lr_mult: 2
  }
  convolution_param {
    num_output: 50
    kernel_size: 5
    stride: 1
    weight_filler {
      type: "xavier"
    }
    bias_filler {
      type: "constant"
    }
  }
}
layer {
  name: "pool2_p"
  type: "Pooling"
  bottom: "conv2_p"
  top: "pool2_p"
  pooling_param {
    pool: MAX
    kernel_size: 2
    stride: 2
  }
}
layer {
  name: "ip1_p"
  type: "InnerProduct"
  bottom: "pool2_p"
  top: "ip1_p"
  param {
    name: "ip1_w"
    lr_mult: 1
  }
  param {
    name: "ip1_b"
    lr_mult: 2
  }
  inner_product_param {
    num_output: 500
    weight_filler {
      type: "xavier"
    }
    bias_filler {
      type: "constant"
    }
  }
}
layer {
  name: "relu1_p"
  type: "ReLU"
  bottom: "ip1_p"
  top: "ip1_p"
}
layer {
  name: "ip2_p"
  type: "InnerProduct"
  bottom: "ip1_p"
  top: "ip2_p"
  param {
    name: "ip2_w"
    lr_mult: 1
  }
  param {
    name: "ip2_b"
    lr_mult: 2
  }
  inner_product_param {
    num_output: 10
    weight_filler {
      type: "xavier"
    }
    bias_filler {
      type: "constant"
    }
  }
}
layer {
  name: "feat_p"
  type: "InnerProduct"
  bottom: "ip2_p"
  top: "feat_p"
  param {
    name: "feat_w"
    lr_mult: 1
  }
  param {
    name: "feat_b"
    lr_mult: 2
  }
  inner_product_param {
    num_output: 2
    weight_filler {
      type: "xavier"
    }
    bias_filler {
      type: "constant"
    }
  }
}
layer {
  name: "loss"
  type: "ContrastiveLoss"
  bottom: "feat"
  bottom: "feat_p"
  bottom: "sim"
  top: "loss"
  contrastive_loss_param {
    margin: 1
  }
}
I0607 15:19:55.231748 1956823808 layer_factory.hpp:74] Creating layer pair_data
I0607 15:19:55.231758 1956823808 net.cpp:69] Creating Layer pair_data
I0607 15:19:55.231763 1956823808 net.cpp:341] pair_data -> pair_data
I0607 15:19:55.231771 1956823808 net.cpp:341] pair_data -> sim
I0607 15:19:55.231777 1956823808 net.cpp:98] Setting up pair_data
I0607 15:19:55.233840 1956823808 db.cpp:20] Opened leveldb src/siamese_network_bw/data/siamese_network_validation_leveldb
I0607 15:19:55.234280 1956823808 data_layer.cpp:65] output data size: 100,2,62,47
I0607 15:19:55.235337 1956823808 net.cpp:105] Top shape: 100 2 62 47 (582800)
I0607 15:19:55.235344 1956823808 net.cpp:105] Top shape: 100 1 1 1 (100)
I0607 15:19:55.235348 1956823808 layer_factory.hpp:74] Creating layer slice_pair
I0607 15:19:55.235357 1956823808 net.cpp:69] Creating Layer slice_pair
I0607 15:19:55.235362 1956823808 net.cpp:379] slice_pair <- pair_data
I0607 15:19:55.235368 1956823808 net.cpp:341] slice_pair -> data
I0607 15:19:55.235378 1956823808 net.cpp:341] slice_pair -> data_p
I0607 15:19:55.235384 1956823808 net.cpp:98] Setting up slice_pair
I0607 15:19:55.235389 1956823808 net.cpp:105] Top shape: 100 1 62 47 (291400)
I0607 15:19:55.235394 1956823808 net.cpp:105] Top shape: 100 1 62 47 (291400)
I0607 15:19:55.235396 1956823808 layer_factory.hpp:74] Creating layer conv1
I0607 15:19:55.235404 1956823808 net.cpp:69] Creating Layer conv1
I0607 15:19:55.235407 1956823808 net.cpp:379] conv1 <- data
I0607 15:19:55.235412 1956823808 net.cpp:341] conv1 -> conv1
I0607 15:19:55.235419 1956823808 net.cpp:98] Setting up conv1
I0607 15:19:55.235687 1956823808 net.cpp:105] Top shape: 100 20 58 43 (4988000)
I0607 15:19:55.235698 1956823808 layer_factory.hpp:74] Creating layer pool1
I0607 15:19:55.235705 1956823808 net.cpp:69] Creating Layer pool1
I0607 15:19:55.235708 1956823808 net.cpp:379] pool1 <- conv1
I0607 15:19:55.236063 1956823808 net.cpp:341] pool1 -> pool1
I0607 15:19:55.236071 1956823808 net.cpp:98] Setting up pool1
I0607 15:19:55.236119 1956823808 net.cpp:105] Top shape: 100 20 29 22 (1276000)
I0607 15:19:55.236124 1956823808 layer_factory.hpp:74] Creating layer conv2
I0607 15:19:55.236135 1956823808 net.cpp:69] Creating Layer conv2
I0607 15:19:55.236137 1956823808 net.cpp:379] conv2 <- pool1
I0607 15:19:55.236143 1956823808 net.cpp:341] conv2 -> conv2
I0607 15:19:55.236150 1956823808 net.cpp:98] Setting up conv2
I0607 15:19:55.236793 1956823808 net.cpp:105] Top shape: 100 50 25 18 (2250000)
I0607 15:19:55.236804 1956823808 layer_factory.hpp:74] Creating layer pool2
I0607 15:19:55.236811 1956823808 net.cpp:69] Creating Layer pool2
I0607 15:19:55.236814 1956823808 net.cpp:379] pool2 <- conv2
I0607 15:19:55.236837 1956823808 net.cpp:341] pool2 -> pool2
I0607 15:19:55.236845 1956823808 net.cpp:98] Setting up pool2
I0607 15:19:55.236945 1956823808 net.cpp:105] Top shape: 100 50 13 9 (585000)
I0607 15:19:55.237125 1956823808 layer_factory.hpp:74] Creating layer ip1
I0607 15:19:55.237136 1956823808 net.cpp:69] Creating Layer ip1
I0607 15:19:55.237139 1956823808 net.cpp:379] ip1 <- pool2
I0607 15:19:55.237256 1956823808 net.cpp:341] ip1 -> ip1
I0607 15:19:55.237265 1956823808 net.cpp:98] Setting up ip1
I0607 15:19:55.256428 1956823808 net.cpp:105] Top shape: 100 500 1 1 (50000)
I0607 15:19:55.256453 1956823808 layer_factory.hpp:74] Creating layer relu1
I0607 15:19:55.256530 1956823808 net.cpp:69] Creating Layer relu1
I0607 15:19:55.256539 1956823808 net.cpp:379] relu1 <- ip1
I0607 15:19:55.256546 1956823808 net.cpp:330] relu1 -> ip1 (in-place)
I0607 15:19:55.256556 1956823808 net.cpp:98] Setting up relu1
I0607 15:19:55.256644 1956823808 net.cpp:105] Top shape: 100 500 1 1 (50000)
I0607 15:19:55.256649 1956823808 layer_factory.hpp:74] Creating layer ip2
I0607 15:19:55.256660 1956823808 net.cpp:69] Creating Layer ip2
I0607 15:19:55.256664 1956823808 net.cpp:379] ip2 <- ip1
I0607 15:19:55.256670 1956823808 net.cpp:341] ip2 -> ip2
I0607 15:19:55.256680 1956823808 net.cpp:98] Setting up ip2
I0607 15:19:55.256721 1956823808 net.cpp:105] Top shape: 100 10 1 1 (1000)
I0607 15:19:55.256726 1956823808 layer_factory.hpp:74] Creating layer feat
I0607 15:19:55.256736 1956823808 net.cpp:69] Creating Layer feat
I0607 15:19:55.256739 1956823808 net.cpp:379] feat <- ip2
I0607 15:19:55.256744 1956823808 net.cpp:341] feat -> feat
I0607 15:19:55.256752 1956823808 net.cpp:98] Setting up feat
I0607 15:19:55.256758 1956823808 net.cpp:105] Top shape: 100 2 1 1 (200)
I0607 15:19:55.256765 1956823808 layer_factory.hpp:74] Creating layer conv1_p
I0607 15:19:55.256773 1956823808 net.cpp:69] Creating Layer conv1_p
I0607 15:19:55.256778 1956823808 net.cpp:379] conv1_p <- data_p
I0607 15:19:55.256785 1956823808 net.cpp:341] conv1_p -> conv1_p
I0607 15:19:55.256793 1956823808 net.cpp:98] Setting up conv1_p
I0607 15:19:55.257069 1956823808 net.cpp:105] Top shape: 100 20 58 43 (4988000)
I0607 15:19:55.257079 1956823808 net.cpp:423] Sharing parameters 'conv1_w' owned by layer 'conv1', param index 0
I0607 15:19:55.257088 1956823808 net.cpp:423] Sharing parameters 'conv1_b' owned by layer 'conv1', param index 1
I0607 15:19:55.257097 1956823808 layer_factory.hpp:74] Creating layer pool1_p
I0607 15:19:55.257104 1956823808 net.cpp:69] Creating Layer pool1_p
I0607 15:19:55.257109 1956823808 net.cpp:379] pool1_p <- conv1_p
I0607 15:19:55.257117 1956823808 net.cpp:341] pool1_p -> pool1_p
I0607 15:19:55.257124 1956823808 net.cpp:98] Setting up pool1_p
I0607 15:19:55.257242 1956823808 net.cpp:105] Top shape: 100 20 29 22 (1276000)
I0607 15:19:55.257257 1956823808 layer_factory.hpp:74] Creating layer conv2_p
I0607 15:19:55.257292 1956823808 net.cpp:69] Creating Layer conv2_p
I0607 15:19:55.257304 1956823808 net.cpp:379] conv2_p <- pool1_p
I0607 15:19:55.257314 1956823808 net.cpp:341] conv2_p -> conv2_p
I0607 15:19:55.257328 1956823808 net.cpp:98] Setting up conv2_p
I0607 15:19:55.257807 1956823808 net.cpp:105] Top shape: 100 50 25 18 (2250000)
I0607 15:19:55.257819 1956823808 net.cpp:423] Sharing parameters 'conv2_w' owned by layer 'conv2', param index 0
I0607 15:19:55.257828 1956823808 net.cpp:423] Sharing parameters 'conv2_b' owned by layer 'conv2', param index 1
I0607 15:19:55.257836 1956823808 layer_factory.hpp:74] Creating layer pool2_p
I0607 15:19:55.257848 1956823808 net.cpp:69] Creating Layer pool2_p
I0607 15:19:55.257869 1956823808 net.cpp:379] pool2_p <- conv2_p
I0607 15:19:55.257884 1956823808 net.cpp:341] pool2_p -> pool2_p
I0607 15:19:55.257894 1956823808 net.cpp:98] Setting up pool2_p
I0607 15:19:55.257974 1956823808 net.cpp:105] Top shape: 100 50 13 9 (585000)
I0607 15:19:55.257987 1956823808 layer_factory.hpp:74] Creating layer ip1_p
I0607 15:19:55.257998 1956823808 net.cpp:69] Creating Layer ip1_p
I0607 15:19:55.258005 1956823808 net.cpp:379] ip1_p <- pool2_p
I0607 15:19:55.258071 1956823808 net.cpp:341] ip1_p -> ip1_p
I0607 15:19:55.258091 1956823808 net.cpp:98] Setting up ip1_p
I0607 15:19:55.279701 1956823808 net.cpp:105] Top shape: 100 500 1 1 (50000)
I0607 15:19:55.279736 1956823808 net.cpp:423] Sharing parameters 'ip1_w' owned by layer 'ip1', param index 0
I0607 15:19:55.281014 1956823808 net.cpp:423] Sharing parameters 'ip1_b' owned by layer 'ip1', param index 1
I0607 15:19:55.281030 1956823808 layer_factory.hpp:74] Creating layer relu1_p
I0607 15:19:55.281040 1956823808 net.cpp:69] Creating Layer relu1_p
I0607 15:19:55.281046 1956823808 net.cpp:379] relu1_p <- ip1_p
I0607 15:19:55.281054 1956823808 net.cpp:330] relu1_p -> ip1_p (in-place)
I0607 15:19:55.281059 1956823808 net.cpp:98] Setting up relu1_p
I0607 15:19:55.281258 1956823808 net.cpp:105] Top shape: 100 500 1 1 (50000)
I0607 15:19:55.281268 1956823808 layer_factory.hpp:74] Creating layer ip2_p
I0607 15:19:55.281280 1956823808 net.cpp:69] Creating Layer ip2_p
I0607 15:19:55.281283 1956823808 net.cpp:379] ip2_p <- ip1_p
I0607 15:19:55.281291 1956823808 net.cpp:341] ip2_p -> ip2_p
I0607 15:19:55.281309 1956823808 net.cpp:98] Setting up ip2_p
I0607 15:19:55.281353 1956823808 net.cpp:105] Top shape: 100 10 1 1 (1000)
I0607 15:19:55.281360 1956823808 net.cpp:423] Sharing parameters 'ip2_w' owned by layer 'ip2', param index 0
I0607 15:19:55.281365 1956823808 net.cpp:423] Sharing parameters 'ip2_b' owned by layer 'ip2', param index 1
I0607 15:19:55.281369 1956823808 layer_factory.hpp:74] Creating layer feat_p
I0607 15:19:55.281375 1956823808 net.cpp:69] Creating Layer feat_p
I0607 15:19:55.281379 1956823808 net.cpp:379] feat_p <- ip2_p
I0607 15:19:55.281388 1956823808 net.cpp:341] feat_p -> feat_p
I0607 15:19:55.281395 1956823808 net.cpp:98] Setting up feat_p
I0607 15:19:55.281404 1956823808 net.cpp:105] Top shape: 100 2 1 1 (200)
I0607 15:19:55.281409 1956823808 net.cpp:423] Sharing parameters 'feat_w' owned by layer 'feat', param index 0
I0607 15:19:55.281414 1956823808 net.cpp:423] Sharing parameters 'feat_b' owned by layer 'feat', param index 1
I0607 15:19:55.281416 1956823808 layer_factory.hpp:74] Creating layer loss
I0607 15:19:55.281421 1956823808 net.cpp:69] Creating Layer loss
I0607 15:19:55.281425 1956823808 net.cpp:379] loss <- feat
I0607 15:19:55.281430 1956823808 net.cpp:379] loss <- feat_p
I0607 15:19:55.281433 1956823808 net.cpp:379] loss <- sim
I0607 15:19:55.281437 1956823808 net.cpp:341] loss -> loss
I0607 15:19:55.281443 1956823808 net.cpp:98] Setting up loss
I0607 15:19:55.281452 1956823808 net.cpp:105] Top shape: 1 1 1 1 (1)
I0607 15:19:55.281456 1956823808 net.cpp:111]     with loss weight 1
I0607 15:19:55.281465 1956823808 net.cpp:156] loss needs backward computation.
I0607 15:19:55.281468 1956823808 net.cpp:156] feat_p needs backward computation.
I0607 15:19:55.281471 1956823808 net.cpp:156] ip2_p needs backward computation.
I0607 15:19:55.281476 1956823808 net.cpp:156] relu1_p needs backward computation.
…
