…
I0607 21:29:55.614343 1956823808 solver.cpp:70] Creating training net from net file: src/siamese_network_bw/model/siamese_train_validate.prototxt
I0607 21:29:55.614768 1956823808 net.cpp:287] The NetState phase (0) differed from the phase (1) specified by a rule in layer pair_data
I0607 21:29:55.614797 1956823808 net.cpp:42] Initializing net from parameters: 
name: "siamese_train_validate"
state {
  phase: TRAIN
}
layer {
  name: "pair_data"
  type: "Data"
  top: "pair_data"
  top: "sim"
  include {
    phase: TRAIN
  }
  transform_param {
    scale: 1
  }
  data_param {
    source: "src/siamese_network_bw/data/siamese_network_train_leveldb"
    batch_size: 64
  }
}
layer {
  name: "slice_pair"
  type: "Slice"
  bottom: "pair_data"
  top: "data"
  top: "data_p"
  slice_param {
    slice_dim: 1
    slice_point: 1
  }
}
layer {
  name: "conv1"
  type: "Convolution"
  bottom: "data"
  top: "conv1"
  param {
    name: "conv1_w"
    lr_mult: 1
  }
  param {
    name: "conv1_b"
    lr_mult: 2
  }
  convolution_param {
    num_output: 32
    kernel_size: 3
    stride: 1
    weight_filler {
      type: "xavier"
    }
    bias_filler {
      type: "constant"
    }
  }
}
layer {
  name: "pool1"
  type: "Pooling"
  bottom: "conv1"
  top: "pool1"
  pooling_param {
    pool: MAX
    kernel_size: 2
    stride: 2
  }
}
layer {
  name: "conv2"
  type: "Convolution"
  bottom: "pool1"
  top: "conv2"
  param {
    name: "conv2_w"
    lr_mult: 1
  }
  param {
    name: "conv2_b"
    lr_mult: 2
  }
  convolution_param {
    num_output: 64
    kernel_size: 2
    stride: 1
    weight_filler {
      type: "xavier"
    }
    bias_filler {
      type: "constant"
    }
  }
}
layer {
  name: "pool2"
  type: "Pooling"
  bottom: "conv2"
  top: "pool2"
  pooling_param {
    pool: MAX
    kernel_size: 2
    stride: 2
  }
}
layer {
  name: "conv3"
  type: "Convolution"
  bottom: "pool2"
  top: "conv3"
  param {
    name: "conv3_w"
    lr_mult: 1
  }
  param {
    name: "conv3_b"
    lr_mult: 2
  }
  convolution_param {
    num_output: 128
    kernel_size: 2
    stride: 1
    weight_filler {
      type: "xavier"
    }
    bias_filler {
      type: "constant"
    }
  }
}
layer {
  name: "pool3"
  type: "Pooling"
  bottom: "conv3"
  top: "pool3"
  pooling_param {
    pool: MAX
    kernel_size: 2
    stride: 2
  }
}
layer {
  name: "ip1"
  type: "InnerProduct"
  bottom: "pool3"
  top: "ip1"
  param {
    name: "ip1_w"
    lr_mult: 1
  }
  param {
    name: "ip1_b"
    lr_mult: 2
  }
  inner_product_param {
    num_output: 500
    weight_filler {
      type: "xavier"
    }
    bias_filler {
      type: "constant"
    }
  }
}
layer {
  name: "relu1"
  type: "ReLU"
  bottom: "ip1"
  top: "ip1"
}
layer {
  name: "ip2"
  type: "InnerProduct"
  bottom: "ip1"
  top: "ip2"
  param {
    name: "ip2_w"
    lr_mult: 1
  }
  param {
    name: "ip2_b"
    lr_mult: 2
  }
  inner_product_param {
    num_output: 10
    weight_filler {
      type: "xavier"
    }
    bias_filler {
      type: "constant"
    }
  }
}
layer {
  name: "feat"
  type: "InnerProduct"
  bottom: "ip2"
  top: "feat"
  param {
    name: "feat_w"
    lr_mult: 1
  }
  param {
    name: "feat_b"
    lr_mult: 2
  }
  inner_product_param {
    num_output: 2
    weight_filler {
      type: "xavier"
    }
    bias_filler {
      type: "constant"
    }
  }
}
layer {
  name: "conv1_p"
  type: "Convolution"
  bottom: "data_p"
  top: "conv1_p"
  param {
    name: "conv1_w"
    lr_mult: 1
  }
  param {
    name: "conv1_b"
    lr_mult: 2
  }
  convolution_param {
    num_output: 32
    kernel_size: 3
    stride: 1
    weight_filler {
      type: "xavier"
    }
    bias_filler {
      type: "constant"
    }
  }
}
layer {
  name: "pool1_p"
  type: "Pooling"
  bottom: "conv1_p"
  top: "pool1_p"
  pooling_param {
    pool: MAX
    kernel_size: 2
    stride: 2
  }
}
layer {
  name: "conv2_p"
  type: "Convolution"
  bottom: "pool1_p"
  top: "conv2_p"
  param {
    name: "conv2_w"
    lr_mult: 1
  }
  param {
    name: "conv2_b"
    lr_mult: 2
  }
  convolution_param {
    num_output: 64
    kernel_size: 2
    stride: 1
    weight_filler {
      type: "xavier"
    }
    bias_filler {
      type: "constant"
    }
  }
}
layer {
  name: "pool2_p"
  type: "Pooling"
  bottom: "conv2_p"
  top: "pool2_p"
  pooling_param {
    pool: MAX
    kernel_size: 2
    stride: 2
  }
}
layer {
  name: "conv3_p"
  type: "Convolution"
  bottom: "pool2_p"
  top: "conv3_p"
  param {
    name: "conv3_w"
    lr_mult: 1
  }
  param {
    name: "conv3_b"
    lr_mult: 2
  }
  convolution_param {
    num_output: 128
    kernel_size: 2
    stride: 1
    weight_filler {
      type: "xavier"
    }
    bias_filler {
      type: "constant"
    }
  }
}
layer {
  name: "pool3_p"
  type: "Pooling"
  bottom: "conv3_p"
  top: "pool3_p"
  pooling_param {
    pool: MAX
    kernel_size: 2
    stride: 2
  }
}
layer {
  name: "ip1_p"
  type: "InnerProduct"
  bottom: "pool3_p"
  top: "ip1_p"
  param {
    name: "ip1_w"
    lr_mult: 1
  }
  param {
    name: "ip1_b"
    lr_mult: 2
  }
  inner_product_param {
    num_output: 500
    weight_filler {
      type: "xavier"
    }
    bias_filler {
      type: "constant"
    }
  }
}
layer {
  name: "relu1_p"
  type: "ReLU"
  bottom: "ip1_p"
  top: "ip1_p"
}
layer {
  name: "ip2_p"
  type: "InnerProduct"
  bottom: "ip1_p"
  top: "ip2_p"
  param {
    name: "ip2_w"
    lr_mult: 1
  }
  param {
    name: "ip2_b"
    lr_mult: 2
  }
  inner_product_param {
    num_output: 10
    weight_filler {
      type: "xavier"
    }
    bias_filler {
      type: "constant"
    }
  }
}
layer {
  name: "feat_p"
  type: "InnerProduct"
  bottom: "ip2_p"
  top: "feat_p"
  param {
    name: "feat_w"
    lr_mult: 1
  }
  param {
    name: "feat_b"
    lr_mult: 2
  }
  inner_product_param {
    num_output: 2
    weight_filler {
      type: "xavier"
    }
    bias_filler {
      type: "constant"
    }
  }
}
layer {
  name: "loss"
  type: "ContrastiveLoss"
  bottom: "feat"
  bottom: "feat_p"
  bottom: "sim"
  top: "loss"
  contrastive_loss_param {
    margin: 1
  }
}
I0607 21:29:55.615159 1956823808 layer_factory.hpp:74] Creating layer pair_data
I0607 21:29:55.615181 1956823808 net.cpp:90] Creating Layer pair_data
I0607 21:29:55.615227 1956823808 net.cpp:368] pair_data -> pair_data
I0607 21:29:55.615259 1956823808 net.cpp:368] pair_data -> sim
I0607 21:29:55.615267 1956823808 net.cpp:120] Setting up pair_data
I0607 21:29:55.622335 1956823808 db.cpp:20] Opened leveldb src/siamese_network_bw/data/siamese_network_train_leveldb
I0607 21:29:55.625121 1956823808 data_layer.cpp:52] output data size: 64,2,62,47
I0607 21:29:55.625999 1956823808 net.cpp:127] Top shape: 64 2 62 47 (372992)
I0607 21:29:55.626025 1956823808 net.cpp:127] Top shape: 64 (64)
I0607 21:29:55.626034 1956823808 layer_factory.hpp:74] Creating layer slice_pair
I0607 21:29:55.626061 1956823808 net.cpp:90] Creating Layer slice_pair
I0607 21:29:55.626066 1956823808 net.cpp:410] slice_pair <- pair_data
I0607 21:29:55.626075 1956823808 net.cpp:368] slice_pair -> data
I0607 21:29:55.626085 1956823808 net.cpp:368] slice_pair -> data_p
I0607 21:29:55.626183 1956823808 net.cpp:120] Setting up slice_pair
I0607 21:29:55.626196 1956823808 net.cpp:127] Top shape: 64 1 62 47 (186496)
I0607 21:29:55.626202 1956823808 net.cpp:127] Top shape: 64 1 62 47 (186496)
I0607 21:29:55.626209 1956823808 layer_factory.hpp:74] Creating layer conv1
I0607 21:29:55.626255 1956823808 net.cpp:90] Creating Layer conv1
I0607 21:29:55.626262 1956823808 net.cpp:410] conv1 <- data
I0607 21:29:55.626271 1956823808 net.cpp:368] conv1 -> conv1
I0607 21:29:55.626292 1956823808 net.cpp:120] Setting up conv1
I0607 21:29:55.681444 1956823808 net.cpp:127] Top shape: 64 32 60 45 (5529600)
I0607 21:29:55.681474 1956823808 layer_factory.hpp:74] Creating layer pool1
I0607 21:29:55.681506 1956823808 net.cpp:90] Creating Layer pool1
I0607 21:29:55.681512 1956823808 net.cpp:410] pool1 <- conv1
I0607 21:29:55.681521 1956823808 net.cpp:368] pool1 -> pool1
I0607 21:29:55.681529 1956823808 net.cpp:120] Setting up pool1
I0607 21:29:55.681725 1956823808 net.cpp:127] Top shape: 64 32 30 23 (1413120)
I0607 21:29:55.681743 1956823808 layer_factory.hpp:74] Creating layer conv2
I0607 21:29:55.681756 1956823808 net.cpp:90] Creating Layer conv2
I0607 21:29:55.681761 1956823808 net.cpp:410] conv2 <- pool1
I0607 21:29:55.681769 1956823808 net.cpp:368] conv2 -> conv2
I0607 21:29:55.681777 1956823808 net.cpp:120] Setting up conv2
I0607 21:29:55.682163 1956823808 net.cpp:127] Top shape: 64 64 29 22 (2613248)
I0607 21:29:55.682178 1956823808 layer_factory.hpp:74] Creating layer pool2
I0607 21:29:55.682188 1956823808 net.cpp:90] Creating Layer pool2
I0607 21:29:55.682193 1956823808 net.cpp:410] pool2 <- conv2
I0607 21:29:55.682199 1956823808 net.cpp:368] pool2 -> pool2
I0607 21:29:55.682205 1956823808 net.cpp:120] Setting up pool2
I0607 21:29:55.682250 1956823808 net.cpp:127] Top shape: 64 64 15 11 (675840)
I0607 21:29:55.682256 1956823808 layer_factory.hpp:74] Creating layer conv3
I0607 21:29:55.682263 1956823808 net.cpp:90] Creating Layer conv3
I0607 21:29:55.682267 1956823808 net.cpp:410] conv3 <- pool2
I0607 21:29:55.682272 1956823808 net.cpp:368] conv3 -> conv3
I0607 21:29:55.682312 1956823808 net.cpp:120] Setting up conv3
I0607 21:29:55.682950 1956823808 net.cpp:127] Top shape: 64 128 14 10 (1146880)
I0607 21:29:55.682966 1956823808 layer_factory.hpp:74] Creating layer pool3
I0607 21:29:55.682976 1956823808 net.cpp:90] Creating Layer pool3
I0607 21:29:55.682979 1956823808 net.cpp:410] pool3 <- conv3
I0607 21:29:55.683106 1956823808 net.cpp:368] pool3 -> pool3
I0607 21:29:55.683117 1956823808 net.cpp:120] Setting up pool3
I0607 21:29:55.683238 1956823808 net.cpp:127] Top shape: 64 128 7 5 (286720)
I0607 21:29:55.683254 1956823808 layer_factory.hpp:74] Creating layer ip1
I0607 21:29:55.683264 1956823808 net.cpp:90] Creating Layer ip1
I0607 21:29:55.683387 1956823808 net.cpp:410] ip1 <- pool3
I0607 21:29:55.683430 1956823808 net.cpp:368] ip1 -> ip1
I0607 21:29:55.683460 1956823808 net.cpp:120] Setting up ip1
I0607 21:29:55.701889 1956823808 net.cpp:127] Top shape: 64 500 (32000)
I0607 21:29:55.701926 1956823808 layer_factory.hpp:74] Creating layer relu1
I0607 21:29:55.701942 1956823808 net.cpp:90] Creating Layer relu1
I0607 21:29:55.701949 1956823808 net.cpp:410] relu1 <- ip1
I0607 21:29:55.701957 1956823808 net.cpp:357] relu1 -> ip1 (in-place)
I0607 21:29:55.701967 1956823808 net.cpp:120] Setting up relu1
I0607 21:29:55.702344 1956823808 net.cpp:127] Top shape: 64 500 (32000)
I0607 21:29:55.702358 1956823808 layer_factory.hpp:74] Creating layer ip2
I0607 21:29:55.702376 1956823808 net.cpp:90] Creating Layer ip2
I0607 21:29:55.702381 1956823808 net.cpp:410] ip2 <- ip1
I0607 21:29:55.702389 1956823808 net.cpp:368] ip2 -> ip2
I0607 21:29:55.702397 1956823808 net.cpp:120] Setting up ip2
I0607 21:29:55.702445 1956823808 net.cpp:127] Top shape: 64 10 (640)
I0607 21:29:55.702456 1956823808 layer_factory.hpp:74] Creating layer feat
I0607 21:29:55.702462 1956823808 net.cpp:90] Creating Layer feat
I0607 21:29:55.702488 1956823808 net.cpp:410] feat <- ip2
I0607 21:29:55.702549 1956823808 net.cpp:368] feat -> feat
I0607 21:29:55.702584 1956823808 net.cpp:120] Setting up feat
I0607 21:29:55.702636 1956823808 net.cpp:127] Top shape: 64 2 (128)
I0607 21:29:55.702667 1956823808 layer_factory.hpp:74] Creating layer conv1_p
I0607 21:29:55.702687 1956823808 net.cpp:90] Creating Layer conv1_p
I0607 21:29:55.702708 1956823808 net.cpp:410] conv1_p <- data_p
I0607 21:29:55.702739 1956823808 net.cpp:368] conv1_p -> conv1_p
I0607 21:29:55.702771 1956823808 net.cpp:120] Setting up conv1_p
I0607 21:29:55.703264 1956823808 net.cpp:127] Top shape: 64 32 60 45 (5529600)
I0607 21:29:55.703276 1956823808 net.cpp:459] Sharing parameters 'conv1_w' owned by layer 'conv1', param index 0
I0607 21:29:55.703323 1956823808 net.cpp:459] Sharing parameters 'conv1_b' owned by layer 'conv1', param index 1
I0607 21:29:55.703330 1956823808 layer_factory.hpp:74] Creating layer pool1_p
I0607 21:29:55.703338 1956823808 net.cpp:90] Creating Layer pool1_p
I0607 21:29:55.703342 1956823808 net.cpp:410] pool1_p <- conv1_p
I0607 21:29:55.703348 1956823808 net.cpp:368] pool1_p -> pool1_p
I0607 21:29:55.703356 1956823808 net.cpp:120] Setting up pool1_p
I0607 21:29:55.703495 1956823808 net.cpp:127] Top shape: 64 32 30 23 (1413120)
I0607 21:29:55.703533 1956823808 layer_factory.hpp:74] Creating layer conv2_p
I0607 21:29:55.703547 1956823808 net.cpp:90] Creating Layer conv2_p
I0607 21:29:55.703569 1956823808 net.cpp:410] conv2_p <- pool1_p
I0607 21:29:55.703593 1956823808 net.cpp:368] conv2_p -> conv2_p
I0607 21:29:55.703609 1956823808 net.cpp:120] Setting up conv2_p
I0607 21:29:55.704059 1956823808 net.cpp:127] Top shape: 64 64 29 22 (2613248)
I0607 21:29:55.704073 1956823808 net.cpp:459] Sharing parameters 'conv2_w' owned by layer 'conv2', param index 0
I0607 21:29:55.704090 1956823808 net.cpp:459] Sharing parameters 'conv2_b' owned by layer 'conv2', param index 1
I0607 21:29:55.704095 1956823808 layer_factory.hpp:74] Creating layer pool2_p
I0607 21:29:55.704104 1956823808 net.cpp:90] Creating Layer pool2_p
I0607 21:29:55.704108 1956823808 net.cpp:410] pool2_p <- conv2_p
I0607 21:29:55.704113 1956823808 net.cpp:368] pool2_p -> pool2_p
I0607 21:29:55.704121 1956823808 net.cpp:120] Setting up pool2_p
I0607 21:29:55.704167 1956823808 net.cpp:127] Top shape: 64 64 15 11 (675840)
I0607 21:29:55.704180 1956823808 layer_factory.hpp:74] Creating layer conv3_p
I0607 21:29:55.704190 1956823808 net.cpp:90] Creating Layer conv3_p
I0607 21:29:55.704195 1956823808 net.cpp:410] conv3_p <- pool2_p
I0607 21:29:55.704202 1956823808 net.cpp:368] conv3_p -> conv3_p
I0607 21:29:55.704208 1956823808 net.cpp:120] Setting up conv3_p
I0607 21:29:55.704944 1956823808 net.cpp:127] Top shape: 64 128 14 10 (1146880)
I0607 21:29:55.704962 1956823808 net.cpp:459] Sharing parameters 'conv3_w' owned by layer 'conv3', param index 0
I0607 21:29:55.704972 1956823808 net.cpp:459] Sharing parameters 'conv3_b' owned by layer 'conv3', param index 1
I0607 21:29:55.704998 1956823808 layer_factory.hpp:74] Creating layer pool3_p
I0607 21:29:55.705006 1956823808 net.cpp:90] Creating Layer pool3_p
I0607 21:29:55.705010 1956823808 net.cpp:410] pool3_p <- conv3_p
I0607 21:29:55.705018 1956823808 net.cpp:368] pool3_p -> pool3_p
I0607 21:29:55.705039 1956823808 net.cpp:120] Setting up pool3_p
I0607 21:29:55.705131 1956823808 net.cpp:127] Top shape: 64 128 7 5 (286720)
I0607 21:29:55.705185 1956823808 layer_factory.hpp:74] Creating layer ip1_p
I0607 21:29:55.705212 1956823808 net.cpp:90] Creating Layer ip1_p
I0607 21:29:55.705250 1956823808 net.cpp:410] ip1_p <- pool3_p
I0607 21:29:55.705292 1956823808 net.cpp:368] ip1_p -> ip1_p
I0607 21:29:55.705312 1956823808 net.cpp:120] Setting up ip1_p
I0607 21:29:55.723410 1956823808 net.cpp:127] Top shape: 64 500 (32000)
I0607 21:29:55.723448 1956823808 net.cpp:459] Sharing parameters 'ip1_w' owned by layer 'ip1', param index 0
I0607 21:29:55.724406 1956823808 net.cpp:459] Sharing parameters 'ip1_b' owned by layer 'ip1', param index 1
I0607 21:29:55.724414 1956823808 layer_factory.hpp:74] Creating layer relu1_p
I0607 21:29:55.724423 1956823808 net.cpp:90] Creating Layer relu1_p
I0607 21:29:55.724428 1956823808 net.cpp:410] relu1_p <- ip1_p
I0607 21:29:55.724434 1956823808 net.cpp:357] relu1_p -> ip1_p (in-place)
I0607 21:29:55.724442 1956823808 net.cpp:120] Setting up relu1_p
I0607 21:29:55.724685 1956823808 net.cpp:127] Top shape: 64 500 (32000)
I0607 21:29:55.724720 1956823808 layer_factory.hpp:74] Creating layer ip2_p
I0607 21:29:55.724773 1956823808 net.cpp:90] Creating Layer ip2_p
I0607 21:29:55.724810 1956823808 net.cpp:410] ip2_p <- ip1_p
I0607 21:29:55.724838 1956823808 net.cpp:368] ip2_p -> ip2_p
I0607 21:29:55.724895 1956823808 net.cpp:120] Setting up ip2_p
I0607 21:29:55.725015 1956823808 net.cpp:127] Top shape: 64 10 (640)
I0607 21:29:55.725039 1956823808 net.cpp:459] Sharing parameters 'ip2_w' owned by layer 'ip2', param index 0
I0607 21:29:55.725045 1956823808 net.cpp:459] Sharing parameters 'ip2_b' owned by layer 'ip2', param index 1
I0607 21:29:55.725050 1956823808 layer_factory.hpp:74] Creating layer feat_p
I0607 21:29:55.725060 1956823808 net.cpp:90] Creating Layer feat_p
I0607 21:29:55.725065 1956823808 net.cpp:410] feat_p <- ip2_p
I0607 21:29:55.725071 1956823808 net.cpp:368] feat_p -> feat_p
I0607 21:29:55.725078 1956823808 net.cpp:120] Setting up feat_p
I0607 21:29:55.725088 1956823808 net.cpp:127] Top shape: 64 2 (128)
I0607 21:29:55.725093 1956823808 net.cpp:459] Sharing parameters 'feat_w' owned by layer 'feat', param index 0
I0607 21:29:55.725098 1956823808 net.cpp:459] Sharing parameters 'feat_b' owned by layer 'feat', param index 1
I0607 21:29:55.725103 1956823808 layer_factory.hpp:74] Creating layer loss
I0607 21:29:55.725113 1956823808 net.cpp:90] Creating Layer loss
I0607 21:29:55.725117 1956823808 net.cpp:410] loss <- feat
…
I0607 21:29:55.726240 1956823808 solver.cpp:154] Creating test net (#0) specified by net file: src/siamese_network_bw/model/siamese_train_validate.prototxt
I0607 21:29:55.726292 1956823808 net.cpp:287] The NetState phase (1) differed from the phase (0) specified by a rule in layer pair_data
I0607 21:29:55.726333 1956823808 net.cpp:42] Initializing net from parameters: 
name: "siamese_train_validate"
state {
  phase: TEST
}
layer {
  name: "pair_data"
  type: "Data"
  top: "pair_data"
  top: "sim"
  include {
    phase: TEST
  }
  transform_param {
    scale: 1
  }
  data_param {
    source: "src/siamese_network_bw/data/siamese_network_validation_leveldb"
    batch_size: 100
  }
}
layer {
  name: "slice_pair"
  type: "Slice"
  bottom: "pair_data"
  top: "data"
  top: "data_p"
  slice_param {
    slice_dim: 1
    slice_point: 1
  }
}
layer {
  name: "conv1"
  type: "Convolution"
  bottom: "data"
  top: "conv1"
  param {
    name: "conv1_w"
    lr_mult: 1
  }
  param {
    name: "conv1_b"
    lr_mult: 2
  }
  convolution_param {
    num_output: 32
    kernel_size: 3
    stride: 1
    weight_filler {
      type: "xavier"
    }
    bias_filler {
      type: "constant"
    }
  }
}
layer {
  name: "pool1"
  type: "Pooling"
  bottom: "conv1"
  top: "pool1"
  pooling_param {
    pool: MAX
    kernel_size: 2
    stride: 2
  }
}
layer {
  name: "conv2"
  type: "Convolution"
  bottom: "pool1"
  top: "conv2"
  param {
    name: "conv2_w"
    lr_mult: 1
  }
  param {
    name: "conv2_b"
    lr_mult: 2
  }
  convolution_param {
    num_output: 64
    kernel_size: 2
    stride: 1
    weight_filler {
      type: "xavier"
    }
    bias_filler {
      type: "constant"
    }
  }
}
layer {
  name: "pool2"
  type: "Pooling"
  bottom: "conv2"
  top: "pool2"
  pooling_param {
    pool: MAX
    kernel_size: 2
    stride: 2
  }
}
layer {
  name: "conv3"
  type: "Convolution"
  bottom: "pool2"
  top: "conv3"
  param {
    name: "conv3_w"
    lr_mult: 1
  }
  param {
    name: "conv3_b"
    lr_mult: 2
  }
  convolution_param {
    num_output: 128
    kernel_size: 2
    stride: 1
    weight_filler {
      type: "xavier"
    }
    bias_filler {
      type: "constant"
    }
  }
}
layer {
  name: "pool3"
  type: "Pooling"
  bottom: "conv3"
  top: "pool3"
  pooling_param {
    pool: MAX
    kernel_size: 2
    stride: 2
  }
}
layer {
  name: "ip1"
  type: "InnerProduct"
  bottom: "pool3"
  top: "ip1"
  param {
    name: "ip1_w"
    lr_mult: 1
  }
  param {
    name: "ip1_b"
    lr_mult: 2
  }
  inner_product_param {
    num_output: 500
    weight_filler {
      type: "xavier"
    }
    bias_filler {
      type: "constant"
    }
  }
}
layer {
  name: "relu1"
  type: "ReLU"
  bottom: "ip1"
  top: "ip1"
}
layer {
  name: "ip2"
  type: "InnerProduct"
  bottom: "ip1"
  top: "ip2"
  param {
    name: "ip2_w"
    lr_mult: 1
  }
  param {
    name: "ip2_b"
    lr_mult: 2
  }
  inner_product_param {
    num_output: 10
    weight_filler {
      type: "xavier"
    }
    bias_filler {
      type: "constant"
    }
  }
}
layer {
  name: "feat"
  type: "InnerProduct"
  bottom: "ip2"
  top: "feat"
  param {
    name: "feat_w"
    lr_mult: 1
  }
  param {
    name: "feat_b"
    lr_mult: 2
  }
  inner_product_param {
    num_output: 2
    weight_filler {
      type: "xavier"
    }
    bias_filler {
      type: "constant"
    }
  }
}
layer {
  name: "conv1_p"
  type: "Convolution"
  bottom: "data_p"
  top: "conv1_p"
  param {
    name: "conv1_w"
    lr_mult: 1
  }
  param {
    name: "conv1_b"
    lr_mult: 2
  }
  convolution_param {
    num_output: 32
    kernel_size: 3
    stride: 1
    weight_filler {
      type: "xavier"
    }
    bias_filler {
      type: "constant"
    }
  }
}
layer {
  name: "pool1_p"
  type: "Pooling"
  bottom: "conv1_p"
  top: "pool1_p"
  pooling_param {
    pool: MAX
    kernel_size: 2
    stride: 2
  }
}
layer {
  name: "conv2_p"
  type: "Convolution"
  bottom: "pool1_p"
  top: "conv2_p"
  param {
    name: "conv2_w"
    lr_mult: 1
  }
  param {
    name: "conv2_b"
    lr_mult: 2
  }
  convolution_param {
    num_output: 64
    kernel_size: 2
    stride: 1
    weight_filler {
      type: "xavier"
    }
    bias_filler {
      type: "constant"
    }
  }
}
layer {
  name: "pool2_p"
  type: "Pooling"
  bottom: "conv2_p"
  top: "pool2_p"
  pooling_param {
    pool: MAX
    kernel_size: 2
    stride: 2
  }
}
layer {
  name: "conv3_p"
  type: "Convolution"
  bottom: "pool2_p"
  top: "conv3_p"
  param {
    name: "conv3_w"
    lr_mult: 1
  }
  param {
    name: "conv3_b"
    lr_mult: 2
  }
  convolution_param {
    num_output: 128
    kernel_size: 2
    stride: 1
    weight_filler {
      type: "xavier"
    }
    bias_filler {
      type: "constant"
    }
  }
}
layer {
  name: "pool3_p"
  type: "Pooling"
  bottom: "conv3_p"
  top: "pool3_p"
  pooling_param {
    pool: MAX
    kernel_size: 2
    stride: 2
  }
}
layer {
  name: "ip1_p"
  type: "InnerProduct"
  bottom: "pool3_p"
  top: "ip1_p"
  param {
    name: "ip1_w"
    lr_mult: 1
  }
  param {
    name: "ip1_b"
    lr_mult: 2
  }
  inner_product_param {
    num_output: 500
    weight_filler {
      type: "xavier"
    }
    bias_filler {
      type: "constant"
    }
  }
}
layer {
  name: "relu1_p"
  type: "ReLU"
  bottom: "ip1_p"
  top: "ip1_p"
}
layer {
  name: "ip2_p"
  type: "InnerProduct"
  bottom: "ip1_p"
  top: "ip2_p"
  param {
    name: "ip2_w"
    lr_mult: 1
  }
  param {
    name: "ip2_b"
    lr_mult: 2
  }
  inner_product_param {
    num_output: 10
    weight_filler {
      type: "xavier"
    }
    bias_filler {
      type: "constant"
    }
  }
}
layer {
  name: "feat_p"
  type: "InnerProduct"
  bottom: "ip2_p"
  top: "feat_p"
  param {
    name: "feat_w"
    lr_mult: 1
  }
  param {
    name: "feat_b"
    lr_mult: 2
  }
  inner_product_param {
    num_output: 2
    weight_filler {
      type: "xavier"
    }
    bias_filler {
      type: "constant"
    }
  }
}
layer {
  name: "loss"
  type: "ContrastiveLoss"
  bottom: "feat"
  bottom: "feat_p"
  bottom: "sim"
  top: "loss"
  contrastive_loss_param {
    margin: 1
  }
}
I0607 21:29:55.726613 1956823808 layer_factory.hpp:74] Creating layer pair_data
I0607 21:29:55.726624 1956823808 net.cpp:90] Creating Layer pair_data
I0607 21:29:55.726630 1956823808 net.cpp:368] pair_data -> pair_data
I0607 21:29:55.726639 1956823808 net.cpp:368] pair_data -> sim
I0607 21:29:55.726645 1956823808 net.cpp:120] Setting up pair_data
I0607 21:29:55.732188 1956823808 db.cpp:20] Opened leveldb src/siamese_network_bw/data/siamese_network_validation_leveldb
I0607 21:29:55.734025 1956823808 data_layer.cpp:52] output data size: 100,2,62,47
I0607 21:29:55.735313 1956823808 net.cpp:127] Top shape: 100 2 62 47 (582800)
I0607 21:29:55.735332 1956823808 net.cpp:127] Top shape: 100 (100)
I0607 21:29:55.735339 1956823808 layer_factory.hpp:74] Creating layer slice_pair
I0607 21:29:55.735352 1956823808 net.cpp:90] Creating Layer slice_pair
I0607 21:29:55.735357 1956823808 net.cpp:410] slice_pair <- pair_data
I0607 21:29:55.735363 1956823808 net.cpp:368] slice_pair -> data
I0607 21:29:55.735373 1956823808 net.cpp:368] slice_pair -> data_p
I0607 21:29:55.735378 1956823808 net.cpp:120] Setting up slice_pair
I0607 21:29:55.735385 1956823808 net.cpp:127] Top shape: 100 1 62 47 (291400)
I0607 21:29:55.735401 1956823808 net.cpp:127] Top shape: 100 1 62 47 (291400)
I0607 21:29:55.735419 1956823808 layer_factory.hpp:74] Creating layer conv1
I0607 21:29:55.735474 1956823808 net.cpp:90] Creating Layer conv1
I0607 21:29:55.735481 1956823808 net.cpp:410] conv1 <- data
I0607 21:29:55.735487 1956823808 net.cpp:368] conv1 -> conv1
I0607 21:29:55.735494 1956823808 net.cpp:120] Setting up conv1
I0607 21:29:55.735992 1956823808 net.cpp:127] Top shape: 100 32 60 45 (8640000)
I0607 21:29:55.736034 1956823808 layer_factory.hpp:74] Creating layer pool1
I0607 21:29:55.736047 1956823808 net.cpp:90] Creating Layer pool1
I0607 21:29:55.736055 1956823808 net.cpp:410] pool1 <- conv1
I0607 21:29:55.736068 1956823808 net.cpp:368] pool1 -> pool1
I0607 21:29:55.736079 1956823808 net.cpp:120] Setting up pool1
I0607 21:29:55.736194 1956823808 net.cpp:127] Top shape: 100 32 30 23 (2208000)
I0607 21:29:55.736204 1956823808 layer_factory.hpp:74] Creating layer conv2
I0607 21:29:55.736249 1956823808 net.cpp:90] Creating Layer conv2
I0607 21:29:55.736306 1956823808 net.cpp:410] conv2 <- pool1
I0607 21:29:55.736368 1956823808 net.cpp:368] conv2 -> conv2
I0607 21:29:55.736403 1956823808 net.cpp:120] Setting up conv2
I0607 21:29:55.736985 1956823808 net.cpp:127] Top shape: 100 64 29 22 (4083200)
I0607 21:29:55.737021 1956823808 layer_factory.hpp:74] Creating layer pool2
I0607 21:29:55.737051 1956823808 net.cpp:90] Creating Layer pool2
I0607 21:29:55.737084 1956823808 net.cpp:410] pool2 <- conv2
I0607 21:29:55.737093 1956823808 net.cpp:368] pool2 -> pool2
I0607 21:29:55.737112 1956823808 net.cpp:120] Setting up pool2
I0607 21:29:55.737216 1956823808 net.cpp:127] Top shape: 100 64 15 11 (1056000)
I0607 21:29:55.737234 1956823808 layer_factory.hpp:74] Creating layer conv3
I0607 21:29:55.737248 1956823808 net.cpp:90] Creating Layer conv3
I0607 21:29:55.737257 1956823808 net.cpp:410] conv3 <- pool2
I0607 21:29:55.737300 1956823808 net.cpp:368] conv3 -> conv3
I0607 21:29:55.737318 1956823808 net.cpp:120] Setting up conv3
I0607 21:29:55.738440 1956823808 net.cpp:127] Top shape: 100 128 14 10 (1792000)
I0607 21:29:55.738492 1956823808 layer_factory.hpp:74] Creating layer pool3
I0607 21:29:55.738530 1956823808 net.cpp:90] Creating Layer pool3
I0607 21:29:55.738582 1956823808 net.cpp:410] pool3 <- conv3
I0607 21:29:55.738615 1956823808 net.cpp:368] pool3 -> pool3
I0607 21:29:55.738668 1956823808 net.cpp:120] Setting up pool3
I0607 21:29:55.738939 1956823808 net.cpp:127] Top shape: 100 128 7 5 (448000)
I0607 21:29:55.738991 1956823808 layer_factory.hpp:74] Creating layer ip1
I0607 21:29:55.739034 1956823808 net.cpp:90] Creating Layer ip1
I0607 21:29:55.739085 1956823808 net.cpp:410] ip1 <- pool3
I0607 21:29:55.739130 1956823808 net.cpp:368] ip1 -> ip1
I0607 21:29:55.739213 1956823808 net.cpp:120] Setting up ip1
I0607 21:29:55.759984 1956823808 net.cpp:127] Top shape: 100 500 (50000)
I0607 21:29:55.760030 1956823808 layer_factory.hpp:74] Creating layer relu1
I0607 21:29:55.760081 1956823808 net.cpp:90] Creating Layer relu1
I0607 21:29:55.760092 1956823808 net.cpp:410] relu1 <- ip1
I0607 21:29:55.760174 1956823808 net.cpp:357] relu1 -> ip1 (in-place)
I0607 21:29:55.760210 1956823808 net.cpp:120] Setting up relu1
I0607 21:29:55.760542 1956823808 net.cpp:127] Top shape: 100 500 (50000)
I0607 21:29:55.760584 1956823808 layer_factory.hpp:74] Creating layer ip2
I0607 21:29:55.760646 1956823808 net.cpp:90] Creating Layer ip2
I0607 21:29:55.760685 1956823808 net.cpp:410] ip2 <- ip1
I0607 21:29:55.760745 1956823808 net.cpp:368] ip2 -> ip2
I0607 21:29:55.760784 1956823808 net.cpp:120] Setting up ip2
I0607 21:29:55.761023 1956823808 net.cpp:127] Top shape: 100 10 (1000)
I0607 21:29:55.761060 1956823808 layer_factory.hpp:74] Creating layer feat
I0607 21:29:55.761114 1956823808 net.cpp:90] Creating Layer feat
I0607 21:29:55.761139 1956823808 net.cpp:410] feat <- ip2
I0607 21:29:55.761178 1956823808 net.cpp:368] feat -> feat
I0607 21:29:55.761200 1956823808 net.cpp:120] Setting up feat
I0607 21:29:55.761270 1956823808 net.cpp:127] Top shape: 100 2 (200)
I0607 21:29:55.761329 1956823808 layer_factory.hpp:74] Creating layer conv1_p
I0607 21:29:55.761410 1956823808 net.cpp:90] Creating Layer conv1_p
I0607 21:29:55.761428 1956823808 net.cpp:410] conv1_p <- data_p
I0607 21:29:55.761464 1956823808 net.cpp:368] conv1_p -> conv1_p
I0607 21:29:55.761487 1956823808 net.cpp:120] Setting up conv1_p
I0607 21:29:55.762109 1956823808 net.cpp:127] Top shape: 100 32 60 45 (8640000)
I0607 21:29:55.762142 1956823808 net.cpp:459] Sharing parameters 'conv1_w' owned by layer 'conv1', param index 0
I0607 21:29:55.762202 1956823808 net.cpp:459] Sharing parameters 'conv1_b' owned by layer 'conv1', param index 1
I0607 21:29:55.762254 1956823808 layer_factory.hpp:74] Creating layer pool1_p
I0607 21:29:55.762264 1956823808 net.cpp:90] Creating Layer pool1_p
I0607 21:29:55.762267 1956823808 net.cpp:410] pool1_p <- conv1_p
I0607 21:29:55.762290 1956823808 net.cpp:368] pool1_p -> pool1_p
I0607 21:29:55.762317 1956823808 net.cpp:120] Setting up pool1_p
I0607 21:29:55.762619 1956823808 net.cpp:127] Top shape: 100 32 30 23 (2208000)
I0607 21:29:55.762680 1956823808 layer_factory.hpp:74] Creating layer conv2_p
I0607 21:29:55.762720 1956823808 net.cpp:90] Creating Layer conv2_p
I0607 21:29:55.762739 1956823808 net.cpp:410] conv2_p <- pool1_p
I0607 21:29:55.762763 1956823808 net.cpp:368] conv2_p -> conv2_p
I0607 21:29:55.762825 1956823808 net.cpp:120] Setting up conv2_p
I0607 21:29:55.763473 1956823808 net.cpp:127] Top shape: 100 64 29 22 (4083200)
I0607 21:29:55.763486 1956823808 net.cpp:459] Sharing parameters 'conv2_w' owned by layer 'conv2', param index 0
I0607 21:29:55.763527 1956823808 net.cpp:459] Sharing parameters 'conv2_b' owned by layer 'conv2', param index 1
I0607 21:29:55.763573 1956823808 layer_factory.hpp:74] Creating layer pool2_p
I0607 21:29:55.763674 1956823808 net.cpp:90] Creating Layer pool2_p
I0607 21:29:55.763732 1956823808 net.cpp:410] pool2_p <- conv2_p
I0607 21:29:55.763805 1956823808 net.cpp:368] pool2_p -> pool2_p
I0607 21:29:55.763828 1956823808 net.cpp:120] Setting up pool2_p
I0607 21:29:55.764016 1956823808 net.cpp:127] Top shape: 100 64 15 11 (1056000)
I0607 21:29:55.764042 1956823808 layer_factory.hpp:74] Creating layer conv3_p
I0607 21:29:55.764056 1956823808 net.cpp:90] Creating Layer conv3_p
I0607 21:29:55.764061 1956823808 net.cpp:410] conv3_p <- pool2_p
I0607 21:29:55.764072 1956823808 net.cpp:368] conv3_p -> conv3_p
I0607 21:29:55.764081 1956823808 net.cpp:120] Setting up conv3_p
I0607 21:29:55.765171 1956823808 net.cpp:127] Top shape: 100 128 14 10 (1792000)
I0607 21:29:55.765239 1956823808 net.cpp:459] Sharing parameters 'conv3_w' owned by layer 'conv3', param index 0
I0607 21:29:55.765269 1956823808 net.cpp:459] Sharing parameters 'conv3_b' owned by layer 'conv3', param index 1
I0607 21:29:55.765326 1956823808 layer_factory.hpp:74] Creating layer pool3_p
I0607 21:29:55.765369 1956823808 net.cpp:90] Creating Layer pool3_p
I0607 21:29:55.765411 1956823808 net.cpp:410] pool3_p <- conv3_p
I0607 21:29:55.765458 1956823808 net.cpp:368] pool3_p -> pool3_p
I0607 21:29:55.765483 1956823808 net.cpp:120] Setting up pool3_p
I0607 21:29:55.765882 1956823808 net.cpp:127] Top shape: 100 128 7 5 (448000)
I0607 21:29:55.765895 1956823808 layer_factory.hpp:74] Creating layer ip1_p
I0607 21:29:55.765934 1956823808 net.cpp:90] Creating Layer ip1_p
I0607 21:29:55.765965 1956823808 net.cpp:410] ip1_p <- pool3_p
I0607 21:29:55.766037 1956823808 net.cpp:368] ip1_p -> ip1_p
I0607 21:29:55.766120 1956823808 net.cpp:120] Setting up ip1_p
I0607 21:29:55.786182 1956823808 net.cpp:127] Top shape: 100 500 (50000)
I0607 21:29:55.786211 1956823808 net.cpp:459] Sharing parameters 'ip1_w' owned by layer 'ip1', param index 0
I0607 21:29:55.787231 1956823808 net.cpp:459] Sharing parameters 'ip1_b' owned by layer 'ip1', param index 1
I0607 21:29:55.787256 1956823808 layer_factory.hpp:74] Creating layer relu1_p
I0607 21:29:55.787266 1956823808 net.cpp:90] Creating Layer relu1_p
I0607 21:29:55.787272 1956823808 net.cpp:410] relu1_p <- ip1_p
I0607 21:29:55.787289 1956823808 net.cpp:357] relu1_p -> ip1_p (in-place)
I0607 21:29:55.787300 1956823808 net.cpp:120] Setting up relu1_p
I0607 21:29:55.787607 1956823808 net.cpp:127] Top shape: 100 500 (50000)
I0607 21:29:55.787644 1956823808 layer_factory.hpp:74] Creating layer ip2_p
I0607 21:29:55.787660 1956823808 net.cpp:90] Creating Layer ip2_p
I0607 21:29:55.787665 1956823808 net.cpp:410] ip2_p <- ip1_p
I0607 21:29:55.787675 1956823808 net.cpp:368] ip2_p -> ip2_p
I0607 21:29:55.787686 1956823808 net.cpp:120] Setting up ip2_p
I0607 21:29:55.787802 1956823808 net.cpp:127] Top shape: 100 10 (1000)
I0607 21:29:55.787822 1956823808 net.cpp:459] Sharing parameters 'ip2_w' owned by layer 'ip2', param index 0
I0607 21:29:55.787847 1956823808 net.cpp:459] Sharing parameters 'ip2_b' owned by layer 'ip2', param index 1
I0607 21:29:55.787873 1956823808 layer_factory.hpp:74] Creating layer feat_p
I0607 21:29:55.787894 1956823808 net.cpp:90] Creating Layer feat_p
I0607 21:29:55.787899 1956823808 net.cpp:410] feat_p <- ip2_p
I0607 21:29:55.787907 1956823808 net.cpp:368] feat_p -> feat_p
I0607 21:29:55.787925 1956823808 net.cpp:120] Setting up feat_p
I0607 21:29:55.787984 1956823808 net.cpp:127] Top shape: 100 2 (200)
I0607 21:29:55.788029 1956823808 net.cpp:459] Sharing parameters 'feat_w' owned by layer 'feat', param index 0
I0607 21:29:55.788038 1956823808 net.cpp:459] Sharing parameters 'feat_b' owned by layer 'feat', param index 1
I0607 21:29:55.788043 1956823808 layer_factory.hpp:74] Creating layer loss
I0607 21:29:55.788076 1956823808 net.cpp:90] Creating Layer loss
I0607 21:29:55.788081 1956823808 net.cpp:410] loss <- feat
…
