…
I0625 09:29:38.176826 1970144000 solver.cpp:70] Creating training net from net file: src/siamese_network_bw/model/siamese_train_validate.prototxt
I0625 09:29:38.177140 1970144000 net.cpp:287] The NetState phase (0) differed from the phase (1) specified by a rule in layer pair_data
I0625 09:29:38.177165 1970144000 net.cpp:42] Initializing net from parameters: 
name: "siamese_train_validate"
state {
  phase: TRAIN
}
layer {
  name: "pair_data"
  type: "Data"
  top: "pair_data"
  top: "sim"
  include {
    phase: TRAIN
  }
  transform_param {
    scale: 0.00390625
  }
  data_param {
    source: "src/siamese_network_bw/data/siamese_network_train_leveldb"
    batch_size: 64
  }
}
layer {
  name: "slice_pair"
  type: "Slice"
  bottom: "pair_data"
  top: "data"
  top: "data_p"
  slice_param {
    slice_dim: 1
    slice_point: 1
  }
}
layer {
  name: "conv1"
  type: "Convolution"
  bottom: "data"
  top: "conv1"
  param {
    name: "conv1_w"
    lr_mult: 1
  }
  param {
    name: "conv1_b"
    lr_mult: 2
  }
  convolution_param {
    num_output: 20
    kernel_size: 5
    stride: 1
    weight_filler {
      type: "xavier"
    }
    bias_filler {
      type: "constant"
    }
  }
}
layer {
  name: "pool1"
  type: "Pooling"
  bottom: "conv1"
  top: "pool1"
  pooling_param {
    pool: MAX
    kernel_size: 2
    stride: 2
  }
}
layer {
  name: "conv2"
  type: "Convolution"
  bottom: "pool1"
  top: "conv2"
  param {
    name: "conv2_w"
    lr_mult: 1
  }
  param {
    name: "conv2_b"
    lr_mult: 2
  }
  convolution_param {
    num_output: 50
    kernel_size: 5
    stride: 1
    weight_filler {
      type: "xavier"
    }
    bias_filler {
      type: "constant"
    }
  }
}
layer {
  name: "pool2"
  type: "Pooling"
  bottom: "conv2"
  top: "pool2"
  pooling_param {
    pool: MAX
    kernel_size: 2
    stride: 2
  }
}
layer {
  name: "ip1"
  type: "InnerProduct"
  bottom: "pool2"
  top: "ip1"
  param {
    name: "ip1_w"
    lr_mult: 1
  }
  param {
    name: "ip1_b"
    lr_mult: 2
  }
  inner_product_param {
    num_output: 500
    weight_filler {
      type: "xavier"
    }
    bias_filler {
      type: "constant"
    }
  }
}
layer {
  name: "relu1"
  type: "ReLU"
  bottom: "ip1"
  top: "ip1"
}
layer {
  name: "ip2"
  type: "InnerProduct"
  bottom: "ip1"
  top: "ip2"
  param {
    name: "ip2_w"
    lr_mult: 1
  }
  param {
    name: "ip2_b"
    lr_mult: 2
  }
  inner_product_param {
    num_output: 10
    weight_filler {
      type: "xavier"
    }
    bias_filler {
      type: "constant"
    }
  }
}
layer {
  name: "feat"
  type: "InnerProduct"
  bottom: "ip2"
  top: "feat"
  param {
    name: "feat_w"
    lr_mult: 1
  }
  param {
    name: "feat_b"
    lr_mult: 2
  }
  inner_product_param {
    num_output: 2
    weight_filler {
      type: "xavier"
    }
    bias_filler {
      type: "constant"
    }
  }
}
layer {
  name: "conv1_p"
  type: "Convolution"
  bottom: "data_p"
  top: "conv1_p"
  param {
    name: "conv1_w"
    lr_mult: 1
  }
  param {
    name: "conv1_b"
    lr_mult: 2
  }
  convolution_param {
    num_output: 20
    kernel_size: 5
    stride: 1
    weight_filler {
      type: "xavier"
    }
    bias_filler {
      type: "constant"
    }
  }
}
layer {
  name: "pool1_p"
  type: "Pooling"
  bottom: "conv1_p"
  top: "pool1_p"
  pooling_param {
    pool: MAX
    kernel_size: 2
    stride: 2
  }
}
layer {
  name: "conv2_p"
  type: "Convolution"
  bottom: "pool1_p"
  top: "conv2_p"
  param {
    name: "conv2_w"
    lr_mult: 1
  }
  param {
    name: "conv2_b"
    lr_mult: 2
  }
  convolution_param {
    num_output: 50
    kernel_size: 5
    stride: 1
    weight_filler {
      type: "xavier"
    }
    bias_filler {
      type: "constant"
    }
  }
}
layer {
  name: "pool2_p"
  type: "Pooling"
  bottom: "conv2_p"
  top: "pool2_p"
  pooling_param {
    pool: MAX
    kernel_size: 2
    stride: 2
  }
}
layer {
  name: "ip1_p"
  type: "InnerProduct"
  bottom: "pool2_p"
  top: "ip1_p"
  param {
    name: "ip1_w"
    lr_mult: 1
  }
  param {
    name: "ip1_b"
    lr_mult: 2
  }
  inner_product_param {
    num_output: 500
    weight_filler {
      type: "xavier"
    }
    bias_filler {
      type: "constant"
    }
  }
}
layer {
  name: "relu1_p"
  type: "ReLU"
  bottom: "ip1_p"
  top: "ip1_p"
}
layer {
  name: "ip2_p"
  type: "InnerProduct"
  bottom: "ip1_p"
  top: "ip2_p"
  param {
    name: "ip2_w"
    lr_mult: 1
  }
  param {
    name: "ip2_b"
    lr_mult: 2
  }
  inner_product_param {
    num_output: 10
    weight_filler {
      type: "xavier"
    }
    bias_filler {
      type: "constant"
    }
  }
}
layer {
  name: "feat_p"
  type: "InnerProduct"
  bottom: "ip2_p"
  top: "feat_p"
  param {
    name: "feat_w"
    lr_mult: 1
  }
  param {
    name: "feat_b"
    lr_mult: 2
  }
  inner_product_param {
    num_output: 2
    weight_filler {
      type: "xavier"
    }
    bias_filler {
      type: "constant"
    }
  }
}
layer {
  name: "loss"
  type: "ContrastiveLoss"
  bottom: "feat"
  bottom: "feat_p"
  bottom: "sim"
  top: "loss"
  contrastive_loss_param {
    margin: 1
  }
}
I0625 09:29:38.177453 1970144000 layer_factory.hpp:74] Creating layer pair_data
I0625 09:29:38.177471 1970144000 net.cpp:90] Creating Layer pair_data
I0625 09:29:38.177479 1970144000 net.cpp:368] pair_data -> pair_data
I0625 09:29:38.177497 1970144000 net.cpp:368] pair_data -> sim
I0625 09:29:38.177505 1970144000 net.cpp:120] Setting up pair_data
I0625 09:29:38.179419 1970144000 db.cpp:20] Opened leveldb src/siamese_network_bw/data/siamese_network_train_leveldb
I0625 09:29:38.179661 1970144000 data_layer.cpp:52] output data size: 64,2,28,28
I0625 09:29:38.179726 1970144000 net.cpp:127] Top shape: 64 2 28 28 (100352)
I0625 09:29:38.179749 1970144000 net.cpp:127] Top shape: 64 (64)
I0625 09:29:38.179755 1970144000 layer_factory.hpp:74] Creating layer slice_pair
I0625 09:29:38.179797 1970144000 net.cpp:90] Creating Layer slice_pair
I0625 09:29:38.179808 1970144000 net.cpp:410] slice_pair <- pair_data
I0625 09:29:38.179816 1970144000 net.cpp:368] slice_pair -> data
I0625 09:29:38.179826 1970144000 net.cpp:368] slice_pair -> data_p
I0625 09:29:38.179832 1970144000 net.cpp:120] Setting up slice_pair
I0625 09:29:38.179842 1970144000 net.cpp:127] Top shape: 64 1 28 28 (50176)
I0625 09:29:38.179848 1970144000 net.cpp:127] Top shape: 64 1 28 28 (50176)
I0625 09:29:38.179853 1970144000 layer_factory.hpp:74] Creating layer conv1
I0625 09:29:38.179862 1970144000 net.cpp:90] Creating Layer conv1
I0625 09:29:38.179865 1970144000 net.cpp:410] conv1 <- data
I0625 09:29:38.179872 1970144000 net.cpp:368] conv1 -> conv1
I0625 09:29:38.179878 1970144000 net.cpp:120] Setting up conv1
I0625 09:29:38.242947 1970144000 net.cpp:127] Top shape: 64 20 24 24 (737280)
I0625 09:29:38.242976 1970144000 layer_factory.hpp:74] Creating layer pool1
I0625 09:29:38.242990 1970144000 net.cpp:90] Creating Layer pool1
I0625 09:29:38.242995 1970144000 net.cpp:410] pool1 <- conv1
I0625 09:29:38.243070 1970144000 net.cpp:368] pool1 -> pool1
I0625 09:29:38.243093 1970144000 net.cpp:120] Setting up pool1
I0625 09:29:38.243322 1970144000 net.cpp:127] Top shape: 64 20 12 12 (184320)
I0625 09:29:38.243338 1970144000 layer_factory.hpp:74] Creating layer conv2
I0625 09:29:38.243352 1970144000 net.cpp:90] Creating Layer conv2
I0625 09:29:38.243357 1970144000 net.cpp:410] conv2 <- pool1
I0625 09:29:38.243365 1970144000 net.cpp:368] conv2 -> conv2
I0625 09:29:38.243372 1970144000 net.cpp:120] Setting up conv2
I0625 09:29:38.244011 1970144000 net.cpp:127] Top shape: 64 50 8 8 (204800)
I0625 09:29:38.244027 1970144000 layer_factory.hpp:74] Creating layer pool2
I0625 09:29:38.244035 1970144000 net.cpp:90] Creating Layer pool2
I0625 09:29:38.244045 1970144000 net.cpp:410] pool2 <- conv2
I0625 09:29:38.244074 1970144000 net.cpp:368] pool2 -> pool2
I0625 09:29:38.244082 1970144000 net.cpp:120] Setting up pool2
I0625 09:29:38.244141 1970144000 net.cpp:127] Top shape: 64 50 4 4 (51200)
I0625 09:29:38.244150 1970144000 layer_factory.hpp:74] Creating layer ip1
I0625 09:29:38.244163 1970144000 net.cpp:90] Creating Layer ip1
I0625 09:29:38.244196 1970144000 net.cpp:410] ip1 <- pool2
I0625 09:29:38.244216 1970144000 net.cpp:368] ip1 -> ip1
I0625 09:29:38.244231 1970144000 net.cpp:120] Setting up ip1
I0625 09:29:38.246940 1970144000 net.cpp:127] Top shape: 64 500 (32000)
I0625 09:29:38.246953 1970144000 layer_factory.hpp:74] Creating layer relu1
I0625 09:29:38.246963 1970144000 net.cpp:90] Creating Layer relu1
I0625 09:29:38.246968 1970144000 net.cpp:410] relu1 <- ip1
I0625 09:29:38.246973 1970144000 net.cpp:357] relu1 -> ip1 (in-place)
I0625 09:29:38.246979 1970144000 net.cpp:120] Setting up relu1
I0625 09:29:38.247030 1970144000 net.cpp:127] Top shape: 64 500 (32000)
I0625 09:29:38.247036 1970144000 layer_factory.hpp:74] Creating layer ip2
I0625 09:29:38.247045 1970144000 net.cpp:90] Creating Layer ip2
I0625 09:29:38.247050 1970144000 net.cpp:410] ip2 <- ip1
I0625 09:29:38.247056 1970144000 net.cpp:368] ip2 -> ip2
I0625 09:29:38.247071 1970144000 net.cpp:120] Setting up ip2
I0625 09:29:38.247131 1970144000 net.cpp:127] Top shape: 64 10 (640)
I0625 09:29:38.247143 1970144000 layer_factory.hpp:74] Creating layer feat
I0625 09:29:38.247153 1970144000 net.cpp:90] Creating Layer feat
I0625 09:29:38.247158 1970144000 net.cpp:410] feat <- ip2
I0625 09:29:38.247164 1970144000 net.cpp:368] feat -> feat
I0625 09:29:38.247170 1970144000 net.cpp:120] Setting up feat
I0625 09:29:38.247179 1970144000 net.cpp:127] Top shape: 64 2 (128)
I0625 09:29:38.247187 1970144000 layer_factory.hpp:74] Creating layer conv1_p
I0625 09:29:38.247195 1970144000 net.cpp:90] Creating Layer conv1_p
I0625 09:29:38.247200 1970144000 net.cpp:410] conv1_p <- data_p
I0625 09:29:38.247205 1970144000 net.cpp:368] conv1_p -> conv1_p
I0625 09:29:38.247215 1970144000 net.cpp:120] Setting up conv1_p
I0625 09:29:38.247586 1970144000 net.cpp:127] Top shape: 64 20 24 24 (737280)
I0625 09:29:38.247611 1970144000 net.cpp:459] Sharing parameters 'conv1_w' owned by layer 'conv1', param index 0
I0625 09:29:38.247642 1970144000 net.cpp:459] Sharing parameters 'conv1_b' owned by layer 'conv1', param index 1
I0625 09:29:38.247653 1970144000 layer_factory.hpp:74] Creating layer pool1_p
I0625 09:29:38.247660 1970144000 net.cpp:90] Creating Layer pool1_p
I0625 09:29:38.247665 1970144000 net.cpp:410] pool1_p <- conv1_p
I0625 09:29:38.247674 1970144000 net.cpp:368] pool1_p -> pool1_p
I0625 09:29:38.247684 1970144000 net.cpp:120] Setting up pool1_p
I0625 09:29:38.247896 1970144000 net.cpp:127] Top shape: 64 20 12 12 (184320)
I0625 09:29:38.247910 1970144000 layer_factory.hpp:74] Creating layer conv2_p
I0625 09:29:38.247922 1970144000 net.cpp:90] Creating Layer conv2_p
I0625 09:29:38.247930 1970144000 net.cpp:410] conv2_p <- pool1_p
I0625 09:29:38.247936 1970144000 net.cpp:368] conv2_p -> conv2_p
I0625 09:29:38.247944 1970144000 net.cpp:120] Setting up conv2_p
I0625 09:29:38.248464 1970144000 net.cpp:127] Top shape: 64 50 8 8 (204800)
I0625 09:29:38.248476 1970144000 net.cpp:459] Sharing parameters 'conv2_w' owned by layer 'conv2', param index 0
I0625 09:29:38.248513 1970144000 net.cpp:459] Sharing parameters 'conv2_b' owned by layer 'conv2', param index 1
I0625 09:29:38.248543 1970144000 layer_factory.hpp:74] Creating layer pool2_p
I0625 09:29:38.248551 1970144000 net.cpp:90] Creating Layer pool2_p
I0625 09:29:38.248594 1970144000 net.cpp:410] pool2_p <- conv2_p
I0625 09:29:38.248606 1970144000 net.cpp:368] pool2_p -> pool2_p
I0625 09:29:38.248613 1970144000 net.cpp:120] Setting up pool2_p
I0625 09:29:38.248662 1970144000 net.cpp:127] Top shape: 64 50 4 4 (51200)
I0625 09:29:38.248669 1970144000 layer_factory.hpp:74] Creating layer ip1_p
I0625 09:29:38.248677 1970144000 net.cpp:90] Creating Layer ip1_p
I0625 09:29:38.248682 1970144000 net.cpp:410] ip1_p <- pool2_p
I0625 09:29:38.248687 1970144000 net.cpp:368] ip1_p -> ip1_p
I0625 09:29:38.248709 1970144000 net.cpp:120] Setting up ip1_p
I0625 09:29:38.251368 1970144000 net.cpp:127] Top shape: 64 500 (32000)
I0625 09:29:38.251376 1970144000 net.cpp:459] Sharing parameters 'ip1_w' owned by layer 'ip1', param index 0
I0625 09:29:38.251384 1970144000 net.cpp:459] Sharing parameters 'ip1_b' owned by layer 'ip1', param index 1
I0625 09:29:38.251389 1970144000 layer_factory.hpp:74] Creating layer relu1_p
I0625 09:29:38.251397 1970144000 net.cpp:90] Creating Layer relu1_p
I0625 09:29:38.251406 1970144000 net.cpp:410] relu1_p <- ip1_p
I0625 09:29:38.251411 1970144000 net.cpp:357] relu1_p -> ip1_p (in-place)
I0625 09:29:38.251417 1970144000 net.cpp:120] Setting up relu1_p
I0625 09:29:38.251466 1970144000 net.cpp:127] Top shape: 64 500 (32000)
I0625 09:29:38.251472 1970144000 layer_factory.hpp:74] Creating layer ip2_p
I0625 09:29:38.251480 1970144000 net.cpp:90] Creating Layer ip2_p
I0625 09:29:38.251484 1970144000 net.cpp:410] ip2_p <- ip1_p
I0625 09:29:38.251492 1970144000 net.cpp:368] ip2_p -> ip2_p
I0625 09:29:38.251513 1970144000 net.cpp:120] Setting up ip2_p
I0625 09:29:38.251565 1970144000 net.cpp:127] Top shape: 64 10 (640)
I0625 09:29:38.251577 1970144000 net.cpp:459] Sharing parameters 'ip2_w' owned by layer 'ip2', param index 0
I0625 09:29:38.251585 1970144000 net.cpp:459] Sharing parameters 'ip2_b' owned by layer 'ip2', param index 1
I0625 09:29:38.251590 1970144000 layer_factory.hpp:74] Creating layer feat_p
I0625 09:29:38.251602 1970144000 net.cpp:90] Creating Layer feat_p
I0625 09:29:38.251626 1970144000 net.cpp:410] feat_p <- ip2_p
I0625 09:29:38.251641 1970144000 net.cpp:368] feat_p -> feat_p
I0625 09:29:38.251652 1970144000 net.cpp:120] Setting up feat_p
I0625 09:29:38.251662 1970144000 net.cpp:127] Top shape: 64 2 (128)
I0625 09:29:38.251668 1970144000 net.cpp:459] Sharing parameters 'feat_w' owned by layer 'feat', param index 0
I0625 09:29:38.251673 1970144000 net.cpp:459] Sharing parameters 'feat_b' owned by layer 'feat', param index 1
I0625 09:29:38.251677 1970144000 layer_factory.hpp:74] Creating layer loss
I0625 09:29:38.251690 1970144000 net.cpp:90] Creating Layer loss
I0625 09:29:38.251699 1970144000 net.cpp:410] loss <- feat
…
I0625 09:29:38.252179 1970144000 solver.cpp:154] Creating test net (#0) specified by net file: src/siamese_network_bw/model/siamese_train_validate.prototxt
I0625 09:29:38.252218 1970144000 net.cpp:287] The NetState phase (1) differed from the phase (0) specified by a rule in layer pair_data
I0625 09:29:38.252233 1970144000 net.cpp:42] Initializing net from parameters: 
name: "siamese_train_validate"
state {
  phase: TEST
}
layer {
  name: "pair_data"
  type: "Data"
  top: "pair_data"
  top: "sim"
  include {
    phase: TEST
  }
  transform_param {
    scale: 0.00390625
  }
  data_param {
    source: "src/siamese_network_bw/data/siamese_network_validation_leveldb"
    batch_size: 100
  }
}
layer {
  name: "slice_pair"
  type: "Slice"
  bottom: "pair_data"
  top: "data"
  top: "data_p"
  slice_param {
    slice_dim: 1
    slice_point: 1
  }
}
layer {
  name: "conv1"
  type: "Convolution"
  bottom: "data"
  top: "conv1"
  param {
    name: "conv1_w"
    lr_mult: 1
  }
  param {
    name: "conv1_b"
    lr_mult: 2
  }
  convolution_param {
    num_output: 20
    kernel_size: 5
    stride: 1
    weight_filler {
      type: "xavier"
    }
    bias_filler {
      type: "constant"
    }
  }
}
layer {
  name: "pool1"
  type: "Pooling"
  bottom: "conv1"
  top: "pool1"
  pooling_param {
    pool: MAX
    kernel_size: 2
    stride: 2
  }
}
layer {
  name: "conv2"
  type: "Convolution"
  bottom: "pool1"
  top: "conv2"
  param {
    name: "conv2_w"
    lr_mult: 1
  }
  param {
    name: "conv2_b"
    lr_mult: 2
  }
  convolution_param {
    num_output: 50
    kernel_size: 5
    stride: 1
    weight_filler {
      type: "xavier"
    }
    bias_filler {
      type: "constant"
    }
  }
}
layer {
  name: "pool2"
  type: "Pooling"
  bottom: "conv2"
  top: "pool2"
  pooling_param {
    pool: MAX
    kernel_size: 2
    stride: 2
  }
}
layer {
  name: "ip1"
  type: "InnerProduct"
  bottom: "pool2"
  top: "ip1"
  param {
    name: "ip1_w"
    lr_mult: 1
  }
  param {
    name: "ip1_b"
    lr_mult: 2
  }
  inner_product_param {
    num_output: 500
    weight_filler {
      type: "xavier"
    }
    bias_filler {
      type: "constant"
    }
  }
}
layer {
  name: "relu1"
  type: "ReLU"
  bottom: "ip1"
  top: "ip1"
}
layer {
  name: "ip2"
  type: "InnerProduct"
  bottom: "ip1"
  top: "ip2"
  param {
    name: "ip2_w"
    lr_mult: 1
  }
  param {
    name: "ip2_b"
    lr_mult: 2
  }
  inner_product_param {
    num_output: 10
    weight_filler {
      type: "xavier"
    }
    bias_filler {
      type: "constant"
    }
  }
}
layer {
  name: "feat"
  type: "InnerProduct"
  bottom: "ip2"
  top: "feat"
  param {
    name: "feat_w"
    lr_mult: 1
  }
  param {
    name: "feat_b"
    lr_mult: 2
  }
  inner_product_param {
    num_output: 2
    weight_filler {
      type: "xavier"
    }
    bias_filler {
      type: "constant"
    }
  }
}
layer {
  name: "conv1_p"
  type: "Convolution"
  bottom: "data_p"
  top: "conv1_p"
  param {
    name: "conv1_w"
    lr_mult: 1
  }
  param {
    name: "conv1_b"
    lr_mult: 2
  }
  convolution_param {
    num_output: 20
    kernel_size: 5
    stride: 1
    weight_filler {
      type: "xavier"
    }
    bias_filler {
      type: "constant"
    }
  }
}
layer {
  name: "pool1_p"
  type: "Pooling"
  bottom: "conv1_p"
  top: "pool1_p"
  pooling_param {
    pool: MAX
    kernel_size: 2
    stride: 2
  }
}
layer {
  name: "conv2_p"
  type: "Convolution"
  bottom: "pool1_p"
  top: "conv2_p"
  param {
    name: "conv2_w"
    lr_mult: 1
  }
  param {
    name: "conv2_b"
    lr_mult: 2
  }
  convolution_param {
    num_output: 50
    kernel_size: 5
    stride: 1
    weight_filler {
      type: "xavier"
    }
    bias_filler {
      type: "constant"
    }
  }
}
layer {
  name: "pool2_p"
  type: "Pooling"
  bottom: "conv2_p"
  top: "pool2_p"
  pooling_param {
    pool: MAX
    kernel_size: 2
    stride: 2
  }
}
layer {
  name: "ip1_p"
  type: "InnerProduct"
  bottom: "pool2_p"
  top: "ip1_p"
  param {
    name: "ip1_w"
    lr_mult: 1
  }
  param {
    name: "ip1_b"
    lr_mult: 2
  }
  inner_product_param {
    num_output: 500
    weight_filler {
      type: "xavier"
    }
    bias_filler {
      type: "constant"
    }
  }
}
layer {
  name: "relu1_p"
  type: "ReLU"
  bottom: "ip1_p"
  top: "ip1_p"
}
layer {
  name: "ip2_p"
  type: "InnerProduct"
  bottom: "ip1_p"
  top: "ip2_p"
  param {
    name: "ip2_w"
    lr_mult: 1
  }
  param {
    name: "ip2_b"
    lr_mult: 2
  }
  inner_product_param {
    num_output: 10
    weight_filler {
      type: "xavier"
    }
    bias_filler {
      type: "constant"
    }
  }
}
layer {
  name: "feat_p"
  type: "InnerProduct"
  bottom: "ip2_p"
  top: "feat_p"
  param {
    name: "feat_w"
    lr_mult: 1
  }
  param {
    name: "feat_b"
    lr_mult: 2
  }
  inner_product_param {
    num_output: 2
    weight_filler {
      type: "xavier"
    }
    bias_filler {
      type: "constant"
    }
  }
}
layer {
  name: "loss"
  type: "ContrastiveLoss"
  bottom: "feat"
  bottom: "feat_p"
  bottom: "sim"
  top: "loss"
  contrastive_loss_param {
    margin: 1
  }
}
I0625 09:29:38.252454 1970144000 layer_factory.hpp:74] Creating layer pair_data
I0625 09:29:38.252462 1970144000 net.cpp:90] Creating Layer pair_data
I0625 09:29:38.252511 1970144000 net.cpp:368] pair_data -> pair_data
I0625 09:29:38.252527 1970144000 net.cpp:368] pair_data -> sim
I0625 09:29:38.252534 1970144000 net.cpp:120] Setting up pair_data
I0625 09:29:38.253936 1970144000 db.cpp:20] Opened leveldb src/siamese_network_bw/data/siamese_network_validation_leveldb
I0625 09:29:38.254159 1970144000 data_layer.cpp:52] output data size: 100,2,28,28
I0625 09:29:38.254218 1970144000 net.cpp:127] Top shape: 100 2 28 28 (156800)
I0625 09:29:38.254226 1970144000 net.cpp:127] Top shape: 100 (100)
I0625 09:29:38.254231 1970144000 layer_factory.hpp:74] Creating layer slice_pair
I0625 09:29:38.254241 1970144000 net.cpp:90] Creating Layer slice_pair
I0625 09:29:38.254248 1970144000 net.cpp:410] slice_pair <- pair_data
I0625 09:29:38.254258 1970144000 net.cpp:368] slice_pair -> data
I0625 09:29:38.254273 1970144000 net.cpp:368] slice_pair -> data_p
I0625 09:29:38.254284 1970144000 net.cpp:120] Setting up slice_pair
I0625 09:29:38.254292 1970144000 net.cpp:127] Top shape: 100 1 28 28 (78400)
I0625 09:29:38.254297 1970144000 net.cpp:127] Top shape: 100 1 28 28 (78400)
I0625 09:29:38.254303 1970144000 layer_factory.hpp:74] Creating layer conv1
I0625 09:29:38.254310 1970144000 net.cpp:90] Creating Layer conv1
I0625 09:29:38.254339 1970144000 net.cpp:410] conv1 <- data
I0625 09:29:38.254354 1970144000 net.cpp:368] conv1 -> conv1
I0625 09:29:38.254364 1970144000 net.cpp:120] Setting up conv1
I0625 09:29:38.254791 1970144000 net.cpp:127] Top shape: 100 20 24 24 (1152000)
I0625 09:29:38.254812 1970144000 layer_factory.hpp:74] Creating layer pool1
I0625 09:29:38.254822 1970144000 net.cpp:90] Creating Layer pool1
I0625 09:29:38.254827 1970144000 net.cpp:410] pool1 <- conv1
I0625 09:29:38.254834 1970144000 net.cpp:368] pool1 -> pool1
I0625 09:29:38.254842 1970144000 net.cpp:120] Setting up pool1
I0625 09:29:38.254901 1970144000 net.cpp:127] Top shape: 100 20 12 12 (288000)
I0625 09:29:38.254914 1970144000 layer_factory.hpp:74] Creating layer conv2
I0625 09:29:38.254925 1970144000 net.cpp:90] Creating Layer conv2
I0625 09:29:38.254945 1970144000 net.cpp:410] conv2 <- pool1
I0625 09:29:38.254977 1970144000 net.cpp:368] conv2 -> conv2
I0625 09:29:38.254992 1970144000 net.cpp:120] Setting up conv2
I0625 09:29:38.255640 1970144000 net.cpp:127] Top shape: 100 50 8 8 (320000)
I0625 09:29:38.255658 1970144000 layer_factory.hpp:74] Creating layer pool2
I0625 09:29:38.255666 1970144000 net.cpp:90] Creating Layer pool2
I0625 09:29:38.255671 1970144000 net.cpp:410] pool2 <- conv2
I0625 09:29:38.255676 1970144000 net.cpp:368] pool2 -> pool2
I0625 09:29:38.255705 1970144000 net.cpp:120] Setting up pool2
I0625 09:29:38.255854 1970144000 net.cpp:127] Top shape: 100 50 4 4 (80000)
I0625 09:29:38.255867 1970144000 layer_factory.hpp:74] Creating layer ip1
I0625 09:29:38.255877 1970144000 net.cpp:90] Creating Layer ip1
I0625 09:29:38.255880 1970144000 net.cpp:410] ip1 <- pool2
I0625 09:29:38.255887 1970144000 net.cpp:368] ip1 -> ip1
I0625 09:29:38.255895 1970144000 net.cpp:120] Setting up ip1
I0625 09:29:38.259129 1970144000 net.cpp:127] Top shape: 100 500 (50000)
I0625 09:29:38.259151 1970144000 layer_factory.hpp:74] Creating layer relu1
I0625 09:29:38.259161 1970144000 net.cpp:90] Creating Layer relu1
I0625 09:29:38.259166 1970144000 net.cpp:410] relu1 <- ip1
I0625 09:29:38.259172 1970144000 net.cpp:357] relu1 -> ip1 (in-place)
I0625 09:29:38.259181 1970144000 net.cpp:120] Setting up relu1
I0625 09:29:38.259279 1970144000 net.cpp:127] Top shape: 100 500 (50000)
I0625 09:29:38.259297 1970144000 layer_factory.hpp:74] Creating layer ip2
I0625 09:29:38.259316 1970144000 net.cpp:90] Creating Layer ip2
I0625 09:29:38.259325 1970144000 net.cpp:410] ip2 <- ip1
I0625 09:29:38.259337 1970144000 net.cpp:368] ip2 -> ip2
I0625 09:29:38.259351 1970144000 net.cpp:120] Setting up ip2
I0625 09:29:38.259439 1970144000 net.cpp:127] Top shape: 100 10 (1000)
I0625 09:29:38.259454 1970144000 layer_factory.hpp:74] Creating layer feat
I0625 09:29:38.259467 1970144000 net.cpp:90] Creating Layer feat
I0625 09:29:38.259475 1970144000 net.cpp:410] feat <- ip2
I0625 09:29:38.259487 1970144000 net.cpp:368] feat -> feat
I0625 09:29:38.259497 1970144000 net.cpp:120] Setting up feat
I0625 09:29:38.259512 1970144000 net.cpp:127] Top shape: 100 2 (200)
I0625 09:29:38.259526 1970144000 layer_factory.hpp:74] Creating layer conv1_p
I0625 09:29:38.259533 1970144000 net.cpp:90] Creating Layer conv1_p
I0625 09:29:38.259537 1970144000 net.cpp:410] conv1_p <- data_p
I0625 09:29:38.259546 1970144000 net.cpp:368] conv1_p -> conv1_p
I0625 09:29:38.259555 1970144000 net.cpp:120] Setting up conv1_p
I0625 09:29:38.259987 1970144000 net.cpp:127] Top shape: 100 20 24 24 (1152000)
I0625 09:29:38.260002 1970144000 net.cpp:459] Sharing parameters 'conv1_w' owned by layer 'conv1', param index 0
I0625 09:29:38.260011 1970144000 net.cpp:459] Sharing parameters 'conv1_b' owned by layer 'conv1', param index 1
I0625 09:29:38.260025 1970144000 layer_factory.hpp:74] Creating layer pool1_p
I0625 09:29:38.260036 1970144000 net.cpp:90] Creating Layer pool1_p
I0625 09:29:38.260041 1970144000 net.cpp:410] pool1_p <- conv1_p
I0625 09:29:38.260046 1970144000 net.cpp:368] pool1_p -> pool1_p
I0625 09:29:38.260054 1970144000 net.cpp:120] Setting up pool1_p
I0625 09:29:38.260164 1970144000 net.cpp:127] Top shape: 100 20 12 12 (288000)
I0625 09:29:38.260175 1970144000 layer_factory.hpp:74] Creating layer conv2_p
I0625 09:29:38.260187 1970144000 net.cpp:90] Creating Layer conv2_p
I0625 09:29:38.260195 1970144000 net.cpp:410] conv2_p <- pool1_p
I0625 09:29:38.260205 1970144000 net.cpp:368] conv2_p -> conv2_p
I0625 09:29:38.260216 1970144000 net.cpp:120] Setting up conv2_p
I0625 09:29:38.260905 1970144000 net.cpp:127] Top shape: 100 50 8 8 (320000)
I0625 09:29:38.260918 1970144000 net.cpp:459] Sharing parameters 'conv2_w' owned by layer 'conv2', param index 0
I0625 09:29:38.260926 1970144000 net.cpp:459] Sharing parameters 'conv2_b' owned by layer 'conv2', param index 1
I0625 09:29:38.260931 1970144000 layer_factory.hpp:74] Creating layer pool2_p
I0625 09:29:38.260937 1970144000 net.cpp:90] Creating Layer pool2_p
I0625 09:29:38.260953 1970144000 net.cpp:410] pool2_p <- conv2_p
I0625 09:29:38.260967 1970144000 net.cpp:368] pool2_p -> pool2_p
I0625 09:29:38.260974 1970144000 net.cpp:120] Setting up pool2_p
I0625 09:29:38.261032 1970144000 net.cpp:127] Top shape: 100 50 4 4 (80000)
I0625 09:29:38.261039 1970144000 layer_factory.hpp:74] Creating layer ip1_p
I0625 09:29:38.261093 1970144000 net.cpp:90] Creating Layer ip1_p
I0625 09:29:38.261111 1970144000 net.cpp:410] ip1_p <- pool2_p
I0625 09:29:38.261149 1970144000 net.cpp:368] ip1_p -> ip1_p
I0625 09:29:38.261186 1970144000 net.cpp:120] Setting up ip1_p
I0625 09:29:38.264454 1970144000 net.cpp:127] Top shape: 100 500 (50000)
I0625 09:29:38.264467 1970144000 net.cpp:459] Sharing parameters 'ip1_w' owned by layer 'ip1', param index 0
I0625 09:29:38.264487 1970144000 net.cpp:459] Sharing parameters 'ip1_b' owned by layer 'ip1', param index 1
I0625 09:29:38.264492 1970144000 layer_factory.hpp:74] Creating layer relu1_p
I0625 09:29:38.264504 1970144000 net.cpp:90] Creating Layer relu1_p
I0625 09:29:38.264509 1970144000 net.cpp:410] relu1_p <- ip1_p
I0625 09:29:38.264515 1970144000 net.cpp:357] relu1_p -> ip1_p (in-place)
I0625 09:29:38.264521 1970144000 net.cpp:120] Setting up relu1_p
I0625 09:29:38.264819 1970144000 net.cpp:127] Top shape: 100 500 (50000)
I0625 09:29:38.264832 1970144000 layer_factory.hpp:74] Creating layer ip2_p
I0625 09:29:38.264843 1970144000 net.cpp:90] Creating Layer ip2_p
I0625 09:29:38.264847 1970144000 net.cpp:410] ip2_p <- ip1_p
I0625 09:29:38.264854 1970144000 net.cpp:368] ip2_p -> ip2_p
I0625 09:29:38.264864 1970144000 net.cpp:120] Setting up ip2_p
I0625 09:29:38.264909 1970144000 net.cpp:127] Top shape: 100 10 (1000)
I0625 09:29:38.264916 1970144000 net.cpp:459] Sharing parameters 'ip2_w' owned by layer 'ip2', param index 0
I0625 09:29:38.264921 1970144000 net.cpp:459] Sharing parameters 'ip2_b' owned by layer 'ip2', param index 1
I0625 09:29:38.264931 1970144000 layer_factory.hpp:74] Creating layer feat_p
I0625 09:29:38.264940 1970144000 net.cpp:90] Creating Layer feat_p
I0625 09:29:38.264946 1970144000 net.cpp:410] feat_p <- ip2_p
I0625 09:29:38.264953 1970144000 net.cpp:368] feat_p -> feat_p
I0625 09:29:38.264960 1970144000 net.cpp:120] Setting up feat_p
I0625 09:29:38.264971 1970144000 net.cpp:127] Top shape: 100 2 (200)
I0625 09:29:38.264977 1970144000 net.cpp:459] Sharing parameters 'feat_w' owned by layer 'feat', param index 0
I0625 09:29:38.264982 1970144000 net.cpp:459] Sharing parameters 'feat_b' owned by layer 'feat', param index 1
I0625 09:29:38.264986 1970144000 layer_factory.hpp:74] Creating layer loss
I0625 09:29:38.264992 1970144000 net.cpp:90] Creating Layer loss
I0625 09:29:38.264997 1970144000 net.cpp:410] loss <- feat
…
