…
I0625 11:41:24.920624 1970144000 solver.cpp:70] Creating training net from net file: src/siamese_network_bw/model/siamese_train_validate.prototxt
I0625 11:41:24.920948 1970144000 net.cpp:287] The NetState phase (0) differed from the phase (1) specified by a rule in layer pair_data
I0625 11:41:24.920981 1970144000 net.cpp:42] Initializing net from parameters: 
name: "siamese_train_validate"
state {
  phase: TRAIN
}
layer {
  name: "pair_data"
  type: "Data"
  top: "pair_data"
  top: "sim"
  include {
    phase: TRAIN
  }
  transform_param {
    scale: 0.00390625
  }
  data_param {
    source: "src/siamese_network_bw/data/siamese_network_train_leveldb"
    batch_size: 64
  }
}
layer {
  name: "slice_pair"
  type: "Slice"
  bottom: "pair_data"
  top: "data"
  top: "data_p"
  slice_param {
    slice_dim: 1
    slice_point: 1
  }
}
layer {
  name: "conv1"
  type: "Convolution"
  bottom: "data"
  top: "conv1"
  param {
    name: "conv1_w"
    lr_mult: 1
  }
  param {
    name: "conv1_b"
    lr_mult: 2
  }
  convolution_param {
    num_output: 20
    kernel_size: 5
    stride: 1
    weight_filler {
      type: "xavier"
    }
    bias_filler {
      type: "constant"
    }
  }
}
layer {
  name: "pool1"
  type: "Pooling"
  bottom: "conv1"
  top: "pool1"
  pooling_param {
    pool: MAX
    kernel_size: 2
    stride: 2
  }
}
layer {
  name: "conv2"
  type: "Convolution"
  bottom: "pool1"
  top: "conv2"
  param {
    name: "conv2_w"
    lr_mult: 1
  }
  param {
    name: "conv2_b"
    lr_mult: 2
  }
  convolution_param {
    num_output: 50
    kernel_size: 5
    stride: 1
    weight_filler {
      type: "xavier"
    }
    bias_filler {
      type: "constant"
    }
  }
}
layer {
  name: "pool2"
  type: "Pooling"
  bottom: "conv2"
  top: "pool2"
  pooling_param {
    pool: MAX
    kernel_size: 2
    stride: 2
  }
}
layer {
  name: "ip1"
  type: "InnerProduct"
  bottom: "pool2"
  top: "ip1"
  param {
    name: "ip1_w"
    lr_mult: 1
  }
  param {
    name: "ip1_b"
    lr_mult: 2
  }
  inner_product_param {
    num_output: 500
    weight_filler {
      type: "xavier"
    }
    bias_filler {
      type: "constant"
    }
  }
}
layer {
  name: "relu1"
  type: "ReLU"
  bottom: "ip1"
  top: "ip1"
}
layer {
  name: "ip2"
  type: "InnerProduct"
  bottom: "ip1"
  top: "ip2"
  param {
    name: "ip2_w"
    lr_mult: 1
  }
  param {
    name: "ip2_b"
    lr_mult: 2
  }
  inner_product_param {
    num_output: 10
    weight_filler {
      type: "xavier"
    }
    bias_filler {
      type: "constant"
    }
  }
}
layer {
  name: "feat"
  type: "InnerProduct"
  bottom: "ip2"
  top: "feat"
  param {
    name: "feat_w"
    lr_mult: 1
  }
  param {
    name: "feat_b"
    lr_mult: 2
  }
  inner_product_param {
    num_output: 2
    weight_filler {
      type: "xavier"
    }
    bias_filler {
      type: "constant"
    }
  }
}
layer {
  name: "conv1_p"
  type: "Convolution"
  bottom: "data_p"
  top: "conv1_p"
  param {
    name: "conv1_w"
    lr_mult: 1
  }
  param {
    name: "conv1_b"
    lr_mult: 2
  }
  convolution_param {
    num_output: 20
    kernel_size: 5
    stride: 1
    weight_filler {
      type: "xavier"
    }
    bias_filler {
      type: "constant"
    }
  }
}
layer {
  name: "pool1_p"
  type: "Pooling"
  bottom: "conv1_p"
  top: "pool1_p"
  pooling_param {
    pool: MAX
    kernel_size: 2
    stride: 2
  }
}
layer {
  name: "conv2_p"
  type: "Convolution"
  bottom: "pool1_p"
  top: "conv2_p"
  param {
    name: "conv2_w"
    lr_mult: 1
  }
  param {
    name: "conv2_b"
    lr_mult: 2
  }
  convolution_param {
    num_output: 50
    kernel_size: 5
    stride: 1
    weight_filler {
      type: "xavier"
    }
    bias_filler {
      type: "constant"
    }
  }
}
layer {
  name: "pool2_p"
  type: "Pooling"
  bottom: "conv2_p"
  top: "pool2_p"
  pooling_param {
    pool: MAX
    kernel_size: 2
    stride: 2
  }
}
layer {
  name: "ip1_p"
  type: "InnerProduct"
  bottom: "pool2_p"
  top: "ip1_p"
  param {
    name: "ip1_w"
    lr_mult: 1
  }
  param {
    name: "ip1_b"
    lr_mult: 2
  }
  inner_product_param {
    num_output: 500
    weight_filler {
      type: "xavier"
    }
    bias_filler {
      type: "constant"
    }
  }
}
layer {
  name: "relu1_p"
  type: "ReLU"
  bottom: "ip1_p"
  top: "ip1_p"
}
layer {
  name: "ip2_p"
  type: "InnerProduct"
  bottom: "ip1_p"
  top: "ip2_p"
  param {
    name: "ip2_w"
    lr_mult: 1
  }
  param {
    name: "ip2_b"
    lr_mult: 2
  }
  inner_product_param {
    num_output: 10
    weight_filler {
      type: "xavier"
    }
    bias_filler {
      type: "constant"
    }
  }
}
layer {
  name: "feat_p"
  type: "InnerProduct"
  bottom: "ip2_p"
  top: "feat_p"
  param {
    name: "feat_w"
    lr_mult: 1
  }
  param {
    name: "feat_b"
    lr_mult: 2
  }
  inner_product_param {
    num_output: 2
    weight_filler {
      type: "xavier"
    }
    bias_filler {
      type: "constant"
    }
  }
}
layer {
  name: "loss"
  type: "ContrastiveLoss"
  bottom: "feat"
  bottom: "feat_p"
  bottom: "sim"
  top: "loss"
  contrastive_loss_param {
    margin: 1
  }
}
I0625 11:41:24.921226 1970144000 layer_factory.hpp:74] Creating layer pair_data
I0625 11:41:24.921252 1970144000 net.cpp:90] Creating Layer pair_data
I0625 11:41:24.921258 1970144000 net.cpp:368] pair_data -> pair_data
I0625 11:41:24.921277 1970144000 net.cpp:368] pair_data -> sim
I0625 11:41:24.921285 1970144000 net.cpp:120] Setting up pair_data
I0625 11:41:24.923218 1970144000 db.cpp:20] Opened leveldb src/siamese_network_bw/data/siamese_network_train_leveldb
I0625 11:41:24.923456 1970144000 data_layer.cpp:52] output data size: 64,2,28,28
I0625 11:41:24.923526 1970144000 net.cpp:127] Top shape: 64 2 28 28 (100352)
I0625 11:41:24.923542 1970144000 net.cpp:127] Top shape: 64 (64)
I0625 11:41:24.923547 1970144000 layer_factory.hpp:74] Creating layer slice_pair
I0625 11:41:24.923555 1970144000 net.cpp:90] Creating Layer slice_pair
I0625 11:41:24.923560 1970144000 net.cpp:410] slice_pair <- pair_data
I0625 11:41:24.923566 1970144000 net.cpp:368] slice_pair -> data
I0625 11:41:24.923574 1970144000 net.cpp:368] slice_pair -> data_p
I0625 11:41:24.923580 1970144000 net.cpp:120] Setting up slice_pair
I0625 11:41:24.923588 1970144000 net.cpp:127] Top shape: 64 1 28 28 (50176)
I0625 11:41:24.923593 1970144000 net.cpp:127] Top shape: 64 1 28 28 (50176)
I0625 11:41:24.923599 1970144000 layer_factory.hpp:74] Creating layer conv1
I0625 11:41:24.923605 1970144000 net.cpp:90] Creating Layer conv1
I0625 11:41:24.923609 1970144000 net.cpp:410] conv1 <- data
I0625 11:41:24.923617 1970144000 net.cpp:368] conv1 -> conv1
I0625 11:41:24.923624 1970144000 net.cpp:120] Setting up conv1
I0625 11:41:24.979907 1970144000 net.cpp:127] Top shape: 64 20 24 24 (737280)
I0625 11:41:24.979935 1970144000 layer_factory.hpp:74] Creating layer pool1
I0625 11:41:24.979948 1970144000 net.cpp:90] Creating Layer pool1
I0625 11:41:24.979953 1970144000 net.cpp:410] pool1 <- conv1
I0625 11:41:24.979966 1970144000 net.cpp:368] pool1 -> pool1
I0625 11:41:24.979974 1970144000 net.cpp:120] Setting up pool1
I0625 11:41:24.980160 1970144000 net.cpp:127] Top shape: 64 20 12 12 (184320)
I0625 11:41:24.980192 1970144000 layer_factory.hpp:74] Creating layer conv2
I0625 11:41:24.980216 1970144000 net.cpp:90] Creating Layer conv2
I0625 11:41:24.980224 1970144000 net.cpp:410] conv2 <- pool1
I0625 11:41:24.980236 1970144000 net.cpp:368] conv2 -> conv2
I0625 11:41:24.980248 1970144000 net.cpp:120] Setting up conv2
I0625 11:41:24.980782 1970144000 net.cpp:127] Top shape: 64 50 8 8 (204800)
I0625 11:41:24.980799 1970144000 layer_factory.hpp:74] Creating layer pool2
I0625 11:41:24.980810 1970144000 net.cpp:90] Creating Layer pool2
I0625 11:41:24.980814 1970144000 net.cpp:410] pool2 <- conv2
I0625 11:41:24.980839 1970144000 net.cpp:368] pool2 -> pool2
I0625 11:41:24.980847 1970144000 net.cpp:120] Setting up pool2
I0625 11:41:24.980936 1970144000 net.cpp:127] Top shape: 64 50 4 4 (51200)
I0625 11:41:24.980949 1970144000 layer_factory.hpp:74] Creating layer ip1
I0625 11:41:24.980969 1970144000 net.cpp:90] Creating Layer ip1
I0625 11:41:24.980980 1970144000 net.cpp:410] ip1 <- pool2
I0625 11:41:24.981012 1970144000 net.cpp:368] ip1 -> ip1
I0625 11:41:24.981030 1970144000 net.cpp:120] Setting up ip1
I0625 11:41:24.983901 1970144000 net.cpp:127] Top shape: 64 500 (32000)
I0625 11:41:24.983928 1970144000 layer_factory.hpp:74] Creating layer relu1
I0625 11:41:24.983940 1970144000 net.cpp:90] Creating Layer relu1
I0625 11:41:24.983944 1970144000 net.cpp:410] relu1 <- ip1
I0625 11:41:24.983950 1970144000 net.cpp:357] relu1 -> ip1 (in-place)
I0625 11:41:24.983961 1970144000 net.cpp:120] Setting up relu1
I0625 11:41:24.984025 1970144000 net.cpp:127] Top shape: 64 500 (32000)
I0625 11:41:24.984031 1970144000 layer_factory.hpp:74] Creating layer ip2
I0625 11:41:24.984041 1970144000 net.cpp:90] Creating Layer ip2
I0625 11:41:24.984046 1970144000 net.cpp:410] ip2 <- ip1
I0625 11:41:24.984056 1970144000 net.cpp:368] ip2 -> ip2
I0625 11:41:24.984063 1970144000 net.cpp:120] Setting up ip2
I0625 11:41:24.984114 1970144000 net.cpp:127] Top shape: 64 10 (640)
I0625 11:41:24.984122 1970144000 layer_factory.hpp:74] Creating layer feat
I0625 11:41:24.984128 1970144000 net.cpp:90] Creating Layer feat
I0625 11:41:24.984133 1970144000 net.cpp:410] feat <- ip2
I0625 11:41:24.984138 1970144000 net.cpp:368] feat -> feat
I0625 11:41:24.984145 1970144000 net.cpp:120] Setting up feat
I0625 11:41:24.984153 1970144000 net.cpp:127] Top shape: 64 2 (128)
I0625 11:41:24.984159 1970144000 layer_factory.hpp:74] Creating layer conv1_p
I0625 11:41:24.984168 1970144000 net.cpp:90] Creating Layer conv1_p
I0625 11:41:24.984171 1970144000 net.cpp:410] conv1_p <- data_p
I0625 11:41:24.984176 1970144000 net.cpp:368] conv1_p -> conv1_p
I0625 11:41:24.984182 1970144000 net.cpp:120] Setting up conv1_p
I0625 11:41:24.984400 1970144000 net.cpp:127] Top shape: 64 20 24 24 (737280)
I0625 11:41:24.984411 1970144000 net.cpp:459] Sharing parameters 'conv1_w' owned by layer 'conv1', param index 0
I0625 11:41:24.984422 1970144000 net.cpp:459] Sharing parameters 'conv1_b' owned by layer 'conv1', param index 1
I0625 11:41:24.984427 1970144000 layer_factory.hpp:74] Creating layer pool1_p
I0625 11:41:24.984434 1970144000 net.cpp:90] Creating Layer pool1_p
I0625 11:41:24.984438 1970144000 net.cpp:410] pool1_p <- conv1_p
I0625 11:41:24.984444 1970144000 net.cpp:368] pool1_p -> pool1_p
I0625 11:41:24.984452 1970144000 net.cpp:120] Setting up pool1_p
I0625 11:41:24.984542 1970144000 net.cpp:127] Top shape: 64 20 12 12 (184320)
I0625 11:41:24.984551 1970144000 layer_factory.hpp:74] Creating layer conv2_p
I0625 11:41:24.984558 1970144000 net.cpp:90] Creating Layer conv2_p
I0625 11:41:24.984562 1970144000 net.cpp:410] conv2_p <- pool1_p
I0625 11:41:24.984570 1970144000 net.cpp:368] conv2_p -> conv2_p
I0625 11:41:24.984576 1970144000 net.cpp:120] Setting up conv2_p
I0625 11:41:24.984966 1970144000 net.cpp:127] Top shape: 64 50 8 8 (204800)
I0625 11:41:24.984977 1970144000 net.cpp:459] Sharing parameters 'conv2_w' owned by layer 'conv2', param index 0
I0625 11:41:24.984982 1970144000 net.cpp:459] Sharing parameters 'conv2_b' owned by layer 'conv2', param index 1
I0625 11:41:24.984987 1970144000 layer_factory.hpp:74] Creating layer pool2_p
I0625 11:41:24.984992 1970144000 net.cpp:90] Creating Layer pool2_p
I0625 11:41:24.985018 1970144000 net.cpp:410] pool2_p <- conv2_p
I0625 11:41:24.985036 1970144000 net.cpp:368] pool2_p -> pool2_p
I0625 11:41:24.985044 1970144000 net.cpp:120] Setting up pool2_p
I0625 11:41:24.985134 1970144000 net.cpp:127] Top shape: 64 50 4 4 (51200)
I0625 11:41:24.985157 1970144000 layer_factory.hpp:74] Creating layer ip1_p
I0625 11:41:24.985172 1970144000 net.cpp:90] Creating Layer ip1_p
I0625 11:41:24.985196 1970144000 net.cpp:410] ip1_p <- pool2_p
I0625 11:41:24.985210 1970144000 net.cpp:368] ip1_p -> ip1_p
I0625 11:41:24.985242 1970144000 net.cpp:120] Setting up ip1_p
I0625 11:41:24.988292 1970144000 net.cpp:127] Top shape: 64 500 (32000)
I0625 11:41:24.988308 1970144000 net.cpp:459] Sharing parameters 'ip1_w' owned by layer 'ip1', param index 0
I0625 11:41:24.988327 1970144000 net.cpp:459] Sharing parameters 'ip1_b' owned by layer 'ip1', param index 1
I0625 11:41:24.988332 1970144000 layer_factory.hpp:74] Creating layer relu1_p
I0625 11:41:24.988339 1970144000 net.cpp:90] Creating Layer relu1_p
I0625 11:41:24.988343 1970144000 net.cpp:410] relu1_p <- ip1_p
I0625 11:41:24.988348 1970144000 net.cpp:357] relu1_p -> ip1_p (in-place)
I0625 11:41:24.988354 1970144000 net.cpp:120] Setting up relu1_p
I0625 11:41:24.988412 1970144000 net.cpp:127] Top shape: 64 500 (32000)
I0625 11:41:24.988420 1970144000 layer_factory.hpp:74] Creating layer ip2_p
I0625 11:41:24.988433 1970144000 net.cpp:90] Creating Layer ip2_p
I0625 11:41:24.988438 1970144000 net.cpp:410] ip2_p <- ip1_p
I0625 11:41:24.988445 1970144000 net.cpp:368] ip2_p -> ip2_p
I0625 11:41:24.988452 1970144000 net.cpp:120] Setting up ip2_p
I0625 11:41:24.988541 1970144000 net.cpp:127] Top shape: 64 10 (640)
I0625 11:41:24.988558 1970144000 net.cpp:459] Sharing parameters 'ip2_w' owned by layer 'ip2', param index 0
I0625 11:41:24.988577 1970144000 net.cpp:459] Sharing parameters 'ip2_b' owned by layer 'ip2', param index 1
I0625 11:41:24.988587 1970144000 layer_factory.hpp:74] Creating layer feat_p
I0625 11:41:24.988595 1970144000 net.cpp:90] Creating Layer feat_p
I0625 11:41:24.988600 1970144000 net.cpp:410] feat_p <- ip2_p
I0625 11:41:24.988608 1970144000 net.cpp:368] feat_p -> feat_p
I0625 11:41:24.988615 1970144000 net.cpp:120] Setting up feat_p
I0625 11:41:24.988643 1970144000 net.cpp:127] Top shape: 64 2 (128)
I0625 11:41:24.988651 1970144000 net.cpp:459] Sharing parameters 'feat_w' owned by layer 'feat', param index 0
I0625 11:41:24.988657 1970144000 net.cpp:459] Sharing parameters 'feat_b' owned by layer 'feat', param index 1
I0625 11:41:24.988665 1970144000 layer_factory.hpp:74] Creating layer loss
I0625 11:41:24.988678 1970144000 net.cpp:90] Creating Layer loss
I0625 11:41:24.988683 1970144000 net.cpp:410] loss <- feat
…
I0625 11:41:24.989498 1970144000 solver.cpp:154] Creating test net (#0) specified by net file: src/siamese_network_bw/model/siamese_train_validate.prototxt
I0625 11:41:24.989550 1970144000 net.cpp:287] The NetState phase (1) differed from the phase (0) specified by a rule in layer pair_data
I0625 11:41:24.989569 1970144000 net.cpp:42] Initializing net from parameters: 
name: "siamese_train_validate"
state {
  phase: TEST
}
layer {
  name: "pair_data"
  type: "Data"
  top: "pair_data"
  top: "sim"
  include {
    phase: TEST
  }
  transform_param {
    scale: 0.00390625
  }
  data_param {
    source: "src/siamese_network_bw/data/siamese_network_validation_leveldb"
    batch_size: 100
  }
}
layer {
  name: "slice_pair"
  type: "Slice"
  bottom: "pair_data"
  top: "data"
  top: "data_p"
  slice_param {
    slice_dim: 1
    slice_point: 1
  }
}
layer {
  name: "conv1"
  type: "Convolution"
  bottom: "data"
  top: "conv1"
  param {
    name: "conv1_w"
    lr_mult: 1
  }
  param {
    name: "conv1_b"
    lr_mult: 2
  }
  convolution_param {
    num_output: 20
    kernel_size: 5
    stride: 1
    weight_filler {
      type: "xavier"
    }
    bias_filler {
      type: "constant"
    }
  }
}
layer {
  name: "pool1"
  type: "Pooling"
  bottom: "conv1"
  top: "pool1"
  pooling_param {
    pool: MAX
    kernel_size: 2
    stride: 2
  }
}
layer {
  name: "conv2"
  type: "Convolution"
  bottom: "pool1"
  top: "conv2"
  param {
    name: "conv2_w"
    lr_mult: 1
  }
  param {
    name: "conv2_b"
    lr_mult: 2
  }
  convolution_param {
    num_output: 50
    kernel_size: 5
    stride: 1
    weight_filler {
      type: "xavier"
    }
    bias_filler {
      type: "constant"
    }
  }
}
layer {
  name: "pool2"
  type: "Pooling"
  bottom: "conv2"
  top: "pool2"
  pooling_param {
    pool: MAX
    kernel_size: 2
    stride: 2
  }
}
layer {
  name: "ip1"
  type: "InnerProduct"
  bottom: "pool2"
  top: "ip1"
  param {
    name: "ip1_w"
    lr_mult: 1
  }
  param {
    name: "ip1_b"
    lr_mult: 2
  }
  inner_product_param {
    num_output: 500
    weight_filler {
      type: "xavier"
    }
    bias_filler {
      type: "constant"
    }
  }
}
layer {
  name: "relu1"
  type: "ReLU"
  bottom: "ip1"
  top: "ip1"
}
layer {
  name: "ip2"
  type: "InnerProduct"
  bottom: "ip1"
  top: "ip2"
  param {
    name: "ip2_w"
    lr_mult: 1
  }
  param {
    name: "ip2_b"
    lr_mult: 2
  }
  inner_product_param {
    num_output: 10
    weight_filler {
      type: "xavier"
    }
    bias_filler {
      type: "constant"
    }
  }
}
layer {
  name: "feat"
  type: "InnerProduct"
  bottom: "ip2"
  top: "feat"
  param {
    name: "feat_w"
    lr_mult: 1
  }
  param {
    name: "feat_b"
    lr_mult: 2
  }
  inner_product_param {
    num_output: 2
    weight_filler {
      type: "xavier"
    }
    bias_filler {
      type: "constant"
    }
  }
}
layer {
  name: "conv1_p"
  type: "Convolution"
  bottom: "data_p"
  top: "conv1_p"
  param {
    name: "conv1_w"
    lr_mult: 1
  }
  param {
    name: "conv1_b"
    lr_mult: 2
  }
  convolution_param {
    num_output: 20
    kernel_size: 5
    stride: 1
    weight_filler {
      type: "xavier"
    }
    bias_filler {
      type: "constant"
    }
  }
}
layer {
  name: "pool1_p"
  type: "Pooling"
  bottom: "conv1_p"
  top: "pool1_p"
  pooling_param {
    pool: MAX
    kernel_size: 2
    stride: 2
  }
}
layer {
  name: "conv2_p"
  type: "Convolution"
  bottom: "pool1_p"
  top: "conv2_p"
  param {
    name: "conv2_w"
    lr_mult: 1
  }
  param {
    name: "conv2_b"
    lr_mult: 2
  }
  convolution_param {
    num_output: 50
    kernel_size: 5
    stride: 1
    weight_filler {
      type: "xavier"
    }
    bias_filler {
      type: "constant"
    }
  }
}
layer {
  name: "pool2_p"
  type: "Pooling"
  bottom: "conv2_p"
  top: "pool2_p"
  pooling_param {
    pool: MAX
    kernel_size: 2
    stride: 2
  }
}
layer {
  name: "ip1_p"
  type: "InnerProduct"
  bottom: "pool2_p"
  top: "ip1_p"
  param {
    name: "ip1_w"
    lr_mult: 1
  }
  param {
    name: "ip1_b"
    lr_mult: 2
  }
  inner_product_param {
    num_output: 500
    weight_filler {
      type: "xavier"
    }
    bias_filler {
      type: "constant"
    }
  }
}
layer {
  name: "relu1_p"
  type: "ReLU"
  bottom: "ip1_p"
  top: "ip1_p"
}
layer {
  name: "ip2_p"
  type: "InnerProduct"
  bottom: "ip1_p"
  top: "ip2_p"
  param {
    name: "ip2_w"
    lr_mult: 1
  }
  param {
    name: "ip2_b"
    lr_mult: 2
  }
  inner_product_param {
    num_output: 10
    weight_filler {
      type: "xavier"
    }
    bias_filler {
      type: "constant"
    }
  }
}
layer {
  name: "feat_p"
  type: "InnerProduct"
  bottom: "ip2_p"
  top: "feat_p"
  param {
    name: "feat_w"
    lr_mult: 1
  }
  param {
    name: "feat_b"
    lr_mult: 2
  }
  inner_product_param {
    num_output: 2
    weight_filler {
      type: "xavier"
    }
    bias_filler {
      type: "constant"
    }
  }
}
layer {
  name: "loss"
  type: "ContrastiveLoss"
  bottom: "feat"
  bottom: "feat_p"
  bottom: "sim"
  top: "loss"
  contrastive_loss_param {
    margin: 1
  }
}
I0625 11:41:24.989794 1970144000 layer_factory.hpp:74] Creating layer pair_data
I0625 11:41:24.989804 1970144000 net.cpp:90] Creating Layer pair_data
I0625 11:41:24.989809 1970144000 net.cpp:368] pair_data -> pair_data
I0625 11:41:24.989819 1970144000 net.cpp:368] pair_data -> sim
I0625 11:41:24.989825 1970144000 net.cpp:120] Setting up pair_data
I0625 11:41:24.991181 1970144000 db.cpp:20] Opened leveldb src/siamese_network_bw/data/siamese_network_validation_leveldb
I0625 11:41:24.991420 1970144000 data_layer.cpp:52] output data size: 100,2,28,28
I0625 11:41:24.991721 1970144000 net.cpp:127] Top shape: 100 2 28 28 (156800)
I0625 11:41:24.991734 1970144000 net.cpp:127] Top shape: 100 (100)
I0625 11:41:24.991744 1970144000 layer_factory.hpp:74] Creating layer slice_pair
I0625 11:41:24.991755 1970144000 net.cpp:90] Creating Layer slice_pair
I0625 11:41:24.991763 1970144000 net.cpp:410] slice_pair <- pair_data
I0625 11:41:24.991772 1970144000 net.cpp:368] slice_pair -> data
I0625 11:41:24.991786 1970144000 net.cpp:368] slice_pair -> data_p
I0625 11:41:24.991817 1970144000 net.cpp:120] Setting up slice_pair
I0625 11:41:24.991840 1970144000 net.cpp:127] Top shape: 100 1 28 28 (78400)
I0625 11:41:24.991849 1970144000 net.cpp:127] Top shape: 100 1 28 28 (78400)
I0625 11:41:24.991858 1970144000 layer_factory.hpp:74] Creating layer conv1
I0625 11:41:24.991871 1970144000 net.cpp:90] Creating Layer conv1
I0625 11:41:24.991889 1970144000 net.cpp:410] conv1 <- data
I0625 11:41:24.991909 1970144000 net.cpp:368] conv1 -> conv1
I0625 11:41:24.991926 1970144000 net.cpp:120] Setting up conv1
I0625 11:41:24.992317 1970144000 net.cpp:127] Top shape: 100 20 24 24 (1152000)
I0625 11:41:24.992331 1970144000 layer_factory.hpp:74] Creating layer pool1
I0625 11:41:24.992338 1970144000 net.cpp:90] Creating Layer pool1
I0625 11:41:24.992342 1970144000 net.cpp:410] pool1 <- conv1
I0625 11:41:24.992350 1970144000 net.cpp:368] pool1 -> pool1
I0625 11:41:24.992357 1970144000 net.cpp:120] Setting up pool1
I0625 11:41:24.992403 1970144000 net.cpp:127] Top shape: 100 20 12 12 (288000)
I0625 11:41:24.992409 1970144000 layer_factory.hpp:74] Creating layer conv2
I0625 11:41:24.992416 1970144000 net.cpp:90] Creating Layer conv2
I0625 11:41:24.992420 1970144000 net.cpp:410] conv2 <- pool1
I0625 11:41:24.992427 1970144000 net.cpp:368] conv2 -> conv2
I0625 11:41:24.992434 1970144000 net.cpp:120] Setting up conv2
I0625 11:41:24.992877 1970144000 net.cpp:127] Top shape: 100 50 8 8 (320000)
I0625 11:41:24.992889 1970144000 layer_factory.hpp:74] Creating layer pool2
I0625 11:41:24.992895 1970144000 net.cpp:90] Creating Layer pool2
I0625 11:41:24.992900 1970144000 net.cpp:410] pool2 <- conv2
I0625 11:41:24.992905 1970144000 net.cpp:368] pool2 -> pool2
I0625 11:41:24.992929 1970144000 net.cpp:120] Setting up pool2
I0625 11:41:24.993028 1970144000 net.cpp:127] Top shape: 100 50 4 4 (80000)
I0625 11:41:24.993037 1970144000 layer_factory.hpp:74] Creating layer ip1
I0625 11:41:24.993044 1970144000 net.cpp:90] Creating Layer ip1
I0625 11:41:24.993049 1970144000 net.cpp:410] ip1 <- pool2
I0625 11:41:24.993057 1970144000 net.cpp:368] ip1 -> ip1
I0625 11:41:24.993065 1970144000 net.cpp:120] Setting up ip1
I0625 11:41:24.995754 1970144000 net.cpp:127] Top shape: 100 500 (50000)
I0625 11:41:24.995769 1970144000 layer_factory.hpp:74] Creating layer relu1
I0625 11:41:24.995775 1970144000 net.cpp:90] Creating Layer relu1
I0625 11:41:24.995779 1970144000 net.cpp:410] relu1 <- ip1
I0625 11:41:24.995813 1970144000 net.cpp:357] relu1 -> ip1 (in-place)
I0625 11:41:24.995827 1970144000 net.cpp:120] Setting up relu1
I0625 11:41:24.995954 1970144000 net.cpp:127] Top shape: 100 500 (50000)
I0625 11:41:24.995964 1970144000 layer_factory.hpp:74] Creating layer ip2
I0625 11:41:24.995971 1970144000 net.cpp:90] Creating Layer ip2
I0625 11:41:24.995976 1970144000 net.cpp:410] ip2 <- ip1
I0625 11:41:24.995983 1970144000 net.cpp:368] ip2 -> ip2
I0625 11:41:24.995991 1970144000 net.cpp:120] Setting up ip2
I0625 11:41:24.996069 1970144000 net.cpp:127] Top shape: 100 10 (1000)
I0625 11:41:24.996093 1970144000 layer_factory.hpp:74] Creating layer feat
I0625 11:41:24.996109 1970144000 net.cpp:90] Creating Layer feat
I0625 11:41:24.996114 1970144000 net.cpp:410] feat <- ip2
I0625 11:41:24.996119 1970144000 net.cpp:368] feat -> feat
I0625 11:41:24.996126 1970144000 net.cpp:120] Setting up feat
I0625 11:41:24.996140 1970144000 net.cpp:127] Top shape: 100 2 (200)
I0625 11:41:24.996161 1970144000 layer_factory.hpp:74] Creating layer conv1_p
I0625 11:41:24.996209 1970144000 net.cpp:90] Creating Layer conv1_p
I0625 11:41:24.996217 1970144000 net.cpp:410] conv1_p <- data_p
I0625 11:41:24.996224 1970144000 net.cpp:368] conv1_p -> conv1_p
I0625 11:41:24.996232 1970144000 net.cpp:120] Setting up conv1_p
I0625 11:41:24.996476 1970144000 net.cpp:127] Top shape: 100 20 24 24 (1152000)
I0625 11:41:24.996487 1970144000 net.cpp:459] Sharing parameters 'conv1_w' owned by layer 'conv1', param index 0
I0625 11:41:24.996493 1970144000 net.cpp:459] Sharing parameters 'conv1_b' owned by layer 'conv1', param index 1
I0625 11:41:24.996534 1970144000 layer_factory.hpp:74] Creating layer pool1_p
I0625 11:41:24.996546 1970144000 net.cpp:90] Creating Layer pool1_p
I0625 11:41:24.996551 1970144000 net.cpp:410] pool1_p <- conv1_p
I0625 11:41:24.996557 1970144000 net.cpp:368] pool1_p -> pool1_p
I0625 11:41:24.996564 1970144000 net.cpp:120] Setting up pool1_p
I0625 11:41:24.996619 1970144000 net.cpp:127] Top shape: 100 20 12 12 (288000)
I0625 11:41:24.996628 1970144000 layer_factory.hpp:74] Creating layer conv2_p
I0625 11:41:24.996634 1970144000 net.cpp:90] Creating Layer conv2_p
I0625 11:41:24.996639 1970144000 net.cpp:410] conv2_p <- pool1_p
I0625 11:41:24.996650 1970144000 net.cpp:368] conv2_p -> conv2_p
I0625 11:41:24.996659 1970144000 net.cpp:120] Setting up conv2_p
I0625 11:41:24.997223 1970144000 net.cpp:127] Top shape: 100 50 8 8 (320000)
I0625 11:41:24.997238 1970144000 net.cpp:459] Sharing parameters 'conv2_w' owned by layer 'conv2', param index 0
I0625 11:41:24.997246 1970144000 net.cpp:459] Sharing parameters 'conv2_b' owned by layer 'conv2', param index 1
I0625 11:41:24.997251 1970144000 layer_factory.hpp:74] Creating layer pool2_p
I0625 11:41:24.997262 1970144000 net.cpp:90] Creating Layer pool2_p
I0625 11:41:24.997270 1970144000 net.cpp:410] pool2_p <- conv2_p
I0625 11:41:24.997280 1970144000 net.cpp:368] pool2_p -> pool2_p
I0625 11:41:24.997292 1970144000 net.cpp:120] Setting up pool2_p
I0625 11:41:24.997385 1970144000 net.cpp:127] Top shape: 100 50 4 4 (80000)
I0625 11:41:24.997405 1970144000 layer_factory.hpp:74] Creating layer ip1_p
I0625 11:41:24.997423 1970144000 net.cpp:90] Creating Layer ip1_p
I0625 11:41:24.997445 1970144000 net.cpp:410] ip1_p <- pool2_p
I0625 11:41:24.997484 1970144000 net.cpp:368] ip1_p -> ip1_p
I0625 11:41:24.997537 1970144000 net.cpp:120] Setting up ip1_p
I0625 11:41:25.000567 1970144000 net.cpp:127] Top shape: 100 500 (50000)
I0625 11:41:25.000588 1970144000 net.cpp:459] Sharing parameters 'ip1_w' owned by layer 'ip1', param index 0
I0625 11:41:25.000603 1970144000 net.cpp:459] Sharing parameters 'ip1_b' owned by layer 'ip1', param index 1
I0625 11:41:25.000612 1970144000 layer_factory.hpp:74] Creating layer relu1_p
I0625 11:41:25.000624 1970144000 net.cpp:90] Creating Layer relu1_p
I0625 11:41:25.000630 1970144000 net.cpp:410] relu1_p <- ip1_p
I0625 11:41:25.000640 1970144000 net.cpp:357] relu1_p -> ip1_p (in-place)
I0625 11:41:25.000650 1970144000 net.cpp:120] Setting up relu1_p
I0625 11:41:25.000829 1970144000 net.cpp:127] Top shape: 100 500 (50000)
I0625 11:41:25.000844 1970144000 layer_factory.hpp:74] Creating layer ip2_p
I0625 11:41:25.000869 1970144000 net.cpp:90] Creating Layer ip2_p
I0625 11:41:25.000877 1970144000 net.cpp:410] ip2_p <- ip1_p
I0625 11:41:25.000891 1970144000 net.cpp:368] ip2_p -> ip2_p
I0625 11:41:25.000906 1970144000 net.cpp:120] Setting up ip2_p
I0625 11:41:25.000962 1970144000 net.cpp:127] Top shape: 100 10 (1000)
I0625 11:41:25.000972 1970144000 net.cpp:459] Sharing parameters 'ip2_w' owned by layer 'ip2', param index 0
I0625 11:41:25.000980 1970144000 net.cpp:459] Sharing parameters 'ip2_b' owned by layer 'ip2', param index 1
I0625 11:41:25.000988 1970144000 layer_factory.hpp:74] Creating layer feat_p
I0625 11:41:25.001003 1970144000 net.cpp:90] Creating Layer feat_p
I0625 11:41:25.001008 1970144000 net.cpp:410] feat_p <- ip2_p
I0625 11:41:25.001034 1970144000 net.cpp:368] feat_p -> feat_p
I0625 11:41:25.001050 1970144000 net.cpp:120] Setting up feat_p
I0625 11:41:25.001086 1970144000 net.cpp:127] Top shape: 100 2 (200)
I0625 11:41:25.001103 1970144000 net.cpp:459] Sharing parameters 'feat_w' owned by layer 'feat', param index 0
I0625 11:41:25.001113 1970144000 net.cpp:459] Sharing parameters 'feat_b' owned by layer 'feat', param index 1
I0625 11:41:25.001144 1970144000 layer_factory.hpp:74] Creating layer loss
I0625 11:41:25.001159 1970144000 net.cpp:90] Creating Layer loss
I0625 11:41:25.001166 1970144000 net.cpp:410] loss <- feat
…
